10 MNIST_CNN/MNIST.pt (torch, 499676 bytes, 10 tensors)

weight f4 [16, 1, 5, 5]
00000000: 4e02 553c 30cd 4ebe 57df 6ebe dc17 263e
00000010: 5feb 193e 2967 2fbe a920 95be 6a59 5dbe
00000020: 5f17 26be 66ca 743e 870d ebbd 5d9a fd3d
00000030: 9b07 79bb 1fce 823e a98c b0bc b82b bc3d
00000040: 4012 d43d 10b3 883e ddb1 413e 8096 01bc
00000050: 9630 97bd 3a6f e6bc cd2d 5a3e 43bd 3e3e
00000060: 568b 413e 43d4 3b3c a8db 36bd 3ca1 f33d
00000070: a85e 1b3c 639c 8abb 16b9 d0bc 594b 54bd
00000080: 3eda 9b3d 5087 5abe 5af6 03bc 276f c03d
00000090: 4c6f cebd 032c 1b3d 4b6e 763c c42d 26be
000000a0: 0b96 b0bd afb1 533e 1450 773e 976e 56be
000000b0: 4e36 b8bc 3bbf 1b3e 2229 583e 5945 8c3d
000000c0: 5b92 053e abc3 47be 01b9 7d3e a15b 583e
000000d0: 8b95 943d 7be9 5f3d a8c3 09bc 1be0 de3c
000000e0: e78f 253e ecbc 0a3d d0b5 25be 9be8 b6bd
000000f0: 7fd7 81bd 6f6e 533e 532b 84be 7124 b8be
00000100: f78a 203e 4205 f9bc c355 99bc bf0e 0cbf
00000110: 1f62 38be 1bb2 0a3e b1bb 30be 361e d1be
00000120: 3c0e 65be c796 913e 80c0 83bd f016 bcbd
00000130: 883b 60be d4c6 8dbd fa0d 90bd 2d03 db3c
00000140: 4b61 02be f22d 6abd f439 3a3e 00f9 e2bd
00000150: ad56 de3c abe7 66bd 9219 c23c bae0 423e
00000160: fa95 06be 18e3 7fbe 9c05 b7bd ae1a 223e
00000170: c3a6 fabd 5981 15be 2e06 69bd ebdc 803e
00000180: 757d 553e c507 113e e77d 6bbd 8565 47be
00000190: 88e5 1c3e f656 0c3d 14fc ce3d 71c7 8dbc
000001a0: 135d 83bd 3e44 e7bb 3a40 743d 1bc8 483e
000001b0: f79a 9c3d 5e76 893c 9217 c13c ecf4 99bd
000001c0: 31bf 2cbe c79b 10bd 2e30 373c 9631 b1be
000001d0: 45cf abbd 5616 bfbd fbbc b8bd d0e0 713d
000001e0: 29ae 91be f7ea 9fbe f111 ffbc 1a50 30be
000001f0: ea68 d7bc 61e6 053d e73a 6dbd 2593 8dbe
00000200: 241a 74be ae55 f33d a8b7 043e c3f3 ddbd
00000210: a2a3 3dbb 7c99 d73b 61ea 2cbe a81f 2a3e
00000220: 728a 923e 3006 033e 515f 983d 7202 ae3c
00000230: 7601 3fbd ad7f eb3d 792d 7b3e e4c3 cfbc
00000240: 0bb4 1d39 4349 5ebe fb09 74be e395 07be
00000250: 55b8 a03d 67ca 3f3b f165 58be 54fc 50bc
00000260: 6f2a ef3c 1a28 1ebe 9e0d 5abd 7c98 03be
00000270: c3a9 e83d 76a9 6e3d 15f8 71bd 6e13 56be
00000280: 6988 db3d 4369 ecbd ad22 b03d 790e 423d
00000290: f7e8 26bd d882 953d a5ca dc3d 8fe0 6fbe
000002a0: db4e 90ba 2b4a 143e 9b10 033e 7559 483d
000002b0: 580d 78be ff3d d13d c419 0ebe 2435 49be
000002c0: e968 383e f871 dcbd 6905 76bc 9608 cbbd
000002d0: 6a70 9bbd f824 343d 44ef 05be f418 6cbe
000002e0: 8ce8 c4bb b4ef 373d 59a3 843d 8aac 383e
000002f0: 0d76 793d 7ad8 213e 4947 113d 6da3 88bd
00000300: 667d d2bd 01ce 823e 9319 043e 7482 183c
00000310: d563 3b3e cc8b 85bc 2718 02bd 6f76 573d
00000320: 9057 c43d e300 f8bb 79d5 133c 4af0 0bbe
00000330: 0977 253e d96a 87bd 057d adbd 01ec 9bbe
00000340: 5095 4fbe 6359 97bd a6ed 273e 0717 5bba
00000350: fa5e 58be a1d8 f73c 7977 443d 51f0 483e
00000360: 566e 273d 42d9 b83c de50 003e 1ea3 433d
00000370: 1bef 6d3d 4035 d73d 30ac 893e 7d33 9b3d
00000380: f5e7 53be b453 14bd 52cc 57be b5ca e2bd
00000390: 4ec3 753e 74e0 013e 80bb 29be 9cd1 88bd
000003a0: 7ce5 c8bd 00bf 9bbb 4991 b53d f461 5bbe
000003b0: d830 13be f068 2ebd 4914 5b3e 28ed 0bbe
000003c0: c2b3 ccbd b8fd 0ebe e601 38be 8afa 443e
000003d0: a8e5 b2bd 362e 53be 302f 11be b3d3 bc3d
000003e0: 3d2e 86bb e58c 113e 5e0b e43d d51f 12be
000003f0: e149 04be e5c7 acbd f1ef 1abe 5a5b bdbd
0.013001038 -0.2019546 -0.23327385 0.16220039 0.15031193 -0.17129196 -0.2912648 -0.2161614
-0.16219853 0.23905334 -0.114771895 0.12382958 -0.0037998918 0.25547883 -0.021551447 0.09188026
0.103550434 0.26699114 0.18915506 -0.007909417 -0.07382314 -0.028129209 0.21306534 0.18626885
0.18900809 0.011464181 -0.044643074 0.118959874 0.009483017 -0.0042300685 -0.02547888 -0.05182967
0.07609986 -0.2134068 -0.00805434 0.093962006 -0.10079822 0.03788377 0.015040944 -0.16228396
-0.086223684 0.2067325 0.24151641 -0.20940624 -0.022486832 0.15209667 0.21109441 0.068491645
0.13044111 -0.19508235 0.24777605 0.21128704 0.072550856 0.054666024 -0.0084084645 0.027206471
0.16168176 0.033871576 -0.16182637 -0.08931085 -0.06339931 0.20647596 -0.25814304 -0.35965303
0.15678011 -0.030398015 -0.018717652 -0.5471 -0.1800618 0.13544504 -0.17259099 -0.40843362
-0.22368711 0.28435346 -0.06433201 -0.091840625 -0.2189771 -0.06922689 -0.07033916 0.026734913
-0.12732427 -0.057172723 0.1818617 -0.11082649 0.02714094 -0.05637328 0.023693834 0.19031039
-0.13143149 -0.24988973 -0.08936617 0.1583049 -0.122388385 -0.14600123 -0.05689066 0.25168547
0.2084864 0.1416312 -0.057493117 -0.1947232 0.15321934 0.03426262 0.10106674 -0.017307015
-0.06414237 -0.0070576956 0.059631564 0.19607584 0.07646745 0.016780075 0.02357081 -0.07517418
-0.16869809 -0.03530481 0.0111809205 -0.34608144 -0.08389143 -0.09330432 -0.0902042 0.05905229
-0.28453186 -0.3123395 -0.031136485 -0.17218056 -0.026295144 0.03269041 -0.0579175 -0.27651325
-0.23838097 0.118815765 0.12960684 -0.108375095 -0.0028936644 0.006579576 -0.16886283 0.16613638
0.2862125 0.12795329 0.07440055 0.0212414 -0.046632253 0.114989616 0.24529065 -0.025361963
0.00015039758 -0.21707635 -0.23831932 -0.13240771 0.078476585 0.0029264928 -0.21132638 -0.012755472
0.029195039 -0.15444985 -0.053235643 -0.12851137 0.113605045 0.05826708 -0.05907448 -0.2090585
0.107193775 -0.115435146 0.08600364 0.047377083 -0.040749516 0.07300347 0.10780839 -0.23425506
-0.0011009829 0.14481418 0.12799303 0.048913438 -0.2422384 0.10216903 -0.13877016 -0.19649178
0.1800877 -0.10763925 -0.015015938 -0.09913747 -0.07589801 0.04398057 -0.13079554 -0.23056394
-0.006009167 0.044906333 0.064764686 0.18034568 0.060903598 0.15805236 0.035468373 -0.06671796
-0.10277824 0.25547794 0.12900381 0.009308446 0.18299802 -0.016302012 -0.031761315 0.05260318
0.09587014 -0.007568465 0.009023064 -0.13665882 0.1615869 -0.066121764 -0.08471111 -0.30453494
-0.20271802 -0.07390096 0.1639925 -0.00083576184 -0.2112998 0.030254664 0.0479655 0.19622923
0.04087671 0.022564534 0.12530848 0.047762983 0.058089357 0.105082035 0.2688918 0.0757818
-0.20693953 -0.036212638 -0.21074036 -0.110738195 0.24000284 0.12683278 -0.16575432 -0.06680605
-0.09809396 -0.0047529936 0.088656016 -0.21424085 -0.14374101 -0.042580545 0.21394457 -0.13664687
-0.099952236 -0.13963974 -0.17969474 0.19236198 -0.0873521 -0.20623097 -0.14178157 0.09220066
-0.0040948675 0.14213903 0.111349806 -0.14269955 -0.12918808 -0.08436564 -0.15130593 -0.092459396

bias f4 [16]
00000000: 0145 16be 1858 49bc 496c db3c b611 293e
00000010: 060c 1c3e 5576 35bd a51c f33d e738 e6bb
00000020: 9b1e 11bd 7094 dd3d 8ca5 fc3d a1f0 fe3d
00000030: d4fd 95ba 3f1a 933d 4573 d9bc 3645 a1bc
-0.1467476 -0.01228907 0.026785033 0.16510662 0.15238962 -0.044302303 0.11870698 -0.0070258263
-0.03542958 0.10819328 0.12336263 0.1244824 -0.0011443445 0.071827404 -0.026544223 -0.019686323

weight f4 [32, 16, 5, 5]
00000000: eab3 033d fdad 82ba abe5 febb 1f11 8c3b
00000010: f119 3bbd 1cc8 ba3c 599a c5bc cdd1 4e3c
00000020: 8684 5abd a9aa ef3c 1a5e a83c 5d7c 61bc
00000030: 134d 933c c447 4bbd 7c5c 35bd 9289 6f3c
00000040: 68d4 9c3b e6ae 743d 563b b9bc 81ee 02be
00000050: 3692 3c3c 56de d33c 624e 81bd 7a06 cdbd
00000060: b6b7 e0bd ce87 4bbd 4064 3abd 6ac6 a33c
00000070: 68f4 81bb a0da 8b3d 48a9 53bd 00e7 0abd
00000080: 858f 9fbc 407e 173d 84f2 503d 2803 79bd
00000090: 32ae 3c3d ece9 343d 7b28 cbba eeb9 113d
000000a0: 938a 7abc f1ff 0839 8139 a33d 96c9 003d
000000b0: 802f 68ba b3c6 25bd e11d 5a3c eb8a bd3c
000000c0: da3e 323b 8473 2b3d 902b babd 9616 01be
000000d0: fbc6 95bd bb6b d6bc 157e 22be 8c07 85bd
000000e0: c8d5 93bc f4d1 8fbd f30d fdbc c986 aabd
000000f0: e2a2 71bd 7162 12be 4291 76bc 3898 09bd
00000100: 4c2d bbbd 32e1 073d 480d d7bd e1df 7abd
00000110: 6d15 8dbc 5f14 e8bc 4a0c 48bd 94ad 5c3c
00000120: 5a1a fabd ac20 413b 47ae b7bd 4bce 4ebd
00000130: f321 0ebd e7f7 1cba a519 a5bd 8590 393c
00000140: 65dd 44bd 28b3 a8bd 3b06 123c 71c0 473c
00000150: 27c0 823d b2d5 75bd a054 b7bd 2561 26bd
00000160: b62e b53c 11a6 713d 5c6c 0dbd 3edb b9bd
00000170: 8d9a 8b3d b661 383d 0927 5cbd 2df8 9bbd
00000180: 9c78 3ebd 2173 9f3c 8929 1b3d 127a aebd
00000190: 58cc 653d e1ed 473d 39f4 4f3c b8cb 90bd
000001a0: ac28 0cbe a597 0e3d f998 423c f67a 7cbb
000001b0: 734b f0bd 6795 97bd f24b 2bbd 71a1 f5bc
000001c0: 9e38 81bd 1532 b6bd 64a6 56bd b129 ddbc
000001d0: 7296 12be dac7 80bd 936b f6bd 73f5 7ebd
000001e0: 12e5 a6bd 76cf f7bd 193e f8bc 643d 62bd
000001f0: dcff b9bc e7b6 363e 2d89 413e c393 363e
00000200: 917d eebb a484 4e3b 2f5a 353e 0000 af3d
00000210: 831c 8fbd 8c33 fbbc c081 b9bd 914c 5bbd
00000220: 38c5 47be 48d9 27be f2bc 69be e51e 8ebd
00000230: 8446 2ebd 2d11 32be 6b9b 12be 4901 ccbd
00000240: 8834 ddbd 904f 2e3d 8085 1abd 1bf5 7dbd
00000250: b4dc a9bd 1d6d 2ebd c3cd e23c 95ef 47bc
00000260: d35e 163d ce88 ac3c e170 95bc 8f49 3e3d
00000270: f36c 863b 5d12 813c 25f3 ff3c 5ee4 a93d
00000280: 15da 00bd f1b7 943c 6dd8 f93b f3c5 0ebc
00000290: be36 e23c cad8 bd3c bee2 aa3c 14f0 203c
000002a0: 2aa6 973b 897b f53c 987a bebc d159 a33c
000002b0: bb13 7a3d 6f70 6b3c 5bfe 3e3d 8aad 62b9
000002c0: a350 243d 0376 40bc 55e2 893c abd2 3c3d
000002d0: bd36 2c3d 05dc efbc c1eb a73d 9c0c bb3d
000002e0: e5ab 9b3d 2c31 76bb 7baa 9e3d eb9a 893b
000002f0: a523 b03b 3a6e c43c 3f4e 703d a369 573d
00000300: fe81 cebc 3680 56bd 74cf abbd 2446 30bc
00000310: 7bb5 4abd 4481 00bd e530 a2bd be58 8fbd
00000320: 1083 5e3c 54a8 8ebd 85a2 f1bc e1b4 9e3d
00000330: 9da2 293d 377c 94bd b4d7 71bd 18d1 683d
00000340: 3d83 363d 673d 86bc 04b6 063d 37f6 d93b
00000350: 6b5b 80bc a8d5 b53c b13f 94ba f495 113e
00000360: ea9d 3c3c ca43 f2bd dade eebd 8e73 a53c
00000370: 03ec 2abd b1d2 13be c94c 83be 0e0b 0ebe
00000380: 6a9a 7ebd 6fec 0c3d be71 2abc d930 7bbc
00000390: 0652 253d 9f5e a43d 164b b1ba 7a3e febc
000003a0: 72ce a03c 3796 423c 323f 47bd ed2f 06bd
000003b0: 74bf 8fbb 715a fe3b ec6b 8ebd acf6 84bd
000003c0: b658 e5bc cd4a 803c 6c5b 74bd 3559 8cbc
000003d0: 8fd3 eebc 9d83 2abd 92cc 2c3d 9a9e 55bb
000003e0: 763d bcbd e7db babd aef5 ddbd a401 553d
000003f0: de27 6d3c bef8 003d c70f 15bb d72f 683b
0.032154 -0.0009970065 -0.0077788434 0.004274502 -0.045679037 0.022800498 -0.02412145 0.012623263
-0.05334904 0.029256182 0.020552684 -0.013762561 0.017981088 -0.049628988 -0.044277653 0.014620202
0.004786063 0.05973711 -0.022611301 -0.12786295 0.011509469 0.025862854 -0.063137785 -0.10011001
-0.1097254 -0.04969006 -0.045505762 0.019992072 -0.003965903 0.06828809 -0.05167511 -0.033911705
-0.019477615 0.036985636 0.05101253 -0.060794026 0.046064563 0.044168398 -0.0015499735 0.035577707
-0.015291828 0.00013065316 0.079699524 0.031442247 -0.00088571757 -0.040472697 0.013312788 0.02313753
0.0027198107 0.04185821 -0.0909034 -0.12606272 -0.07313343 -0.026174417 -0.15868409 -0.0649558
-0.018046275 -0.07022467 -0.03089044 -0.083264895 -0.058993228 -0.14295365 -0.015049281 -0.033592433
-0.09139499 0.033173747 -0.1050058 -0.061248664 -0.01722213 -0.028330026 -0.048839845 0.013469119
-0.122120574 0.0029468937 -0.08968788 -0.050489705 -0.034700345 -0.0005987868 -0.08061532 0.01132596
-0.0480627 -0.08237296 0.008912618 0.012191878 0.063843064 -0.06001825 -0.08951688 -0.040619988
0.022117 0.058996264 -0.034527168 -0.0907502 0.068165876 0.04501506 -0.053748164 -0.07615695
-0.04650174 0.019464077 0.037881408 -0.08519377 0.05610308 0.048810843 0.012692505 -0.07070106
-0.1368739 0.03481259 0.011877292 -0.003852544 -0.11733141 -0.07401543 -0.041820474 -0.029984208
-0.06309627 -0.08896271 -0.052404776 -0.02699742 -0.14315203 -0.06288119 -0.12032237 -0.062245797
-0.081491604 -0.12100117 -0.030303048 -0.055234328 -0.022705011 0.17843209 0.18899985 0.17829804
-0.0072781523 0.0031512165 0.17710184 0.08544922 -0.0698786 -0.030664228 -0.09057951 -0.053539816
-0.19508827 -0.1639148 -0.22825983 -0.069394864 -0.042547718 -0.17389365 -0.143171 -0.099611826
-0.10801035 0.042556345 -0.03772497 -0.06200133 -0.08294049 -0.042584527 0.027686005 -0.012203117
0.036711525 0.021061327 -0.018242301 0.04645687 0.004102343 0.015755827 0.03124387 0.08295511
-0.03145798 0.018154116 0.007624677 -0.008714187 0.027613994 0.023174662 0.020860072 0.009822864
0.0046279626 0.029966133 -0.023251817 0.019940289 0.061053973 0.014370068 0.04662929 -0.00021617688
0.040115964 -0.011746886 0.016831556 0.046099346 0.04204439 -0.029279718 0.08199263 0.091332644
0.07601146 -0.003756593 0.0774736 0.004199376 0.005375343 0.023978341 0.05866837 0.052590977
-0.02520847 -0.052368365 -0.08389178 -0.01075891 -0.04948948 -0.031373277 -0.07919482 -0.06999348
0.013581052 -0.069657 -0.02949644 0.07749344 0.041414846 -0.072502546 -0.0590436 0.056840032
0.044558752 -0.0163867 0.032888427 0.0066516655 -0.015668591 0.022196606 -0.0011310485 0.14217359
0.011512259 -0.11829336 -0.11663599 0.020196702 -0.041728985 -0.14435841 -0.2564452 -0.13871405
-0.06215898 0.03440517 -0.010403095 -0.01533147 0.040361427 0.0802586 -0.0013526406 -0.03103565
0.01962969 0.011876634 -0.048644252 -0.03276055 -0.0043868367 0.0077622463 -0.06954178 -0.064923614
-0.027996402 0.015660668 -0.0596575 -0.017132381 -0.029153613 -0.041629422 0.04218728 -0.0032595755
-0.0919141 -0.09123974 -0.10837875 0.052003518 0.014474837 0.03148722 -0.0022745 0.0035428905

bias f4 [32]
00000000: ce39 033d c541 45bc 45eb 1fbb a539 7c3c
00000010: d660 f83c 2cbb 0b3d d72a ffbc e2b9 2d3c
00000020: d848 953d 6ef7 833d dedb 463d f567 3aba
00000030: 91ba 053c d4a5 4a3d 755c 0a3c 3672 3d3c
00000040: 5313 f1b9 768a 9dbb 859c 5b3d 7f8f 1b3d
00000050: 2026 91bc 13ed 293d 4e94 573d 59ea 89bd
00000060: 2ebc 673d 6514 9bbc dd03 203b a07b b23c
00000070: 6dcf 3b3d 35bc 0c3d 7092 9cbd af1d a23d
0.03203755 -0.012039606 -0.0024401706 0.015394603 0.030319612 0.034114048 -0.031148357 0.0106034
0.072892845 0.06443678 0.048549525 -0.0007110828 0.008162157 0.049474552 0.008444895 0.011562875
-0.000459815 -0.0048077656 0.053616066 0.037978645 -0.017718375 0.041485857 0.05263167 -0.067341514
0.056575947 -0.018930623 0.0024416365 0.021787465 0.045852114 0.034359176 -0.07645118 0.07915818

weight f4 [64, 32, 5, 5]
00000000: cc7c 053c 87e1 f6bc abba 82bb 71fb 333c
00000010: db95 a4bc 1ad7 4c3b 2826 b13b d2e3 bf3c
00000020: 8a2a dd3c 5baa e3bc f6c9 17bb d863 ca3b
00000030: 3dea 05bd deee 1d3c de1b a43d 5324 5dbc
00000040: 8002 42bd ecb5 c83c fd8c 9abc 9fd7 3a3d
00000050: 4e86 02bd 2f8f 4dbd 13eb 37bb f30b 193c
00000060: 1182 8bbc 5c8d 9fbd 3dfb 06bd 2903 e03c
00000070: 2f69 fa3c 8fcb 25bc e8cd 72bd 4cfd efbb
00000080: 62de e9bc 283c 3bbc 98d8 1b3d 8383 03bd
00000090: ac32 6fbd 027d 34bd b3a4 87bc 8256 1cbb
000000a0: cd38 f8bc 85f5 fb3c 3705 91bc 628c 71bd
000000b0: 4d35 303c 2481 283c c757 153b ab1a bd3c
000000c0: 29ed 563d b534 6f3c acaf 753b 0d25 c6bd
000000d0: 5edb 2dbe 4fe3 17be 8d3c 8dbd 63db c0bd
000000e0: fdf6 48be c616 1dbe 7e04 5dbd b5cb f8bd
000000f0: ab74 f7bd 0fcb cfbd e7ef d1bc cb88 bfbd
00000100: 12f3 f2bd accf 02bb afad a0bd 8ca4 0cbe
00000110: 43e1 08be ff96 7fbd a97e 113d b678 c4bc
00000120: 5ef7 f9bc 00b6 7d3d 3ab2 ca3d 7f7e a0bb
00000130: 1b37 79bc ea54 d8bc 8f61 b83c 5739 92bc
00000140: 0589 a2bd 4c87 33bd f3fa 3bbc 552c 30bb
00000150: bc9b 48bb a4b4 31bd 7284 75bd 86a7 19bd
00000160: 955e 0cbd 06bc aa3c 090b 21bc 8c3b 3c3d
00000170: a823 863b a6f6 783c 7a7a 9fbd b103 643d
00000180: 3123 f03d 4b8c 583d bbab d9bc fc72 83bd
00000190: fc87 adbd 41b0 1dbd f8a3 943c f97f e23c
000001a0: 5a3e 923c 157a 4bbd b9b8 8c3c 8bc5 c43b
000001b0: a955 883c d090 a63c 7424 0a3d 068b 8abc
000001c0: f860 15bd b4ac 78bd 62f2 1fbc c245 303c
000001d0: 1882 a93c 0640 74bd e404 74bd 1cb4 eabc
000001e0: f09e 79bc e154 26bc 2e99 d3bd 272d ddbd
000001f0: 91a7 a4bd 02ad 123d 893c b33c 5aec 27bd
00000200: 37ec 4bbd 01b2 5d3c 152f 913c 6552 66bc
00000210: 638e 003c 4695 5c3c 2893 eebc 50b8 f33b
00000220: 8a7e 88bc 3c8d 903c 48ce e73c 7b3e 903a
00000230: bf5e 0cbd 1751 d63c 8b06 1c3d 7cb4 e9bb
00000240: c561 8cbc ad2d 3dbd b930 ff3c 0c44 7f3d
00000250: 0801 3f3c 3e0f 203b 13ef a7bc 1ba9 2fbd
00000260: 2de1 ae39 957e 47bc 7efa 71bc a0e2 40bd
00000270: 5364 bdbc 0120 093d 50f5 c13c ba6d 333c
00000280: de6c ec3c 97b6 50bc aef9 bfbb c7e6 273d
00000290: 1bf2 1ebc aa25 4a3b b6d6 aebc bc59 173d
000002a0: 05c9 1b3c 4f24 353b 8624 39bd ad18 94bc
000002b0: 1fa6 ebbb 2e9b 943c 5fc0 9a3c ae6d 2d3d
000002c0: bb01 5b3d 6645 b3bc 72fa a9bc 38f8 82bc
000002d0: 0c7e 20bd b4b5 46bd 6881 29bd 5859 f9b7
000002e0: 7500 623d 2005 95bd fa59 e4bd bb46 10bd
000002f0: 1dd8 823a f15c 323d 25d0 3cbd e8e6 d4bc
00000300: e44d d43c 090b 963c 0275 52bd f20b 48bd
00000310: 8b33 a13d d7bf d93d de3b 663d 9837 50bc
00000320: 6b5d 2d3b 6cf7 b8bd b1e6 2bbd 33aa db3c
00000330: 87f3 ab3c dd79 1cbc 4963 febb 7d7e 083d
00000340: 0f8e 0b3d efe9 1e3c 089c bf3c 0b9b a73d
00000350: 3565 cd3b 40f3 b5bb efcb 98bc ded0 a33d
00000360: 5c1f a73d a06a 583b d44e 04bd 69f9 35bd
00000370: 0261 313b 1274 1a3c 7728 113d 086c aa3c
00000380: 5890 cbba 2003 76b9 a12b cf3c 20e7 e0bc
00000390: 114c 96ba 6a7f 483b f768 693c 89f0 363d
000003a0: e0ee b2bc a9a8 373c b87d 443d be3d 00be
000003b0: 9df9 0cbe d8b7 eebd 6353 9dbc d64b 10bd
000003c0: 042b 57be 1a6c f13b 12c7 423d a5bb 25bd
000003d0: 8132 9bbd 0e7f cf3c 0048 173e 264c db3d
000003e0: 9ef9 5e3d bfe8 9dbd bd3b 493d 8f33 12bc
000003f0: f12b 29bb 44ba cc3b db29 303b 9c3e 373c
0.00814743 -0.030136837 -0.0039895377 0.010985241 -0.020090988 0.003125614 0.00540616 0.023424063
0.026997823 -0.027791193 -0.002316115 0.006176453 -0.03269409 0.00963947 0.08013128 -0.01349743
-0.047365665 0.02450081 -0.018866057 0.04561579 -0.031866364 -0.05018538 -0.00280637 0.009341228
-0.017029794 -0.07790634 -0.032954443 0.027345257 0.030567734 -0.010119333 -0.0592784 -0.0073238965
-0.028548423 -0.011427917 0.038048357 -0.03210784 -0.058397934 -0.04406453 -0.016558027 -0.0023855274
-0.030300522 0.030756721 -0.017702682 -0.05897177 0.010754895 0.010284696 0.0022787915 0.023084005
0.052472267 0.014599969 0.0037488742 -0.096750356 -0.16978213 -0.14832805 -0.06896315 -0.09416845
-0.19625469 -0.15340719 -0.053959362 -0.12148229 -0.120827995 -0.10146152 -0.02562709 -0.09352263
-0.11862768 -0.0019960208 -0.078456275 -0.13734645 -0.1336718 -0.06239986 0.035521183 -0.02398334
-0.030513462 0.061941147 0.09897275 -0.004897892 -0.015210892 -0.026407678 0.022507457 -0.017849607
-0.07936291 -0.0438302 -0.011473405 -0.0026881893 -0.0030610403 -0.043385163 -0.059940763 -0.03751328
-0.034269888 0.02084161 -0.009829291 0.045955226 0.004093606 0.015195524 -0.077870324 0.055667583
0.11725462 0.05286817 -0.026571145 -0.06418416 -0.084732026 -0.038498167 0.018144593 0.027648913
0.017851997 -0.049676973 0.017177926 0.0060049943 0.016642408 0.020332724 0.03372617 -0.016911995
-0.03646943 -0.060711578 -0.009762378 0.010758819 0.020691916 -0.05963137 -0.059574977 -0.028650336
-0.015235648 -0.010152073 -0.10331951 -0.10799628 -0.08039773 0.035809524 0.021879451 -0.040996887
-0.04978582 0.013531209 0.017722646 -0.01405773 0.007846448 0.013463324 -0.029122904 0.0074377432
-0.016661901 0.01764547 0.028296605 0.0011004949 -0.034270044 0.026161714 0.038092177 -0.007132111
-0.017136464 -0.046186138 0.031151162 0.062320754 0.011657961 0.0024423148 -0.020499742 -0.04288588
0.00033355635 -0.012176176 -0.014769195 -0.047091126 -0.023119127 0.033477787 0.023676544 0.010951454
0.028860506 -0.012738845 -0.0058586216 0.04099157 -0.009701277 0.0030845203 -0.021342617 0.03695081
0.009508376 0.002764005 -0.045200847 -0.018078173 -0.007191434 0.018140402 0.018890558 0.042340927
0.053468447 -0.021883678 -0.020749304 -0.0159875 -0.039182708 -0.04851313 -0.041383177 -2.9724717e-05
0.055176217 -0.07276368 -0.11149974 -0.035223704 0.000998262 0.043545667 -0.04609694 -0.02598901
0.025916047 0.018315809 -0.05138112 -0.048839517 0.07871159 0.10632294 0.056209438 -0.012708567
0.0026453387 -0.09031567 -0.04196805 0.026814556 0.020990146 -0.009550539 -0.0077633006 0.033323754
0.034071025 0.009699329 0.023389831 0.08183869 0.0062681683 -0.0055526793 -0.01865193 0.07998823
0.08160278 0.0033022538 -0.03230174 -0.04442731 0.0027065878 0.009427087 0.03543898 0.020803466
-0.0015530689 -0.00023461552 0.025289359 -0.027453959 -0.0011466761 0.0030593523 0.014246217 0.044662986
-0.02184242 0.011209645 0.047971457 -0.12523553 -0.13767095 -0.11656159 -0.019204801 -0.035228573
-0.21012503 0.007367623 0.04755313 -0.040462155 -0.07577992 0.02532914 0.1477356 0.107078835
0.054437272 -0.077104084 0.049129236 -0.008923425 -0.0025813545 0.0062477905 0.0026880417 0.011184361

bias f4 [64]
00000000: 76ed 42bd a6d2 d8bb 7a98 fa3b c9ec 7ebb
00000010: c70d f63c 42a9 233c 5e7d 633c 9ff1 f4bc
00000020: 4218 153d b564 b93c dee2 4c3d 0e4f 1b3c
00000030: f045 0ebc 8b2d 593c 23eb e6bc 2dfa 7c3c
00000040: ec89 26bd fb38 933c be43 023c 61f2 1e3d
00000050: e6a6 08bd 0767 4abd 9ece 64bd a5c8 3abd
00000060: 8217 62bd c58c 603d d181 a63c 5f07 af3c
00000070: 66ca dabc cc05 5bbc 75ed e63c 4fe4 dfbc
00000080: 90c7 98bc 509e f8bc 937a ea3a 8f42 96bd
00000090: 8663 0539 5d96 493d 5bb7 a93b ea95 c5bc
000000a0: 8c73 e3bc 88ec c33c b121 173c b821 aabc
000000b0: 25e0 86bc bacc 76bd e97e 1fbc 6a2d 07bd
000000c0: d773 803c e36e c33c 1173 5bbb cd7d 0fbd
000000d0: edc6 543c 492f b8bc 1714 3ebd 479a 0ebd
000000e0: 3f5d c5bc 9667 153d 37c0 a9bb 9749 133d
000000f0: 6990 833c a74e 12bd 9446 973b abdc e63b
-0.04758974 -0.006616908 0.007647571 -0.003889846 0.030035866 0.009989085 0.01388487 -0.02990037
0.036400087 0.022631029 0.050021045 0.009479297 -0.008683667 0.013255487 -0.028188294 0.015440506
-0.040658876 0.017971506 0.007950721 0.03880537 -0.03336229 -0.04941466 -0.055861108 -0.045601506
-0.0551982 0.05482175 0.020325573 0.02136582 -0.02670784 -0.013368081 0.0281894 -0.027330546
-0.018649846 -0.030348927 0.0017889313 -0.07336914 0.00012720944 0.049215663 0.0051793284 -0.024119336
-0.027765058 0.023916498 0.009224341 -0.020768031 -0.016464302 -0.060253836 -0.009734848 -0.033002295
0.015680237 0.023856586 -0.0033485333 -0.035032082 0.012986881 -0.022483485 -0.046405878 -0.0348151
-0.024092315 0.03647574 -0.0051803845 0.035958853 0.016060071 -0.03571954 0.004616568 0.0070453486

weight f4 [100, 576]
00000000: 0f96 71bc e91b a1bc ac1a 08bd c29d 37bd
00000010: f457 4bbc 418f d5bc 5dbf 58bb 3507 303c
00000020: 0bbd 35bc 86c4 a73b 0cb1 7c3c d7b9 a93c
00000030: 20db b6bc 6bea 173d 13be 313d c70f 6c3c
00000040: 1be4 3cbd 09e3 93bb 5850 98ba bd1e e93c
00000050: c604 cbbb c7ca 0f3d 383b ff3c ec9f 5f3c
00000060: d711 143d b6d5 cf3c c575 b1bb 7eaf 81bd
00000070: 326a 3bbd d23f d83d 5f94 b2bc cff3 643c
00000080: dd08 c73d 3fad f5bc df0f 05bc ab37 af3c
00000090: ef6b 553d 2b59 b63c a04d 053e 4164 b83c
000000a0: eb70 533d 1144 943d 5dba fabc 47ff 683d
000000b0: 4a78 49bd b67e 9ebd c560 12bc e40b a73d
000000c0: 6c5d 8abd fef5 3bba c98e 4a3d 6c40 b7bc
000000d0: 9171 0ebd 2f85 29bd 2631 293d 2c17 82bc
000000e0: 6986 abbd af64 8b3d 8be6 c13c 1880 54bb
000000f0: a80f d63c 1d2f 8e3c 5c10 88bc b6ea b4ba
00000100: 2c52 813c 75a3 c63b 2431 acb9 a11a f63c
00000110: b534 8a3b 4353 ea3c 8bd3 0dbc e2b9 a4bc
00000120: 5c33 13bd a933 02b9 6ab0 143e 6aec 813b
00000130: 7003 8bbd c843 ceb8 3141 12bd 5cce e83b
00000140: e33a bebb 66a8 83bc 1de4 013d c2c1 07bd
00000150: aa38 923c ed7b d83c 0cc7 bf3c 4023 43bd
00000160: 11cc 15bc a54b 2bbd b2b2 b43d ee73 253d
00000170: a15b d6bc 82ea 16bd 867a 47bd 43f4 f03d
00000180: 6112 aebd 85f2 a23d 0d4a 873d 9185 f63c
00000190: 442c 0cbc 9fbe 943d 77df 663d d962 ef3d
000001a0: f7d9 ed3c e29a a63b 7060 e1bb d193 fc3d
000001b0: a28b c8bb 9a9a 403d 300b 203d 65b6 b93c
000001c0: f7cb 06bd 9f53 0fbd f8c6 6abd 838c c33c
000001d0: 222a 633c d76b 433a bec1 ca3b e6d9 ffb9
000001e0: b48e 05bd e49b d1bc b753 8fbc 604a 483d
000001f0: e986 31bd 1c08 1ebd 3b78 933d 9ee5 f4bb
00000200: 4692 093d 2e37 55bd 4909 d3bd bbb1 963c
00000210: b226 0e3c 8702 5ebd 89df 3abd 19bd 91bb
00000220: 502e cf3c 5fa5 e73d ae8a aa3a 7589 9d3c
00000230: 4fde 693d 2a26 c8bb 1c62 94bd 329f c0bc
00000240: f972 c9bb b1c0 00bd d209 52bd 3380 343d
00000250: 737c ae3c 6e85 abbc f43d 043d 627b a6bc
00000260: 8e6b 5ebc b20b cebc 2213 e63d b41b 1d3e
00000270: e90b d03c b614 87bb e80d 153d 11de b13c
00000280: e6c9 40bd 9243 05be 6dad a73c ef82 353d
00000290: 0179 ea3d e234 1e3b 193a 7f3d f6e7 293d
000002a0: 63f5 12bd cee1 243d 442d febb f007 033d
000002b0: 74a9 36bd 70a2 87bd f31f 87bd ff69 de3b
000002c0: b6a0 dd3b be43 763c 1cc5 873d 1da5 e63c
000002d0: d437 a6bb 94ce 25bd 6e2a 533d ab3d edbc
000002e0: bd08 62bb 2ce5 eabc 95c2 f1bc 2163 abbc
000002f0: e9f0 933c de93 1cbd 8ae9 03bd f681 a1bc
00000300: 0336 c0bc 406f 15bc 2e9b 23bd 421a 01bd
00000310: f306 c13c 46c0 43ba a2d5 f03c 92e0 6c3d
00000320: 27fa 023e 3156 bfbc 0319 e9bc 084d a13c
00000330: 6268 9cbd ea70 16bd 1d17 53bd daaf e7bb
00000340: cb05 b0bd f102 07bd 946a e6bc 697a 673b
00000350: 2a5a 8fbd 44f9 fbbb 6267 d5ba 3b5c 8dbd
00000360: 1568 21bd 3a28 8abd 87bc 9d3c f6f8 ddbb
00000370: 9e51 95bc 5097 debc 8acc b3bc cf3b 32bd
00000380: 2d5a edbc 35b4 553d bb30 be3b a90f 4dbd
00000390: 37de 693b 1ff5 dc3c 4b1e 9d3d 49bc 443d
000003a0: c701 d13d 8d98 d33a 8353 633d ca3b 343e
000003b0: e530 863c 47bf 993b 7423 ca3c 1e5b d1bb
000003c0: 828c eb3c 5064 ba3c 29bf cc3c bbd8 443d
000003d0: 49ca 8a3c 2759 c2bb 2438 2bbc 3096 24ba
000003e0: 002f 65bc 8f65 2b3d d032 08b9 d0e1 353b
000003f0: 2e64 28bd 7618 a0bb 1275 7b3c be27 5fbd
-0.014745249 -0.019666629 -0.03322856 -0.044828184 -0.012411106 -0.026069285 -0.0033073046 0.010743906
-0.011092435 0.005119863 0.015423071 0.020718498 -0.022321284 0.037088793 0.04339416 0.0144080585
-0.046115976 -0.0045131487 -0.0011620624 0.02845704 -0.0061956374 0.035105493 0.031156167 0.013648968
0.036149826 0.02537046 -0.0054156506 -0.063323006 -0.045755573 0.10559048 -0.021799264 0.013974144
0.097184874 -0.029989837 -0.00812146 0.02138885 0.052104887 0.022259315 0.13017893 0.022508742
0.05162136 0.07239545 -0.030606443 0.056884076 -0.049186982 -0.07739012 -0.0089342045 0.08156565
-0.067561 -0.00071701396 0.049452577 -0.022369586 -0.034776274 -0.04138678 0.041306637 -0.01588019
-0.08375246 0.06806313 0.023669502 -0.0032424983 0.026130512 0.01735645 -0.016609363 -0.001380286
0.015786253 0.006061966 -0.0003284301 0.030041995 0.004217709 0.028604155 -0.008656393 -0.020108167
-0.035937652 -0.00012417011 0.14520422 0.0039649503 -0.06787765 -9.835471e-05 -0.035706703 0.007104678
-0.0058053597 -0.01607151 0.031711686 -0.033143766 0.017849285 0.02642628 0.023410343 -0.04764104
-0.0091428915 -0.041820187 0.08823146 0.040393762 -0.026166739 -0.036844738 -0.04870083 0.11765339
-0.08499599 0.07956413 0.06605921 0.030092986 -0.008555476 0.072629206 0.056365456 0.116887756
0.029034598 0.0050843814 -0.0068779513 0.12332881 -0.006120161 0.04702244 0.03907317 0.02266998
-0.03290936 -0.034991857 -0.057318658 0.023870712 0.013865026 0.0007454729 0.0061876466 -0.00048799737
-0.032606795 -0.02558703 -0.017495973 0.048899055 -0.04334155 -0.038581952 0.072006665 -0.0074736616
0.033586763 -0.052054577 -0.103045054 0.018395295 0.008676218 -0.05420163 -0.045623336 -0.004447591
0.025290638 0.11310839 0.00130113 0.019230584 0.057096776 -0.006108065 -0.072452754 -0.02351341
-0.006147739 -0.031433765 -0.051278897 0.044067573 0.021299576 -0.020937648 0.032285646 -0.020322505
-0.013575448 -0.025152061 0.11234118 0.15342599 0.025396304 -0.004122342 0.036390215 0.021712335
-0.047067545 -0.13014057 0.020468438 0.04431432 0.11448861 0.0024140407 0.062311266 0.04148098
-0.03587855 0.040254407 -0.007756861 0.03198999 -0.044595197 -0.06622779 -0.06597891 0.006787538
0.006763543 0.015030799 0.066293925 0.028154904 -0.005072573 -0.04048021 0.051554136 -0.02896007
-0.0034490072 -0.02867373 -0.02951173 -0.020921292 0.01805921 -0.038226955 -0.032205142 -0.01971529
-0.023463255 -0.009120762 -0.039942913 -0.031519182 0.023562884 -0.00074673106 0.029398743 0.057831354
0.12790738 -0.023356529 -0.02845431 0.019690052 -0.07637097 -0.036728777 -0.051535714 -0.0070705237
-0.08594855 -0.03296179 -0.028126992 0.0035320765 -0.06999619 -0.007689627 -0.0016281421 -0.06902357
-0.0394059 -0.06745954 0.019254936 -0.006774063 -0.018227395 -0.02717176 -0.021948118 -0.04351407
-0.028973663 0.052173812 0.005804149 -0.050063763 0.003568543 0.026972352 0.076717936 0.048031125
0.10205417 0.0016143486 0.055499565 0.17600933 0.016380737 0.0046919915 0.024675108 -0.006389036
0.028753523 0.02275291 0.024993496 0.048058253 0.01694216 -0.005931038 -0.010450397 -0.0006278483
-0.013988256 0.0418449 -0.000129889 0.0027753003 -0.041111164 -0.0048857285 0.015347736 -0.05448126

bias f4 [100]
00000000: e888 11bd 13bf 833b e128 763d bb12 793c
00000010: e5df 06bd c884 ae3b cb37 133d ad90 073c
00000020: 5690 2cbd 6b10 63bd 16ef 3abd f522 613b
00000030: 36fa 8f3c b137 43bd d113 1cbd 4923 913c
00000040: f893 643c 5cd8 9bbb 04cb e8bc 2714 75bc
00000050: ff28 4f3d f280 313d 2ee8 0d3d 5617 97bc
00000060: 8a87 9fbc 8723 5cbd a031 e5bc 5a0e 2ebd
00000070: 67ee e1bc da96 9e3d d2ba 443d c6c4 b03c
00000080: 1ce3 c4bc 2ab9 463c 2228 043a ad98 423c
00000090: 848c 61bc 1fee b63c d2d3 02be da51 a83c
000000a0: fd4f 82bb ad41 343b e278 b1bc cf8a 44bd
000000b0: e992 57bc 02d3 763d 5d27 133d b11b 11bd
000000c0: 35fc 7cbb 7053 8a3c 7362 3f3c bc19 483d
000000d0: fb9b 82bc b1a9 88bd 6a46 ca3c e4cf 0cbc
000000e0: c486 61bb e95e 54ba 501f 84bc 933b 1c3c
000000f0: 9417 983c 7e28 0abd 9ed2 a33c f1b8 81ba
00000100: f8eb 6ebc 2ce9 2e3c 9423 3d3d 71bb f63c
00000110: 9fa8 b7bb a119 82bc 1d83 e8bb 3122 a13c
00000120: 4bc8 163d 30d6 373d b510 1abd 05aa 1dbd
00000130: 77f1 173d 444b 123c fa60 2bbc 354f ce3c
00000140: 5ec5 0dbc 6d83 cebc 2b6d 3ebc dfab 553c
00000150: df76 a43d 94f7 bb3b 87cf 3dbc bfbe 1bbd
00000160: 0463 f6bc 0481 013d e686 11bc 71eb 4a3c
00000170: 089d 403b 5db3 debc b9f8 01bd fdbe d63c
00000180: 7102 423d a5ce 4a3c 20a2 e5bc 85e9 a9bc
-0.035530955 0.0040205806 0.06009758 0.01520222 -0.032928366 0.0053258874 0.03594188 0.0082742395
-0.042129837 -0.05543558 -0.045638166 0.0034353111 0.017575365 -0.047660533 -0.038104836 0.01771702
0.013951294 -0.0047560167 -0.028417118 -0.014958418 0.050576206 0.043335862 0.034645252 -0.018443745
-0.01947381 -0.05374482 -0.027977765 -0.042494155 -0.0275795 0.077436164 0.04802973 0.021578204
-0.024034075 0.0121291075 0.00050413806 0.011877221 -0.013766412 0.022330342 -0.12776116 0.020546842
-0.0039768205 0.0027504966 -0.021664087 -0.04798394 -0.013157585 0.060259826 0.03592621 -0.0354268
-0.0038602476 0.01688549 0.011681187 0.048852667 -0.015943518 -0.06672991 0.02469178 -0.008594487
-0.0034412602 -0.0008101301 -0.016128212 0.009535688 0.01856593 -0.033730023 0.019997891 -0.0009897036
-0.0145826265 0.01067571 0.046176508 0.030118676 -0.005604818 -0.015881361 -0.007095708 0.019669624
0.036812108 0.044882 -0.03761359 -0.03849222 0.037095513 0.008929078 -0.010460133 0.025184253
-0.008653013 -0.025209153 -0.011622707 0.013041466 0.08030485 0.0057363007 -0.011585123 -0.038023707
-0.030076511 0.03161718 -0.00888226 0.012385235 0.0029390473 -0.027185136 -0.03173134 0.026214117
0.04736561 0.012378369 -0.028031409 -0.020741234

weight f4 [10, 100]
00000000: 1119 ce3d afd8 f83c ae23 cabd b742 96bd
00000010: 20d6 58bd 7f95 5dbd 8352 943d af79 df3d
00000020: fcd6 4bbd e370 05bd f8f7 b4bd 293a f4bd
00000030: e6e8 05bd 1444 813d 1af4 97bd 0b25 263d
00000040: 2481 853d 3fdd 843d d5fc 77bc 191a 953d
00000050: e737 fd3d 6980 7abd 3a21 e53d f35f ac3d
00000060: 864b 5ebd a1d2 2cbc 5d96 a73c c924 273d
00000070: 2308 833d b3b9 e53d 1376 80bb a30b 903b
00000080: 5b97 dbbd 6a3f eb3d d289 eabd b81f 29bd
00000090: 7fcb 5cbd 551e a6bd 15a5 afbd 4422 2fbe
000000a0: e57b 81bd 05ef 423d 1fd0 d7bc f4e6 b23d
000000b0: 0457 963d 5923 b0bd 5012 02be eb80 773b
000000c0: 740b c63c e1c4 413d 0840 683d 875c ff3d
000000d0: b3f2 80bd 135d 07bd dcbd 3dbd 4337 6abd
000000e0: 9c16 c83c 395a 4d3d bb06 683c f3c8 443d
000000f0: a97d 19bd 89eb f9bd 6820 0c3d 7a0a 2cbe
00000100: 554f d63d f247 833d e480 1dbe 95bc c4bc
00000110: a530 aebc bd9b ee3d ddc1 c6bb 5104 25be
00000120: 7afa 92bd cc01 21be f664 ca3c e766 c9bc
00000130: ed97 06be 6441 abbc 3728 1f3d a9f8 8fbb
00000140: dbe1 10be 220b a93d fadf 653d 2371 a2bc
00000150: 0c5c 223d 6b93 f7bd 52d2 123c 1494 603d
00000160: fc02 97bd aeb4 b23a 7b3c b9bd af67 9abc
00000170: 2c8b c83d 2750 4f3d 882e 803d a6c5 813d
00000180: 259e babd def3 94bd 3afb f3bd 5687 083c
00000190: c01f 223d 2fa1 51bc f283 833d 069b 16bc
000001a0: 4a96 9a3d 479e 47bd a757 02be c3c3 883d
000001b0: 72b4 bdbd 61e3 863c b80d 203d bb44 f13d
000001c0: fcb4 523d 9d09 5bbd d1e4 ae3d 6c50 91bd
000001d0: 444e 71bc db75 7f3d 5f4b 90bd 2803 8f3d
000001e0: 4153 dfbd 11e4 b3bd 318a e2bd 8a5b d53d
000001f0: a093 43bd 8858 26bd d1e4 ea3c a543 1ebd
00000200: e347 db3c 0754 6e3d 4c2f 6ebd 2d0d 6fbb
00000210: 956d 93bd ad62 f93c ec9e 7a3d 2973 82bd
00000220: 0c8f efbb 829e 533d b741 35be bc6e bb3d
00000230: e8bf 4dbd 1870 02be deb3 e23d 14bf 9e3d
00000240: 8247 de3c 7e9f 433d 7655 d73d dc2c 56bd
00000250: f30d 2abd d539 fabc 6f15 393b 7582 543e
00000260: eaa1 9bbd 3776 c0bd e7a7 ef3d a399 cf3d
00000270: 5485 a83d b375 81bd c815 da3d 8e4f b43d
00000280: f2cd b23d 928c d33d 3e91 663d 4d34 0ebe
00000290: 97fa 87bd ea3b a8bd 4341 803d 253a c3bd
000002a0: e637 0a3d 45cd 91bd 885a ab3d 1760 b33c
000002b0: 679e 6b3d 01d8 713d 49e1 2dbc 5f3e c0bd
000002c0: 045f 293d a6c8 dc3c 1179 963d 3b80 f3bd
000002d0: 3951 203c 58b0 99bc 71e3 31bd c02d 44bd
000002e0: 00f1 b23d 1c53 a03b 137b a7bc e779 d43b
000002f0: 4324 453d 2383 053e 3a0d 90bc ef28 97bd
00000300: f89d ad3d 1490 4a3d 0f4a febc 4660 e0bd
00000310: 01e2 a9bd 3dfe 93bd 2953 e1bc cba3 c9bc
00000320: c845 243d ea65 f93d 0b56 fdbc d903 013e
00000330: 0ed2 123e b59d de3d e1fe 39bd f98f 603d
00000340: 0a4f 333d 749b 8b3d d333 efbc cce4 d0bd
00000350: e861 b43c 1daf c63c d56a 6ebc de40 82bd
00000360: 6fcd df3b f054 8a3d 9080 8c3d 8da9 093d
00000370: 6834 01be 541e ddbc 5faf 593a 879d c4bc
00000380: e358 84bc 6ec3 c03d 22f9 1a3e 8c4b bd3c
00000390: dcbe ae3b 52e7 b83b 170c 83bd 8870 b1bc
000003a0: 6807 313d e7af 4e3d 7bcf 4bbd 1139 bebd
000003b0: d0e5 a7bd 8f20 c43d 6766 7dbe 953d 7f3d
000003c0: 791a cc3c bdd0 ac3d 0a72 543c 51ae 813d
000003d0: 3c6e f43d 7be9 d2bd b724 65bd 0b9c dbbd
000003e0: 5203 69bd 9ef1 05bc b563 a53d 4836 10be
000003f0: 9c2a a83c a928 c3bd 0118 66bd cec7 eb3d
0.10063375 0.03037676 -0.098700866 -0.073369436 -0.05293858 -0.05409765 0.072423 0.10911881
-0.049765572 -0.03257836 -0.08836359 -0.11925156 -0.032692812 0.06311813 -0.074196056 0.04056267
0.06518772 0.06487512 -0.015135963 0.07280368 0.12364178 -0.061157618 0.11187978 0.08416738
-0.054271244 -0.010548265 0.020457441 0.040806565 0.06398036 0.1121706 -0.0039203255 0.0043959185
-0.10722228 0.11486705 -0.114520684 -0.041290015 -0.053905006 -0.08111254 -0.08576409 -0.17102915
-0.06322459 0.047591228 -0.026344357 0.08735457 0.07340816 -0.08600492 -0.12702298 0.003776605
0.024175383 0.0473069 0.05670169 0.1246882 -0.06296291 -0.033047747 -0.046323642 -0.057181608
0.024424843 0.05013487 0.014161761 0.048043203 -0.037473354 -0.12203128 0.034210593 -0.16800871
0.1046435 0.06410207 -0.15381199 -0.024015704 -0.02126343 0.116507985 -0.006065591 -0.16114928
-0.07176681 -0.15723342 0.024706345 -0.0245852 -0.13143893 -0.020905204 0.03885671 -0.0043936563
-0.14148657 0.082540765 0.056121804 -0.019829338 0.039638564 -0.120886646 0.008961277 0.05482872
-0.07373616 0.0013634169 -0.09044739 -0.018848268 0.0979217 0.05061355 0.06258875 0.063365266
-0.09112195 -0.072730765 -0.11913152 0.008333048 0.03958106 -0.012794777 0.06421651 -0.009192234
0.075481966 -0.04873493 -0.12728749 0.066779636 -0.09262933 0.016465845 0.039075583 0.117806874
0.05144213 -0.053475965 0.08539737 -0.070954174 -0.014728133 0.062368255 -0.07045626 0.06983024
-0.10904551 -0.087837346 -0.11061514 0.1041785 -0.047748208 -0.040611774 0.028673561 -0.03863873
0.026767677 0.058185603 -0.058150575 -0.003647636 -0.071986355 0.03044256 0.061186716 -0.06369621
-0.0073107537 0.051664837 -0.1770085 0.0915198 -0.050231844 -0.12738073 0.11069463 0.07751289
0.027133707 0.047759525 0.10514347 -0.052288875 -0.04151721 -0.030545155 0.0028241535 0.2075289
-0.07599242 -0.09397548 0.11701947 0.10136726 0.08228555 -0.063212775 0.10648686 0.08804236
0.08730687 0.10329546 0.056290857 -0.13887139 -0.06639593 -0.08214553 0.06262448 -0.095325746
0.033744715 -0.0711923 0.08366877 0.021896405 0.05752411 0.059043888 -0.010612794 -0.09386896
0.04135038 0.026951145 0.0734731 -0.118896924 0.00978499 -0.018760845 -0.043429796 -0.047895193
0.08737373 0.00489272 -0.020444429 0.0064842585 0.048130285 0.13038306 -0.017584432 -0.07380854
0.08477396 0.04945381 -0.031041173 -0.10955863 -0.0829506 -0.072262265 -0.027505474 -0.024614235
0.04010561 0.12177642 -0.030924818 0.12599124 0.14337942 0.10869924 -0.045409087 0.054824803
0.04377655 0.0681676 -0.029199516 -0.101998895 0.022019342 0.024253422 -0.014551838 -0.06360029
0.0068299095 0.06754482 0.06860459 0.03360896 -0.12617648 -0.026992 0.00083040254 -0.024000896
-0.016155666 0.09412275 0.15134099 0.023107313 0.005332811 0.00564281 -0.0639879 -0.021660104
0.043219954 0.050460722 -0.049758416 -0.09288228 -0.0819813 0.095765226 -0.24746095 0.06231459
0.024914967 0.08438251 0.012966642 0.06332076 0.11935088 -0.10298439 -0.055943217 -0.10723122
-0.056887932 -0.008175282 0.08075658 -0.14083207 0.02052813 -0.0952924 -0.056175236 0.11512719

bias f4 [10]
00000000: 24c0 e03d a89c 5c3d 18e6 cfbd 231e 35bd
00000010: 0e31 c5bd ca0c c6bc 2350 e6bd a090 28bd
00000020: 30a9 f53c 678e 26bc
0.10974148 0.053860337 -0.10151309 -0.044218194 -0.09628497 -0.02417602 -0.112457536 -0.04115355
0.029987901 -0.010165787
