10 MNIST_CNN/MNIST.pt (torch, 499676 bytes, 10 tensors)

weight f4 [16, 1, 5, 5]
0	0x3da3e1df	0.08002066
1	0xbd5c98ba	-0.05385659
2	0xbe1073f1	-0.14106728
3	0x3dc51bef	0.096244685
4	0xbdb1af45	-0.08676008
5	0xbcff8c61	-0.031194868
6	0xbe0229d4	-0.12711269
7	0x3e0fa45a	0.14027539
8	0xbd8883a6	-0.06665735
9	0xbecd2183	-0.4006463
10	0xbda786d1	-0.08180011
11	0x3e3596b5	0.17733271
12	0x3e045298	0.12922132
13	0xbd6a801f	-0.057251092
14	0x3d6c91a6	0.05775609
15	0x3dd60d6a	0.10451777
16	0xbdeaa3f4	-0.11457053
17	0x3e86839d	0.26272288
18	0x3e66dc06	0.2254487
19	0x3e20fdbb	0.1572179
20	0x3d046714	0.032324865
21	0xbdc4bb9e	-0.09606098
22	0xbe596d57	-0.21233116
23	0x3e2b5569	0.167318
24	0x3c87c735	0.016574482
25	0x3b06676c	0.0020508422
26	0xbd24f3c5	-0.04027154
27	0x3da21fe3	0.07916238
28	0x3db175d8	0.08665055
29	0xbda7a1c3	-0.081851505
30	0xbe430388	-0.19044316
31	0x3d94d40d	0.07267008
32	0xbbe03683	-0.006842436
33	0xbb8b715a	-0.004255456
34	0x3de51090	0.111848
35	0x3c119c58	0.008887373
36	0x3e31d59f	0.17366646
37	0xbe013e52	-0.1262143
38	0x3da1c6ea	0.07899268
39	0xbdc343c1	-0.095344074
40	0xbe4e60f0	-0.20154166
41	0x3b8ed2c9	0.0043586236
42	0xbd7202f8	-0.059084862
43	0x3ddc1a62	0.107472196
44	0xbd084d6e	-0.033276968
45	0x3df411b1	0.11917437
46	0x3e302965	0.17203291
47	0x3e0f90d8	0.14020097
48	0xbdc530f9	-0.096284814
49	0x3d0e3ec1	0.034727816
50	0x3d92030c	0.071294874
51	0xbd7edcac	-0.062222168
52	0x3d2c089a	0.04200039
53	0x3db0568a	0.08610256
54	0x3c5e0e21	0.013553173
55	0x3e1e99e7	0.15488397
56	0x3e576033	0.21032791
57	0x3d234ba4	0.03986706
58	0xbdd9e8f4	-0.106401354
59	0xbe45fc84	-0.19334608
60	0x3e0e67e7	0.13906823
61	0x3e604f46	0.2190524
62	0x3e205bef	0.1566007
63	0xbe2e8a18	-0.17044866
64	0x3db655c4	0.08903077
65	0xbe7822d0	-0.2423203
66	0x3c5b6f30	0.013393208
67	0x3e3de7b6	0.18545422
68	0xbe04b4d8	-0.12959611
69	0xbe253476	-0.16133294
70	0xbdffe065	-0.12493972
71	0xbb9c9bc2	-0.00477931
72	0x3d979a7e	0.07402514
73	0x3d1e1f86	0.03860428
74	0x3c4e31f3	0.012585151
75	0xbe658725	-0.22414835
76	0xbe458ae0	-0.19291258
77	0xbcff274f	-0.031146673
78	0x3dc235d6	0.09482925
79	0xbdfc471a	-0.12318249
80	0x3d1c9306	0.03822615
81	0x3e1c50ed	0.15265246
82	0x3e26b0f8	0.16278446
83	0x3e60ba7d	0.2194614
84	0x3cfea25c	0.031083278
85	0x3d23e289	0.040010963
86	0x3d6e6b67	0.058207896
87	0x3e5685cb	0.20949475
88	0x3ddff529	0.109354325
89	0x3e9a1558	0.3009441
90	0xbddc3d75	-0.107539095
91	0xbddf4832	-0.10902442
92	0xbe5aa32c	-0.21351308
93	0xbe209ce5	-0.1568485
94	0x3c3ac7f3	0.011400211
95	0xbd8dd16b	-0.06924709
96	0xbd3c712e	-0.046006374
97	0xbddee999	-0.10884399
98	0xbe3ee8ad	-0.18643446
99	0x3d3ea5ee	0.04654496
100	0x3d600e1b	0.054700952
101	0x3e3b4cb1	0.18290974
102	0x3e22f138	0.1591233
103	0xbce1a717	-0.027545495
104	0xbdf56506	-0.11982159
105	0x3e6e9575	0.23299201
106	0xbe2ac924	-0.16678292
107	0xbe577259	-0.21039714
108	0x3c5651b2	0.013081001
109	0x3e18413a	0.14868632
110	0x3e6205eb	0.2207257
111	0xbe081bb9	-0.13291825
112	0xbe37e567	-0.17958604
113	0xbe33be2c	-0.17553014
114	0x3cf17b59	0.029477762
115	0xbc8b9632	-0.017039392
116	0xbe388652	-0.18019989
117	0x3df316bc	0.118695706
118	0x3d7169a2	0.05893863
119	0x3e9c0959	0.30475882
120	0xbd1c28a8	-0.03812471
121	0xbe6c78e1	-0.23092987
122	0xbe3558a0	-0.17709589
123	0x3df2361b	0.11826726
124	0x3e00324a	0.12519184
125	0xbdc4fe12	-0.096187726
126	0x3e1170b2	0.14203146
127	0x39adf314	0.0003317824
128	0x3e87b30a	0.26503783
129	0xbde70f32	-0.11282195
130	0xbdcd752d	-0.10032115
131	0xba274f76	-0.0006382385
132	0x3dec1e6c	0.1152924
133	0xbce68cc2	-0.02814329
134	0x3d8c3019	0.068451114
135	0xbdcf376f	-0.10117995
136	0xbe77d42a	-0.24202028
137	0xbe3b3d2a	-0.18285051
138	0x3e982061	0.29712203
139	0x3dda0bff	0.10646819
140	0xbe356c9a	-0.1771721
141	0xbe66facb	-0.22556607
142	0xbe5606d3	-0.2090104
143	0x3e74c22a	0.23902193
144	0x3e90c987	0.28278753
145	0xbd790541	-0.060796026
146	0xbe676916	-0.22598681
147	0x3da2f59c	0.079570025
148	0x3d113670	0.035452306
149	0xbc9890db	-0.01862376
150	0x3e5a4fe8	0.21319544
151	0x3dda5f8a	0.10662754
152	0xbe72d921	-0.2371564
153	0xbe2c95d3	-0.16854028
154	0xbe2515ea	-0.16121641
155	0xbe05a52e	-0.13051292
156	0x3dcb7c41	0.09935809
157	0xbe867be1	-0.26266387
158	0xbe83672d	-0.25664654
159	0xbe4fd9b4	-0.20297891
160	0x3dc57ddb	0.09643146
161	0x3e253dcf	0.1613686
162	0xbe0ff8f6	-0.14059815
163	0xbcc07f21	-0.02349812
164	0x3dafe905	0.08589367
165	0x3d3e3da1	0.046445493
166	0x3e8339b5	0.25629964
167	0x3e5a22e3	0.2130237
168	0xbdf8c2f3	-0.121465586
169	0x3d81100c	0.06301889
170	0x3d8823bd	0.066474415
171	0x3e6686fb	0.22512428
172	0x3cdb8d07	0.026800646
173	0x3de0f31d	0.1098387
174	0xbd3adaf3	-0.045618962
175	0xbdf153d7	-0.11783569
176	0xbce489ce	-0.027897742
177	0xbe6625d8	-0.22475374
178	0xbb39daf5	-0.0028359268
179	0xbd3fd93e	-0.046838038
180	0xbe899a4e	-0.26875538
181	0xbe78b61b	-0.24288218
182	0xbdfed5ef	-0.12443148
183	0x3ddaaed5	0.10677878
184	0xbddc7516	-0.1076452
185	0xbe96a884	-0.29425442
186	0xbe19cb0b	-0.15018861
187	0xbdba1c1d	-0.090873934
188	0x3e0702c7	0.13184653
189	0x3e40c5ed	0.18825503
190	0xbe3d9f44	-0.18517786
191	0x3ddf304f	0.10897886
192	0x3eafb379	0.34316614
193	0x3e82f002	0.25573736
194	0xbc051946	-0.008123701
195	0xbd8f9c5f	-0.07012247
196	0x3d684eaa	0.056715645
197	0x3e3892e3	0.18024783
198	0x3e6406f7	0.22268282
199	0x3d08accd	0.03336792
200	0xbe2166b5	-0.15761836
201	0x3c270c5e	0.01019582
202	0xbe267e69	-0.16259159
203	0x3e51d07c	0.20489687
204	0xbda0cd68	-0.07851678
205	0xbe742032	-0.23840407
206	0x3dbdfbdf	0.09276556
207	0x3d902faa	0.07040341
208	0xbd1d7145	-0.0384381
209	0xbd8d23fb	-0.06891628
210	0x3e498fbb	0.19683735
211	0x3e4c4891	0.19949557
212	0x3e27eb28	0.16398299
213	0x3d548f28	0.051894337
214	0x3e060702	0.13088611
215	0x3e43685e	0.19082782
216	0x3e5a578b	0.21322457
217	0x3e9f8216	0.31153935
218	0x3e1d35ce	0.15352556
219	0xbeaddf8a	-0.3395961
220	0x3ca3738e	0.019952562
221	0x3e16cda4	0.14726883
222	0xbe54e57e	-0.2079067
223	0xbec94c6a	-0.39316112
224	0xbe95348d	-0.29141656
225	0xbe598774	-0.21243078
226	0xbdf007a1	-0.11720205
227	0x3db0f1cc	0.08639869
228	0x3e3958ef	0.18100332
229	0x3e1c6004	0.15271002
230	0xbd74f0d1	-0.059799973
231	0x3e1af06d	0.15130778
232	0xbe1df565	-0.15425642
233	0xbd6fe209	-0.058565173
234	0xbc3b522a	-0.011433164
235	0x3e34b4f7	0.17647158
236	0x3e48d02a	0.19610658
237	0x3e3ed1d0	0.18634725
238	0x3e4b8f66	0.19878921
239	0xbc3c7317	-0.011502049
240	0xbe1346ab	-0.14382426
241	0x3e2fce03	0.17168431
242	0xbe43d8fe	-0.19125745
243	0xbe632e73	-0.22185688
244	0x3c7d2b01	0.015452147
245	0xbcceb20d	-0.025231386
246	0xbe3eac50	-0.1862042
247	0xbe33a1b3	-0.17542152
248	0x3e05e1ff	0.13074492
249	0xbd659b4c	-0.056056306
250	0x3dba9704	0.09110835
251	0xbe38adb4	-0.18035012
252	0x3e3ad4f0	0.18245292
253	0x3e223c69	0.15843357
254	0x3d9cef7f	0.07662868
255	0x3df5e615	0.12006775

bias f4 [16]
0	0xbc135366	-0.008992052
1	0xbd646830	-0.055763423
2	0xbc7d5292	-0.015461581
3	0xbbd6b005	-0.006551745
4	0xbdc5079e	-0.096205935
5	0x3b7d77ec	0.0038676215
6	0x3dab8206	0.083744094
7	0x3d1a57c2	0.03768135
8	0xbc75c0b2	-0.014999555
9	0x3c0b3de9	0.008498647
10	0xbd59f95f	-0.053216334
11	0xbc013611	-0.007886426
12	0x3d4c45cb	0.049871247
13	0x3e472c75	0.19450553
14	0x3dc2016d	0.09472928
15	0xbd8ce97c	-0.06880471

weight f4 [32, 16, 5, 5]
0	0x3d461d87	0.048368003
1	0x3dcabc6c	0.0989922
2	0x3d8b0ff3	0.067901514
3	0x3d9c8274	0.076420695
4	0x3cb7d3de	0.022439893
5	0xbd4962e1	-0.049166564
6	0x3b25f56d	0.0025323287
7	0x3db40779	0.08790488
8	0x3e9aef6a	0.30260783
9	0x3e693deb	0.22777526
10	0xbe37319e	-0.17890021
11	0xbe7ff6ad	-0.24996443
12	0xbded6ebf	-0.11593389
13	0x3e2f2d0f	0.17107032
14	0x3eb4b7ec	0.3529657
15	0xbdb6c814	-0.089248806
16	0xbe8f7236	-0.28016824
17	0xbe975255	-0.29555002
18	0xbd72a906	-0.059243225
19	0x3dd4ac23	0.10384395
20	0x3e16d037	0.14727865
21	0x3d4d011a	0.05004988
22	0xbdd3107f	-0.10305881
23	0xbdd73eef	-0.105100505
24	0x3af79e84	0.0018891846
25	0xbd85adaf	-0.06527268
26	0xbc5bdfe4	-0.013420079
27	0x3c4dac84	0.012553338
28	0xbd53814a	-0.05163697
29	0xbca3eeac	-0.020011269
30	0xbdbcd2bf	-0.09219884
31	0xbd5a1387	-0.05324128
32	0x3cd08a3a	0.025456537
33	0x3d110235	0.035402495
34	0xbd203eb5	-0.039122302
35	0xbd68a304	-0.05679609
36	0xbc8924ea	-0.016741235
37	0xbcff0d07	-0.031134142
38	0xbd00f259	-0.03148112
39	0x3d37bd37	0.044858184
40	0xbd101447	-0.035175588
41	0xbcf6d514	-0.0301309
42	0x3d87a823	0.066238664
43	0x3db21694	0.08695713
44	0xbcbb6792	-0.022876535
45	0xbc038755	-0.008027871
46	0xbd372f78	-0.044723004
47	0x3c712d3c	0.014720257
48	0x3ce110ab	0.027473768
49	0x3c4182ae	0.011810942
50	0xbdafc1c7	-0.08581882
51	0xbdb832b6	-0.08994047
52	0xbd113b17	-0.035456743
53	0xbbb6d688	-0.0055797733
54	0x3dbe9eee	0.09307657
55	0xbd7adf26	-0.061247967
56	0xbd99afaa	-0.075042084
57	0xbd866637	-0.06562465
58	0x3d257697	0.0403963
59	0x3db931c0	0.09042692
60	0xbd74b656	-0.0597442
61	0xbd816950	-0.06318915
62	0xbd6f48ec	-0.058419153
63	0xbd3883f3	-0.04504771
64	0x3d2d255a	0.04227195
65	0xbe0df504	-0.13862997
66	0xbcfce003	-0.030868536
67	0xbcc56938	-0.024098024
68	0xbd1d0c05	-0.03834154
69	0xbd0c7d6c	-0.0342993
70	0xbe0a6367	-0.13514481
71	0xbd3550b3	-0.044266414
72	0xbdb67bc9	-0.08910329
73	0xbdc3c5da	-0.095592216
74	0xbd1de325	-0.0385467
75	0x3cf8d13c	0.030373208
76	0x3d716790	0.058936656
77	0x3c9d05ce	0.019167807
78	0xbc2eb717	-0.010663769
79	0x3ce91737	0.028453453
80	0xbd4df83b	-0.05028556
81	0x3d4ae6bc	0.04953645
82	0x3de02539	0.109446
83	0x3d0c6d37	0.034283843
84	0x3db933b0	0.09043062
85	0xbdfd2602	-0.12360765
86	0x3c347830	0.011014983
87	0x3e272e53	0.16326265
88	0x3e159f5e	0.14611575
89	0x3e11374a	0.14181247
90	0xbe3c88be	-0.18411538
91	0xbe4444b7	-0.19166838
92	0xbcdf76f1	-0.027278395
93	0x3e352bc1	0.17692472
94	0x3e33e29c	0.17566913
95	0xbe6916e8	-0.22762644
96	0xbea73930	-0.32660818
97	0xbe971162	-0.2950545
98	0xbcd4bd45	-0.025969157
99	0x3d7c9274	0.061663106
100	0x3cbd058c	0.023073934
101	0x3dc6bdab	0.09704145
102	0x3d5b0388	0.053470165
103	0x3d0e708c	0.0347753
104	0xbdb2f85a	-0.087387756
105	0xbd814958	-0.06312817
106	0xbd821065	-0.06350783
107	0xbd0aca0e	-0.0338841
108	0xbc9805ad	-0.018557394
109	0xbb410f59	-0.002945861
110	0xbe1a40df	-0.15063809
111	0xbe1a45f2	-0.15065745
112	0xbd6ef07a	-0.058334805
113	0xbcca243d	-0.024675483
114	0xbd89c647	-0.067272715
115	0xbd3e33b4	-0.046436027
116	0xbe000782	-0.12502864
117	0xbe0c339a	-0.1369156
118	0xbd97b768	-0.07408029
119	0xbd5ed5bd	-0.054403055
120	0xbd74eea9	-0.059797917
121	0xbe07e3a2	-0.13270429
122	0xbe08b666	-0.1335083
123	0xbda382e3	-0.07983949
124	0xbd5c8241	-0.053835157
125	0x3d98facf	0.07469713
126	0x3e6501e0	0.22363997
127	0x3e48733d	0.1957521
128	0x3d1e484b	0.038643163
129	0xbb85f70b	-0.0040882877
130	0xbc6c51f3	-0.014423835
131	0x3dbaf223	0.09128215
132	0x3e6b6ccc	0.22990721
133	0x3e1b8f03	0.15191273
134	0x3b6f6bb0	0.0036532693
135	0xbdde1d46	-0.10845427
136	0xbd42c135	-0.047547538
137	0x3dd2088e	0.10255538
138	0x3e28f87e	0.16501042
139	0x3e10d066	0.14141998
140	0xbe4a49ad	-0.19754668
141	0xbe02e010	-0.12780786
142	0xbdc47810	-0.095932126
143	0x3e11c058	0.1423353
144	0x3e195cc4	0.14976794
145	0xbd623f6d	-0.05523627
146	0xbe2671ad	-0.16254301
147	0xbe1c8224	-0.1528402
148	0xbcec3a30	-0.02883634
149	0x3d02219f	0.031770345
150	0xbd60e9f6	-0.054910623
151	0xbcd43a32	-0.025906656
152	0xbbd6a15c	-0.0065499973
153	0x3d171ff3	0.036895704
154	0x3cec4656	0.028842133
155	0xbda48b17	-0.08034342
156	0xbda912f6	-0.0825557
157	0xbd9e58d7	-0.077317886
158	0xbce7fefc	-0.028319828
159	0x3d2ae593	0.041722845
160	0xbe14ce30	-0.1453178
161	0xbdd7cc40	-0.105370045
162	0xbe1a4c5d	-0.15068193
163	0xbdf3c646	-0.11903052
164	0xbca5aec7	-0.020224942
165	0xbca6c805	-0.020359049
166	0xbd28ff65	-0.04125919
167	0xbcc279ec	-0.023739778
168	0xbd3be47e	-0.045872204
169	0xbd882f30	-0.06649625
170	0x3c8981f5	0.016785601
171	0xbd35a62a	-0.04434792
172	0xbd72f9dc	-0.059320316
173	0xbd3a36df	-0.045462485
174	0xbd499abc	-0.04921983
175	0xbd5da3b0	-0.054111183
176	0xbb49f8bb	-0.003081842
177	0x3dbb14f3	0.09134855
178	0x3e0cfb3c	0.13767713
179	0x3dea8a70	0.11452186
180	0xbe247ec9	-0.1606399
181	0xbdf13551	-0.117777474
182	0xbd9bb5d0	-0.07603037
183	0xbcab9bb8	-0.020948276
184	0x3c4eca36	0.012621453
185	0xbdb68411	-0.089119084
186	0xbe4f21e7	-0.20227776
187	0xbdea0ec2	-0.11428596
188	0xbdcc657f	-0.09980296
189	0xbd8e1b78	-0.06938833
190	0x3cfbbd01	0.030729773
191	0xbd7e409f	-0.062073346
192	0xbe03a6bf	-0.12856577
193	0xbdb74eec	-0.089506
194	0xbdba0ce4	-0.0908449
195	0x3e47fb7b	0.19529526
196	0x3d5ce2fb	0.053927403
197	0x3cc15cb8	0.023603782
198	0xbd38994e	-0.045068078
199	0xbd12c484	-0.035831943
200	0xbd9af2bd	-0.0756583
201	0xbdd79a8a	-0.10527523
202	0xbdee3bbc	-0.11632487
203	0xbd9b2e2b	-0.07577165
204	0xba7b13ad	-0.0009577822
205	0xbe035998	-0.12827146
206	0xbe0fcf0f	-0.1404383
207	0xbd962e56	-0.07333057
208	0xbd65d6e4	-0.05611314
209	0xbcb54f71	-0.022132607
210	0xbe2aced2	-0.16680458
211	0xbe5c3f4e	-0.21508524
212	0xbe080916	-0.13284716
213	0xbdbb66af	-0.09150445
214	0xbded486e	-0.115860805
215	0xbe292c9a	-0.1652092
216	0xbe3f2617	-0.18666874
217	0xbdf09c3c	-0.11748549
218	0xbe1faa85	-0.15592392
219	0xbe2d2e66	-0.16912231
220	0xbd8a8922	-0.06764437
221	0x3cbf4b37	0.023351295
222	0xbd8b44b0	-0.068002105
223	0xbcde77ed	-0.027156794
224	0xbd0edadb	-0.034876686
225	0xbc6469a7	-0.013941205
226	0xbcc168d1	-0.02360955
227	0x3ca08cf1	0.019598456
228	0xbd4beba5	-0.049785275
229	0x3d652f54	0.05595334
230	0xbd79a319	-0.060946558
231	0xbaf16904	-0.0018418138
232	0xbd87b76a	-0.0662678
233	0xbc36c440	-0.011155188
234	0x3d277d61	0.040891055
235	0xbded9164	-0.11599997
236	0x39ff2ff0	0.00048673106
237	0xbc9cc43f	-0.019136546
238	0x3d7b0e24	0.061292782
239	0x3d4b9d36	0.049710475
240	0xbdd5d992	-0.10441889
241	0xbd8fd3f7	-0.07022851
242	0x3d1013a2	0.035174973
243	0xbba2592a	-0.004954477
244	0xbc8bc128	-0.017059878
245	0xbe033620	-0.12813616
246	0xbd93d423	-0.07218196
247	0x3bbac0a1	0.0056992327
248	0x3c510ef0	0.012759909
249	0xbd29e845	-0.041481275
250	0x3d162cef	0.036663946
251	0x3db06d15	0.08614556
252	0x3d257037	0.04039022
253	0x3d7b8829	0.06140915
254	0x3bb9c4e3	0.0056692227
255	0xbd42479a	-0.047431566

bias f4 [32]
0	0x3d8c0c38	0.06838268
1	0xbaef849f	-0.0018273777
2	0x3d07a30a	0.03311447
3	0x3db40122	0.087892786
4	0x3b66fae7	0.0035244764
5	0x3d5c450a	0.05377678
6	0xbd05fd15	-0.03271206
7	0xbcd0325a	-0.025414634
8	0x3d3dc14f	0.04632693
9	0xbcd897b2	-0.026439521
10	0xbcf8e97a	-0.030384768
11	0xbcd14c80	-0.025549173
12	0x3d3e0652	0.046392746
13	0x3dc781bf	0.09741544
14	0xbcfdbbae	-0.030973282
15	0x3cfa4ba9	0.030553656
16	0x3b8f1d1b	0.0043674833
17	0x3cf0ab8d	0.029378677
18	0xbc72190f	-0.014776482
19	0x3d4614b1	0.048359577
20	0x3d6758d9	0.056481216
21	0x3c8939e2	0.016751233
22	0xbd262258	-0.040560097
23	0x3d7c4063	0.06158484
24	0x3d48fb5e	0.049067847
25	0x3d38dfe2	0.045135386
26	0x3d874322	0.066046014
27	0x3d0efea5	0.034910817
28	0x3d240814	0.040046766
29	0xbcdb1bba	-0.02674662
30	0x38803227	6.112857e-05
31	0x3da58705	0.080823936

weight f4 [64, 32, 5, 5]
0	0xbc767ed4	-0.015044887
1	0xbd27c3a8	-0.040958077
2	0x3c6ccfe3	0.014453861
3	0xbc63b69b	-0.013898517
4	0xbd3d6ec4	-0.046248212
5	0xbcd48042	-0.025940064
6	0x3cafcac9	0.021459
7	0xbc8eb501	-0.017420294
8	0x3bbd2d81	0.0057732468
9	0xbc71fe39	-0.014770084
10	0x3c6648da	0.014055455
11	0xbbf14d63	-0.0073639615
12	0xbc13523f	-0.008991777
13	0xbcef9775	-0.029247025
14	0xbd0fe398	-0.03512916
15	0x3ae871e2	0.0017734135
16	0xbc2b9a11	-0.010473744
17	0xbc78fcd9	-0.015197002
18	0xbbecf047	-0.0072307917
19	0xbc0a5779	-0.008443707
20	0xbd3193a6	-0.0433537
21	0xbcc89765	-0.024486253
22	0x3c0c7a9f	0.008574157
23	0xbba4d538	-0.0050303005
24	0xbc984af7	-0.018590434
25	0xbb8effff	-0.004364013
26	0xbbd5cdc1	-0.006524772
27	0x3c22e209	0.009941586
28	0x39fdb113	0.0004838785
29	0xbd13bc08	-0.036067992
30	0xbb96672c	-0.0045899358
31	0xbd2246a8	-0.039618164
32	0x3d2e1ce1	0.04250801
33	0xbcdea22b	-0.027176937
34	0xbc96fbc6	-0.018430602
35	0xbd1ce317	-0.038302507
36	0x3c2aa519	0.010415339
37	0xbcf702b2	-0.030152652
38	0xbcf10088	-0.029419199
39	0xbb59b35d	-0.003321848
40	0x3b0c19e7	0.0021377744
41	0xbd38ee71	-0.04514927
42	0xbd343334	-0.043994144
43	0xbc32ed3f	-0.010920822
44	0xbc5ae99c	-0.013361361
45	0xbc511f4f	-0.012763812
46	0xbb23847d	-0.0024950795
47	0x3c10cc8f	0.008837833
48	0x3cbf58b5	0.023357728
49	0xbd1ff37f	-0.039050575
50	0xbc2a10b3	-0.010379958
51	0xbbbb17c4	-0.00570962
52	0xbc2dceee	-0.010608418
53	0x3c5cf2d3	0.013485628
54	0xbb9beae6	-0.0047582267
55	0xbd30f4b1	-0.043202106
56	0x3ca22ce1	0.01979679
57	0xbc59ffd2	-0.013305621
58	0xbd25bb48	-0.04046181
59	0x3bb2f89f	0.005461767
60	0xbc89e43a	-0.01683246
61	0xbc89d5c3	-0.016825562
62	0xbb3af430	-0.0028526895
63	0xbb848d60	-0.0040451735
64	0xbc38d832	-0.011282014
65	0xbce1d814	-0.027568854
66	0xbceb40c0	-0.028717399
67	0x3be9c200	0.0071337223
68	0xbcc278d3	-0.023739254
69	0x3cad4c1c	0.021154456
70	0xbc2bcbd4	-0.010485608
71	0xbd0c80e4	-0.034302607
72	0xbcf752f8	-0.03019093
73	0x3c104eb6	0.008807829
74	0xbd0795a9	-0.03310171
75	0x3cb445aa	0.022005875
76	0xbcefd47b	-0.029276123
77	0xbc544b60	-0.012957424
78	0x3b7c23a9	0.0038473404
79	0xba1802ad	-0.00057987386
80	0xbd03aab5	-0.03214522
81	0xbb9a63e0	-0.004711613
82	0xbd14e261	-0.036348704
83	0xbc03e3cd	-0.008049917
84	0xbc66009e	-0.014038233
85	0xbc9b31ef	-0.018944709
86	0xbcb8fcfa	-0.022581566
87	0xbbf84bed	-0.0075774104
88	0xbd4d2f90	-0.050094187
89	0xbd0ea046	-0.034820817
90	0x3c89c43a	0.0168172
91	0x39f834e2	0.00047341647
92	0xbbac23e5	-0.0052533024
93	0xbd107a3c	-0.03527282
94	0xbcf05c3e	-0.02934086
95	0x3cbad074	0.022804476
96	0xbcc13a98	-0.02358751
97	0x3c1de669	0.009637454
98	0xbc33fb84	-0.010985259
99	0xbd20e549	-0.039281163
100	0x3b931855	0.0044889846
101	0xbd26c242	-0.040712602
102	0xbbdfb200	-0.006826639
103	0xbcd98cac	-0.026556335
104	0xbd0c93d9	-0.034320686
105	0x3c213241	0.009838642
106	0x3b0c96f2	0.0021452275
107	0x3b5a65a5	0.0033324745
108	0xbd265c1e	-0.040615194
109	0xbcdd4f26	-0.02701528
110	0xbcb9cba6	-0.022680115
111	0xbd072ffc	-0.033004746
112	0xbd0a1760	-0.0337137
113	0x3c84f958	0.016232178
114	0xbc9c56a8	-0.01908429
115	0x3cb3e36b	0.021959027
116	0x3cbaa950	0.022785813
117	0xbd326014	-0.04354866
118	0x3bb88f66	0.005632329
119	0x3c5fc50b	0.013657819
120	0xbd151111	-0.03639323
121	0xbd31b5a6	-0.043386124
122	0x3c41a508	0.011819132
123	0x3cb1a648	0.021685734
124	0x3c2eb070	0.010662183
125	0x3b946b57	0.0045293975
126	0x3c3fbdc6	0.01170296
127	0xbbdfb6b1	-0.0068271984
128	0x3bc44622	0.005989806
129	0x3c8a17db	0.016857078
130	0xbbc6f05b	-0.006071133
131	0xbd021170	-0.03175491
132	0xbcc4b82f	-0.024013607
133	0xbbd791ec	-0.0065786745
134	0xbd366b59	-0.04453597
135	0x3c9b2610	0.018939048
136	0x3cb6411c	0.022247843
137	0xbca1be3f	-0.019744037
138	0x3c760a2e	0.015017075
139	0xbc69fc95	-0.014281412
140	0x3d059533	0.03261299
141	0xbc1e2436	-0.009652188
142	0xbd0e1edf	-0.03469741
143	0xbc31aea3	-0.010844859
144	0x3c1eec80	0.009699941
145	0x3b4e3ddb	0.0031469974
146	0xbccc4283	-0.024934059
147	0xbcd99389	-0.026559608
148	0xbce4fd4f	-0.027952818
149	0xbc8834c5	-0.016626725
150	0x3b164e8e	0.0022935006
151	0x3cabbd56	0.020964306
152	0xbd2279c6	-0.039666913
153	0xbca5ca96	-0.020238202
154	0xbc834103	-0.016022211
155	0x3c816a72	0.015797827
156	0x3c720c1a	0.014773393
157	0x3c4e76c3	0.012601557
158	0x3c007116	0.007839462
159	0xbcbe8749	-0.023257868
160	0x3cffffa8	0.031249836
161	0x3d077cf0	0.033078134
162	0xbc901c8e	-0.017591741
163	0x3cbb4742	0.022861127
164	0x3c847c49	0.016172545
165	0x3d46cd37	0.048535552
166	0x3d112841	0.03543878
167	0x3ca9eab5	0.0207418
168	0x3c6d3c8f	0.01447977
169	0x3cbdbb65	0.023160646
170	0x3aee420c	0.0018177642
171	0xbd200121	-0.039063577
172	0x3c6c0432	0.014405297
173	0x3cb14110	0.02163747
174	0x3d0f0c0f	0.03492361
175	0xbbb8971a	-0.005633247
176	0xbcb48a92	-0.022038732
177	0xbceb650f	-0.028734712
178	0x3c9f8b75	0.019475678
179	0xbc5c8f25	-0.013461863
180	0x3b4af5d3	0.0030969277
181	0xbd1d7eaa	-0.038450874
182	0xbc94f4a3	-0.018183058
183	0xbca0a039	-0.01960765
184	0xbcc36de8	-0.023856118
185	0x3ca43357	0.020044012
186	0xbd397269	-0.045275126
187	0x3cc167f5	0.02360914
188	0xbc2c956b	-0.010533671
189	0x3c4bc27b	0.0124365045
190	0xbd3e13cf	-0.04640561
191	0xbcbee5aa	-0.023302872
192	0xbbf821e7	-0.007572401
193	0x3b784dea	0.0037888237
194	0xbd3c41ff	-0.045961376
195	0x3cc224ad	0.023699129
196	0x3c447e21	0.011992962
197	0xbd08a3f2	-0.033359475
198	0x3c99f989	0.018795745
199	0xbc827fd9	-0.015930103
200	0xbd1c181c	-0.03810893
201	0xbcee64c4	-0.029100783
202	0xbc30d969	-0.010794022
203	0xbcb659dd	-0.022259647
204	0xbcd36a3f	-0.025807498
205	0xbd304d7b	-0.04304264
206	0xbc728afd	-0.014803645
207	0xbb230426	-0.0024874299
208	0xbd24c836	-0.04023
209	0x3cac6093	0.021042144
210	0xbc8d8512	-0.017275367
211	0x3c53c0b0	0.012924358
212	0x3cb734f2	0.022364113
213	0x3cdff711	0.02733949
214	0x3ca063ca	0.019578833
215	0xbd0ee005	-0.03488161
216	0xbcdda918	-0.02705817
217	0x3b1ac377	0.0023615041
218	0x3ba70603	0.005097152
219	0xbb5407a2	-0.0032353182
220	0x39fab67a	0.0004781967
221	0x3cda0b9f	0.02661687
222	0xbc5a91bf	-0.013340413
223	0xbd060d33	-0.03272743
224	0xbd4102a2	-0.04712165
225	0xbc11302c	-0.008861583
226	0xbc76b3ab	-0.015057485
227	0xbd0fd3b0	-0.03511399
228	0xbd28e1c4	-0.041230932
229	0x3a85ec7a	0.001021757
230	0xbd281990	-0.041040003
231	0xbbd954bf	-0.006632417
232	0xbd1ee6b4	-0.038794234
233	0xbc35e912	-0.011102932
234	0xbd1a0dca	-0.037610807
235	0xbd0e6afa	-0.03476999
236	0xbcd83cd3	-0.02639619
237	0xbc7b1ebe	-0.015327154
238	0xbc2a2182	-0.010383965
239	0xbc2968c5	-0.01033992
240	0xbc7da164	-0.015480373
241	0xbb096ecb	-0.0020970579
242	0xbbd380eb	-0.006454577
243	0xbcbce1c4	-0.023056872
244	0x3bc03d52	0.005866685
245	0x3cb184fe	0.02166986
246	0xbc62eecc	-0.013850879
247	0xbd3abfb2	-0.04559297
248	0xbd3e8412	-0.04651267
249	0x3c0a28bc	0.008432563
250	0xbd29477f	-0.04132795
251	0xbcf14291	-0.029450687
252	0xbc85905e	-0.016304191
253	0x3c753089	0.014965185
254	0xbabe86f9	-0.0014536075
255	0xbc4b430d	-0.012406123

bias f4 [64]
0	0x3bf8f75a	0.007597846
1	0x3c592f4b	0.013255904
2	0xba6d6fca	-0.00090574904
3	0x3d6b5e75	0.057463128
4	0x3d72140f	0.05910116
5	0x3b222e6c	0.0024746908
6	0xbcbfb169	-0.023400025
7	0x3c62f00b	0.013851176
8	0xbd426705	-0.04746153
9	0xbcd9849b	-0.026552489
10	0xbcb3b266	-0.021935653
11	0xbca6c209	-0.020356195
12	0xbd11ddeb	-0.035612028
13	0xbda7c727	-0.08192282
14	0xbb037a86	-0.0020062043
15	0xbb7c0fd8	-0.0038461592
16	0x3a390526	0.0007057957
17	0xbd5d6bec	-0.054058
18	0xbd3216cf	-0.043478783
19	0xbd0dd8d7	-0.034630623
20	0xbccbb69a	-0.024867345
21	0x3da51487	0.08060556
22	0xbc421173	-0.0118449805
23	0xbcec7864	-0.028866
24	0x3c33c2b2	0.010971712
25	0x3dbc7668	0.09202272
26	0x3bf95ba9	0.0076098037
27	0x3c1a20d6	0.009407243
28	0xbd872f45	-0.06600813
29	0xbd43b60a	-0.047781028
30	0xbd2ad722	-0.041709073
31	0xbd2c7b56	-0.04210981
32	0xbd5a3fd0	-0.053283513
33	0x3c52a981	0.012857796
34	0x3d34f89a	0.044182397
35	0xbcc572d9	-0.024102615
36	0xbd1175c2	-0.035512693
37	0xbbcff301	-0.006346107
38	0x3d08242f	0.033237632
39	0xbcf11809	-0.029430406
40	0x3c80d70e	0.015727546
41	0xbdbc1fb6	-0.09185736
42	0xbc3307d8	-0.010927163
43	0xbb32aafc	-0.002726256
44	0xbd2824c9	-0.041050706
45	0x3ca303fd	0.019899363
46	0x3be905e7	0.0071112993
47	0xbd53b963	-0.05169047
48	0xbb90b3f3	-0.004415983
49	0x3cb84489	0.022493618
50	0xbadda2e2	-0.0016909505
51	0x3d6689ba	0.05628369
52	0xbc064b8f	-0.0081967255
53	0xbaa4be30	-0.0012568887
54	0xbc7d8a2a	-0.015474835
55	0xbc5cef76	-0.013484826
56	0xbd5264a5	-0.051365513
57	0x3b836810	0.004010208
58	0xbbe6be57	-0.0070417332
59	0xbb8b0ae4	-0.0042432416
60	0xbc8b2e14	-0.016989745
61	0x3cb105af	0.021609155
62	0x3cc99548	0.024607316
63	0xbad6322b	-0.0016341856

weight f4 [100, 576]
0	0x3c9d813c	0.019226663
1	0xbd0eb7ee	-0.034843378
2	0xbc1f6ace	-0.009730054
3	0xbcc7a475	-0.024370411
4	0xbcc5b0a0	-0.024132073
5	0xbbb3fe7c	-0.0054929834
6	0x3d1c0d83	0.038098823
7	0x3bd3349d	0.006445481
8	0xbd2a21db	-0.041536193
9	0x3ca32fb3	0.019920206
10	0xbcb93d68	-0.022612289
11	0xbc97bc56	-0.018522423
12	0x3c7b9b80	0.015356898
13	0x3cc25670	0.023722857
14	0xbd1be0da	-0.038056232
15	0xbd04c787	-0.032416847
16	0xbc3afe50	-0.011413172
17	0x3d118580	0.035527706
18	0x3bef4f6f	0.0073031704
19	0xbca5df37	-0.020248039
20	0xbc816f99	-0.015800284
21	0x3d873962	0.06602742
22	0x3cc590c1	0.024116876
23	0xbcec9e66	-0.028884124
24	0x3c96e0a1	0.018417658
25	0x3c97f077	0.01854728
26	0xbcd2ab87	-0.025716556
27	0x3db5a295	0.08868901
28	0x3c13954b	0.009007762
29	0xbc8c65d8	-0.017138407
30	0xbd95a33b	-0.07306524
31	0xbdb4fc47	-0.088371806
32	0x3d67211b	0.056428056
33	0xbe0f0148	-0.13965333
34	0x3cc27180	0.023735762
35	0x3db4d23c	0.088291615
36	0x3dc1b4e1	0.09458328
37	0x3c8856b7	0.016642911
38	0xbcf8d2d6	-0.030373972
39	0x3c815c60	0.015791118
40	0x3c87078d	0.016483093
41	0x3c2fbbf6	0.010725966
42	0xbb90420b	-0.004402404
43	0xbdfa863e	-0.12232636
44	0xbd07dafc	-0.033167824
45	0xbd49991a	-0.049218275
46	0xbdc7ce1a	-0.09756108
47	0xbdb591e0	-0.08865714
48	0x3d7e3f02	0.062071808
49	0x3d835e97	0.06414526
50	0xbbb9f6c2	-0.005675168
51	0x3df0f60d	0.117656805
52	0x3c997410	0.0187321
53	0xbdfb024e	-0.12256299
54	0x3cfcef08	0.030875698
55	0x3d12367d	0.035696495
56	0xbd249004	-0.040176407
57	0x3c894f96	0.016761582
58	0x3d82f309	0.063940115
59	0xbc0cb163	-0.008587214
60	0x3cc66402	0.02421761
61	0x3d4f84e7	0.050663855
62	0xbdcb9742	-0.099409595
63	0x3ca18254	0.019715466
64	0xbd855e1d	-0.06512091
65	0xbba06c95	-0.0048957565
66	0x3e082261	0.13294365
67	0xbc3a3172	-0.011364328
68	0x3c96f9a3	0.018429583
69	0x3cd4f5cb	0.02599611
70	0x3d921587	0.07133012
71	0xbc463202	-0.012096884
72	0x3ce88526	0.028383803
73	0x3d8921c5	0.06695894
74	0xbc72c6fc	-0.014817949
75	0xbd6377f5	-0.05553432
76	0xbd1376b8	-0.03600189
77	0x3c306e72	0.01076852
78	0x3d45f5ca	0.048330106
79	0xbd54809e	-0.05188047
80	0xbdce1197	-0.10061949
81	0x3c8d3d3a	0.01724111
82	0x3cbcb1b0	0.023033947
83	0x3c1b52cc	0.0094801895
84	0x3cfe02fc	0.031007282
85	0xbc943938	-0.01809369
86	0x3c7f7927	0.01559285
87	0x3db5aa45	0.08870367
88	0xbc79c5c2	-0.015244903
89	0x3c78a19b	0.0151752485
90	0xbd11ad6c	-0.03556578
91	0x3d70127a	0.05861137
92	0xbbdd69e9	-0.0067570102
93	0xbd93c716	-0.07215707
94	0xbbc80988	-0.006104652
95	0xbdc8e58f	-0.0980941
96	0x3b146b3e	0.002264693
97	0x3d94b9ba	0.07261987
98	0x3d5df75f	0.05419099
99	0x3b8dbd76	0.004325564
100	0xbc101a0b	-0.008795272
101	0xbc326376	-0.010887971
102	0x3c9f509e	0.019447621
103	0xbc070b06	-0.008242374
104	0x3d13200c	0.035919234
105	0xbd131f01	-0.03591824
106	0x3aa3eed6	0.0012507092
107	0xbc037170	-0.008022651
108	0xbd011953	-0.03151829
109	0x3d7c6321	0.061617974
110	0x3d4679a9	0.048455868
111	0x3d65041a	0.055912115
112	0x3bed2cb4	0.007237995
113	0x3c0b1a0b	0.008490096
114	0x3daa6fbb	0.08322092
115	0x3cae8fff	0.021308897
116	0xbd0923b9	-0.033481333
117	0x3d4b928d	0.04970031
118	0x3c923c0e	0.017850902
119	0x3d887653	0.066631936
120	0x3d8dba6a	0.06920321
121	0xbc58dcba	-0.013236219
122	0x3b779c5d	0.0037782409
123	0x3da10afa	0.07863422
124	0xbdad9e88	-0.08477503
125	0xbd91679f	-0.07099842
126	0x3d1600c1	0.036621813
127	0xb9804858	-0.00024467963
128	0x3dad918d	0.08475027
129	0x3d7c8aad	0.06165569
130	0x3da65a80	0.0812273
131	0x3c6db338	0.014508061
132	0x3c51c3f8	0.01280307
133	0xbcf2fe4e	-0.029662278
134	0xbdb458a1	-0.08805967
135	0xbcc7b566	-0.02437849
136	0x3b7bd9c6	0.0038429364
137	0xba4a2d0d	-0.00077124016
138	0x3d8a0e52	0.06741013
139	0x3d86aa06	0.06575398
140	0xbb0b803e	-0.0021286155
141	0x3bfc3cc8	0.0076976754
142	0x3cfd1eac	0.030898415
143	0xbd79fe34	-0.061033443
144	0xbb5caeb3	-0.0033673465
145	0xbcd798e1	-0.026318016
146	0xbd66ec3c	-0.056377634
147	0x3db443ef	0.0880202
148	0xbcc17241	-0.02361405
149	0xbdbde876	-0.09272854
150	0xbc8a67f1	-0.016895266
151	0x3cc2999c	0.023754887
152	0xbd42116b	-0.047379892
153	0xbdb81ce1	-0.08989883
154	0xbd5a8fa1	-0.05335963
155	0x3d57160e	0.052511267
156	0x3b71e43d	0.0036909722
157	0x3d1a4ccd	0.0376709
158	0xbd2ceb53	-0.04221661
159	0x3d4785aa	0.048711456
160	0xbd13aa31	-0.03605098
161	0xbd616895	-0.055031378
162	0xbc3a1f9b	-0.011360074
163	0x3ce376e0	0.027766645
164	0x3d04b59c	0.03239976
165	0xbbd9f94b	-0.0066520325
166	0xba8f0800	-0.0010912418
167	0x3d0eb6eb	0.034842413
168	0x3d1dc240	0.03851533
169	0xbd175028	-0.036941677
170	0xbcccd19b	-0.025002291
171	0xbc5eecdd	-0.013606277
172	0xbc32db38	-0.010916524
173	0xbd90523f	-0.07046937
174	0xbccf271c	-0.025287203
175	0xbd19ac20	-0.037517667
176	0xbd0e1394	-0.03468664
177	0xbcb9460e	-0.022616412
178	0x3bf1975e	0.0073727807
179	0xbd7b9258	-0.06141886
180	0x3db0cdff	0.08633041
181	0x3dc89821	0.09794641
182	0x3ccbfe8b	0.024901649
183	0xbdd008c4	-0.10157922
184	0xbd06b6d3	-0.0328892
185	0x3d72eb48	0.059306413
186	0xbe0a5877	-0.13510309
187	0x3b08a00b	0.0020847346
188	0xbdcf05a6	-0.10108499
189	0x3d611c12	0.05495841
190	0x3d018049	0.031616483
191	0xbd95b869	-0.07310564
192	0x3c3fe13f	0.011711418
193	0x3da55ea8	0.08074695
194	0xbe80cfb3	-0.25158462
195	0xbd0174f6	-0.031605683
196	0x3d64b965	0.05584087
197	0x3cbfdae0	0.023419797
198	0xbd2909ec	-0.041269228
199	0x3c81f513	0.01586393
200	0xbcd6b18c	-0.026207708
201	0xbc85e7d6	-0.0163459
202	0xbcd50238	-0.026002035
203	0x3c753c46	0.014967984
204	0xbc0af320	-0.008480817
205	0xbc0b0240	-0.008484423
206	0xbcc7dcae	-0.02439722
207	0xbbc2ed7a	-0.0059487196
208	0x3d1d4c25	0.038402695
209	0x3cab761d	0.020930344
210	0x3cdc6b9d	0.026906783
211	0x3d277eb7	0.04089233
212	0xbcd2d729	-0.025737362
213	0x3bb24f84	0.005441608
214	0x3c940dff	0.01807308
215	0xbc2825e9	-0.010262945
216	0x3dbd3e1f	0.09240364
217	0xbc9ba250	-0.018998295
218	0xbace85ab	-0.0015756389
219	0x3d0b2173	0.033967447
220	0xbcc54146	-0.024078976
221	0xbca14c53	-0.019689715
222	0xbc842967	-0.016133023
223	0xbc2000a6	-0.00976578
224	0x3c741866	0.014898395
225	0x3cd1d475	0.025614003
226	0x3cececfa	0.028921593
227	0x3d09f6ff	0.03368282
228	0xbb848424	-0.0040440727
229	0xbca44a3a	-0.020054925
230	0x3cb347f4	0.021884896
231	0xbe2a1c1e	-0.16612288
232	0xbde7371e	-0.1128981
233	0xbbda7c0b	-0.006667619
234	0x3c5dd3d5	0.013539274
235	0x3c9ec400	0.01938057
236	0xbdc17f06	-0.09448056
237	0xbd2d3c59	-0.04229388
238	0xbb6d33c7	-0.0036194192
239	0xbd290649	-0.04126576
240	0xbd0a768c	-0.03380446
241	0x3c8c6184	0.017136343
242	0x3d1420e2	0.036164172
243	0x3d0e8b93	0.034801077
244	0x3d06ebe3	0.032939803
245	0x3d46ce16	0.048536383
246	0x3db2640e	0.0871049
247	0xbc0b5be5	-0.008505796
248	0xbd7d18ac	-0.061791107
249	0x3d1810a1	0.037125234
250	0x3c7446f6	0.0149094965
251	0xbd6e949c	-0.058247194
252	0xbda91ee1	-0.08257843
253	0x3d08e93f	0.033425566
254	0x3d189f9b	0.037261587
255	0xbce97e67	-0.028502656

bias f4 [100]
0	0xbd0bc4d1	-0.034123246
1	0x3b822e51	0.0039728065
2	0x3d361215	0.044450838
3	0x3d791fb9	0.06082127
4	0xbd50086e	-0.05078929
5	0xbd23ebac	-0.040019676
6	0x3d44818e	0.047975115
7	0x3d192c7d	0.037395943
8	0x3da4a0a1	0.0803845
9	0x3c6c37fe	0.014417646
10	0xb9ebd9d8	-0.00044985
11	0xbdfe62b0	-0.12421167
12	0xbcdcc20a	-0.026947994
13	0xbd45f8ae	-0.048332863
14	0x3ca62cdd	0.020285064
15	0x3d802095	0.062562145
16	0xbc69c11c	-0.014267232
17	0xbd3951a5	-0.045243878
18	0x3d029545	0.031880636
19	0xbb90e944	-0.0044223387
20	0xbdcc4086	-0.09973244
21	0x3c04fde6	0.008117175
22	0xbd3f2e7e	-0.046675198
23	0xbcbe04c8	-0.02319564
24	0xbc843e82	-0.016143087
25	0x3c0559f5	0.008139123
26	0xbd4c07ad	-0.049812008
27	0xbcc4403c	-0.02395641
28	0x3caab8ea	0.020840127
29	0xbd464f9b	-0.04841576
30	0xbc5e6fc0	-0.013576448
31	0x3bf346cf	0.0074242125
32	0x3d57be77	0.052671876
33	0xbd015601	-0.03157616
34	0x3d3c3b68	0.04595509
35	0x3d848beb	0.06472
36	0x3cd066e8	0.025439695
37	0x3d94c3f2	0.07263936
38	0xbd00675c	-0.03134857
39	0xbd12d65e	-0.035848968
40	0xbd50f2e5	-0.051012892
41	0x3a79213e	0.00095035497
42	0xbd5fa9bb	-0.054605227
43	0x3d053c01	0.032527927
44	0x3d283fdc	0.041076526
45	0xbcb95c04	-0.022626884
46	0xbc9ed50f	-0.019388704
47	0x3d062889	0.0327535
48	0xbd962857	-0.07331913
49	0xbd0cd088	-0.03437856
50	0x3da6a72d	0.08137355
51	0x3d9c51d7	0.07632797
52	0xbd82186f	-0.063523166
53	0xbcd0b202	-0.025475506
54	0xbc1fc6a6	-0.009751951
55	0xbd172fa4	-0.036910668
56	0xbc2c7738	-0.010526471
57	0x3bc8ffe9	0.0061340225
58	0x3daff0eb	0.08590873
59	0x3b0348a1	0.0020032304
60	0x3c8cc682	0.0171845
61	0xbd292a17	-0.041299906
62	0xbcd5abfc	-0.026082985
63	0xbd2678f9	-0.040642712
64	0x3c392915	0.011301299
65	0xbb21eaca	-0.0024706596
66	0x3c8a81d2	0.016907606
67	0xbc86ba89	-0.016446369
68	0xbccd87f6	-0.025089245
69	0x3c8e3ecd	0.01736393
70	0x3d33558a	0.04378275
71	0x3cbf73ac	0.023370586
72	0xbd4217e6	-0.047386073
73	0xbc4c30f8	-0.012462847
74	0xbd8d6099	-0.0690319
75	0xbcc52f8d	-0.024070526
76	0x3c5f732e	0.013638301
77	0xbd39704a	-0.045273103
78	0xbd2ae048	-0.041717798
79	0xbc8d1cf5	-0.017225722
80	0x3c0d47be	0.008623062
81	0x3ce6dea4	0.028182335
82	0x3da58253	0.08081498
83	0xbba15920	-0.0049239546
84	0x3d54a367	0.051913645
85	0xbd40b97b	-0.047051888
86	0xbd85f93b	-0.065416776
87	0xbd4da94d	-0.050210286
88	0xbd20c31f	-0.039248582
89	0xbd5a9469	-0.05336419
90	0xbd883a1b	-0.06651708
91	0xbc7a0328	-0.015259542
92	0xbd26bde0	-0.040708423
93	0xbe07bb30	-0.13255
94	0xbd542b4b	-0.0517991
95	0x3beaabe6	0.007161605
96	0x3d2c21b8	0.042024344
97	0xbd2c0d5c	-0.042004928
98	0x3cbcc8f5	0.023045043
99	0x3cf26e8c	0.029593728

weight f4 [10, 100]
0	0xbd443bb9	-0.04790852
1	0x3dadd868	0.08488542
2	0xbc8a6ca4	-0.016897507
3	0xbd49929b	-0.04921208
4	0x3d8fc36f	0.07019698
5	0x3d802306	0.0625668
6	0xbc38d7c6	-0.011281913
7	0xbdf876f0	-0.121320605
8	0x3e1b7f57	0.15185295
9	0x3dda3a6d	0.10655675
10	0xbe1f7015	-0.155701
11	0xbda3623c	-0.07977721
12	0xbe01bcea	-0.12669721
13	0x3d0e75ff	0.0347805
14	0x3d79e57f	0.06100988
15	0xbcbf88d5	-0.023380676
16	0xbe023634	-0.1271599
17	0x3c42da51	0.011892871
18	0xbe05cdab	-0.13066737
19	0x3d1a1c8d	0.037624884
20	0x3e06bef7	0.13158785
21	0x3cce7d0a	0.025206108
22	0x3d0f28bd	0.03495096
23	0x3d04e554	0.032445267
24	0x3d956fa0	0.072966814
25	0xbd8d4713	-0.06898322
26	0x3da55c91	0.08074296
27	0xbdce4c00	-0.100730896
28	0x3da05061	0.07827831
29	0xbd8a74ac	-0.06760535
30	0xbc5efece	-0.013610555
31	0xbcbece40	-0.023291707
32	0xbcc114d5	-0.023569504
33	0x3d85061d	0.06495307
34	0x3e00f233	0.12592392
35	0xbde31c2b	-0.11089357
36	0xbdb0a689	-0.08625514
37	0xbe0fe0b2	-0.14050558
38	0x3bdeb403	0.0067963614
39	0x3d3d5767	0.04622593
40	0xbd32d575	-0.0436606
41	0x3d352027	0.044220116
42	0xbd967305	-0.07346157
43	0x3da1ef04	0.07906917
44	0xbe24552f	-0.1604812
45	0xbe20546f	-0.15657209
46	0x3d62169b	0.05519734
47	0x3d2e6fbf	0.042587038
48	0xbd3c6275	-0.045992333
49	0xbdd561a3	-0.10419013
50	0x3e2d1435	0.1690224
51	0xbdc86074	-0.09784022
52	0xbd0e11c9	-0.03468493
53	0x3d1b1ecd	0.03787117
54	0x3cf67ed0	0.030089766
55	0xbce406e1	-0.027835311
56	0x3d8d7a0d	0.06908045
57	0x3ce8314a	0.028343815
58	0xbd470949	-0.04859284
59	0x3d87f98e	0.06639396
60	0x3dab88af	0.0837568
61	0xbe1c933c	-0.1529054
62	0x3dedb547	0.116068415
63	0x3cfcf398	0.030877873
64	0xbdcc9ff1	-0.09991444
65	0xbdef4eb5	-0.11684934
66	0x3c14d788	0.00908459
67	0xbd359182	-0.04432822
68	0x3cdfa888	0.027302042
69	0x3b10f17b	0.002211659
70	0xbd8983d9	-0.06714601
71	0x3d64cd99	0.055860136
72	0x3db8d55e	0.090250716
73	0xbd05cc1c	-0.032665357
74	0xbd6659fc	-0.05623816
75	0xbd837024	-0.064178735
76	0xbda4d8c9	-0.08049161
77	0x3b08c855	0.002087136
78	0x3c186fc2	0.009303989
79	0x3d19379c	0.03740655
80	0xbdfa7b83	-0.12230589
81	0x3d85be89	0.06530482
82	0xbda1999b	-0.07890626
83	0xbe2e7a2a	-0.1703879
84	0xbe272daa	-0.16326013
85	0x3b05bd5a	0.0020407052
86	0xbde670f7	-0.11252015
87	0x3d29cacd	0.04145317
88	0xbd997224	-0.07492474
89	0xbde56b76	-0.11202137
90	0x3d3e8ec3	0.046522867
91	0x3d9290e2	0.071565405
92	0x3dc8e71d	0.09809706
93	0x3cb573ec	0.022150002
94	0xbda0c921	-0.07850862
95	0x3ce00b26	0.027349066
96	0x3dbe8c86	0.093041465
97	0xbca2f41a	-0.019891787
98	0x3c12a6ae	0.008950872
99	0x3e13c5d9	0.14430942
100	0xbe0e76f6	-0.13912567
101	0xbded889a	-0.1159832
102	0x3da77fef	0.08178698
103	0x3dac479f	0.08412098
104	0x3a6b08eb	0.00089658675
105	0xbcafd8ab	-0.02146562
106	0x3d815d8c	0.06316671
107	0x3dd14e96	0.10220067
108	0x3d4859e6	0.04891386
109	0x3d9592ed	0.073034145
110	0xbb519946	-0.0031982227
111	0x3c9a4310	0.018830806
112	0xbd3e23c5	-0.04642083
113	0x3d8c936e	0.068640575
114	0x3dad310b	0.0845662
115	0xbcf37553	-0.02971903
116	0xbd74677a	-0.059668995
117	0xbd91c967	-0.071184926
118	0x3e00ad8f	0.12566207
119	0x3bb97a38	0.0056603216
120	0xbd44d214	-0.04805191
121	0x3c0b111c	0.008487966
122	0xbd908efb	-0.07058521
123	0xbd780987	-0.06055596
124	0xbe1f1f95	-0.15539391
125	0xbdaac402	-0.08338167
126	0xbc161bf0	-0.009161934
127	0xbd602974	-0.054727033
128	0xbcd27903	-0.025692469
129	0xbdc7ff56	-0.09765498
130	0x3d664ed3	0.056227516
131	0xbd55f12c	-0.052231953
132	0x3db4e9bb	0.08833643
133	0xbe25fd50	-0.16209912
134	0x3d14be5e	0.03631436
135	0x3d67a478	0.056553334
136	0xbda1b246	-0.07895331
137	0x3d7a34b7	0.06108543
138	0xbd2b5603	-0.041830074
139	0xbcfe1652	-0.031016503
140	0x3bd3c9a7	0.006463248
141	0xbec41a92	-0.38301522
142	0x3bccbc30	0.0062480196
143	0x3e081c65	0.13292082
144	0x3dcdfb4f	0.10057699
145	0xbcd4e024	-0.025985785
146	0xbc828799	-0.015933799
147	0xbdd080e5	-0.10180835
148	0x3e3b9a1d	0.18320508
149	0x3dcd44b2	0.10022868
150	0x3e55f9ce	0.20896074
151	0x3e419df1	0.18907906
152	0x3d249094	0.040176943
153	0xbdc0175f	-0.09379458
154	0x3da57c80	0.08080387
155	0x3d99910e	0.0749837
156	0x3b0461c0	0.0020199865
157	0xbbda5a04	-0.0066635627
158	0x3d69dbc4	0.05709435
159	0xba7a7464	-0.0009554087
160	0xbe1af99a	-0.15134278
161	0xbd93def6	-0.07220261
162	0xbcb77b01	-0.02239752
163	0x3d344832	0.044014163
164	0xbd931505	-0.071817435
165	0xbd81d7be	-0.06339978
166	0xbe191cdf	-0.1495242
167	0xbdd4305b	-0.103607856
168	0xbe03fa1c	-0.12888378
169	0x3e1cf279	0.15326871
170	0xbe056679	-0.13027371
171	0xbd0e314f	-0.034714993
172	0xbe2cb0b6	-0.16864285
173	0x3d5bfe5c	0.053709373
174	0x3ddfedb4	0.1093401
175	0xbd8a6a7d	-0.06758592
176	0x3cd59f11	0.026076825
177	0xbdb9e9b3	-0.09077778
178	0x3db22fcb	0.08700522
179	0xbe1399a8	-0.14414084
180	0x3dddf72b	0.10838159
181	0xbdbf0402	-0.09326936
182	0x3db1cc34	0.08681527
183	0x3d857ed9	0.06518335
184	0x3cd468a8	0.02592881
185	0x3d7c9fe7	0.061675932
186	0xbe01f448	-0.12690842
187	0xbd95cdb6	-0.07314627
188	0xbddf673b	-0.109083615
189	0xbcc86b70	-0.024465293
190	0xbd557ea0	-0.052122712
191	0xbdca7930	-0.09886396
192	0xbd7054ed	-0.05867474
193	0xbe23ac6a	-0.1598374
194	0xbd235d9c	-0.039884195
195	0x3e20af28	0.15691817
196	0xbdb2a237	-0.08722346
197	0xbd94b983	-0.07261946
198	0xbccfee30	-0.025382131
199	0xbd103787	-0.035209205
200	0xbdfba5e2	-0.12287499
201	0xbd477787	-0.048697975
202	0x3b8ea97b	0.0043536997
203	0x3c99627d	0.01872372
204	0x3ce4c4d0	0.027925879
205	0xbd72e54e	-0.059300713
206	0xbe1f931d	-0.15583463
207	0x3d3ad575	0.045613725
208	0xbd64e725	-0.0558845
209	0x3d9938ef	0.07481562
210	0x3da3e508	0.080026686
211	0xbe0b0ade	-0.13578364
212	0x3dd597bf	0.10429334
213	0x3e09f15e	0.1347098
214	0xbcf9b07a	-0.030479658
215	0xbce4da4a	-0.02793612
216	0xbd570650	-0.052496254
217	0xbca277af	-0.01983246
218	0xbd83a847	-0.06428581
219	0xbd70681c	-0.058693036
220	0xbdc3a0b7	-0.09552138
221	0x3d3f6d89	0.04673532
222	0xbdc784b2	-0.097421065
223	0xbd5c1d9e	-0.053739183
224	0xbdce6d79	-0.10079474
225	0xbd33d646	-0.04390552
226	0x3af5b2a0	0.0018745251
227	0x3d2de990	0.04245907
228	0xbd7be9d7	-0.061502304
229	0x3d94fd14	0.07274833
230	0x3c2cde3f	0.0105510345
231	0x3d5521c4	0.052034155
232	0xbce27b37	-0.027646644
233	0xbdb8cc0f	-0.09023296
234	0xbafca80f	-0.001927616
235	0xbe0bb24f	-0.13642238
236	0xba94f030	-0.0011363085
237	0xbe026eb0	-0.12737536
238	0xbb3607c3	-0.0027775622
239	0xbd320b30	-0.0434677
240	0xbd7b375d	-0.061332095
241	0xbe123518	-0.14278066
242	0xbbd8ec46	-0.006619963
243	0x3d14b937	0.036309447
244	0xbdc54ab7	-0.09633391
245	0x3ddd98c4	0.10820153
246	0xbcf64647	-0.030062808
247	0x3cd6230c	0.026139759
248	0xbd34eedb	-0.044173103
249	0x3df18dc3	0.11794617
250	0xbcb92e1d	-0.022604996
251	0xbe3305c0	-0.17482662
252	0x3bedc529	0.0072561693
253	0x3df2f7db	0.11863681
254	0xbd78284c	-0.060585305
255	0xbc6cf54c	-0.01446278

bias f4 [10]
0	0xbd29eee6	-0.041487597
1	0x3e011a87	0.12607776
2	0xbdd29fd4	-0.10284391
3	0xbd889da1	-0.0667069
4	0x3cc0eaee	0.023549523
5	0x3d06ef66	0.032943152
6	0xbd797b3e	-0.06090855
7	0x3d8a667f	0.06757831
8	0x3d6cb0e1	0.057785872
9	0xbcc3262f	-0.023821918
