19 simple sound AI/decoder.pt (torch, 5328 bytes, 4 tensors)

weight f4 [16, 26]
0	0xbf035504	-0.513016
1	0x3f1add92	0.6049434
2	0xbe8562b9	-0.26051882
3	0x3de35bb1	0.11101473
4	0x3ee33d79	0.44382837
5	0xbea461f7	-0.3210599
6	0x3d85c871	0.06532372
7	0x3f09e181	0.53859717
8	0x3f0394b3	0.5139877
9	0xbedcbb7f	-0.43111798
10	0x3db1d5c6	0.08683352
11	0x3eaa8dd4	0.3331133
12	0xbddd4574	-0.10804263
13	0xbf0a16e4	-0.5394118
14	0x3e4fddd5	0.20299466
15	0xbc92a9e0	-0.017903268
16	0x3ef61688	0.48064065
17	0xbed150d4	-0.4088198
18	0xbe84531f	-0.25844666
19	0x3eb21668	0.3478272
20	0xbf06fddb	-0.527311
21	0xbe846b72	-0.25863224
22	0x3e51677b	0.20449631
23	0x3e6d5079	0.23175229
24	0x3dd6e82c	0.10493502
25	0xbef633ea	-0.48086482
26	0x3eb51762	0.35369402
27	0x3da2d9f4	0.079517275
28	0x3efd55e8	0.49479604
29	0xbe803067	-0.25036928
30	0x3d981adc	0.07426998
31	0x3f04c2cc	0.51859736
32	0x3f1c200d	0.60986406
33	0xbd431e16	-0.047636114
34	0x3efdfcff	0.49607083
35	0xbf2c0606	-0.6719669
36	0x3e3fb8e5	0.18722875
37	0x3dcf2aed	0.10115609
38	0x3edb69d3	0.42854175
39	0xbe574fdb	-0.21026556
40	0x3df0f0b7	0.11764663
41	0x3c3fd152	0.011707621
42	0x3d7bb252	0.061449356
43	0xbe809c05	-0.25119033
44	0x3b9542fc	0.0045551043
45	0x3c7ef505	0.015561347
46	0xbc0e4d6a	-0.008685449
47	0x3dd0ce1f	0.101955645
48	0x3e93f18f	0.28895232
49	0x3d8d57ee	0.06901537
50	0x3d30be90	0.043150485
51	0x3e30fe99	0.17284621
52	0x3e51f0ab	0.20501964
53	0x3da017fb	0.07817074
54	0x3e6cbb34	0.23118287
55	0xbe061d46	-0.13097104
56	0x3e967c05	0.29391494
57	0x3ef4d988	0.47822213
58	0x3e89c507	0.26908132
59	0x3e0e7167	0.13910447
60	0x3eea77ca	0.45794517
61	0xbf02e7c1	-0.5113488
62	0x3ddac63d	0.10682342
63	0x3ea60754	0.32427466
64	0x3e04f677	0.12984644
65	0x3e8164b8	0.25272155
66	0xbd30f899	-0.04320583
67	0xbeeadec7	-0.4587309
68	0xbe917944	-0.2841283
69	0xbe313324	-0.17304665
70	0x3ea1e147	0.31617185
71	0xbd90fe78	-0.07079786
72	0xbef8713c	-0.4852389
73	0xbe797568	-0.24361193
74	0x3e697fd9	0.22802676
75	0x3e82ea2a	0.25569278
76	0x3e99d81f	0.300477
77	0xbda4d24a	-0.08047922
78	0x3e47bb5f	0.1950507
79	0x3dad80a3	0.08471801
80	0x3e9f188a	0.3107341
81	0xbe997f24	-0.29979813
82	0x3e8980bb	0.26856026
83	0x3e5dafa5	0.21649034
84	0xbe98b46a	-0.29825145
85	0xbe518434	-0.20460588
86	0x3e0e06c5	0.1386977
87	0xbd3396c2	-0.043844946
88	0xbe1bbf97	-0.15209804
89	0xbe9a7462	-0.30166918
90	0xbe505fc1	-0.20349027
91	0x3e949105	0.2901689
92	0xbd272c5a	-0.04081378
93	0xbede1127	-0.4337246
94	0xbeee3aa8	-0.46529126
95	0xbed06bef	-0.40707347
96	0x3ee02ea9	0.437856
97	0xbec30685	-0.38090912
98	0xbe583451	-0.21113707
99	0xbe81a7a6	-0.25323218
100	0xbd9baf30	-0.07601774
101	0xbd9801ef	-0.07422244
102	0xbe88ece3	-0.2674323
103	0x3d0f426b	0.03497545
104	0xbf157a6d	-0.5838993
105	0x3e24be63	0.16088252
106	0xbedb8f4f	-0.42882773
107	0x3e16274a	0.14663425
108	0x3da98744	0.08277753
109	0xbf36a666	-0.71347654
110	0xbd202f83	-0.03910781
111	0x3e53f495	0.2069877
112	0xbd0c3f02	-0.034239776
113	0x3ed746e2	0.42046267
114	0x3d8ac197	0.067752056
115	0xbed1a06f	-0.40942714
116	0xbeb439be	-0.35200304
117	0xbeee6580	-0.46561813
118	0x3ef89cc1	0.48557094
119	0xbc85f86b	-0.016353806
120	0x3e774a50	0.24149442
121	0x3e2b6ffe	0.1674194
122	0xbeb530e1	-0.35388854
123	0x3e9ece2c	0.31016672
124	0xbe6d182f	-0.23153757
125	0xbeb40405	-0.35159317
126	0x3e97b69a	0.296315
127	0x3ea500bf	0.32227132
128	0xbe9fff16	-0.31249303
129	0x3e332f3d	0.17498489
130	0x3edea499	0.43484953
131	0xbe773ba7	-0.2414385
132	0x3edc5812	0.43035942
133	0xbf00b22c	-0.5027187
134	0x3ead1af8	0.33809638
135	0x3f03cd73	0.51485366
136	0xbdeb6fed	-0.114959575
137	0xbeb7bd5a	-0.3588665
138	0x3e93ce72	0.28868443
139	0xbd8e90f2	-0.0696124
140	0x3e47b019	0.1950077
141	0xbefd539f	-0.4947786
142	0x3d91f801	0.07127381
143	0x3f1cc7f2	0.6124259
144	0x3f1a75d4	0.6033604
145	0x3f080285	0.53128844
146	0xbe273342	-0.16328147
147	0x3f21f91e	0.6327075
148	0xbe606649	-0.21914019
149	0x3f0e72a6	0.5564369
150	0x3f13c3ea	0.57720816
151	0x3eb2a2e1	0.34889892
152	0xbf3f32f2	-0.7468711
153	0xbf1fb241	-0.6238137
154	0xbf31df12	-0.69481003
155	0xbe3d56b2	-0.18490103
156	0x3e8427e0	0.25811672
157	0xbd83f85c	-0.06443855
158	0x3e8006d7	0.25005218
159	0xbebaf3ee	-0.3651423
160	0xbeb19b52	-0.34688812
161	0xbdf9e04a	-0.12200983
162	0x3f0f80cd	0.5605591
163	0xbeb50f47	-0.35363218
164	0xbe05a067	-0.1304947
165	0x3d1bdb84	0.038051143
166	0x3f0f3df6	0.5595392
167	0xbef39506	-0.47574633
168	0xbcf725c3	-0.030169373
169	0xbef7da3d	-0.4840869
170	0x3c59079f	0.013246446
171	0x3d3b6296	0.045748316
172	0x3f0e685f	0.5562801
173	0x3ea86c9b	0.3289536
174	0xbe6220ed	-0.22082873
175	0x3ea5a4bc	0.32352245
176	0x3e785f98	0.24255216
177	0xbe437d5c	-0.1909079
178	0x3e4c6e59	0.1996397
179	0x3e2ff672	0.17183855
180	0x3f096426	0.5366844
181	0x3eece2ae	0.46266693
182	0x3dfc9251	0.12332595
183	0xbeb905b3	-0.3613716
184	0x3e71b463	0.23603968
185	0xbdd2072b	-0.102552734
186	0x3dd3468a	0.10316189
187	0x3e7cb157	0.24677025
188	0xbea7b55a	-0.32755548
189	0x3bad2393	0.005283782
190	0x3d971d87	0.07378679
191	0x3e29da2d	0.16587134
192	0x3d974885	0.07386879
193	0xbe6b2350	-0.2296269
194	0xbe7a9ecb	-0.24474637
195	0x3e85e20c	0.26149023
196	0x3e0734c0	0.13203716
197	0xbdef6613	-0.11689391
198	0xbe59abed	-0.2125699
199	0x3db1725e	0.08664392
200	0x3e34b9d2	0.1764901
201	0x3d83a544	0.06428006
202	0x3e18ee12	0.14934567
203	0xbe561224	-0.20905358
204	0xbe6c96ef	-0.23104452
205	0xbd4c924d	-0.04994421
206	0xbd34de77	-0.04415747
207	0xbe0f287a	-0.13980284
208	0x3d10ba04	0.03533365
209	0x3ed58326	0.4170162
210	0x3eebb00e	0.46032757
211	0xbe9f598c	-0.31123006
212	0x3e44eb37	0.19230352
213	0x3e914647	0.2837393
214	0x3e9a3cb5	0.3012444
215	0x3dc80609	0.09766776
216	0x3ec204e5	0.3789436
217	0xbe8241ae	-0.25440735
218	0x3e656186	0.22400483
219	0xbe669f05	-0.22521599
220	0xbe726f67	-0.23675309
221	0xbece1664	-0.40251458
222	0xbe1a6b27	-0.15079938
223	0xbe599b28	-0.21250594
224	0x3f4e5d11	0.8061076
225	0xbf3155cf	-0.6927156
226	0xbe9bc2db	-0.304221
227	0x3e395aa2	0.1810098
228	0xbe22a87e	-0.15884587
229	0xbed3a7d8	-0.41338992
230	0x3e9c156a	0.30485088
231	0x3df97d06	0.121820495
232	0x3f58e1f6	0.8471979
233	0xbe7b26ec	-0.24526566
234	0xbddfa30b	-0.1091977
235	0xbda2221d	-0.07916663
236	0xbe0672fb	-0.13129799
237	0x3e074be2	0.13212541
238	0x3d485b03	0.04891492
239	0x3d8d68fa	0.06904788
240	0xbd8da66b	-0.06916507
241	0x3c9be78c	0.019031309
242	0x3da0be9d	0.078488566
243	0x3df460cb	0.11932524
244	0xbe10716b	-0.14105766
245	0xbcd5c4fb	-0.026094904
246	0x3e294787	0.16531192
247	0x3daf6669	0.08564455
248	0x3daa5fa6	0.08319025
249	0x3c03c94e	0.0080436
250	0xbb888874	-0.004166657
251	0xbc11b6bf	-0.008893668
252	0x3dd64e20	0.1046412
253	0xbd8b3eb5	-0.0679907
254	0xbd85a82a	-0.065262154
255	0x3e0f67d3	0.1400445

bias f4 [16]
0	0x3e570a7f	0.21000098
1	0x3ec314f5	0.38101926
2	0x3dc5bc65	0.09655074
3	0x3e0931b8	0.13397872
4	0x3d7b9b0b	0.061427157
5	0x3e43a196	0.19104609
6	0x3e7c9ebf	0.24669932
7	0x3e7c67ae	0.24648926
8	0x3edb190b	0.42792544
9	0xbe0fc475	-0.14039786
10	0x3d362fe7	0.044479277
11	0x3cbf03ef	0.023317305
12	0x3e93dddb	0.288802
13	0x3dfdd5fa	0.123943284
14	0x3e0613f9	0.13093556
15	0x3e5262f2	0.20545557

weight f4 [7, 16]
0	0xbf76fcf4	-0.96479726
1	0x3e6eece2	0.23332551
2	0x3eb40e96	0.35167378
3	0x3e906c3a	0.2820757
4	0xbea3b615	-0.31974855
5	0xbebafa32	-0.3651901
6	0xbf1fa776	-0.623649
7	0x3dd32972	0.103106394
8	0x3d7ee5da	0.062230922
9	0xbd34f464	-0.04417838
10	0xbe875831	-0.26434472
11	0x3da9de82	0.08294393
12	0xbefa19d0	-0.48847818
13	0xbf48f681	-0.78501135
14	0x3ea7d90d	0.32782784
15	0xbed5b5f6	-0.41740388
16	0xbf139f56	-0.57665
17	0xbf4a3280	-0.78983307
18	0xbe74c708	-0.2390405
19	0xbb937969	-0.004500557
20	0xbed6fed7	-0.41991302
21	0x3e8f1344	0.27944386
22	0xbf454a05	-0.7706607
23	0x3e7bc1d1	0.24585654
24	0xbe70b0fd	-0.23505016
25	0xbdfd7899	-0.12376518
26	0x3f085017	0.5324721
27	0x3e92c8af	0.28668734
28	0xbf38009a	-0.7187592
29	0xbf400744	-0.75011086
30	0xbea08714	-0.31353056
31	0x3e7bc591	0.24587084
32	0x3dfcb9c6	0.12340121
33	0x3ea5706f	0.32312343
34	0x3d815266	0.063145444
35	0xbedeb8eb	-0.43500456
36	0xbed47d33	-0.4150177
37	0xbf2762b9	-0.65385014
38	0xbf544e70	-0.82932186
39	0x3bd172ab	0.0063918433
40	0x3e482418	0.19545019
41	0x3e1c6b34	0.1527527
42	0x3dcd53ac	0.10025725
43	0x3ba0d974	0.004908735
44	0x3dbae0e6	0.09124927
45	0xbe011e86	-0.126093
46	0xbf255104	-0.64576745
47	0xbd944a73	-0.072407626
48	0xbf61f09c	-0.88257766
49	0x3e38dbc9	0.18052591
50	0xbe73aa05	-0.23795326
51	0xbeafe3e6	-0.3435356
52	0xbeb18eba	-0.34679204
53	0xbeceda1b	-0.40400776
54	0x3ef58732	0.47954708
55	0xbe2690c1	-0.16266157
56	0x3e41f813	0.18942289
57	0x3d014edf	0.031569358
58	0xbd98cca2	-0.074609056
59	0xbeb49665	-0.35270992
60	0xbec1c7ef	-0.3784785
61	0x3d69cdf1	0.057081167
62	0xbf2c7713	-0.6736919
63	0xbea688b6	-0.32526177
64	0xba8ff57d	-0.0010983195
65	0xbd9ec355	-0.077521004
66	0xbee4cc21	-0.44686988
67	0xbe8594d0	-0.26090097
68	0x3f04ffc6	0.5195278
69	0xbf0e5e35	-0.556125
70	0xbe0df071	-0.13861252
71	0xbed3ab5c	-0.41341674
72	0xbf637e38	-0.8886447
73	0xbe1457a0	-0.14486551
74	0x3b91fc7b	0.004455147
75	0xbe2035df	-0.1564555
76	0x3e3304fc	0.1748237
77	0x3eaf34c1	0.34219936
78	0xbf390fda	-0.7228981
79	0x3ea94cf2	0.33066517
80	0x3e39408d	0.1809103
81	0xbf25d17a	-0.6477276
82	0xbf459cce	-0.7719239
83	0xbe829ff9	-0.25512674
84	0x3e8f54b3	0.27994308
85	0xbf441986	-0.76601446
86	0xbd17d447	-0.037067678
87	0xbee3d755	-0.44500223
88	0x3e7a93d9	0.24470462
89	0xbe36ca1d	-0.17850538
90	0xbde8ad34	-0.11361161
91	0xbedc84f5	-0.43070188
92	0xbeccc478	-0.39993644
93	0xbebd8474	-0.37015116
94	0x3ec4a47c	0.38406742
95	0xbe9520fa	-0.29126722
96	0xbf396ef5	-0.7243493
97	0x3e200295	0.15625985
98	0xbeb59cc9	-0.3547118
99	0xbebe4b9c	-0.3716706
100	0xbe2586e4	-0.16164738
101	0x3ea19b34	0.31563723
102	0x3b6368ed	0.0034699992
103	0x3da02be4	0.078208715
104	0xbf277728	-0.65416193
105	0xbe11dcac	-0.14244336
106	0xbf017225	-0.50564796
107	0x3e35a98a	0.17740455
108	0xbe5343da	-0.20631352
109	0xbe336732	-0.17519835
110	0xbf03e8c8	-0.5152707
111	0xbec356cc	-0.38152158

bias f4 [7]
0	0xbd6710a6	-0.05641236
1	0xbe6784bb	-0.22609226
2	0xbe7035e9	-0.23458065
3	0x3db6f3c2	0.08933212
4	0xbe9b13bb	-0.3028849
5	0xbde84e12	-0.11343016
6	0xbe1883bd	-0.14894004
