19 simple sound AI/sound_ai.onnx (onnx, 17985 bytes, 9 tensors)

encoder.norm.weight f4 [13]
0	0x3f86ae86	1.052201
1	0x3f9bd9b6	1.2175815
2	0x3f99eaa5	1.2024733
3	0x3f85c569	1.045087
4	0x3fa80d8a	1.3129132
5	0x3f8c7f86	1.0976417
6	0x3fab0dc0	1.3363571
7	0x3f930f95	1.148913
8	0x3f9207a0	1.1408577
9	0x3f962680	1.1730499
10	0x3f952bfd	1.1654049
11	0x3f8af01f	1.0854529
12	0x3f9008d8	1.1252699

encoder.norm.bias f4 [13]
0	0x3dc1667c	0.094433755
1	0x3db78ef0	0.0896281
2	0xbce76f60	-0.02825135
3	0xbd133607	-0.035940196
4	0xbdbc6d0d	-0.09200487
5	0xbd9c6109	-0.076356955
6	0x3dbeb5de	0.09312032
7	0x3d911d80	0.07085705
8	0xbdd250d8	-0.10269326
9	0xbd0fcce1	-0.035107497
10	0x3da77c23	0.08177974
11	0x3de2e671	0.110791095
12	0xbe7b114a	-0.24518314

decoder.f.0.weight f4 [16, 26]
0	0xbf035504	-0.513016
1	0x3f1add92	0.6049434
2	0xbe8562b9	-0.26051882
3	0x3de35bb1	0.11101473
4	0x3ee33d79	0.44382837
5	0xbea461f7	-0.3210599
6	0x3d85c871	0.06532372
7	0x3f09e181	0.53859717
8	0x3f0394b3	0.5139877
9	0xbedcbb7f	-0.43111798
10	0x3db1d5c6	0.08683352
11	0x3eaa8dd4	0.3331133
12	0xbddd4574	-0.10804263
13	0xbf0a16e4	-0.5394118
14	0x3e4fddd5	0.20299466
15	0xbc92a9e0	-0.017903268
16	0x3ef61688	0.48064065
17	0xbed150d4	-0.4088198
18	0xbe84531f	-0.25844666
19	0x3eb21668	0.3478272
20	0xbf06fddb	-0.527311
21	0xbe846b72	-0.25863224
22	0x3e51677b	0.20449631
23	0x3e6d5079	0.23175229
24	0x3dd6e82c	0.10493502
25	0xbef633ea	-0.48086482
26	0x3eb51762	0.35369402
27	0x3da2d9f4	0.079517275
28	0x3efd55e8	0.49479604
29	0xbe803067	-0.25036928
30	0x3d981adc	0.07426998
31	0x3f04c2cc	0.51859736
32	0x3f1c200d	0.60986406
33	0xbd431e16	-0.047636114
34	0x3efdfcff	0.49607083
35	0xbf2c0606	-0.6719669
36	0x3e3fb8e5	0.18722875
37	0x3dcf2aed	0.10115609
38	0x3edb69d3	0.42854175
39	0xbe574fdb	-0.21026556
40	0x3df0f0b7	0.11764663
41	0x3c3fd152	0.011707621
42	0x3d7bb252	0.061449356
43	0xbe809c05	-0.25119033
44	0x3b9542fc	0.0045551043
45	0x3c7ef505	0.015561347
46	0xbc0e4d6a	-0.008685449
47	0x3dd0ce1f	0.101955645
48	0x3e93f18f	0.28895232
49	0x3d8d57ee	0.06901537
50	0x3d30be90	0.043150485
51	0x3e30fe99	0.17284621
52	0x3e51f0ab	0.20501964
53	0x3da017fb	0.07817074
54	0x3e6cbb34	0.23118287
55	0xbe061d46	-0.13097104
56	0x3e967c05	0.29391494
57	0x3ef4d988	0.47822213
58	0x3e89c507	0.26908132
59	0x3e0e7167	0.13910447
60	0x3eea77ca	0.45794517
61	0xbf02e7c1	-0.5113488
62	0x3ddac63d	0.10682342
63	0x3ea60754	0.32427466
64	0x3e04f677	0.12984644
65	0x3e8164b8	0.25272155
66	0xbd30f899	-0.04320583
67	0xbeeadec7	-0.4587309
68	0xbe917944	-0.2841283
69	0xbe313324	-0.17304665
70	0x3ea1e147	0.31617185
71	0xbd90fe78	-0.07079786
72	0xbef8713c	-0.4852389
73	0xbe797568	-0.24361193
74	0x3e697fd9	0.22802676
75	0x3e82ea2a	0.25569278
76	0x3e99d81f	0.300477
77	0xbda4d24a	-0.08047922
78	0x3e47bb5f	0.1950507
79	0x3dad80a3	0.08471801
80	0x3e9f188a	0.3107341
81	0xbe997f24	-0.29979813
82	0x3e8980bb	0.26856026
83	0x3e5dafa5	0.21649034
84	0xbe98b46a	-0.29825145
85	0xbe518434	-0.20460588
86	0x3e0e06c5	0.1386977
87	0xbd3396c2	-0.043844946
88	0xbe1bbf97	-0.15209804
89	0xbe9a7462	-0.30166918
90	0xbe505fc1	-0.20349027
91	0x3e949105	0.2901689
92	0xbd272c5a	-0.04081378
93	0xbede1127	-0.4337246
94	0xbeee3aa8	-0.46529126
95	0xbed06bef	-0.40707347
96	0x3ee02ea9	0.437856
97	0xbec30685	-0.38090912
98	0xbe583451	-0.21113707
99	0xbe81a7a6	-0.25323218
100	0xbd9baf30	-0.07601774
101	0xbd9801ef	-0.07422244
102	0xbe88ece3	-0.2674323
103	0x3d0f426b	0.03497545
104	0xbf157a6d	-0.5838993
105	0x3e24be63	0.16088252
106	0xbedb8f4f	-0.42882773
107	0x3e16274a	0.14663425
108	0x3da98744	0.08277753
109	0xbf36a666	-0.71347654
110	0xbd202f83	-0.03910781
111	0x3e53f495	0.2069877
112	0xbd0c3f02	-0.034239776
113	0x3ed746e2	0.42046267
114	0x3d8ac197	0.067752056
115	0xbed1a06f	-0.40942714
116	0xbeb439be	-0.35200304
117	0xbeee6580	-0.46561813
118	0x3ef89cc1	0.48557094
119	0xbc85f86b	-0.016353806
120	0x3e774a50	0.24149442
121	0x3e2b6ffe	0.1674194
122	0xbeb530e1	-0.35388854
123	0x3e9ece2c	0.31016672
124	0xbe6d182f	-0.23153757
125	0xbeb40405	-0.35159317
126	0x3e97b69a	0.296315
127	0x3ea500bf	0.32227132
128	0xbe9fff16	-0.31249303
129	0x3e332f3d	0.17498489
130	0x3edea499	0.43484953
131	0xbe773ba7	-0.2414385
132	0x3edc5812	0.43035942
133	0xbf00b22c	-0.5027187
134	0x3ead1af8	0.33809638
135	0x3f03cd73	0.51485366
136	0xbdeb6fed	-0.114959575
137	0xbeb7bd5a	-0.3588665
138	0x3e93ce72	0.28868443
139	0xbd8e90f2	-0.0696124
140	0x3e47b019	0.1950077
141	0xbefd539f	-0.4947786
142	0x3d91f801	0.07127381
143	0x3f1cc7f2	0.6124259
144	0x3f1a75d4	0.6033604
145	0x3f080285	0.53128844
146	0xbe273342	-0.16328147
147	0x3f21f91e	0.6327075
148	0xbe606649	-0.21914019
149	0x3f0e72a6	0.5564369
150	0x3f13c3ea	0.57720816
151	0x3eb2a2e1	0.34889892
152	0xbf3f32f2	-0.7468711
153	0xbf1fb241	-0.6238137
154	0xbf31df12	-0.69481003
155	0xbe3d56b2	-0.18490103
156	0x3e8427e0	0.25811672
157	0xbd83f85c	-0.06443855
158	0x3e8006d7	0.25005218
159	0xbebaf3ee	-0.3651423
160	0xbeb19b52	-0.34688812
161	0xbdf9e04a	-0.12200983
162	0x3f0f80cd	0.5605591
163	0xbeb50f47	-0.35363218
164	0xbe05a067	-0.1304947
165	0x3d1bdb84	0.038051143
166	0x3f0f3df6	0.5595392
167	0xbef39506	-0.47574633
168	0xbcf725c3	-0.030169373
169	0xbef7da3d	-0.4840869
170	0x3c59079f	0.013246446
171	0x3d3b6296	0.045748316
172	0x3f0e685f	0.5562801
173	0x3ea86c9b	0.3289536
174	0xbe6220ed	-0.22082873
175	0x3ea5a4bc	0.32352245
176	0x3e785f98	0.24255216
177	0xbe437d5c	-0.1909079
178	0x3e4c6e59	0.1996397
179	0x3e2ff672	0.17183855
180	0x3f096426	0.5366844
181	0x3eece2ae	0.46266693
182	0x3dfc9251	0.12332595
183	0xbeb905b3	-0.3613716
184	0x3e71b463	0.23603968
185	0xbdd2072b	-0.102552734
186	0x3dd3468a	0.10316189
187	0x3e7cb157	0.24677025
188	0xbea7b55a	-0.32755548
189	0x3bad2393	0.005283782
190	0x3d971d87	0.07378679
191	0x3e29da2d	0.16587134
192	0x3d974885	0.07386879
193	0xbe6b2350	-0.2296269
194	0xbe7a9ecb	-0.24474637
195	0x3e85e20c	0.26149023
196	0x3e0734c0	0.13203716
197	0xbdef6613	-0.11689391
198	0xbe59abed	-0.2125699
199	0x3db1725e	0.08664392
200	0x3e34b9d2	0.1764901
201	0x3d83a544	0.06428006
202	0x3e18ee12	0.14934567
203	0xbe561224	-0.20905358
204	0xbe6c96ef	-0.23104452
205	0xbd4c924d	-0.04994421
206	0xbd34de77	-0.04415747
207	0xbe0f287a	-0.13980284
208	0x3d10ba04	0.03533365
209	0x3ed58326	0.4170162
210	0x3eebb00e	0.46032757
211	0xbe9f598c	-0.31123006
212	0x3e44eb37	0.19230352
213	0x3e914647	0.2837393
214	0x3e9a3cb5	0.3012444
215	0x3dc80609	0.09766776
216	0x3ec204e5	0.3789436
217	0xbe8241ae	-0.25440735
218	0x3e656186	0.22400483
219	0xbe669f05	-0.22521599
220	0xbe726f67	-0.23675309
221	0xbece1664	-0.40251458
222	0xbe1a6b27	-0.15079938
223	0xbe599b28	-0.21250594
224	0x3f4e5d11	0.8061076
225	0xbf3155cf	-0.6927156
226	0xbe9bc2db	-0.304221
227	0x3e395aa2	0.1810098
228	0xbe22a87e	-0.15884587
229	0xbed3a7d8	-0.41338992
230	0x3e9c156a	0.30485088
231	0x3df97d06	0.121820495
232	0x3f58e1f6	0.8471979
233	0xbe7b26ec	-0.24526566
234	0xbddfa30b	-0.1091977
235	0xbda2221d	-0.07916663
236	0xbe0672fb	-0.13129799
237	0x3e074be2	0.13212541
238	0x3d485b03	0.04891492
239	0x3d8d68fa	0.06904788
240	0xbd8da66b	-0.06916507
241	0x3c9be78c	0.019031309
242	0x3da0be9d	0.078488566
243	0x3df460cb	0.11932524
244	0xbe10716b	-0.14105766
245	0xbcd5c4fb	-0.026094904
246	0x3e294787	0.16531192
247	0x3daf6669	0.08564455
248	0x3daa5fa6	0.08319025
249	0x3c03c94e	0.0080436
250	0xbb888874	-0.004166657
251	0xbc11b6bf	-0.008893668
252	0x3dd64e20	0.1046412
253	0xbd8b3eb5	-0.0679907
254	0xbd85a82a	-0.065262154
255	0x3e0f67d3	0.1400445

decoder.f.0.bias f4 [16]
0	0x3e570a7f	0.21000098
1	0x3ec314f5	0.38101926
2	0x3dc5bc65	0.09655074
3	0x3e0931b8	0.13397872
4	0x3d7b9b0b	0.061427157
5	0x3e43a196	0.19104609
6	0x3e7c9ebf	0.24669932
7	0x3e7c67ae	0.24648926
8	0x3edb190b	0.42792544
9	0xbe0fc475	-0.14039786
10	0x3d362fe7	0.044479277
11	0x3cbf03ef	0.023317305
12	0x3e93dddb	0.288802
13	0x3dfdd5fa	0.123943284
14	0x3e0613f9	0.13093556
15	0x3e5262f2	0.20545557

decoder.f.2.weight f4 [7, 16]
0	0xbf76fcf4	-0.96479726
1	0x3e6eece2	0.23332551
2	0x3eb40e96	0.35167378
3	0x3e906c3a	0.2820757
4	0xbea3b615	-0.31974855
5	0xbebafa32	-0.3651901
6	0xbf1fa776	-0.623649
7	0x3dd32972	0.103106394
8	0x3d7ee5da	0.062230922
9	0xbd34f464	-0.04417838
10	0xbe875831	-0.26434472
11	0x3da9de82	0.08294393
12	0xbefa19d0	-0.48847818
13	0xbf48f681	-0.78501135
14	0x3ea7d90d	0.32782784
15	0xbed5b5f6	-0.41740388
16	0xbf139f56	-0.57665
17	0xbf4a3280	-0.78983307
18	0xbe74c708	-0.2390405
19	0xbb937969	-0.004500557
20	0xbed6fed7	-0.41991302
21	0x3e8f1344	0.27944386
22	0xbf454a05	-0.7706607
23	0x3e7bc1d1	0.24585654
24	0xbe70b0fd	-0.23505016
25	0xbdfd7899	-0.12376518
26	0x3f085017	0.5324721
27	0x3e92c8af	0.28668734
28	0xbf38009a	-0.7187592
29	0xbf400744	-0.75011086
30	0xbea08714	-0.31353056
31	0x3e7bc591	0.24587084
32	0x3dfcb9c6	0.12340121
33	0x3ea5706f	0.32312343
34	0x3d815266	0.063145444
35	0xbedeb8eb	-0.43500456
36	0xbed47d33	-0.4150177
37	0xbf2762b9	-0.65385014
38	0xbf544e70	-0.82932186
39	0x3bd172ab	0.0063918433
40	0x3e482418	0.19545019
41	0x3e1c6b34	0.1527527
42	0x3dcd53ac	0.10025725
43	0x3ba0d974	0.004908735
44	0x3dbae0e6	0.09124927
45	0xbe011e86	-0.126093
46	0xbf255104	-0.64576745
47	0xbd944a73	-0.072407626
48	0xbf61f09c	-0.88257766
49	0x3e38dbc9	0.18052591
50	0xbe73aa05	-0.23795326
51	0xbeafe3e6	-0.3435356
52	0xbeb18eba	-0.34679204
53	0xbeceda1b	-0.40400776
54	0x3ef58732	0.47954708
55	0xbe2690c1	-0.16266157
56	0x3e41f813	0.18942289
57	0x3d014edf	0.031569358
58	0xbd98cca2	-0.074609056
59	0xbeb49665	-0.35270992
60	0xbec1c7ef	-0.3784785
61	0x3d69cdf1	0.057081167
62	0xbf2c7713	-0.6736919
63	0xbea688b6	-0.32526177
64	0xba8ff57d	-0.0010983195
65	0xbd9ec355	-0.077521004
66	0xbee4cc21	-0.44686988
67	0xbe8594d0	-0.26090097
68	0x3f04ffc6	0.5195278
69	0xbf0e5e35	-0.556125
70	0xbe0df071	-0.13861252
71	0xbed3ab5c	-0.41341674
72	0xbf637e38	-0.8886447
73	0xbe1457a0	-0.14486551
74	0x3b91fc7b	0.004455147
75	0xbe2035df	-0.1564555
76	0x3e3304fc	0.1748237
77	0x3eaf34c1	0.34219936
78	0xbf390fda	-0.7228981
79	0x3ea94cf2	0.33066517
80	0x3e39408d	0.1809103
81	0xbf25d17a	-0.6477276
82	0xbf459cce	-0.7719239
83	0xbe829ff9	-0.25512674
84	0x3e8f54b3	0.27994308
85	0xbf441986	-0.76601446
86	0xbd17d447	-0.037067678
87	0xbee3d755	-0.44500223
88	0x3e7a93d9	0.24470462
89	0xbe36ca1d	-0.17850538
90	0xbde8ad34	-0.11361161
91	0xbedc84f5	-0.43070188
92	0xbeccc478	-0.39993644
93	0xbebd8474	-0.37015116
94	0x3ec4a47c	0.38406742
95	0xbe9520fa	-0.29126722
96	0xbf396ef5	-0.7243493
97	0x3e200295	0.15625985
98	0xbeb59cc9	-0.3547118
99	0xbebe4b9c	-0.3716706
100	0xbe2586e4	-0.16164738
101	0x3ea19b34	0.31563723
102	0x3b6368ed	0.0034699992
103	0x3da02be4	0.078208715
104	0xbf277728	-0.65416193
105	0xbe11dcac	-0.14244336
106	0xbf017225	-0.50564796
107	0x3e35a98a	0.17740455
108	0xbe5343da	-0.20631352
109	0xbe336732	-0.17519835
110	0xbf03e8c8	-0.5152707
111	0xbec356cc	-0.38152158

decoder.f.2.bias f4 [7]
0	0xbd6710a6	-0.05641236
1	0xbe6784bb	-0.22609226
2	0xbe7035e9	-0.23458065
3	0x3db6f3c2	0.08933212
4	0xbe9b13bb	-0.3028849
5	0xbde84e12	-0.11343016
6	0xbe1883bd	-0.14894004

onnx::LSTM_225 f4 [2, 104]
0	0x3e791903	0.24325947
1	0xbdf1d66d	-0.118084766
2	0x3e00926d	0.12555857
3	0xbe4aa307	-0.19788752
4	0x3eeea1f3	0.46607932
5	0x3ed31ae0	0.41231441
6	0x3ead645c	0.3386563
7	0x3d38ee4e	0.04514914
8	0xbe6776fb	-0.22603981
9	0x3d00da9a	0.031458475
10	0x3d909d16	0.07061212
11	0x3ee7fdcd	0.45310822
12	0x3eb92980	0.36164474
13	0x3d6a03a8	0.057132393
14	0x3e893780	0.26800156
15	0x3c29375f	0.010328143
16	0x3e25fd0b	0.1620981
17	0x3e62ff5a	0.22167721
18	0x3e80f0a9	0.2518361
19	0x3eabd6f7	0.33562443
20	0xbc838043	-0.01605237
21	0x3ec94d84	0.39316952
22	0x3e9d5538	0.3072908
23	0x3ea81b33	0.3283325
24	0x3ed56685	0.4167978
25	0x3e40f9b9	0.18845262
26	0x3c6317b5	0.013860633
27	0x3e05d37a	0.13068953
28	0xbd91a44c	-0.07111415
29	0x3d5edd49	0.054410253
30	0x3e1d204c	0.15344352
31	0x3e5899a8	0.21152365
32	0x3e04eb9c	0.12980503
33	0x3ebc6363	0.36794576
34	0x3e075e26	0.13219509
35	0x3e59ebb6	0.21281323
36	0xbe13b880	-0.1442585
37	0x3c85b346	0.016320836
38	0xbd516723	-0.05112375
39	0x3e50cee6	0.20391425
40	0x3e0ce9d8	0.1376108
41	0x3e867e79	0.26268366
42	0xbbfccdc6	-0.00771496
43	0x3c92e5d6	0.01793186
44	0xbd8de99b	-0.06929322
45	0x3e52d366	0.20588455
46	0x3c8e7831	0.017391296
47	0x3ea0c32c	0.31398904
48	0xbd87ee7a	-0.06637283
49	0xbdcb1b30	-0.09917295
50	0xbdf7bf5b	-0.12097045
51	0x3d2f26e2	0.04276169
52	0x3eeff652	0.46867615
53	0x3c120221	0.00891164
54	0x3d5f83f2	0.054569192
55	0xbd87ebbc	-0.0663676
56	0x3ecf26e5	0.40459362
57	0x3edb4e24	0.42833054
58	0x3eb5fcce	0.35544437
59	0xbd5ecd4e	-0.054395013
60	0x3e5f0c0a	0.21781936
61	0x3e1b9bee	0.15196201
62	0xbe41798c	-0.18894023
63	0x3ef791a5	0.48353305
64	0x3e86cd5a	0.26328546
65	0x3e88e365	0.26735988
66	0x3ebecea6	0.37267035
67	0x3ef31055	0.47473398
68	0xbd1d970a	-0.03847412
69	0x3da54779	0.08070273
70	0x3ef0f976	0.47065324
71	0x3e412e66	0.18865356
72	0x3ee071f4	0.4383694
73	0x3d02f5ba	0.031972624
74	0x3e607095	0.21917947
75	0x3e1823b8	0.14857376
76	0x3f0a637f	0.5405807
77	0x3e0b8ec9	0.13628687
78	0x3caa77b8	0.02080904
79	0x3ec8cd58	0.39219165
80	0xbdbb117a	-0.09134193
81	0xbd2104a5	-0.03931107
82	0x3e4ad184	0.19806486
83	0x3ee7b7a5	0.45257297
84	0xbdc40f24	-0.095732
85	0x3ea43c9a	0.32077485
86	0xbc34f7bf	-0.011045395
87	0x3cf0ca55	0.029393354
88	0x3dc033a3	0.09384849
89	0x3f006a46	0.5016216
90	0x3e6aaef6	0.22918305
91	0x3e0559e6	0.13022575
92	0x3ca09850	0.019603878
93	0xbe09b262	-0.13446954
94	0xbdeff794	-0.11717144
95	0xbd51c14d	-0.051209737
96	0xbd922309	-0.07135589
97	0x3e202301	0.15638353
98	0x3df893f1	0.121375926
99	0x3eac5a22	0.33662516
100	0x3c25fa61	0.010130496
101	0xbc3b9771	-0.011449681
102	0xbea314d7	-0.31851837
103	0xbdb17e32	-0.08666648
104	0x3ecbf59e	0.3983583
105	0x3d85b0da	0.065278724
106	0xbcc4cbf4	-0.024023034
107	0xbddcde86	-0.107846305
108	0x3ea7b616	0.32756108
109	0x3ea24590	0.31693697
110	0x3d6c770b	0.057730716
111	0x3ede4a27	0.4341595
112	0xbdec7f46	-0.11547713
113	0x3d80f1b2	0.062961
114	0x3e1179c6	0.14206609
115	0xbdc9f114	-0.09860435
116	0x3e21bcc2	0.15794662
117	0x3ee22af9	0.4417341
118	0x3e7a9300	0.24470139
119	0x3e34fb86	0.17674074
120	0x3ec17f1c	0.3779229
121	0x3e3d41ca	0.18482128
122	0x3e001ad6	0.12510237
123	0x3ed05ce1	0.4069586
124	0x3edf121c	0.43568504
125	0x3d67cdb8	0.056592673
126	0x3f0b3201	0.54373175
127	0x3e84ebf5	0.2596127
128	0x3ef1f0e5	0.472541
129	0x3ebde0c7	0.37085554
130	0x3d4a8d76	0.049451314
131	0xbe011ba0	-0.12608194
132	0x3ec4a18e	0.38404506
133	0x3ea7bf2b	0.32763037
134	0x3d6644de	0.05621802
135	0x3ec1dc23	0.37863263
136	0x3cca3e87	0.024688018
137	0x3d89db53	0.06731286
138	0x3e99e65b	0.3005856
139	0x3df89be0	0.12139106
140	0x3ea5bdb8	0.32371306
141	0x3ed57d6a	0.41697246
142	0x3d780ba1	0.060557965
143	0x3c583956	0.013197264
144	0x3e2247df	0.15847729
145	0x3e4667ea	0.19375578
146	0x3e3c94b8	0.18416107
147	0xbe6e674b	-0.2328159
148	0xbe51f2f3	-0.20502834
149	0x3e65176f	0.2237222
150	0x3e328ed3	0.17437296
151	0xbd21709e	-0.03941404
152	0x3e8f1d9d	0.2795228
153	0x3e868a60	0.26277447
154	0x3ea56606	0.323044
155	0xbe7e409c	-0.24829334
156	0x3ec39f82	0.38207632
157	0xbcf7bad7	-0.03024046
158	0x3e4ba4b9	0.19887055
159	0x3e72cc9a	0.23710862
160	0x3d095376	0.03352686
161	0x3e3989f8	0.18119037
162	0x3e62a712	0.22134045
163	0x3e0b5b95	0.13609155
164	0x3dc74910	0.097307324
165	0xbc89ce45	-0.01682199
166	0x3e615c12	0.22007778
167	0x3cf2daa2	0.029645268
168	0x3e91c869	0.28473213
169	0x3f204e20	0.6261921
170	0x3e8caedf	0.27477166
171	0x3e5da612	0.21645382
172	0x3e67e97c	0.22647661
173	0x3f1d6b58	0.6149192
174	0x3e82a8c1	0.25519374
175	0x3e1b401c	0.15161175
176	0x3f0181d5	0.5058873
177	0x3e8850cd	0.26624146
178	0x3e8c02c0	0.27345848
179	0x3e936f4a	0.28795844
180	0x3ef46ff7	0.47741672
181	0x3ee30d2a	0.4434598
182	0x3ede49f7	0.43415806
183	0x3d4622e2	0.04837311
184	0x3d1d44a5	0.038395543
185	0x3e4cf396	0.20014796
186	0x3ea4463c	0.32084835
187	0x3c9cc699	0.019137667
188	0x3e1e3318	0.15449178
189	0x3e4bb6fb	0.1989402
190	0x3eaa43d5	0.33254877
191	0x3e9cf22b	0.3065351
192	0xbe0bf349	-0.13667025
193	0x3e8b18f5	0.27167478
194	0x3d99afb7	0.07504218
195	0x3d6c2a7a	0.057657696
196	0x3db4c58a	0.0882674
197	0x3e3ecba4	0.1863237
198	0xbe3e2289	-0.18567862
199	0x3e8a3802	0.26995856
200	0xbdd9fd26	-0.10643987
201	0xbe3effcb	-0.18652265
202	0xbe5579c3	-0.2084723
203	0x3e1bd2e0	0.15217161
204	0x3e8f475b	0.27984127
205	0x3e184ec4	0.14873797
206	0x3e484c71	0.1956041
207	0x3d56711f	0.052353974

onnx::LSTM_226 f4 [2, 52, 13]
0	0x3e3e4000	0.18579102
1	0xbe133334	-0.14375001
2	0xbd657a79	-0.056025002
3	0xbe065359	-0.13117732
4	0xbe89d6fe	-0.2692184
5	0x3cffe9bf	0.031239389
6	0xbdc88175	-0.09790317
7	0x3e7138a3	0.23556761
8	0xbe8f5b0f	-0.2799916
9	0xbcdf72f8	-0.027276501
10	0x3cf70b30	0.030156702
11	0x3e520d5e	0.20512912
12	0xbec0af87	-0.37633917
13	0x3d64c748	0.055854112
14	0x3cc4e2ad	0.024033869
15	0x3e0aa71b	0.13540308
16	0xbd4f4637	-0.05060407
17	0xbd0ebaa6	-0.03484597
18	0xbd08a197	-0.03335723
19	0xbbe620ac	-0.0070229378
20	0xbd555399	-0.052081678
21	0x3d549ce8	0.05190745
22	0x3e87d59c	0.2653016
23	0xbd324ec7	-0.04353216
24	0xbd19a827	-0.03751388
25	0xbe8eb34f	-0.27871177
26	0xbe209741	-0.15682699
27	0x3d882b8d	0.06648932
28	0xbe47103d	-0.19439788
29	0xbdb6be80	-0.08923054
30	0xbd69fedc	-0.05712782
31	0xbde64049	-0.1124273
32	0x3d094277	0.03351065
33	0x3ebdcd0c	0.370705
34	0x3e212de8	0.15740168
35	0x3e7ef1bc	0.24896902
36	0x3e63d38b	0.22248666
37	0xbd836fdf	-0.06417822
38	0xbe40a796	-0.18813929
39	0xbd75183a	-0.059837557
40	0xbca001a0	-0.019532025
41	0xbee1b8f9	-0.44086435
42	0xbeb2c1bc	-0.34913433
43	0xbdaf73c0	-0.085669994
44	0x3d8a51b1	0.06753863
45	0xbc39bc6f	-0.01133643
46	0x3e7a69ab	0.24454372
47	0xbe037bbf	-0.12840174
48	0x3e0d8481	0.13820077
49	0xbd40acb5	-0.047039706
50	0x3d70a029	0.05874649
51	0xbcf585ac	-0.029970966
52	0x3e0e9f88	0.13928044
53	0x3daaf718	0.08347911
54	0x3d612f91	0.054977003
55	0xbe3931a1	-0.18085338
56	0xbed52ec3	-0.4163724
57	0x3e8d0457	0.27542374
58	0xbd598368	-0.053103834
59	0x3e81fe53	0.25389346
60	0xbe014072	-0.1262224
61	0x3d2dbf8d	0.042419005
62	0x3d5826f0	0.05277151
63	0x3ce6084a	0.028080124
64	0xbd8383e2	-0.06421639
65	0x3d546e1b	0.051862817
66	0x3e4e03a4	0.20118576
67	0xbd6f1e10	-0.05837828
68	0x3e15dbbf	0.14634608
69	0xbe5a35f0	-0.21309638
70	0x3db05c15	0.08611313
71	0xbe9f22b9	-0.3108118
72	0xbac4d931	-0.0015018341
73	0xbe4d23af	-0.20033143
74	0xbc752959	-0.014963471
75	0x3be860e3	0.007091628
76	0xbe88c8c6	-0.26715678
77	0xbe09196a	-0.13388601
78	0x3dd98f10	0.1062299
79	0xbe08b2f9	-0.13349523
80	0xbe429eed	-0.19005938
81	0xbe5512e4	-0.20807987
82	0xbdc03549	-0.09385163
83	0x3e759767	0.23983537
84	0x3cb199f9	0.021679865
85	0x3e5d38ab	0.21603648
86	0x3e3346f2	0.17507532
87	0x3e2ebe26	0.17064723
88	0xbe1e9dfc	-0.15489954
89	0xbe27f5c6	-0.16402349
90	0xbe0f7af6	-0.1401175
91	0x3e5895bd	0.2115087
92	0xbddb464e	-0.10706769
93	0x3e60ec24	0.2196508
94	0xbe54720c	-0.2074663
95	0xbecddd82	-0.4020806
96	0xbe219fff	-0.1578369
97	0x3dff4992	0.12465204
98	0x3e1e2d9a	0.15447083
99	0x3e7af898	0.24508893
100	0xbe955440	-0.2916584
101	0x3cb5f424	0.022211142
102	0xbdfef964	-0.12449911
103	0x3e39d3ed	0.1814725
104	0xbe896db1	-0.268415
105	0x3e9f8860	0.31158733
106	0x3e3184d9	0.17335834
107	0x3e31b21c	0.173531
108	0xbeb5b4c7	-0.35489485
109	0x3e75f4dd	0.24019189
110	0x3e717516	0.23579821
111	0xbbeb70ba	-0.007185069
112	0x3df5c0d7	0.11999672
113	0x3e5f3586	0.21797761
114	0x3ec5b8fd	0.38617697
115	0xbe263d4f	-0.16234325
116	0xbcea2f2c	-0.028586946
117	0x3ea3bbfc	0.31979358
118	0x3da55962	0.08073689
119	0x3e037516	0.12837633
120	0x3d9dce63	0.07705381
121	0xbe1fbc71	-0.15599228
122	0x3e82cff6	0.25549287
123	0x3e9ad4e7	0.30240557
124	0xbd10a313	-0.03531177
125	0x3d908eea	0.07058509
126	0xbe53eef2	-0.20696619
127	0x3e478f12	0.1948817
128	0x3d9c9023	0.076446794
129	0x3d948df3	0.07253637
130	0xbd81b707	-0.06333738
131	0xbe797d40	-0.24364185
132	0xbea23375	-0.31679884
133	0x3d490f86	0.04908707
134	0x3d9802ce	0.0742241
135	0xbd922693	-0.07136264
136	0xbe3fe404	-0.18739325
137	0x3e63a86b	0.22232215
138	0xbe8b9798	-0.27264094
139	0xbddc4e77	-0.107571535
140	0xbe30ab9c	-0.17252964
141	0xbdeaf696	-0.11472814
142	0x3eada372	0.3391376
143	0x3dae49de	0.08510183
144	0x3c4a161e	0.012334375
145	0x3e01f026	0.12689266
146	0xbe26da9f	-0.16294335
147	0xbe9cd036	-0.30627602
148	0x3eb79d21	0.35862067
149	0xbd7d7a22	-0.061884053
150	0x3e104a1a	0.14090768
151	0xbe1765c4	-0.14784914
152	0xbdf2d21f	-0.11856484
153	0x3ce8f779	0.028438317
154	0x3e8450ef	0.25842997
155	0xbe952185	-0.29127136
156	0xbd48a98d	-0.04898982
157	0x3d1c879e	0.038215272
158	0xbddf79fa	-0.10911937
159	0xbe0e3313	-0.13886671
160	0x3dd2d151	0.1029383
161	0x3c19dd4e	0.009391142
162	0x3e09688d	0.13418789
163	0x3e97dfe6	0.29663008
164	0xbdf9079c	-0.121596545
165	0x3e6b5ea3	0.2298532
166	0xbe745aa2	-0.23862699
167	0x3de39820	0.11113
168	0xbea897cd	-0.32928315
169	0x3d734764	0.059394255
170	0xbea5a517	-0.32352516
171	0x3b6ab51f	0.0035813523
172	0xbe857a34	-0.26069796
173	0xbec00ae8	-0.3750832
174	0xbcef6d75	-0.029226998
175	0x3ea6423e	0.32472414
176	0x3e9bf5a1	0.30460837
177	0xbed36cce	-0.4129395
178	0x3dd07d51	0.10180152
179	0x3db28efd	0.08718679
180	0x3e50026b	0.20313422
181	0xbeaf4593	-0.34232768
182	0xbd715526	-0.058919095
183	0xbeaba0d1	-0.3352113
184	0x3e967fdb	0.2939442
185	0x3df51839	0.11967511
186	0xbb80ff81	-0.0039367084
187	0x3e9f06d0	0.31059885
188	0xbe89ec02	-0.26937872
189	0xbce1cc2a	-0.027563173
190	0x3ec0fbe6	0.37692183
191	0xbd4f9c9b	-0.05068646
192	0x3d8616b1	0.06547297
193	0x3e9fd684	0.3121835
194	0xbe7dbff7	-0.2478026
195	0x3dc26365	0.09491614
196	0x3d0bde00	0.034147263
197	0xbe34e72f	-0.17666315
198	0xbd68e00b	-0.05685429
199	0xbe63a94a	-0.22232547
200	0xbe1f59e4	-0.15561634
201	0x3d1d77de	0.038444392
202	0x3ec876d8	0.3915317
203	0xbeb4a86e	-0.35284752
204	0x3d4b5a6c	0.04964678
205	0x3dc2a322	0.09503771
206	0xbcbe3539	-0.023218738
207	0xbef9e35d	-0.48806277
208	0x3c85567a	0.016276587
209	0x3e0c717d	0.13715167
210	0xbf0a091a	-0.5392014
211	0xbe1baff9	-0.15203847
212	0xbd842838	-0.064529836
213	0xbd92c107	-0.07165723
214	0x3eb3e985	0.351391
215	0x3de15983	0.11003401
216	0xbea7b2d3	-0.3275362
217	0x3e29f919	0.1659893
218	0xbe047142	-0.1293383
219	0x3e61f2cc	0.22065276
220	0xbd43a279	-0.047762368
221	0xbb0fa7fb	-0.0021920193
222	0xbd0fbc16	-0.035091482
223	0xbdc681b3	-0.09692707
224	0x3db6d5b7	0.089274816
225	0x3e3da38d	0.18519421
226	0xbcb6c4f3	-0.02231071
227	0xbea75722	-0.32683665
228	0x3e4292c2	0.19001296
229	0x3ee21542	0.44156843
230	0xbdd63f62	-0.10461308
231	0x3e57baf3	0.21067409
232	0xbd9846b8	-0.074353635
233	0xbe0d8618	-0.13820684
234	0x3f0c86aa	0.5489298
235	0xbe13d86a	-0.14438024
236	0xbec3cb30	-0.38240957
237	0xbed26782	-0.41094595
238	0xbe9d5c31	-0.307344
239	0x3d88076d	0.06642041
240	0xbe9cfb77	-0.30660602
241	0x3b61eabe	0.0034472193
242	0xbad87a2b	-0.0016515901
243	0x3ee60863	0.44928274
244	0xbdf0c5cb	-0.11756476
245	0x3e7f2858	0.24917734
246	0xbedb8aa6	-0.42879218
247	0x3d9e2750	0.07722342
248	0x3e74b47d	0.23896976
249	0xbee37f90	-0.4443326
250	0xbe926629	-0.28593567
251	0xbe10dc7e	-0.14146611
252	0x3ded9364	0.11600378
253	0xbb20ed0f	-0.002455536
254	0x3e4989a8	0.19681418
255	0xbd93e74f	-0.07221853

onnx::LSTM_227 f4 [2, 52, 13]
0	0xbca8ef76	-0.020621996
1	0x3de19c89	0.11016185
2	0x3e8bb1de	0.2728414
3	0xbed5e439	-0.41775683
4	0x3e06d2c5	0.1316634
5	0x3e76d814	0.24105865
6	0x3e8e753e	0.27823824
7	0x3e59e3e3	0.21278338
8	0x3e163d20	0.14671755
9	0xbcb1c5f3	-0.021700835
10	0x3ccccf36	0.02500115
11	0xbe3181f3	-0.17334728
12	0x3ceef9f3	0.02917192
13	0xbde8e734	-0.113722235
14	0x3c811eb1	0.015761705
15	0xbc93a355	-0.018022219
16	0x3e10fe2b	0.14159457
17	0x3ece7554	0.4032389
18	0xbda768b3	-0.08174267
19	0x3db3bde4	0.08776453
20	0x3d9772cb	0.07394942
21	0x3b09fb1b	0.0021054212
22	0x3e7adf08	0.24499142
23	0xbc8de06b	-0.017318925
24	0x3e9d970b	0.307793
25	0x3e676902	0.22598651
26	0xbd9add5d	-0.07561753
27	0x3de0754c	0.109598726
28	0x3e7f6030	0.24939036
29	0x3da10a8c	0.0786334
30	0x3f01b592	0.5066768
31	0x3ec158c0	0.37763023
32	0x3e54605c	0.20739883
33	0x3dd02ffb	0.101654015
34	0x3e811978	0.25214744
35	0xbda68a5c	-0.08131859
36	0xbc82c9f2	-0.015965436
37	0x3d0d8503	0.034550678
38	0x3d1402ea	0.03613559
39	0xbcb64ad1	-0.022252472
40	0xbe4836d1	-0.19552161
41	0x3db16b7e	0.08663081
42	0xbd8c123d	-0.06839416
43	0x3e0ccc39	0.1374978
44	0xbe46cdc9	-0.19414438
45	0x3cd48332	0.025941465
46	0x3db5423f	0.08850526
47	0xbe89fbcf	-0.26949927
48	0xbd97eb97	-0.07417982
49	0xbe74be61	-0.23900749
50	0xbee03c26	-0.4379589
51	0xbde7a72b	-0.11311182
52	0x3ed2e615	0.41191164
53	0x3e83e5d1	0.25761274
54	0xbc6701fb	-0.014099593
55	0xbd9096a8	-0.070599854
56	0xbe220983	-0.15823941
57	0x3df90c7c	0.12160584
58	0xbdac85b4	-0.08423939
59	0xbd9c5e2c	-0.07635149
60	0x3e920ee8	0.28526998
61	0xbed0b87b	-0.40765747
62	0xbb6d57a0	-0.0036215559
63	0xbe931d58	-0.28733325
64	0xbd806c28	-0.06270629
65	0xbcba2d94	-0.022726811
66	0x3e8b9f42	0.27269942
67	0xbe246797	-0.16055141
68	0xbe4edcc1	-0.20201398
69	0x3ed2f2f1	0.41200975
70	0x3d5aa7f3	0.053382825
71	0xbe2b69b9	-0.16739549
72	0xbdf57f76	-0.11987202
73	0x3e95fab5	0.29292837
74	0xbe84aa84	-0.25911343
75	0x3e4574f9	0.19282903
76	0xbe43605b	-0.19079725
77	0x3e1b5707	0.15169917
78	0x3e0d7a8b	0.13816278
79	0x3c4d578c	0.01253308
80	0x3ec10a6c	0.37703264
81	0xbeb3925e	-0.35072607
82	0x3e9167fc	0.28399646
83	0x3db0155f	0.08597826
84	0x3dd1cdf2	0.10244359
85	0x3e00907d	0.12555118
86	0x3ecd60ed	0.4011301
87	0xbe87034b	-0.263697
88	0xbe0a5b17	-0.1351131
89	0x3a25c722	0.00063239236
90	0xbed8b50a	-0.42325622
91	0x3e411d7e	0.18858907
92	0xbe542305	-0.20716484
93	0x3e116ecc	0.14202422
94	0xbe91302a	-0.2835706
95	0xbca844eb	-0.020540675
96	0x3e8d1a3f	0.27559087
97	0x3db4d51a	0.088297084
98	0xbe33293c	-0.17496198
99	0x3ea78224	0.32716477
100	0x3d490560	0.04907739
101	0x3eb8238d	0.35964623
102	0xbe245d84	-0.16051298
103	0x3df85a94	0.121266514
104	0xbb3e2e50	-0.0029019304
105	0xbe686e5d	-0.2269835
106	0x3e3e7d17	0.18602405
107	0x3e1666c7	0.14687644
108	0x3d6b1f52	0.057402916
109	0xbe2df32d	-0.16987295
110	0x3ef66212	0.48121697
111	0x3e67d39e	0.2263932
112	0xbdd3f440	-0.10349321
113	0x3e3fa86b	0.1871659
114	0x3e0997e3	0.13436846
115	0x3e9f2503	0.31082925
116	0x3f01ecba	0.5075184
117	0xbe2721ed	-0.16321535
118	0x3d10eba8	0.03538099
119	0x3e9df7b0	0.30853033
120	0xbe710dd4	-0.23540431
121	0x3de57f16	0.1120588
122	0x3c92e883	0.017933136
123	0x3dcf0cee	0.10109888
124	0x3cba0f41	0.022712352
125	0x3e6c1bdb	0.23057501
126	0x3ccaa815	0.02473835
127	0x3c969d91	0.01838568
128	0x3c0d06f5	0.008607616
129	0xbe3a587b	-0.18197815
130	0x3edec65f	0.4351072
131	0x3d90b129	0.070650406
132	0x3ea0e4d0	0.3142457
133	0xbe4ca726	-0.19985637
134	0xbe9fbd85	-0.3119928
135	0xbd2680b6	-0.040650092
136	0xbd9882db	-0.07446834
137	0xbe6a2ede	-0.22869441
138	0x3da6f8e5	0.081529416
139	0x3e15bdcb	0.14623182
140	0x3e26bbf0	0.1628263
141	0xbe36039e	-0.17774817
142	0xbe6fa84c	-0.23404044
143	0x3d14c562	0.03632105
144	0x3d82a5a7	0.06379252
145	0xbe2c0df5	-0.16802199
146	0xbebca3a3	-0.36843595
147	0x3dc9e9c7	0.098590426
148	0x3e80b978	0.251415
149	0xbe1afbce	-0.15135118
150	0xbe037537	-0.12837683
151	0x3e5d9c11	0.21641566
152	0xbdc3e571	-0.09565247
153	0x3b1692b7	0.0022975632
154	0xbe4d278a	-0.20034614
155	0xbdd95816	-0.10612504
156	0xbd3c1ce3	-0.045925986
157	0xbe387665	-0.18013914
158	0x3e73d64a	0.23812214
159	0xbe6cf6c7	-0.23141013
160	0x3dbe7492	0.09299578
161	0xbc1aafcb	-0.009441326
162	0xbeced1e2	-0.40394503
163	0x3e0d1af2	0.1377981
164	0x3df670fc	0.12033269
165	0x3dc8b82e	0.098007545
166	0x3e4fa77d	0.20278735
167	0xbedb21d3	-0.42799243
168	0x3e41b8a8	0.18918097
169	0x3ebb3c8b	0.36569628
170	0xbdb8e011	-0.09027112
171	0x3e903d16	0.28171605
172	0xbf0bb3a6	-0.54570997
173	0x3ebfc59f	0.3745546
174	0xbe56c4ab	-0.2097346
175	0x3ebaf769	0.36516884
176	0xbe9e5181	-0.30921558
177	0xbde30f8f	-0.11086952
178	0x3e839a28	0.2570355
179	0x3d177b92	0.03698308
180	0xbecaf12f	-0.39637133
181	0x3d154ed8	0.036452144
182	0xbe217a7d	-0.15769382
183	0x3f021060	0.50806236
184	0xbe7ad582	-0.2449551
185	0xbe570a40	-0.21000004
186	0x3dc11204	0.09427264
187	0xbe9e7c52	-0.30954224
188	0x3ec04694	0.37553847
189	0x3eb083f7	0.3447568
190	0x3e51f774	0.20504552
191	0xbe8edc71	-0.27902558
192	0x3eccdeb1	0.4001365
193	0xbc9688ed	-0.018375838
194	0x3e3ce438	0.18446434
195	0x3e305ceb	0.17222945
196	0x3c9ec49b	0.019380858
197	0x3efa9be2	0.48947054
198	0xbebe1869	-0.37127998
199	0xbe053b98	-0.13011014
200	0x3e2941fe	0.1652908
201	0x3d567d43	0.052365553
202	0xbd878b8e	-0.06618415
203	0x3f042139	0.51613194
204	0xbeb53f1a	-0.35399705
205	0x3ced7e17	0.028990788
206	0xbe013f98	-0.12621915
207	0xbe64375f	-0.22286747
208	0x3ec04fab	0.37560782
209	0xbeabdedd	-0.3356847
210	0x3e3ec9e1	0.18631698
211	0xbeddba49	-0.43306187
212	0x3e900285	0.28126922
213	0x3e878973	0.26472053
214	0x3d228029	0.039673004
215	0xbdf76517	-0.12079828
216	0x3dba2f65	0.09091071
217	0x3d77ac02	0.060466774
218	0x3d8ff360	0.07028842
219	0xbf18377a	-0.5945965
220	0xbd38ba9f	-0.04509985
221	0xbe6f3123	-0.23358588
222	0x3e9db94a	0.30805427
223	0x3e8e08b3	0.27741012
224	0xbda11a41	-0.07866336
225	0x3e968a30	0.29402304
226	0x3ecd96b1	0.4015403
227	0xbec0c70a	-0.37651855
228	0x3e5a3510	0.21309304
229	0x3d842110	0.06451619
230	0xbf134608	-0.57528734
231	0xbd2d1144	-0.042252794
232	0xbe05b217	-0.13056217
233	0xbec76a8f	-0.38948485
234	0xbd197f21	-0.037474755
235	0x3f0bd47b	0.54621094
236	0x3cdd43a3	0.02700979
237	0xbdffd040	-0.124908924
238	0x3f2432be	0.64139926
239	0xbd59cfc0	-0.05317664
240	0xbe357eea	-0.17724195
241	0xbe3ba1db	-0.18323462
242	0x3ea22bf2	0.31674153
243	0xbec3c86e	-0.38238853
244	0x3e873455	0.26407114
245	0x3e2b009f	0.16699456
246	0xbe0e49ef	-0.13895391
247	0x3f1d9459	0.61554486
248	0xbebee095	-0.37280717
249	0x3f36f0e3	0.71461314
250	0xbe061170	-0.1309259
251	0x3e76274d	0.2403843
252	0x3f41d57a	0.75716364
253	0x3e8ea6e0	0.2786169
254	0xbe024386	-0.1272107
255	0x3dbce290	0.09222901
