19 simple sound AI/sound_ai.pt (torch, 22098 bytes, 14 tensors)

weight f4 [13]
1.052201 1.2175815 1.2024733 1.045087 1.3129132 1.0976417 1.3363571 1.148913
1.1408577 1.1730499 1.1654049 1.0854529 1.1252699
00000000: 86ae 863f b6d9 9b3f a5ea 993f 69c5 853f
00000010: 8a0d a83f 867f 8c3f c00d ab3f 950f 933f
00000020: a007 923f 8026 963f fd2b 953f 1ff0 8a3f
00000030: d808 903f

bias f4 [13]
0.094433755 0.0896281 -0.02825135 -0.035940196 -0.09200487 -0.076356955 0.09312032 0.07085705
-0.10269326 -0.035107497 0.08177974 0.110791095 -0.24518314
00000000: 7c66 c13d f08e b73d 606f e7bc 0736 13bd
00000010: 0d6d bcbd 0961 9cbd deb5 be3d 801d 913d
00000020: d850 d2bd e1cc 0fbd 237c a73d 71e6 e23d
00000030: 4a11 7bbe

weight_ih_l0 f4 [52, 13]
0.18579102 -0.14375001 -0.056025002 -0.13117732 -0.2692184 0.031239389 -0.09790317 0.23556761
-0.2799916 -0.027276501 0.030156702 0.20512912 -0.37633917 0.055854112 0.024033869 0.13540308
-0.05060407 -0.03484597 -0.03335723 -0.0070229378 -0.052081678 0.05190745 0.2653016 -0.04353216
-0.03751388 -0.27871177 -0.15682699 0.06648932 -0.19439788 -0.08923054 -0.05712782 -0.1124273
0.03351065 0.370705 0.15740168 0.24896902 0.22248666 -0.06417822 -0.18813929 -0.059837557
-0.019532025 -0.44086435 -0.34913433 -0.085669994 0.06753863 -0.01133643 0.24454372 -0.12840174
0.13820077 -0.047039706 0.05874649 -0.029970966 0.13928044 0.08347911 0.054977003 -0.18085338
-0.4163724 0.27542374 -0.053103834 0.25389346 -0.1262224 0.042419005 0.05277151 0.028080124
-0.06421639 0.051862817 0.20118576 -0.05837828 0.14634608 -0.21309638 0.08611313 -0.3108118
-0.0015018341 -0.20033143 -0.014963471 0.007091628 -0.26715678 -0.13388601 0.1062299 -0.13349523
-0.19005938 -0.20807987 -0.09385163 0.23983537 0.021679865 0.21603648 0.17507532 0.17064723
-0.15489954 -0.16402349 -0.1401175 0.2115087 -0.10706769 0.2196508 -0.2074663 -0.4020806
-0.1578369 0.12465204 0.15447083 0.24508893 -0.2916584 0.022211142 -0.12449911 0.1814725
-0.268415 0.31158733 0.17335834 0.173531 -0.35489485 0.24019189 0.23579821 -0.007185069
0.11999672 0.21797761 0.38617697 -0.16234325 -0.028586946 0.31979358 0.08073689 0.12837633
0.07705381 -0.15599228 0.25549287 0.30240557 -0.03531177 0.07058509 -0.20696619 0.1948817
0.076446794 0.07253637 -0.06333738 -0.24364185 -0.31679884 0.04908707 0.0742241 -0.07136264
-0.18739325 0.22232215 -0.27264094 -0.107571535 -0.17252964 -0.11472814 0.3391376 0.08510183
0.012334375 0.12689266 -0.16294335 -0.30627602 0.35862067 -0.061884053 0.14090768 -0.14784914
-0.11856484 0.028438317 0.25842997 -0.29127136 -0.04898982 0.038215272 -0.10911937 -0.13886671
0.1029383 0.009391142 0.13418789 0.29663008 -0.121596545 0.2298532 -0.23862699 0.11113
-0.32928315 0.0025400675 -0.22128883 -0.13147485 -0.35078064 -0.05538032 0.29070604 0.18775676
0.059415575 -0.24365407 0.057692744 -0.15839167 0.12478542 -0.06921076 0.34031835 -0.036972336
0.25937378 -0.23869282 -0.37953654 0.018378442 -0.37913147 0.25924703 0.2612375 0.33902436
0.008210608 -0.033389088 0.21276957 0.26147807 -0.07022286 -0.27514818 -0.1725539 0.097378485
0.10336141 -0.032290578 -0.14420953 -0.04773413 -0.0031449925 0.17120148 -0.18908297 -0.051309448
-0.029035972 0.3622344 -0.0749407 -0.26752076 -0.18268159 0.24837394 0.15157299 0.4015474
-0.21889906 0.014757939 0.030408768 0.2070999 0.15911253 0.08530149 0.20539215 -0.029669777
-0.2866243 0.050981373 0.06615546 -0.028498925 -0.1503184 0.043366183 0.13541149 0.303197
-0.04175069 -0.11677109 0.1245055 -0.06296289 0.037939787 -0.141877 0.11471738 0.42644352
0.10333127 0.095615886 -0.1547796 0.10919272 0.12329146 0.19357273 -0.122723825 -0.00786133
0.04704853 -0.01998899 0.21733525 -0.10901788 0.21699192 -0.2877716 -0.1946768 -0.21902797
00000000: 0040 3e3e 3433 13be 797a 65bd 5953 06be
00000010: fed6 89be bfe9 ff3c 7581 c8bd a338 713e
00000020: 0f5b 8fbe f872 dfbc 300b f73c 5e0d 523e
00000030: 87af c0be 48c7 643d ade2 c43c 1ba7 0a3e
00000040: 3746 4fbd a6ba 0ebd 97a1 08bd ac20 e6bb
00000050: 9953 55bd e89c 543d 9cd5 873e c74e 32bd
00000060: 27a8 19bd 4fb3 8ebe 4197 20be 8d2b 883d
00000070: 3d10 47be 80be b6bd dcfe 69bd 4940 e6bd
00000080: 7742 093d 0ccd bd3e e82d 213e bcf1 7e3e
00000090: 8bd3 633e df6f 83bd 96a7 40be 3a18 75bd
000000a0: a001 a0bc f9b8 e1be bcc1 b2be c073 afbd
000000b0: b151 8a3d 6fbc 39bc ab69 7a3e bf7b 03be
000000c0: 8184 0d3e b5ac 40bd 29a0 703d ac85 f5bc
000000d0: 889f 0e3e 18f7 aa3d 912f 613d a131 39be
000000e0: c32e d5be 5704 8d3e 6883 59bd 53fe 813e
000000f0: 7240 01be 8dbf 2d3d f026 583d 4a08 e63c
00000100: e283 83bd 1b6e 543d a403 4e3e 101e 6fbd
00000110: bfdb 153e f035 5abe 155c b03d b922 9fbe
00000120: 31d9 c4ba af23 4dbe 5929 75bc e360 e83b
00000130: c6c8 88be 6a19 09be 108f d93d f9b2 08be
00000140: ed9e 42be e412 55be 4935 c0bd 6797 753e
00000150: f999 b13c ab38 5d3e f246 333e 26be 2e3e
00000160: fc9d 1ebe c6f5 27be f67a 0fbe bd95 583e
00000170: 4e46 dbbd 24ec 603e 0c72 54be 82dd cdbe
00000180: ff9f 21be 9249 ff3d 9a2d 1e3e 98f8 7a3e
00000190: 4054 95be 24f4 b53c 64f9 febd edd3 393e
000001a0: b16d 89be 6088 9f3e d984 313e 1cb2 313e
000001b0: c7b4 b5be ddf4 753e 1675 713e ba70 ebbb
000001c0: d7c0 f53d 8635 5f3e fdb8 c53e 4f3d 26be
000001d0: 2c2f eabc fcbb a33e 6259 a53d 1675 033e
000001e0: 63ce 9d3d 71bc 1fbe f6cf 823e e7d4 9a3e
000001f0: 13a3 10bd ea8e 903d f2ee 53be 128f 473e
00000200: 2390 9c3d f38d 943d 07b7 81bd 407d 79be
00000210: 7533 a2be 860f 493d ce02 983d 9326 92bd
00000220: 04e4 3fbe 6ba8 633e 9897 8bbe 774e dcbd
00000230: 9cab 30be 96f6 eabd 72a3 ad3e de49 ae3d
00000240: 1e16 4a3c 26f0 013e 9fda 26be 36d0 9cbe
00000250: 219d b73e 227a 7dbd 1a4a 103e c465 17be
00000260: 1fd2 f2bd 79f7 e83c ef50 843e 8521 95be
00000270: 8da9 48bd 9e87 1c3d fa79 dfbd 1333 0ebe
00000280: 51d1 d23d 4edd 193c 8d68 093e e6df 973e
00000290: 9c07 f9bd a35e 6b3e a25a 74be 2098 e33d
000002a0: cd97 a8be 4377 263b 8a99 62be 58a1 06be
000002b0: 8599 b3be 79d6 62bd 6cd7 943e 4f43 403e
000002c0: bf5d 733d 7480 79be 3a4f 6c3d 6d31 22be
000002d0: 808f ff3d 5fbe 8dbd 353e ae3e 4e70 17bd
000002e0: a4cc 843e e46b 74be 9d52 c2be 638e 963c
000002f0: 851d c2be 07bc 843e ecc0 853e 9a94 ad3e
00000300: c985 063c ffc2 08bd 44e0 593e 74e0 853e
00000310: 01d1 8fbd 39e0 8cbe f8b1 30be 5f6e c73d
00000320: 26af d33d 2043 04bd aaab 13be dd84 43bd
00000330: 381c 4ebb 714f 2f3e f79e 41be db29 52bd
00000340: d9dc edbc ca76 b93e 827a 99bd 7bf8 88be
00000350: e210 3bbe bd55 7e3e f335 1b3e 9f97 cd3e
00000360: 1327 60be 48cb 713c cf1b f93c ff11 543e
00000370: 65ee 223e 8cb2 ae3d 5252 523e 080e f3bc
00000380: 6cc0 92be d8d1 503d 847c 873d 9476 e9bc
00000390: 11ed 19be bda0 313d 4fa9 0a3e a33c 9b3e
000003a0: c602 2bbd ae25 efbd bdfc fe3d b0f2 80bd
000003b0: c066 1b3d 3448 11be f2f0 ea3d ce56 da3e
000003c0: 589f d33d 43d2 c33d 8b7e 1ebe 6fa0 df3d
000003d0: 3c80 fc3d ee37 463e a156 fbbd cfcc 00bc
000003e0: f6b5 403d f3bf a3bc 228d 5e3e c444 dfbd
000003f0: 2133 5e3e cd56 93be 5b59 47be de48 60be

weight_hh_l0 f4 [52, 13]
-0.020621996 0.11016185 0.2728414 -0.41775683 0.1316634 0.24105865 0.27823824 0.21278338
0.14671755 -0.021700835 0.02500115 -0.17334728 0.02917192 -0.113722235 0.015761705 -0.018022219
0.14159457 0.4032389 -0.08174267 0.08776453 0.07394942 0.0021054212 0.24499142 -0.017318925
0.307793 0.22598651 -0.07561753 0.109598726 0.24939036 0.0786334 0.5066768 0.37763023
0.20739883 0.101654015 0.25214744 -0.08131859 -0.015965436 0.034550678 0.03613559 -0.022252472
-0.19552161 0.08663081 -0.06839416 0.1374978 -0.19414438 0.025941465 0.08850526 -0.26949927
-0.07417982 -0.23900749 -0.4379589 -0.11311182 0.41191164 0.25761274 -0.014099593 -0.070599854
-0.15823941 0.12160584 -0.08423939 -0.07635149 0.28526998 -0.40765747 -0.0036215559 -0.28733325
-0.06270629 -0.022726811 0.27269942 -0.16055141 -0.20201398 0.41200975 0.053382825 -0.16739549
-0.11987202 0.29292837 -0.25911343 0.19282903 -0.19079725 0.15169917 0.13816278 0.01253308
0.37703264 -0.35072607 0.28399646 0.08597826 0.10244359 0.12555118 0.4011301 -0.263697
-0.1351131 0.00063239236 -0.42325622 0.18858907 -0.20716484 0.14202422 -0.2835706 -0.020540675
0.27559087 0.088297084 -0.17496198 0.32716477 0.04907739 0.35964623 -0.16051298 0.121266514
-0.0029019304 -0.2269835 0.18602405 0.14687644 0.057402916 -0.16987295 0.48121697 0.2263932
-0.10349321 0.1871659 0.13436846 0.31082925 0.5075184 -0.16321535 0.03538099 0.30853033
-0.23540431 0.1120588 0.017933136 0.10109888 0.022712352 0.23057501 0.02473835 0.01838568
0.008607616 -0.18197815 0.4351072 0.070650406 0.3142457 -0.19985637 -0.3119928 -0.040650092
-0.07446834 -0.22869441 0.081529416 0.14623182 0.1628263 -0.17774817 -0.23404044 0.03632105
0.06379252 -0.16802199 -0.36843595 0.098590426 0.251415 -0.15135118 -0.12837683 0.21641566
-0.09565247 0.0022975632 -0.20034614 -0.10612504 -0.045925986 -0.18013914 0.23812214 -0.23141013
0.09299578 -0.009441326 -0.40394503 0.1377981 0.12033269 0.098007545 0.20278735 -0.42799243
0.18918097 0.34638396 0.17852558 0.06370718 -0.4776929 0.2653294 0.24381192 0.22678427
0.17091522 -0.017192269 0.10241072 0.10435368 0.08283735 -0.33098596 -0.19778019 -0.033498548
-0.12410504 -0.017335244 0.54848003 0.12122496 0.112949245 -0.19586961 0.020097831 -0.16257401
-0.2100052 0.10260173 0.06155655 0.06917529 0.066738084 -0.034549166 -0.46821567 0.08451288
0.4626048 0.027583692 -0.2952893 0.1907533 -0.442356 0.026084347 -0.2694902 -0.18617226
-0.027707275 -0.35348755 0.036396146 -0.20605114 0.34747547 0.2088196 0.28939357 -0.3327934
-0.05424254 0.17372549 -0.2647752 -0.18120858 -0.32460535 0.211587 0.07480955 0.34438986
-0.36294207 0.018626358 0.17318428 0.23111993 0.04430442 0.40745693 0.0066094818 0.020189088
-0.17828223 -0.06784623 0.18716453 0.5025792 0.039668538 -0.1260179 0.62450284 -0.103168175
0.064653985 -0.26333427 0.39617655 -0.04279576 -0.097159505 0.12817587 0.004959381 0.50367796
-0.0057887994 0.17765099 -0.04897095 -0.15869792 0.3922202 0.2254115 -0.24257305 0.37860197
00000000: 76ef a8bc 899c e13d deb1 8b3e 39e4 d5be
00000010: c5d2 063e 14d8 763e 3e75 8e3e e3e3 593e
00000020: 203d 163e f3c5 b1bc 36cf cc3c f381 31be
00000030: f3f9 ee3c 34e7 e8bd b11e 813c 55a3 93bc
00000040: 2bfe 103e 5475 ce3e b368 a7bd e4bd b33d
00000050: cb72 973d 1bfb 093b 08df 7a3e 6be0 8dbc
00000060: 0b97 9d3e 0269 673e 5ddd 9abd 4c75 e03d
00000070: 3060 7f3e 8c0a a13d 92b5 013f c058 c13e
00000080: 5c60 543e fb2f d03d 7819 813e 5c8a a6bd
00000090: f2c9 82bc 0385 0d3d ea02 143d d14a b6bc
000000a0: d136 48be 7e6b b13d 3d12 8cbd 39cc 0c3e
000000b0: c9cd 46be 3283 d43c 3f42 b53d cffb 89be
000000c0: 97eb 97bd 61be 74be 263c e0be 2ba7 e7bd
000000d0: 15e6 d23e d1e5 833e fb01 67bc a896 90bd
000000e0: 8309 22be 7c0c f93d b485 acbd 2c5e 9cbd
000000f0: e80e 923e 7bb8 d0be a057 6dbb 581d 93be
00000100: 286c 80bd 942d babc 429f 8b3e 9767 24be
00000110: c1dc 4ebe f1f2 d23e f3a7 5a3d b969 2bbe
00000120: 767f f5bd b5fa 953e 84aa 84be f974 453e
00000130: 5b60 43be 0757 1b3e 8b7a 0d3e 8c57 4d3c
00000140: 6c0a c13e 5e92 b3be fc67 913e 5f15 b03d
00000150: f2cd d13d 7d90 003e ed60 cd3e 4b03 87be
00000160: 175b 0abe 22c7 253a 0ab5 d8be 7e1d 413e
00000170: 0523 54be cc6e 113e 2a30 91be eb44 a8bc
00000180: 3f1a 8d3e 1ad5 b43d 3c29 33be 2482 a73e
00000190: 6005 493d 8d23 b83e 845d 24be 945a f83d
000001a0: 502e 3ebb 5d6e 68be 177d 3e3e c766 163e
000001b0: 521f 6b3d 2df3 2dbe 1262 f63e 9ed3 673e
000001c0: 40f4 d3bd 6ba8 3f3e e397 093e 0325 9f3e
000001d0: baec 013f ed21 27be a8eb 103d b0f7 9d3e
000001e0: d40d 71be 167f e53d 83e8 923c ee0c cf3d
000001f0: 410f ba3c db1b 6c3e 15a8 ca3c 919d 963c
00000200: f506 0d3c 7b58 3abe 5fc6 de3e 29b1 903d
00000210: d0e4 a03e 26a7 4cbe 85bd 9fbe b680 26bd
00000220: db82 98bd de2e 6abe e5f8 a63d cbbd 153e
00000230: f0bb 263e 9e03 36be 4ca8 6fbe 62c5 143d
00000240: a7a5 823d f50d 2cbe a3a3 bcbe c7e9 c93d
00000250: 78b9 803e cefb 1abe 3775 03be 119c 5d3e
00000260: 71e5 c3bd b792 163b 8a27 4dbe 1658 d9bd
00000270: e31c 3cbd 6576 38be 4ad6 733e c7f6 6cbe
00000280: 9274 be3d cbaf 1abc e2d1 cebe f21a 0d3e
00000290: fc70 f63d 2eb8 c83d 7da7 4f3e d321 dbbe
000002a0: a8b8 413e 3d59 b13e 69cf 363e e978 823d
000002b0: 2a94 f4be 41d9 873e d5a9 793e 233a 683e
000002c0: 6604 2f3e cdd6 8cbc b6bc d13d 62b7 d53d
000002d0: a1a6 a93d fe76 a9be e486 4abe c635 09bd
000002e0: c92a febd a402 8ebc 3069 0c3f cb44 f83d
000002f0: ef51 e73d 0b92 48be 35a4 a43c cd79 26be
00000300: 9a0b 57be db20 d23d b922 7c3d c6ab 8d3d
00000310: faad 883d 6d83 0dbd f7b9 efbe 1715 ad3d
00000320: 89da ec3e 32f7 e13c 2930 97be d554 433e
00000330: 7c7c e2be d7ae d53c 9ffa 89be f1a3 3ebe
00000340: 5efa e2bc 52fc b4be 2014 153d 12ff 52be
00000350: 4ee8 b13e ced4 553e 652b 943e e663 aabe
00000360: 6d2d 5ebd 18e5 313e 9d90 87be be8e 39be
00000370: ac32 a6be 43aa 583e c035 993d de53 b03e
00000380: 8bd3 b9be 4e96 983c 3857 313e b4aa 6c3e
00000390: 8d78 353d 329e d03e 5a94 d83b 9663 a53c
000003a0: 9e8f 36be f7f2 8abd 0fa8 3f3e 08a9 003f
000003b0: 7a7b 223d d60a 01be 6bdf 1f3f d649 d3bd
000003c0: 4f69 843d c0d3 86be a7d7 ca3e 9b4a 2fbd
000003d0: 90fb c6bd 8940 033e 4e82 a23b 0af1 003f
000003e0: f8af bdbb 24ea 353e c395 48bd b581 22be
000003f0: 16d1 c83e 46d2 663e 1265 78be 1ed8 c13e

bias_ih_l0 f4 [52]
0.24325947 -0.118084766 0.12555857 -0.19788752 0.46607932 0.41231441 0.3386563 0.04514914
-0.22603981 0.031458475 0.07061212 0.45310822 0.36164474 0.013860633 0.13068953 -0.07111415
0.054410253 0.15344352 0.21152365 0.12980503 0.36794576 0.13219509 0.21281323 -0.1442585
0.016320836 -0.05112375 0.20391425 0.1376108 0.26268366 -0.00771496 0.01793186 -0.06929322
0.20588455 0.017391296 0.31398904 -0.06637283 -0.09917295 -0.12097045 0.04276169 0.057132393
0.26800156 0.010328143 0.1620981 0.22167721 0.2518361 0.33562443 -0.01605237 0.39316952
0.3072908 0.3283325 0.4167978 0.18845262
00000000: 0319 793e 6dd6 f1bd 6d92 003e 07a3 4abe
00000010: f3a1 ee3e e01a d33e 5c64 ad3e 4eee 383d
00000020: fb76 67be 9ada 003d 169d 903d cdfd e73e
00000030: 8029 b93e b517 633c 7ad3 053e 4ca4 91bd
00000040: 49dd 5e3d 4c20 1d3e a899 583e 9ceb 043e
00000050: 6363 bc3e 265e 073e b6eb 593e 80b8 13be
00000060: 46b3 853c 2367 51bd e6ce 503e d8e9 0c3e
00000070: 797e 863e c6cd fcbb d6e5 923c 9be9 8dbd
00000080: 66d3 523e 3178 8e3c 2cc3 a03e 7aee 87bd
00000090: 301b cbbd 5bbf f7bd e226 2f3d a803 6a3d
000000a0: 8037 893e 5f37 293c 0bfd 253e 5aff 623e
000000b0: a9f0 803e f7d6 ab3e 4380 83bc 844d c93e
000000c0: 3855 9d3e 331b a83e 8566 d53e b9f9 403e

bias_hh_l0 f4 [52]
0.46867615 0.00891164 0.054569192 -0.0663676 0.40459362 0.42833054 0.35544437 -0.054395013
0.21781936 0.15196201 -0.18894023 0.48353305 0.26328546 0.02080904 0.39219165 -0.09134193
-0.03931107 0.19806486 0.45257297 -0.095732 0.32077485 -0.011045395 0.029393354 0.09384849
0.5016216 0.22918305 0.13022575 0.019603878 -0.13446954 -0.11717144 -0.051209737 -0.07135589
0.15638353 0.121375926 0.33662516 0.010130496 -0.011449681 -0.31851837 -0.08666648 0.26735988
0.37267035 0.47473398 -0.03847412 0.08070273 0.47065324 0.18865356 0.4383694 0.031972624
0.21917947 0.14857376 0.5405807 0.13628687
00000000: 52f6 ef3e 2102 123c f283 5f3d bceb 87bd
00000010: e526 cf3e 244e db3e cefc b53e 4ecd 5ebd
00000020: 0a0c 5f3e ee9b 1b3e 8c79 41be a591 f73e
00000030: 5acd 863e b877 aa3c 58cd c83e 7a11 bbbd
00000040: a504 21bd 84d1 4a3e a5b7 e73e 240f c4bd
00000050: 9a3c a43e bff7 34bc 55ca f03c a333 c03d
00000060: 466a 003f f6ae 6a3e e659 053e 5098 a03c
00000070: 62b2 09be 94f7 efbd 4dc1 51bd 0923 92bd
00000080: 0123 203e f193 f83d 225a ac3e 61fa 253c
00000090: 7197 3bbc d714 a3be 327e b1bd 65e3 883e
000000a0: a6ce be3e 5510 f33e 0a97 1dbd 7947 a53d
000000b0: 76f9 f03e 662e 413e f471 e03e baf5 023d
000000c0: 9570 603e b823 183e 7f63 0a3f c98e 0b3e

weight_ih_l0_reverse f4 [52, 13]
0.16991794 0.14243929 -0.30316392 -0.3798718 -0.28919736 -0.08088067 0.059149425 0.17111418
0.24753313 -0.0988696 0.047660165 -0.10375418 0.19246873 0.096018314 0.103432536 -0.1253673
0.034615844 0.12436891 0.50349414 0.36768487 -0.14992899 0.14346418 -0.3397776 0.037652936
0.14317258 -0.072811015 0.041987564 -0.03306286 -0.03022847 0.14213896 -0.17462261 0.18808044
0.16627376 0.30936268 0.26385325 0.34183183 0.48034358 -0.15422942 0.0068939347 -0.19804893
0.006300551 0.16628751 0.35185894 -0.18465333 -0.33718276 -0.439 0.22986475 0.08852165
0.031643137 0.25634968 -0.3396273 -0.27618963 0.25185874 -0.09496801 0.12319954 0.056208618
-0.054504685 0.5437991 0.3992574 -0.22443381 0.23310103 0.2651806 0.12817124 -0.33935663
0.0222641 -0.011689575 0.091159776 -0.04371829 0.027177783 -0.37073463 -0.16537 0.055152103
0.10968763 0.23247515 0.33827996 0.2791818 -0.25554064 -0.2929229 0.2516548 -0.26451582
-0.12511 -0.027832216 -0.47665295 0.20293726 0.08046839 -0.10844518 -0.20306687 -0.16139865
-0.14816462 -0.12875041 0.14997624 -0.09190244 -0.19158834 0.06977273 -0.31464827 -0.21849914
-0.18617903 -0.041663434 0.27215168 0.10617521 0.04569073 0.07475904 -0.08493743 -0.09224227
-0.008395568 -0.39136738 -0.2957215 0.017445387 -0.3536853 0.12675169 -0.14441323 -0.0888329
-0.19965097 -0.060438227 0.16351603 0.06338286 0.11288875 0.28367308 0.03200434 -0.09616046
-0.47863045 -0.27494472 -0.16313894 -0.052988727 0.21536362 -0.010649013 -0.31612962 0.1078059
0.049042992 -0.2763367 0.35858876 0.19923936 -0.006089012 -0.36056846 -0.051923286 0.24490708
-0.05271069 0.25623983 -0.16314772 -0.18985224 0.037354983 -0.18270132 -0.06329521 0.028209217
0.48600632 0.14049213 -0.120338224 -0.09078632 0.085986316 -0.11002872 0.40277293 -0.015546774
0.17820485 0.13968982 0.15211576 0.02532445 0.22436216 0.28038263 0.3344542 -0.18639165
-0.17005526 -0.28963506 0.31807625 -0.1246923 -0.11561839 0.08214748 0.08561199 -0.18352099
-0.5295425 0.36186284 0.029818168 -0.17651781 -0.20054488 0.04069331 0.15876599 0.0127679305
0.21214376 0.05596135 0.26736543 0.15924548 -0.031115131 -0.22335847 -0.27905908 0.003536067
0.058144882 -0.17671825 -0.053041454 0.31265697 -0.017929781 -0.17401038 -0.023969341 -0.034460165
-0.095533825 0.022254875 0.019535033 0.31832007 0.057611015 -0.13980031 -0.03684003 -0.07886806
0.022438709 0.12445196 0.027552227 -0.12788042 0.36499226 0.27357727 -0.24144705 -0.046311606
-0.12252606 -2.5629526e-05 -0.009875709 0.18282986 -0.15036105 -0.0066766767 -0.04979 0.19190915
0.02480125 0.45228252 -0.056853358 0.19043598 -0.24211347 0.23553748 -0.25551 -0.34193623
0.00317932 0.013547841 0.12562959 0.033367924 0.065535806 -0.15830645 0.15044066 -0.00085334765
-0.30329117 -0.100979835 0.18948083 -0.26180682 0.01565609 -0.088242486 -0.21574207 0.39548323
0.10412391 0.29645702 0.10368319 -0.029487826 -0.22076783 0.12352443 0.103488386 -0.039683092
-0.18641968 -0.09133411 -0.08409726 -0.46992263 0.3055894 0.16047907 0.036076814 0.02378444
00000000: f8fe 2d3e 9bdb 113e 4d38 9bbe 8e7e c2be
00000010: ad11 94be c4a4 a5bd ab46 723d 8e38 2f3e
00000020: 5379 7d3e 257c cabd 4e37 433d 127d d4bd
00000030: 8616 453e 40a5 c43d 70d4 d33d 4960 00be
00000040: 58c9 0d3d 21b5 fe3d fee4 003f 3141 bc3e
00000050: fc86 19be 46e8 123e 54f7 adbe f739 1a3d
00000060: d59b 123e f11d 95bd 27fb 2b3d ec6c 07bd
00000070: b2a1 f7bc e08c 113e 45d0 32be 2998 403e
00000080: ab43 2a3e c964 9e3e c617 873e 9504 af3e
00000090: 98ef f53e 51ee 1dbe 84e6 e13b 57cd 4abe
000000a0: da74 ce3b 4647 2a3e db26 b43e c315 3dbe
000000b0: 38a3 acbe 9cc4 e0be aa61 6b3e d74a b53d
000000c0: 3c9c 013d 4440 833e a1e3 adbe ba68 8dbe
000000d0: a1f3 803e 977e c2bd 0a50 fc3d 023b 663d
000000e0: 4e40 5fbd 6b36 0b3f 776b cc3e fad1 65be
000000f0: 09b2 6e3e c0c5 873e 523f 033e 27c0 adbe
00000100: 3463 b63c a285 3fbc fab1 ba3d f311 33bd
00000110: f1a3 de3c eed0 bdbe c156 29be 2ce7 613d
00000120: e8a3 e03d f70d 6e3e 0833 ad3e ebf0 8e3e
00000130: 39d6 82be fef9 95be e6d8 803e 9e6e 87be
00000140: d61c 00be 6300 e4bc db0b f4be c9ce 4f3e
00000150: 9ccc a43d 8218 debd c3f0 4fbe b045 25be
00000160: 77b8 17be 26d7 03be 5f93 193e 5937 bcbd
00000170: bc2f 44be 01e5 8e3d 9419 a1be 3dbe 5fbe
00000180: b7a5 3ebe 47a7 2abd 7757 8b3e 6372 d93d
00000190: 3426 3b3d 441b 993d adf3 adbd 84e9 bcbd
000001a0: 908d 09bc 4e61 c8be cf68 97be a1e9 8e3c
000001b0: 3d16 b5be 32cb 013e 10e1 13be 06ee b5bd
000001c0: 4e71 4cbe 138e 77bd bf70 273e dfce 813d
000001d0: 3832 e73d 993d 913e fc16 033d c6ef c4bd
000001e0: 0d0f f5be 8ec5 8cbe e50d 27be b50a 59bd
000001f0: 4888 5c3e 3379 2ebc bedb a1be 57c9 dc3d
00000200: 4ee1 483d 017c 8dbe f298 b73e 6705 4c3e
00000210: 5686 c7bb 6e9c b8be 83ad 54bd ecc8 7a3e
00000220: 2ae7 57bd de31 833e 3210 27be a068 42be
00000230: 8a01 193d 0e16 3bbe eba0 81bd 0417 e73c
00000240: d2d5 f83e 2bdd 0f3e e373 f6bd 2eee b9bd
00000250: 9819 b03d bd56 e1bd 4138 ce3e e5b7 7ebc
00000260: 557b 363e d90a 0f3e 3cc4 1b3e 3975 cf3c
00000270: 32bf 653e 508e 8f3e 953d ab3e 74dd 3ebe
00000280: f722 2ebe 0c4b 94be e4da a23e ad5e ffbd
00000290: 56c9 ecbd f03c a83d 5755 af3d edec 3bbe
000002a0: 1990 07bf 1646 b93e 3b45 f43c 16c1 34be
000002b0: a35b 4dbe 07ae 263d 8d93 223e 9530 513c
000002c0: 373c 593e bb37 653d 1fe4 883e 3f11 233e
000002d0: 29e5 febc 15b8 64be d5e0 8ebe 5cbd 673b
000002e0: 5429 6e3d a1f5 34be ff41 59bd 9314 a03e
000002f0: 7ae1 92bc c72f 32be 5a5b c4bc 1a26 0dbd
00000300: 3da7 c3bd db4f b63c ef07 a03c d9fa a23e
00000310: 87f9 6b3d d027 0fbe 92e5 16bd 9485 a1bd
00000320: 62d1 b73c abe0 fe3d 35b5 e13c 16f3 02be
00000330: 44e0 ba3e 5212 8c3e e53d 77be 3db1 3dbd
00000340: f1ee fabd fdfe d6b7 bacd 21bc c037 3b3e
00000350: 3ff8 19be 06c8 dabb 99f0 4bbd d583 443e
00000360: fe2b cb3c 9391 e73e 11df 68bd a601 433e
00000370: 98ec 77be bd30 713e 35d2 82be 4412 afbe
00000380: 235c 503b c4f7 5d3c 0ba5 003e ceac 083d
00000390: a337 863d 161b 22be 1e0d 1a3e 31b3 5fba
000003a0: fb48 9bbe 84ce cebd 4307 423e 8b0b 86be
000003b0: 3341 803c 7ab8 b4bd 7deb 5cbe c77c ca3e
000003c0: eb3e d53d 37c9 973e da57 d43d 7490 f1bc
000003d0: f610 62be 60fa fc3d b8f1 d33d bd8a 22bd
000003e0: cde4 3ebe 610d bbbd 2f3b acbd b399 f0be
000003f0: 3776 9c3e a054 243e 48c5 133d 96d7 c23c

weight_hh_l0_reverse f4 [52, 13]
-0.23847425 -0.14057124 0.023195587 0.27596712 -0.08547929 0.18081585 0.07176489 -0.14918171
-0.15364622 0.110993184 -0.19759937 0.059302922 -0.12322446 0.26571098 -0.23173663 -0.020291133
-0.50881267 0.3824612 0.23290856 -0.22547983 -0.24985407 0.13747413 0.013891275 0.14164586
-0.4242265 -0.19876724 0.07233753 0.07470063 0.09770556 0.095477656 0.116779685 -0.16008046
0.37973088 0.13364927 -0.23671062 -0.08487137 -0.015197727 -0.15498027 0.20852938 -0.30669898
-0.43409508 0.055708423 0.040246215 -0.1881936 0.24143128 -0.35400626 -0.14334257 -0.46704268
0.37774774 0.22995876 0.42341813 0.005534931 -0.16110003 0.28160518 0.14143577 -0.38750258
-0.1699237 0.14173178 -0.08544267 -0.08980726 -0.115142256 -0.07639425 -0.0011492801 -0.35124335
0.02622257 0.12986983 0.184892 0.1403823 -0.1314921 -0.11473978 -0.25700122 -0.072342284
0.25442272 -0.36952224 0.39084798 -0.014291326 -0.1422495 -0.03769237 0.034215827 0.037503608
0.08837684 0.084497586 0.13089523 0.16890416 0.24343118 0.27781948 -0.12781283 0.10484729
-0.1535047 -0.16725795 -0.04253131 0.29999554 0.17798355 0.014270464 0.01945624 -0.15595083
-0.190436 0.21300204 -0.21457992 0.19705486 0.0022477559 0.0056516165 0.11280179 -0.17615743
-0.0108350925 0.23022918 -0.27584726 0.16391976 -0.14719987 0.12640268 0.31768394 -0.1437714
-0.043428436 0.22511481 -0.10593106 -0.23563509 -0.44306818 0.037779376 0.07114122 -0.24326028
-0.09681879 0.2981394 -0.010444004 0.38080192 0.074121036 0.2770123 0.052314997 0.1564227
-0.0661855 -0.034396593 -0.2023734 0.15388341 -0.11261431 0.16064401 0.023249364 -0.34012368
0.16677085 -0.24285527 -0.057893757 0.0824487 0.01496748 0.14085424 -0.043895267 -0.052802786
0.1954901 0.16845444 -0.0225754 0.4518501 -0.35729483 0.097939014 0.19997372 -0.037534993
-0.30292013 0.12892008 0.24973996 0.4198035 -0.15011913 0.114508666 0.22030123 0.19344698
0.051572397 -0.30271956 -0.05985161 -0.19483118 0.070056766 0.43121332 0.113123685 0.3449238
-0.17381057 -0.034696154 -0.051145006 -0.1016509 0.30672696 0.013364881 0.06921797 -0.04807961
0.005148521 -0.3259284 -0.05552175 -0.1516494 -0.12913397 -0.054322943 -0.18669696 0.108100936
0.2707824 -0.22338419 0.5128228 -0.03979578 0.12795341 0.22707526 0.03785465 -0.09632824
-0.2646183 -0.61644816 0.24078414 0.17060316 0.14472069 -0.11635275 -0.1402631 0.11842496
0.04114075 -0.04801462 0.111610174 -0.15711096 -0.072424635 0.13583796 -0.08219207 -0.15007307
-0.014368126 -0.21484867 -0.29866704 0.110857904 -0.23941685 0.18338315 -0.059203293 -0.2029941
-0.009738306 0.32957408 -0.063161574 0.40895948 -0.028937994 -0.14348753 0.53581214 0.04341427
0.01193468 -0.16350722 0.060979974 0.1919746 -0.25712076 -0.04043307 -0.15773074 -0.010825772
-0.066291474 -0.29244336 0.2061815 -0.059328534 -0.28278622 -0.19725496 -0.057825945 0.05230095
0.09075162 0.18382362 -0.11728141 -0.024206033 0.29442334 -0.19148469 0.014279567 -0.13182355
0.024321843 -0.13265827 0.19377984 -0.043352045 0.08117256 -0.0028617994 0.22343458 -0.12401593
00000000: 9832 74be e8f1 0fbe ac04 be3c 904b 8d3e
00000010: c40f afbd ca27 393e 78f9 923d 17c3 18be
00000020: 6f55 1dbe 6550 e33d 7d57 4abe 9fe7 723d
00000030: 1b5d fcbd 450b 883e 5e4c 6dbe 9739 a6bc
00000040: 8c41 02bf f4d1 c33e 957f 6e3e 2fe4 66be
00000050: bfd9 7fbe 05c6 0c3e 3b98 633c 9d0b 113e
00000060: 3734 d9be a489 4bbe b325 943d a5fc 983d
00000070: da19 c83d ca89 c33d 302a ef3d 22ec 23be
00000080: 166c c23e 5bdb 083e 4564 72be 0ad1 adbd
00000090: e3ff 78bc 26b3 1ebe ba88 553e a607 9dbe
000000a0: b641 debe 842e 643d 37d9 243d d3b5 40be
000000b0: c339 773e 4f40 b5be 65c8 12be 3820 efbe
000000c0: 2768 c13e 4f7a 6b3e 43ca d83e 5e5e b53b
000000d0: 68f7 24be 8e2e 903e 8ad4 103e bd66 c6be
000000e0: 7a00 2ebe 2322 113e 91fc aebd deec b7bd
000000f0: b4cf ebbd 9774 9cbd 71a3 96ba 2bd6 b3be
00000100: b7d0 d63c 99fc 043e 5454 3d3e 61c0 0f3e
00000110: dda5 06be b1fc eabd aa95 83be 3128 94bd
00000120: b243 823e 0532 bdbe 3a1d c83e 2a26 6abc
00000130: daa9 11be 5163 1abd e525 0c3d 629d 193d
00000140: ebfe b43d 120d ad3d 6609 063e 36f5 2c3e
00000150: 0646 793e 5b3e 8e3e 5ee1 02be 2dba d63d
00000160: 5630 1dbe ab45 2bbe 5035 2ebd 0499 993e
00000170: 5241 363e aace 693c b162 9f3c 93b1 1fbe
00000180: a801 43be 351d 5a3e d7ba 5bbe c0c8 493e
00000190: 164f 133b 3231 b93b a004 e73d 9d62 34be
000001a0: ac85 31bc 33c1 6b3e da3b 8dbe 95da 273e
000001b0: 90bb 16be b46f 013e 78a7 a23e cf38 13be
000001c0: 04e2 31bd 7f84 663e 62f2 d8bd 534a 71be
000001d0: d5d9 e2be 8cbe 1a3d 7db2 913d 3919 79be
000001e0: ee48 c6bd baa5 983e 541d 2bbc 78f8 c23e
000001f0: c5cc 973d 8ed4 8d3e 4048 563d 462d 203e
00000200: 438c 87bd 71e3 0cbd f93a 4fbe 9d93 1d3e
00000210: 55a2 e6bd dd7f 243e 7375 be3c b124 aebe
00000220: fac5 2a3e 0daf 78be 0122 6dbd ddda a83d
00000230: 293a 753c 183c 103e 86cb 33bd bc47 58bd
00000240: 8f2e 483e 527f 2c3e 0cf0 b8bc e558 e73e
00000250: 59ef b6be 4094 c83d e9c5 4c3e 4bbe 19bd
00000260: 5918 9bbe a003 043e d5bb 7f3e 7cf0 d63e
00000270: d4b8 19be 8583 ea3d a596 613e f716 463e
00000280: 943d 533d 0ffe 9abe f626 75bd d381 47be
00000290: ec79 8f3d fec7 dc3e 64ad e73d da99 b03e
000002a0: 66fb 31be 8e1d 0ebd 6d7d 51bd 592e d0bd
000002b0: 510b 9d3e 60f8 5a3c 27c2 8d3d 20ef 44bd
000002c0: edb4 a83b 16e0 a6be c66a 63bd fb49 1bbe
000002d0: b23b 04be bc81 5ebd 7d2d 3fbe 0664 dd3d
000002e0: fea3 8a3e d3be 64be 5b48 033f e600 23bd
000002f0: 3806 033e 6b86 683e 7a0d 1b3d be47 c5bd
00000300: 0d7c 87be 8ccf 1dbf 1e90 763e 98b2 2e3e
00000310: a931 143e 5a4a eebd 21a1 0fbe c988 f23d
00000320: 3483 283d faaa 44bd e093 e43d b2e1 20be
00000330: 5e53 94bd 1b19 0b3e 5154 a8bd c1ac 19be
00000340: 4a68 6bbc 4a01 5cbe e3ea 98be 7809 e33d
00000350: b129 75be cbc8 3b3e 277f 72bd afdd 4fbe
00000360: 6a8d 1fbc efbd a83e db5a 81bd 2363 d13e
00000370: 5f0f edbc 65ee 12be fc2a 093f 29d3 313d
00000380: ad89 433c 706e 27be 23c6 793d fd94 443e
00000390: 55a5 83be 269d 25bd 2b84 21be 945e 31bc
000003a0: d3c3 87bd 23bb 95be 3e21 533e 7a02 73bd
000003b0: 5bc9 90be 34fd 49be e6da 6cbd 8539 563d
000003c0: fcdb b93d 423c 3c3e 3c31 f0bd bb4b c6bc
000003d0: a8be 963e 9014 44be d8f4 693c c1fc 06be
000003e0: 9a3e c73c 92d7 07be 396e 463e ea91 31bd
000003f0: cd3d a63d 078d 3bbb 09cc 643e 10fc fdbd

bias_ih_l0_reverse f4 [52]
0.3983583 0.065278724 -0.024023034 -0.107846305 0.32756108 0.31693697 0.057730716 0.4341595
-0.11547713 0.062961 0.14206609 -0.09860435 0.15794662 0.049451314 -0.12608194 0.38404506
0.32763037 0.05621802 0.37863263 0.024688018 0.06731286 0.3005856 0.12139106 0.32371306
0.41697246 0.060557965 0.013197264 0.15847729 0.19375578 0.18416107 -0.2328159 -0.20502834
0.2237222 0.17437296 -0.03941404 0.2795228 0.26277447 0.323044 -0.24829334 0.4417341
0.24470139 0.17674074 0.3779229 0.18482128 0.12510237 0.4069586 0.43568504 0.056592673
0.54373175 0.2596127 0.472541 0.37085554
00000000: 9ef5 cb3e dab0 853d f4cb c4bc 86de dcbd
00000010: 16b6 a73e 9045 a23e 0b77 6c3d 274a de3e
00000020: 467f ecbd b2f1 803d c679 113e 14f1 c9bd
00000030: c2bc 213e 768d 4a3d a01b 01be 8ea1 c43e
00000040: 2bbf a73e de44 663d 23dc c13e 873e ca3c
00000050: 53db 893d 5be6 993e e09b f83d b8bd a53e
00000060: 6a7d d53e a10b 783d 5639 583c df47 223e
00000070: ea67 463e b894 3c3e 4b67 6ebe f3f2 51be
00000080: 6f17 653e d38e 323e 9e70 21bd 9d1d 8f3e
00000090: 608a 863e 0666 a53e 9c40 7ebe f92a e23e
000000a0: 0093 7a3e 86fb 343e 1c7f c13e ca41 3d3e
000000b0: d61a 003e e15c d03e 1c12 df3e b8cd 673d
000000c0: 0132 0b3f f5eb 843e e5f0 f13e c7e0 bd3e

bias_hh_l0_reverse f4 [52]
0.38207632 -0.03024046 0.19887055 0.23710862 0.03352686 0.18119037 0.22134045 0.13609155
0.097307324 -0.01682199 0.22007778 0.029645268 0.28473213 0.43415806 0.04837311 0.038395543
0.20014796 0.32084835 0.019137667 0.15449178 0.1989402 0.33254877 0.3065351 -0.13667025
0.27167478 0.07504218 0.057657696 0.0882674 0.1863237 -0.18567862 0.26995856 -0.10643987
-0.18652265 -0.2084723 0.15217161 0.27984127 0.14873797 0.1956041 0.052353974 0.6261921
0.27477166 0.21645382 0.22647661 0.6149192 0.25519374 0.15161175 0.5058873 0.26624146
0.27345848 0.28795844 0.47741672 0.4434598
00000000: 829f c33e d7ba f7bc b9a4 4b3e 9acc 723e
00000010: 7653 093d f889 393e 12a7 623e 955b 0b3e
00000020: 1049 c73d 45ce 89bc 125c 613e a2da f23c
00000030: 69c8 913e f749 de3e e222 463d a544 1d3d
00000040: 96f3 4c3e 3c46 a43e 99c6 9c3c 1833 1e3e
00000050: fbb6 4b3e d543 aa3e 2bf2 9c3e 49f3 0bbe
00000060: f518 8b3e b7af 993d 7a2a 6c3d 8ac5 b43d
00000070: a4cb 3e3e 8922 3ebe 0238 8a3e 26fd d9bd
00000080: cbff 3ebe c379 55be e0d2 1b3e 5b47 8f3e
00000090: c44e 183e 714c 483e 1f71 563d 204e 203f
000000a0: dfae 8c3e 12a6 5d3e 7ce9 673e 586b 1d3f
000000b0: c1a8 823e 1c40 1b3e d581 013f cd50 883e
000000c0: c002 8c3e 4a6f 933e f76f f43e 2a0d e33e

weight f4 [16, 26]
-0.513016 0.6049434 -0.26051882 0.11101473 0.44382837 -0.3210599 0.06532372 0.53859717
0.5139877 -0.43111798 0.08683352 0.3331133 -0.10804263 -0.5394118 0.20299466 -0.017903268
0.48064065 -0.4088198 -0.25844666 0.3478272 -0.527311 -0.25863224 0.20449631 0.23175229
0.10493502 -0.48086482 0.35369402 0.079517275 0.49479604 -0.25036928 0.07426998 0.51859736
0.60986406 -0.047636114 0.49607083 -0.6719669 0.18722875 0.10115609 0.42854175 -0.21026556
0.11764663 0.011707621 0.061449356 -0.25119033 0.0045551043 0.015561347 -0.008685449 0.101955645
0.28895232 0.06901537 0.043150485 0.17284621 0.20501964 0.07817074 0.23118287 -0.13097104
0.29391494 0.47822213 0.26908132 0.13910447 0.45794517 -0.5113488 0.10682342 0.32427466
0.12984644 0.25272155 -0.04320583 -0.4587309 -0.2841283 -0.17304665 0.31617185 -0.07079786
-0.4852389 -0.24361193 0.22802676 0.25569278 0.300477 -0.08047922 0.1950507 0.08471801
0.3107341 -0.29979813 0.26856026 0.21649034 -0.29825145 -0.20460588 0.1386977 -0.043844946
-0.15209804 -0.30166918 -0.20349027 0.2901689 -0.04081378 -0.4337246 -0.46529126 -0.40707347
0.437856 -0.38090912 -0.21113707 -0.25323218 -0.07601774 -0.07422244 -0.2674323 0.03497545
-0.5838993 0.16088252 -0.42882773 0.14663425 0.08277753 -0.71347654 -0.03910781 0.2069877
-0.034239776 0.42046267 0.067752056 -0.40942714 -0.35200304 -0.46561813 0.48557094 -0.016353806
0.24149442 0.1674194 -0.35388854 0.31016672 -0.23153757 -0.35159317 0.296315 0.32227132
-0.31249303 0.17498489 0.43484953 -0.2414385 0.43035942 -0.5027187 0.33809638 0.51485366
-0.114959575 -0.3588665 0.28868443 -0.0696124 0.1950077 -0.4947786 0.07127381 0.6124259
0.6033604 0.53128844 -0.16328147 0.6327075 -0.21914019 0.5564369 0.57720816 0.34889892
-0.7468711 -0.6238137 -0.69481003 -0.18490103 0.25811672 -0.06443855 0.25005218 -0.3651423
-0.34688812 -0.12200983 0.5605591 -0.35363218 -0.1304947 0.038051143 0.5595392 -0.47574633
-0.030169373 -0.4840869 0.013246446 0.045748316 0.5562801 0.3289536 -0.22082873 0.32352245
0.24255216 -0.1909079 0.1996397 0.17183855 0.5366844 0.46266693 0.12332595 -0.3613716
0.23603968 -0.102552734 0.10316189 0.24677025 -0.32755548 0.005283782 0.07378679 0.16587134
0.07386879 -0.2296269 -0.24474637 0.26149023 0.13203716 -0.11689391 -0.2125699 0.08664392
0.1764901 0.06428006 0.14934567 -0.20905358 -0.23104452 -0.04994421 -0.04415747 -0.13980284
0.03533365 0.4170162 0.46032757 -0.31123006 0.19230352 0.2837393 0.3012444 0.09766776
0.3789436 -0.25440735 0.22400483 -0.22521599 -0.23675309 -0.40251458 -0.15079938 -0.21250594
0.8061076 -0.6927156 -0.304221 0.1810098 -0.15884587 -0.41338992 0.30485088 0.121820495
0.8471979 -0.24526566 -0.1091977 -0.07916663 -0.13129799 0.13212541 0.04891492 0.06904788
-0.06916507 0.019031309 0.078488566 0.11932524 -0.14105766 -0.026094904 0.16531192 0.08564455
0.08319025 0.0080436 -0.004166657 -0.008893668 0.1046412 -0.0679907 -0.065262154 0.1400445
00000000: 0455 03bf 92dd 1a3f b962 85be b15b e33d
00000010: 793d e33e f761 a4be 71c8 853d 81e1 093f
00000020: b394 033f 7fbb dcbe c6d5 b13d d48d aa3e
00000030: 7445 ddbd e416 0abf d5dd 4f3e e0a9 92bc
00000040: 8816 f63e d450 d1be 1f53 84be 6816 b23e
00000050: dbfd 06bf 726b 84be 7b67 513e 7950 6d3e
00000060: 2ce8 d63d ea33 f6be 6217 b53e f4d9 a23d
00000070: e855 fd3e 6730 80be dc1a 983d ccc2 043f
00000080: 0d20 1c3f 161e 43bd fffc fd3e 0606 2cbf
00000090: e5b8 3f3e ed2a cf3d d369 db3e db4f 57be
000000a0: b7f0 f03d 52d1 3f3c 52b2 7b3d 059c 80be
000000b0: fc42 953b 05f5 7e3c 6a4d 0ebc 1fce d03d
000000c0: 8ff1 933e ee57 8d3d 90be 303d 99fe 303e
000000d0: abf0 513e fb17 a03d 34bb 6c3e 461d 06be
000000e0: 057c 963e 88d9 f43e 07c5 893e 6771 0e3e
000000f0: ca77 ea3e c1e7 02bf 3dc6 da3d 5407 a63e
00000100: 77f6 043e b864 813e 99f8 30bd c7de eabe
00000110: 4479 91be 2433 31be 47e1 a13e 78fe 90bd
00000120: 3c71 f8be 6875 79be d97f 693e 2aea 823e
00000130: 1fd8 993e 4ad2 a4bd 5fbb 473e a380 ad3d
00000140: 8a18 9f3e 247f 99be bb80 893e a5af 5d3e
00000150: 6ab4 98be 3484 51be c506 0e3e c296 33bd
00000160: 97bf 1bbe 6274 9abe c15f 50be 0591 943e
00000170: 5a2c 27bd 2711 debe a83a eebe ef6b d0be
00000180: a92e e03e 8506 c3be 5134 58be a6a7 81be
00000190: 30af 9bbd ef01 98bd e3ec 88be 6b42 0f3d
000001a0: 6d7a 15bf 63be 243e 4f8f dbbe 4a27 163e
000001b0: 4487 a93d 66a6 36bf 832f 20bd 95f4 533e
000001c0: 023f 0cbd e246 d73e 97c1 8a3d 6fa0 d1be
000001d0: be39 b4be 8065 eebe c19c f83e 6bf8 85bc
000001e0: 504a 773e fe6f 2b3e e130 b5be 2cce 9e3e
000001f0: 2f18 6dbe 0504 b4be 9ab6 973e bf00 a53e
00000200: 16ff 9fbe 3d2f 333e 99a4 de3e a73b 77be
00000210: 1258 dc3e 2cb2 00bf f81a ad3e 73cd 033f
00000220: ed6f ebbd 5abd b7be 72ce 933e f290 8ebd
00000230: 19b0 473e 9f53 fdbe 01f8 913d f2c7 1c3f
00000240: d475 1a3f 8502 083f 4233 27be 1ef9 213f
00000250: 4966 60be a672 0e3f eac3 133f e1a2 b23e
00000260: f232 3fbf 41b2 1fbf 12df 31bf b256 3dbe
00000270: e027 843e 5cf8 83bd d706 803e eef3 babe
00000280: 529b b1be 4ae0 f9bd cd80 0f3f 470f b5be
00000290: 67a0 05be 84db 1b3d f63d 0f3f 0695 f3be
000002a0: c325 f7bc 3dda f7be 9f07 593c 9662 3b3d
000002b0: 5f68 0e3f 9b6c a83e ed20 62be bca4 a53e
000002c0: 985f 783e 5c7d 43be 596e 4c3e 72f6 2f3e
000002d0: 2664 093f aee2 ec3e 5192 fc3d b305 b9be
000002e0: 63b4 713e 2b07 d2bd 8a46 d33d 57b1 7c3e
000002f0: 5ab5 a7be 9323 ad3b 871d 973d 2dda 293e
00000300: 8548 973d 5023 6bbe cb9e 7abe 0ce2 853e
00000310: c034 073e 1366 efbd edab 59be 5e72 b13d
00000320: d2b9 343e 44a5 833d 12ee 183e 2412 56be
00000330: ef96 6cbe 4d92 4cbd 77de 34bd 7a28 0fbe
00000340: 04ba 103d 2683 d53e 0eb0 eb3e 8c59 9fbe
00000350: 37eb 443e 4746 913e b53c 9a3e 0906 c83d
00000360: e504 c23e ae41 82be 8661 653e 059f 66be
00000370: 676f 72be 6416 cebe 276b 1abe 289b 59be
00000380: 115d 4e3f cf55 31bf dbc2 9bbe a25a 393e
00000390: 7ea8 22be d8a7 d3be 6a15 9c3e 067d f93d
000003a0: f6e1 583f ec26 7bbe 0ba3 dfbd 1d22 a2bd
000003b0: fb72 06be e24b 073e 035b 483d fa68 8d3d
000003c0: 6ba6 8dbd 8ce7 9b3c 9dbe a03d cb60 f43d
000003d0: 6b71 10be fbc4 d5bc 8747 293e 6966 af3d
000003e0: a65f aa3d 4ec9 033c 7488 88bb bfb6 11bc
000003f0: 204e d63d b53e 8bbd 2aa8 85bd d367 0f3e

bias f4 [16]
0.21000098 0.38101926 0.09655074 0.13397872 0.061427157 0.19104609 0.24669932 0.24648926
0.42792544 -0.14039786 0.044479277 0.023317305 0.288802 0.123943284 0.13093556 0.20545557
00000000: 7f0a 573e f514 c33e 65bc c53d b831 093e
00000010: 0b9b 7b3d 96a1 433e bf9e 7c3e ae67 7c3e
00000020: 0b19 db3e 75c4 0fbe e72f 363d ef03 bf3c
00000030: dbdd 933e fad5 fd3d f913 063e f262 523e

weight f4 [7, 16]
-0.96479726 0.23332551 0.35167378 0.2820757 -0.31974855 -0.3651901 -0.623649 0.103106394
0.062230922 -0.04417838 -0.26434472 0.08294393 -0.48847818 -0.78501135 0.32782784 -0.41740388
-0.57665 -0.78983307 -0.2390405 -0.004500557 -0.41991302 0.27944386 -0.7706607 0.24585654
-0.23505016 -0.12376518 0.5324721 0.28668734 -0.7187592 -0.75011086 -0.31353056 0.24587084
0.12340121 0.32312343 0.063145444 -0.43500456 -0.4150177 -0.65385014 -0.82932186 0.0063918433
0.19545019 0.1527527 0.10025725 0.004908735 0.09124927 -0.126093 -0.64576745 -0.072407626
-0.88257766 0.18052591 -0.23795326 -0.3435356 -0.34679204 -0.40400776 0.47954708 -0.16266157
0.18942289 0.031569358 -0.074609056 -0.35270992 -0.3784785 0.057081167 -0.6736919 -0.32526177
-0.0010983195 -0.077521004 -0.44686988 -0.26090097 0.5195278 -0.556125 -0.13861252 -0.41341674
-0.8886447 -0.14486551 0.004455147 -0.1564555 0.1748237 0.34219936 -0.7228981 0.33066517
0.1809103 -0.6477276 -0.7719239 -0.25512674 0.27994308 -0.76601446 -0.037067678 -0.44500223
0.24470462 -0.17850538 -0.11361161 -0.43070188 -0.39993644 -0.37015116 0.38406742 -0.29126722
-0.7243493 0.15625985 -0.3547118 -0.3716706 -0.16164738 0.31563723 0.0034699992 0.078208715
-0.65416193 -0.14244336 -0.50564796 0.17740455 -0.20631352 -0.17519835 -0.5152707 -0.38152158
00000000: f4fc 76bf e2ec 6e3e 960e b43e 3a6c 903e
00000010: 15b6 a3be 32fa babe 76a7 1fbf 7229 d33d
00000020: dae5 7e3d 64f4 34bd 3158 87be 82de a93d
00000030: d019 fabe 81f6 48bf 0dd9 a73e f6b5 d5be
00000040: 569f 13bf 8032 4abf 08c7 74be 6979 93bb
00000050: d7fe d6be 4413 8f3e 054a 45bf d1c1 7b3e
00000060: fdb0 70be 9978 fdbd 1750 083f afc8 923e
00000070: 9a00 38bf 4407 40bf 1487 a0be 91c5 7b3e
00000080: c6b9 fc3d 6f70 a53e 6652 813d ebb8 debe
00000090: 337d d4be b962 27bf 704e 54bf ab72 d13b
000000a0: 1824 483e 346b 1c3e ac53 cd3d 74d9 a03b
000000b0: e6e0 ba3d 861e 01be 0451 25bf 734a 94bd
000000c0: 9cf0 61bf c9db 383e 05aa 73be e6e3 afbe
000000d0: ba8e b1be 1bda cebe 3287 f53e c190 26be
000000e0: 13f8 413e df4e 013d a2cc 98bd 6596 b4be
000000f0: efc7 c1be f1cd 693d 1377 2cbf b688 a6be
00000100: 7df5 8fba 55c3 9ebd 21cc e4be d094 85be
00000110: c6ff 043f 355e 0ebf 71f0 0dbe 5cab d3be
00000120: 387e 63bf a057 14be 7bfc 913b df35 20be
00000130: fc04 333e c134 af3e da0f 39bf f24c a93e
00000140: 8d40 393e 7ad1 25bf ce9c 45bf f99f 82be
00000150: b354 8f3e 8619 44bf 47d4 17bd 55d7 e3be
00000160: d993 7a3e 1dca 36be 34ad e8bd f584 dcbe
00000170: 78c4 ccbe 7484 bdbe 7ca4 c43e fa20 95be
00000180: f56e 39bf 9502 203e c99c b5be 9c4b bebe
00000190: e486 25be 349b a13e ed68 633b e42b a03d
000001a0: 2877 27bf acdc 11be 2572 01bf 8aa9 353e
000001b0: da43 53be 3267 33be c8e8 03bf cc56 c3be

bias f4 [7]
-0.05641236 -0.22609226 -0.23458065 0.08933212 -0.3028849 -0.11343016 -0.14894004
00000000: a610 67bd bb84 67be e935 70be c2f3 b63d
00000010: bb13 9bbe 124e e8bd bd83 18be
