06 MNIST/MNIST2.pt (torch, 441342 bytes, 6 tensors)

weight f4 [128, 784]
000000 1c 6e 9d bc 8a 34 3a bc 82 0e d2 3c 5a eb ea 3c
       -0.019217543 -0.011365065 0.025641683 0.028676677
000010 88 35 c2 3c 88 28 d5 3c 60 20 38 bc 2a f9 22 bc
       0.023707166 0.026020303 -0.011238188 -0.009947101
000020 f4 7c 45 3c 6a 71 cb 3c 1c 7f a0 bb 60 b7 53 3c
       0.012053717 0.024834353 -0.004897965 0.012922138
000030 b0 9e f6 bb 0d 86 01 bd c0 52 94 bb e8 16 f5 3b
       -0.0075262412 -0.03162198 -0.004526466 0.0074795373
000040 17 53 81 bc b3 d9 ef bc 81 a5 0f 3d 1c 3d c2 3c
       -0.01578669 -0.029278612 0.035069946 0.02371078
000050 78 44 09 bc 57 f5 90 bc 80 19 7f 3b 44 33 46 3c
       -0.008378141 -0.017695112 0.0038925111 0.012097184
000060 82 a2 b8 3c 5e 16 a4 bc f4 a2 81 3c 9e a7 e5 bc
       0.022538427 -0.020030197 0.015824772 -0.028034028
000070 5c 07 d6 bc b6 b8 bb 3c 60 c3 ee 3a d0 14 37 3b
       -0.026126556 0.022915225 0.0018216185 0.002793599
000080 22 09 cd 3c ba 90 01 bd 57 d8 c9 bc 73 be 91 3c
       0.025028769 -0.031632163 -0.024639292 0.017791009
000090 fe 56 0f bc 64 5a 12 3d 92 76 c5 bc ba 11 d8 bc
       -0.008748768 0.035730734 -0.02410439 -0.02637564
0000a0 be 9f a4 3c 02 2d 6e 3c 43 80 e7 3c b5 5f 92 bc
       0.020095702 0.014537098 0.028259402 -0.017867902
0000b0 03 7e ba bc 52 97 92 bc ed 5b e5 3c ee b8 3e bc
       -0.022765165 -0.01789442 0.027997935 -0.01164077
0000c0 01 6f d2 3b f7 87 15 3c 87 72 9e bc 2e 51 cb 3c
       0.006421924 0.009126655 -0.01934172 0.024818983
0000d0 54 2d b4 bb d1 03 e5 bc 58 a5 91 3c e7 15 10 3d
       -0.0054985676 -0.027955921 0.017779037 0.035177138
0000e0 b0 c8 22 3b e0 80 de 3a d8 4d 89 bc 9f 7b 9c 3c
       0.0024838857 0.0016975664 -0.016760752 0.019101916
0000f0 4c 42 d4 3c a4 99 01 3d b8 48 ff bc d9 f3 80 bc
       0.025910519 0.031640664 -0.031162605 -0.015741276
000100 b7 61 84 bc a3 0c 87 3b 43 7a 7f bc 51 8a f2 3b
       -0.016159875 0.0041213795 -0.015593114 0.0074017425
000110 3b f8 b7 3c d6 c9 3e 3d ef 5d c2 ba bb 32 c5 3c
       0.022457233 0.046579204 -0.001482902 0.024072042
000120 44 60 35 3d a6 fe 04 3b 82 1c 49 3c f0 56 7f 3c
       0.04428126 0.0020293384 0.012274863 0.015584692
000130 fb c0 02 3d d1 94 27 3c 95 6d eb 3b 10 6d 60 bc
       0.03192232 0.010228352 0.007184694 -0.0136978775
000140 d8 50 fd bc 2a 9f 09 bc b0 5d 01 bd 5c f6 9d bb
       -0.030922338 -0.008399764 -0.031583488 -0.004820628
000150 00 f4 e7 ba 95 0e b9 bc 81 2b 0e 3c 30 fe ae 3c
       -0.0017696619 -0.022589961 0.008677364 0.02136144
000160 19 af b4 3c a5 4e 0e 3c 4d 20 de 3c 74 87 18 3d
       0.02205615 0.0086857425 0.027115012 0.037238553
000170 0e d0 70 bc c5 44 32 3d b2 6c 95 3a 69 0f 2b 3d
       -0.014698042 0.043522615 0.0011400192 0.041762743
000180 b2 aa 49 3d a0 86 4a 3d ab ca 17 bc 34 6a 71 3d
       0.049235053 0.049444795 -0.009264628 0.058939174
000190 6e fc 90 3d e3 33 b4 3d b8 34 9d 3d 61 5d 9e 3d
       0.07079397 0.08798959 0.07676071 0.07732654
0001a0 dc e9 fb 3c a0 91 85 3d a5 7f 85 3d c3 d5 73 3c
       0.030751161 0.065219164 0.06518487 0.014882508
0001b0 8a 68 41 3c 47 7a 9e bc 88 0c ef 3b a8 a4 e1 3b
       0.011804709 -0.019345416 0.007295195 0.0068860836
0001c0 65 62 0f bd 30 90 b8 3c 90 da 0b 3d 98 a8 df 3c
       -0.035005946 0.022529691 0.034143984 0.027302071
0001d0 cf 6c 07 3d f0 62 40 bb 3b bc ab bc bf c7 c6 3b
       0.033062752 -0.0029355846 -0.020963779 0.006066292
0001e0 a1 79 97 3c 0c 22 05 3d 30 0d 09 3b f9 6b 9e 3c
       0.018490614 0.032503173 0.0020912401 0.019338595
0001f0 f9 75 ed 3b 25 a3 09 3d 94 b7 b3 bb 04 ef 51 3d
       0.0072467295 0.033602852 -0.0054845307 0.051253334
000200 28 37 00 3e 8d 2c 94 3d 1e 95 2e 3d 14 61 58 3d
       0.1252104 0.0723506 0.042622678 0.052826956
000210 da 79 11 3d 57 79 8e 3d 6a c3 9a bb d9 f2 f4 bc
       0.035516597 0.069567375 -0.004723002 -0.029900955
000220 63 1e 20 bd c7 03 37 bd 2d 25 c6 ba f2 90 95 3b
       -0.03909148 -0.044681337 -0.001511728 0.004564398
000230 f8 7e db bc 40 32 0e 3a b8 05 fb 3c 20 6c ef 3b
       -0.026793942 0.0005424358 0.030642375 0.0073065907
000240 ed 2f 5d 3c 4e a3 49 3c 41 47 65 3c ad f0 41 3d
       0.013500196 0.012307001 0.013994039 0.047348667
000250 94 15 7f 3d ca 35 97 3d 6b 75 a2 3d 7b 03 39 3d
       0.062276438 0.07383306 0.07932552 0.045169335
000260 26 a9 c7 3d 1d 50 e7 3d ab bb b5 3d 0a 8b ce 3d
       0.097490594 0.11294577 0.088736854 0.10085113
000270 55 1a 60 3d e5 03 bf 3c 15 83 c7 bc 69 e4 fc bc
       0.054712612 0.023317287 -0.024354497 -0.030870633
000280 f0 ee 85 bd df 4e b0 bd bf c8 cf bc 11 c0 8c bd
       -0.06539714 -0.086087935 -0.025364278 -0.06872571
000290 e2 d9 4c bd 80 cf cb bc 54 c6 1d 3d 65 30 27 3c
       -0.050012477 -0.024879217 0.03851922 0.010204409
0002a0 e0 dc 9b bc 42 ca 8d 3c 0e cf bd bc 58 1c d0 bc
       -0.01902622 0.017308358 -0.02317002 -0.02540414
0002b0 68 70 37 3c 8f 5a d1 bb 94 9d 2f bd 28 bf 83 3c
       0.011196233 -0.0063889693 -0.042874888 0.016082361
0002c0 5e 32 8e 3d be e7 e6 3c 14 5c ac 3d b8 d3 ce bc
       0.069432005 0.028186675 0.08416 -0.02524744
0002d0 98 4f 94 bc dc a9 a7 bd bd 2f 3d bd 63 87 76 bc
       -0.01810436 -0.08186695 -0.046188105 -0.015046927
0002e0 5f e2 be bc de 1d 1e bd d1 22 9f bd c5 2e d7 bd
       -0.023301302 -0.038602702 -0.077703126 -0.105069675
0002f0 18 10 0a be c5 8e 18 be bc 80 4e bd 41 d7 b2 bd
       -0.13482702 -0.14898212 -0.05041574 -0.08732463
000300 3d 5b 24 bd 11 43 29 3b 42 d5 54 3c 22 1f 9c 3c
       -0.040126074 0.0025827328 0.012990298 0.019057814
000310 b8 40 8c 3b 8a f8 c7 bc 7c af 0b 3d 6f a2 04 bd
       0.004280176 -0.024410505 0.0341029 -0.03238147
000320 42 97 14 bd be 1f af bd 22 55 82 bd 03 27 d9 3c
       -0.036277063 -0.08550976 -0.06363894 0.02650786
000330 70 b9 7c 3d f0 5c 9f bc d8 63 44 bd 03 96 6e bd
       0.061700284 -0.019453496 -0.04794678 -0.05824853
000340 30 38 78 bd 05 4d 02 be b2 05 27 bd 71 69 5c bd
       -0.06060046 -0.12724693 -0.040776916 -0.053811494
000350 98 1f 4c bd 04 9f 99 bd 6c cc b5 bd 9b a2 26 be
       -0.049834818 -0.07501033 -0.08876881 -0.16272967
000360 fc c6 10 be b1 8b 0f be b1 95 87 bd 24 b5 a5 bd
       -0.14138407 -0.14018132 -0.06620348 -0.080911905
000370 fe b0 88 bd a7 4e b4 bb c4 c7 30 3b 31 56 b6 bc
       -0.066743836 -0.00550254 0.0026974538 -0.022257896
000380 e8 6e e7 3b 6e 54 19 bc c0 9a 32 3a cf ea 59 bc
       0.0070627816 -0.0093585085 0.00068132207 -0.013300612
000390 ff d7 02 3b 80 fb 05 bd 06 52 2d bd 55 c3 0e bd
       0.001996517 -0.032710552 -0.04231455 -0.034854252
0003a0 d8 c2 b9 3b 1a 91 d7 bc 5c 93 b9 bc 36 04 7d bd
       0.005668979 -0.026314307 -0.022653274 -0.061771594
0003b0 75 67 6a bd f7 e6 b6 bd 10 63 81 bd c5 14 8e bd
       -0.05722757 -0.08930772 -0.06317723 -0.06937555
0003c0 d3 8f ac bd 45 3d 2c be d3 10 f9 bd 00 a5 cc bd
       -0.0842587 -0.16820247 -0.12161412 -0.09992409
0003d0 a2 87 26 be f1 c8 7a bd a2 2e c2 bd 91 ea 0a bd
       -0.16262677 -0.06122679 -0.09481551 -0.033915106
0003e0 30 1e 7c bd 52 b3 ed bc 4c 7b 74 bc e8 e2 ed bc
       -0.061552227 -0.02901617 -0.014921974 -0.029038861
0003f0 20 a6 5f 3c 89 82 5f 3b fe 3a f8 3c 24 e9 cd ba
       0.013650447 0.0034104905 0.030301567 -0.001570974

bias f4 [128]
000000 ee 54 fa bd d3 90 e8 bc 5c 6f 81 3d 46 e9 a1 bd
       -0.1222323 -0.02838937 0.06320068 -0.079058215
000010 f1 f3 22 bd 2a e8 03 bd e3 8f a9 3d 4c a6 9c bd
       -0.039783422 -0.03220383 0.08279397 -0.07648906
000020 17 a4 94 3c a3 d5 74 3c fa cd 33 3b 9a c1 c9 be
       0.01814465 0.014943513 0.0027436004 -0.3940552
000030 33 0e c9 3d cb c5 30 bd 14 a5 fc bd 0c 15 d6 bd
       0.098171614 -0.04315738 -0.12336174 -0.10453233
000040 a5 59 75 bd d9 d5 c9 bc f9 5a 81 bb 3c 17 36 3e
       -0.059899945 -0.024638103 -0.0039476124 0.177823
000050 ba 30 16 3d f6 df d8 3c 6d ee fa 3c 77 31 20 bf
       0.036667563 0.02647398 0.030631268 -0.6257548
000060 7d 2d 9f 3d 60 f1 eb bd 71 b8 b3 3d 10 c0 f6 bc
       0.07772348 -0.11520648 0.08775414 -0.03012088
000070 fc e7 7c bc 28 af 37 3d 7a 28 63 bd 82 5f d6 3d
       -0.015436169 0.044844776 -0.055458523 0.104674354
000080 03 0d e8 3c 9d 33 14 38 1d 53 0b 3d 78 f6 0d 3e
       0.028326517 3.533402e-05 0.03401481 0.13863552
000090 2c 67 84 3c 51 a1 44 3c 6a 78 6d bd 3b 6d 32 be
       0.016162477 0.012001351 -0.057976164 -0.1742448
0000a0 cb 7e c3 be 5a 88 68 bd da 32 08 3d 28 a0 38 3c
       -0.38182673 -0.05677066 0.03325162 0.011268653
0000b0 fd 4e b2 bd 84 0b ae 3b 74 39 dc 3c f2 c3 14 bb
       -0.08706472 0.0053114314 0.026882865 -0.00226998
0000c0 26 9f 03 3e 77 30 bd 3e 8e 05 92 3d 16 24 7d be
       0.12853679 0.36951038 0.07129966 -0.24720797
0000d0 27 05 71 3d 81 9d 16 3e ef 0b 26 3d 03 91 91 3e
       0.058842804 0.1470852 0.040538725 0.28430948
0000e0 ec c3 84 bb 4d 8e 2d be 51 35 79 3d 93 41 42 bd
       -0.004051676 -0.16948815 0.060841862 -0.047425818
0000f0 57 4c 1a 3b 13 71 ac 3d bf 90 a3 3b 21 44 f6 be
       0.0023544037 0.08420005 0.0049916203 -0.48098853
000100 bf 49 b6 bd 2a a0 ae 3c ae 55 1d bd 61 61 9c 3e
       -0.08900785 0.021316607 -0.03841179 0.30543044
000110 60 ab bd bd 38 2c a8 be ee 26 26 be 69 2c 82 3b
       -0.09261203 -0.32846236 -0.16225788 0.0039725793
000120 2f 31 bb be 2c 62 f5 3d cc c0 7e bc 2e f4 c6 bd
       -0.36560962 0.119816154 -0.015548896 -0.09714542
000130 e2 9f 4a 3c 08 79 41 bd 02 54 00 bd bb 5a b5 3d
       0.012367221 -0.047234565 -0.031330116 0.08855196
000140 c2 a3 a4 3d ad b7 71 3e b2 45 04 3d e4 74 46 3d
       0.08039047 0.23605223 0.03229303 0.04845132
000150 27 f7 22 be 55 74 b4 3d 58 e5 3f be 43 17 79 be
       -0.15914594 0.08811251 -0.18739831 -0.2432528
000160 53 ec 08 3e ae 26 04 3e 48 6b 6e bd 15 3b 21 3e
       0.133714 0.1290538 -0.05820778 0.15745194
000170 2a 32 b2 b8 16 ef 47 3d 56 20 84 3c 6a 68 9d 3d
       -8.497045e-05 0.048811994 0.0161287 0.07685931
000180 d7 b9 36 3d 96 a3 5a bd 82 01 88 3d 56 fe be bc
       0.044610824 -0.053378664 0.066409126 -0.023314636
000190 be 5a fa bc 98 85 05 3e 03 15 6e 3c 0c be 05 3e
       -0.030560847 0.13039243 0.014531377 0.13060778
0001a0 a9 f8 1f 3d b5 ab 49 bd 0f 19 72 be 49 26 21 bd
       0.0390555 -0.04923602 -0.23642372 -0.039343152
0001b0 17 a6 3f 3d 6e 0e 1a 3c 0c 8a cf bd 33 80 84 3d
       0.046789255 0.009402854 -0.10133752 0.064697646
0001c0 ed d2 8d bd 21 c8 b1 bc af b8 c5 bd 8e ff d1 3c
       -0.069249965 -0.021701874 -0.09654366 0.025634553
0001d0 12 35 33 be 33 2d 34 be dd 82 84 be 97 26 b9 3d
       -0.17500713 -0.17595367 -0.2588109 0.090405636
0001e0 b0 6b 1b be db fa e8 3b c0 bf fc 3d 70 7b 24 3e
       -0.15177798 0.0071099824 0.12341261 0.16062713
0001f0 f3 de 0b 3e 26 16 3b be 95 08 83 3d c6 94 88 bd
       0.13659267 -0.18270168 0.06398121 -0.06669001

weight f4 [64, 128]
000000 1f 47 23 3e 37 15 1e be f4 bd 58 be 15 3f f1 bc
       0.159451 -0.1543778 -0.21166211 -0.029449025
000010 16 7d 87 3c 29 0b cf 3d b9 36 89 bd 57 08 48 3e
       0.016539138 0.101095505 -0.06699891 0.19534431
000020 50 0d f7 3c 00 5e df 39 fe 08 a0 3c 74 41 45 3e
       0.030157715 0.0004260391 0.019535538 0.1926325
000030 dc 17 7f be f8 37 96 3d cc 80 b9 3d f6 1d 13 bc
       -0.24911445 0.07334894 0.09057769 -0.008979311
000040 6f 65 f5 bc 77 24 5d 3d 61 9e e4 bc 8b 55 a2 be
       -0.029955594 0.053989854 -0.027907552 -0.3170589
000050 f8 8f fa bd aa 76 a0 3d cf 96 4e be 27 c5 c0 3e
       -0.12234491 0.078351334 -0.20174716 0.37650415
000060 7f 64 89 be fc e4 5c 3e a6 1e 43 be a8 6d 84 3c
       -0.26834485 0.21571726 -0.1905466 0.01616557
000070 e1 27 a5 bd 60 d8 20 be 46 53 81 3c 2d df 41 be
       -0.08064247 -0.1570754 0.015786778 -0.18932791
000080 6f ca 24 bc 81 0c 7f bc 39 e9 9e be 3a c5 b9 be
       -0.01005803 -0.015566946 -0.3103731 -0.36283284
000090 b8 36 5e bd 56 50 b3 3d e1 0d 27 3d 9e 08 50 3e
       -0.054251403 0.08755557 0.04078472 0.20315787
0000a0 62 39 88 3e f3 f3 3c 3e 46 24 2b be f5 0d 0f be
       0.2660628 0.18452434 -0.16713056 -0.13970168
0000b0 cf 17 9d bd 23 36 31 bc 32 93 66 3b 44 04 f3 bd
       -0.07670557 -0.01081613 0.003518295 -0.11866048
0000c0 1c 47 f2 bd 01 42 e6 be 70 a7 27 be ba c6 11 3e
       -0.11829969 -0.44972232 -0.16372466 0.14235964
0000d0 27 ab 2c be d8 cb a1 bd f0 9d 8e 3e a5 11 7d be
       -0.16862164 -0.07900208 0.27854872 -0.24713762
0000e0 30 3f fb 3d cc 0a 73 3d 70 32 87 be 40 71 a2 3d
       0.122679114 0.05933647 -0.26405668 0.07931757
0000f0 50 36 15 bd 50 9b 00 be a2 de 92 be a9 35 7c 3e
       -0.03642875 -0.12559247 -0.2868548 0.24629845
000100 22 cd 06 3e 9e 42 64 bc 0a 9c 34 bd 94 5d 29 bd
       0.1316419 -0.013931898 -0.044094123 -0.04134901
000110 70 f8 3c 3d f8 04 3e 3e 8e 9a bb 3e 77 0b 9c bd
       0.046135366 0.18556583 0.36641353 -0.07619374
000120 46 f0 2a 3e 01 76 17 bf a9 a4 34 bd 9e d6 9c bc
       0.1669322 -0.59164435 -0.044102345 -0.019145306
000130 dc 14 df bd b4 35 2f 3c 27 9c aa 3c 6e e8 71 be
       -0.108926505 0.010693956 0.020826412 -0.23623821
000140 51 80 84 bd 63 a4 58 be 4e b1 dc 3d 52 cf d1 be
       -0.06469787 -0.21156459 0.10776006 -0.40978485
000150 b3 66 8a bc a2 f0 e8 bd 12 1a b3 be 89 20 31 3e
       -0.016894674 -0.11374022 -0.34980828 0.17297567
000160 23 50 b1 be 80 a7 95 be 44 af a5 bd 82 ec 8d be
       -0.34631452 -0.29229355 -0.0809007 -0.27719504
000170 62 24 a1 bd b6 0b 37 3d 50 70 09 be f4 29 b2 bd
       -0.078682676 0.044688903 -0.1342175 -0.08699408
000180 0f cd d2 bd 54 47 23 3e 1f 68 d1 bb 48 4c 2b bd
       -0.10293018 0.15945178 -0.006390586 -0.041820794
000190 0a e6 69 3c ba ee a5 3d f0 c7 ab be c4 b9 26 3d
       0.014276037 0.08102174 -0.33550978 0.040704504
0001a0 14 8b c4 bc b5 3c 93 bd 96 45 7f 3c 56 ba 24 3e
       -0.023992099 -0.07189313 0.015580555 0.16086707
0001b0 65 45 0b be 5d 53 7b bd ba 7c 2d 3e d2 cf 5a be
       -0.1360069 -0.0613588 0.1694211 -0.2136834
0001c0 bc a0 aa bd 8c 49 1a bc f8 a1 ec bd a8 80 d4 3d
       -0.08331439 -0.009416949 -0.115543306 0.10376102
0001d0 f3 72 fe 3d f8 f8 f2 3c 7b 94 33 3e 4d 7c d0 be
       0.124242686 0.029659733 0.1753711 -0.40719834
0001e0 25 11 42 3d 3d a0 26 3d 7e 7d 64 be 25 80 1f be
       0.04737963 0.04068016 -0.22313496 -0.15576227
0001f0 4f e4 9d be 0b db 61 bd c2 e0 59 bd 48 2a ed 3d
       -0.30838248 -0.055140536 -0.05319286 0.1158033
000200 0f 87 4c be 28 88 49 3e b0 9d 84 3e d8 f4 e6 be
       -0.19973396 0.19680846 0.25901556 -0.45108676
000210 aa 32 3e bd 88 f8 80 be 8a f0 d2 3d 58 42 12 3e
       -0.046435036 -0.25189614 0.102997854 0.1428312
000220 15 3e d5 3d 4e 72 bc 3c 5f 1f e8 bd 68 7a 90 be
       0.10412232 0.023003723 -0.113341086 -0.2821839
000230 d0 9f dc bd 91 08 06 bd 71 31 87 be 85 0d 57 3d
       -0.10772669 -0.032723013 -0.26404908 0.052503128
000240 a0 a3 cd 3d 6d fd 00 bc e9 70 69 3c 33 31 20 3e
       0.100409746 -0.007872921 0.014248111 0.15643768
000250 81 a0 d9 3d 04 46 97 3d 3e 5f 4a be b2 ae ad be
       0.10626317 0.07386401 -0.19762895 -0.33922344
000260 19 28 b0 3e 99 d5 47 be 9c 30 54 3d 17 1f c4 bc
       0.34405592 -0.19515075 0.05180417 -0.023940606
000270 59 84 95 3d d2 e1 6b 3e e0 fc 26 be f7 13 69 bd
       0.07300634 0.23035362 -0.16307402 -0.056903806
000280 9b fc cc 3d 2f 72 24 be 95 02 92 3e 29 74 eb 3c
       0.10009118 -0.16059183 0.28517595 0.028741913
000290 1a 18 86 3c db 09 42 3e 92 cf 9f 3d ca 79 57 be
       0.016368914 0.18949072 0.07803263 -0.21042553
0002a0 f4 78 04 be cf 5f 99 bd 1c a3 3b 3e 19 3f 1b be
       -0.12936765 -0.07488977 0.1832394 -0.15160789
0002b0 09 b0 11 3e e7 66 09 3e 7a 9b 4e 3d 13 c1 4b bd
       0.14227308 0.1341816 0.050441243 -0.049744677
0002c0 d5 5b 0d 3e 22 f5 c0 3e f6 d8 0b 3e a4 08 af bd
       0.13804562 0.37687021 0.13656983 -0.0854657
0002d0 9d 94 ca 3d 46 70 ab 3e 4b cc 7c 3e 04 3c c3 3e
       0.09891627 0.33484095 0.24687307 0.38131726
0002e0 0f a4 9b 3e 7f 70 a7 3d a0 b3 7e 3e a9 eb 92 3d
       0.30398604 0.08175754 0.24873209 0.07173855
0002f0 83 67 5f bd 62 5a da 3d fa 14 25 bd 5a a4 05 3d
       -0.054542076 0.106617704 -0.040303208 0.03262744
000300 85 e0 02 3e 6d e1 de bd ed a8 51 3d b3 b4 72 3e
       0.1278096 -0.1088284 0.05118649 0.23701744
000310 4e 7a 3a be 02 5c 54 3d 31 2c 85 bd 1a e5 62 bd
       -0.18210718 0.051845558 -0.065025695 -0.05539427
000320 83 d6 6b 3d ca 8f 2d 3f 51 c6 82 3c b4 c5 09 be
       0.05757762 0.6779753 0.015963705 -0.13454324
000330 b0 ae 3f bd 67 20 52 3c 91 5c 88 be d7 fb b8 3e
       -0.046797454 0.012825108 -0.26633123 0.3612964
000340 4d 42 8f 3e aa b0 9e 3e 1b 12 80 be 52 7e e1 3e
       0.2798027 0.3099416 -0.25013813 0.44041687
000350 05 06 ca bd 32 bd 3a 3e 48 e6 0e 3e 35 72 ca 3c
       -0.098644294 0.18236235 0.13955033 0.024712661
000360 95 24 91 bc 9f 6f 94 3b 0b 41 b0 bd c5 f7 cd 3e
       -0.017717639 0.004529908 -0.08606156 0.40228096
000370 5f 83 c3 bd 7b 22 46 be fb 31 cc 3d 2b dc bb 3e
       -0.095465414 -0.19349091 0.099704705 0.36691412
000380 fd 54 cb 3d 03 ce 25 be f2 62 95 3c a8 b4 86 bd
       0.099283196 -0.16191868 0.018235657 -0.06577426
000390 82 f0 8f bd 6b 9c ac bd e5 6d 92 3e e2 2a 1d 3e
       -0.07028295 -0.08428272 0.28599468 0.1534839
0003a0 00 5f 5a 3e ad c8 68 3d 5c 39 05 be 9f 8b dd bd
       0.21325302 0.056832004 -0.13010162 -0.10817646
0003b0 72 97 5c 3d e8 a0 ba 3c 5e ae a5 bd 11 e4 fd 3c
       0.053855367 0.022781804 -0.080898985 0.03099254
0003c0 b5 8a f0 bc d0 78 14 bd 82 eb 7e 3b a3 eb c3 bd
       -0.029363016 -0.03624803 0.0038897698 -0.095664285
0003d0 8d 61 f9 bd af 13 d7 bd 70 02 3d be 7e 27 c4 3d
       -0.121768095 -0.10501801 -0.18457961 0.09577845
0003e0 46 51 86 bd 05 86 ae 3d 3a f5 72 3c f7 0f b6 3e
       -0.065584704 0.08521656 0.014828974 0.35559055
0003f0 f4 1d 19 be a7 bf 21 be 06 9b b9 3e ac fb 0c bc
       -0.14952832 -0.15795766 0.36251086 -0.008604925

bias f4 [64]
000000 f0 35 d6 bd 1e 69 08 3e 24 fb 1c be 3e 19 38 bd
       -0.104595065 0.13321349 -0.15330178 -0.044945948
000010 bd e0 27 bc 27 a0 d9 bc 5f 2e d6 3c a9 95 d4 bd
       -0.010246453 -0.026565624 0.026145158 -0.10380108
000020 89 39 8d 3e be 01 4b bd b8 5e f8 3b b8 12 44 bd
       0.27582958 -0.04956221 0.0075796507 -0.047869414
000030 c5 1a 13 3c c8 6c ce 3b 4b 78 e4 bc 97 7f 45 bb
       0.00897855 0.006299589 -0.027889391 -0.0030135864
000040 b7 ac 12 bd e9 aa e8 3c a9 9d 02 bd 7d 27 fd 3a
       -0.035809245 0.028401809 -0.031888638 0.0019314137
000050 06 41 10 be 55 30 64 3e dd 2b 74 bc 6d af a7 bd
       -0.14087304 0.22284062 -0.014903036 -0.08187757
000060 b6 87 b5 3d 8c bf d1 bd 8f be 8e bd 81 e5 07 3e
       0.088637754 -0.10241613 -0.0696994 0.13271143
000070 e3 64 be bd dd 3f 99 be 9d 8e 78 bd 1d e1 8c be
       -0.09296586 -0.29931536 -0.06068288 -0.27515498
000080 fb 8e 73 3d 32 3c c9 3d 24 02 4c 3d b4 c5 20 3e
       0.05946253 0.098259345 0.04980673 0.15700418
000090 31 11 2e bd fa da 65 3c 62 e8 4b 3e 2e 7e c7 ba
       -0.042496864 0.014029259 0.19912866 -0.00152201
0000a0 28 ae d5 3c 5d a0 e2 3a a8 e4 b2 3b 25 04 3d 3d
       0.02608402 0.0017290224 0.005459387 0.04614653
0000b0 95 a7 98 3d 45 db 07 3d 52 56 30 bc 0c 97 01 be
       0.07453839 0.033168096 -0.010762768 -0.12655276
0000c0 87 2d 3a bd 19 a1 84 bd bf 29 22 bd 43 fc 86 bd
       -0.045453575 -0.064760394 -0.039590593 -0.06591084
0000d0 70 c8 ce bc 34 49 b2 bd 9c 37 29 be bf 62 ee 3d
       -0.02524206 -0.08705369 -0.1652512 0.11639928
0000e0 a3 7d a4 bd 27 7e ec 3d ec 86 7c 3e f6 8f 8e bd
       -0.08031776 0.11547499 0.24660844 -0.06961052
0000f0 9f 18 f9 3b 8b d0 e7 3d 34 78 6d bd 4b 74 5c bc
       0.007601812 0.11319073 -0.057975963 -0.013455461

weight f4 [10, 64]
000000 6d 1f 09 bf 61 e4 2e 3e cd 67 fb be f9 5e c7 be
       -0.53563577 0.17079307 -0.4910263 -0.38939646
000010 23 c1 25 be ff 40 48 bd c9 3f 0e be ae bb 6d 3c
       -0.16186957 -0.04889011 -0.1389152 0.014510078
000020 4b 93 43 bf 1f fd 44 be 66 04 ed be 4b 2d 01 3f
       -0.76396626 -0.19237183 -0.46292418 0.50459737
000030 21 3f 24 3e c4 e5 30 bf f6 18 19 bf 26 1a 0e 3d
       0.16039707 -0.69100595 -0.5980371 0.034692906
000040 c3 53 b2 be a8 eb 95 3e 4e 82 58 be 12 6f 11 bf
       -0.3482953 0.29281354 -0.21143457 -0.56810105
000050 07 fe 0f be 95 a7 49 bf a4 4a 22 bf 57 15 8b be
       -0.14061747 -0.78771335 -0.6339514 -0.27164719
000060 37 b7 31 3e 28 34 9d 3e 24 ae c1 be 6f 2c 4b be
       0.17355047 0.30703855 -0.3782817 -0.19841169
000070 07 50 27 3e 42 49 11 3f d7 93 e3 3b 58 b2 02 3f
       0.16339122 0.5675241 0.006945114 0.5105338
000080 b2 ed 05 bf 29 7b 1b bf d3 e7 82 be ea 78 1d bf
       -0.5231582 -0.607348 -0.25567493 -0.61512625
000090 88 34 c3 be 72 1c 87 3c 2a 54 cd be 44 1b 0f bd
       -0.38126016 0.016493056 -0.40103275 -0.034938112
0000a0 57 ad cd 3d 89 c3 89 be 4c 9a 3d bf ee 9f 10 bf
       0.100428276 -0.26906994 -0.74063563 -0.56494033
0000b0 52 14 0c bf ea 3c 18 3d fb cb 5a 3a e5 b8 7b bd
       -0.54718506 0.037167467 0.00083464355 -0.061455626
0000c0 16 f1 2d be 11 6e f7 be 1a f7 55 3d d9 53 d7 3d
       -0.16986498 -0.48326162 0.052237608 0.105140395
0000d0 71 a5 b5 3e a1 99 30 be 34 72 fa 3e da d7 0d be
       0.35477784 -0.17246105 0.48915255 -0.13851872
0000e0 e0 55 e3 bc 34 38 85 be da 48 23 bf f3 a6 21 3d
       -0.02775091 -0.26019442 -0.6378304 0.039465856
0000f0 45 8a 43 be 42 37 8b 3e e6 35 cb be 28 8e 84 be
       -0.19095714 0.27190596 -0.3968956 -0.25889707
000100 e8 47 0b be f9 23 d4 be a1 85 2e bf fa 6f dd be
       -0.13601649 -0.41433695 -0.6817265 -0.43249494
000110 b2 e3 97 3e 1f 6c ab bd 4e fb 73 be 25 a3 82 be
       0.29665905 -0.08370232 -0.23826334 -0.25515094
000120 8e 13 46 bf 64 ab 19 be 21 a8 80 be 6d 69 e7 bd
       -0.7737359 -0.15006787 -0.25128272 -0.11299405
000130 68 6c c4 bc b7 bb 2b 3f 3c 6a 9b bd a5 ed 8a be
       -0.023977473 0.67083305 -0.07588622 -0.27134433
000140 db 89 c3 3e a9 a5 0a be 96 56 a4 bc 16 e3 65 3e
       0.38191113 -0.13539757 -0.020060819 0.22449908
000150 4d 47 06 3d 04 43 7e be 79 08 54 3b 67 99 1d 3d
       0.03278284 -0.24830252 0.0032353683 0.038476374
000160 8f 2b eb be 20 d2 b9 be 91 9c 63 be ce 01 a8 3c
       -0.4593167 -0.36293125 -0.22227694 0.020508673
000170 a4 26 b1 3d e3 47 e3 be 60 44 9c 3e 4d ff 9f be
       0.08649948 -0.44390783 0.30520916 -0.31249467
000180 7e c3 15 3e e9 ef c7 3e 07 27 12 be d1 66 44 be
       0.14625356 0.39050224 -0.142727 -0.19179846
000190 d9 db 6b 3e 16 8d 25 3d 47 9e 07 bf e3 e3 a5 bc
       0.23033084 0.040417753 -0.5297589 -0.020250266
0001a0 03 c1 3a bd 3f 2d 81 3e 8e b7 82 3e cd b2 b1 3e
       -0.045594227 0.25229833 0.25530666 0.34706727
0001b0 7b 95 8e 3e c4 47 e6 bd f4 b1 2a bf b7 87 b2 be
       0.2784842 -0.11244157 -0.66677785 -0.34869167
0001c0 f4 95 75 3c 91 ec 0e bf 16 45 88 bd e1 05 bb be
       0.014989365 -0.5582972 -0.06653802 -0.36527923
0001d0 29 42 6d be 86 9f af be 55 3e db be ef 3d 52 bf
       -0.2316977 -0.34301394 -0.42820993 -0.82125753
0001e0 03 a6 4b 3c 49 13 4f be ba ff 43 bf 76 df 9c 3d
       0.012429717 -0.202222 -0.7656208 0.07659809
0001f0 8e 24 0c 3f 76 27 3c bf a7 93 6d be be 02 21 bd
       0.5474328 -0.7349771 -0.23200856 -0.039309256
000200 92 f5 c8 3e 0e c4 77 bf bb 63 59 3f 73 0e 7d be
       0.39249855 -0.9678353 0.849178 -0.24712543
000210 dc a2 6a 3d 35 cd 4b bd a4 26 7d be 4b f8 0c bf
       0.05728422 -0.049756248 -0.24721771 -0.55066365
000220 9c c6 4f bf 99 54 b5 3d 15 12 3b be 2a 83 a3 be
       -0.8116243 0.08854026 -0.18268616 -0.31936008
000230 2e ab 02 bf e9 59 a1 be 2a 6e d1 3d 34 bb 86 3e
       -0.5104245 -0.31513909 0.1022609 0.263147
000240 10 0b 49 be 18 69 51 bf 33 e9 93 be 35 d3 bc be
       -0.19633126 -0.81800985 -0.28888854 -0.36879888
000250 a9 98 c4 3e e3 a5 fd be 87 6a e3 3e 5e 79 2f bf
       0.3839772 -0.49540624 0.4441721 -0.68544567
000260 dc a2 5e bf 07 d6 96 3b f7 c0 6e 3d 99 8c df be
       -0.86967254 0.0046031508 0.058289494 -0.43661955
000270 40 cd 85 3b e5 d7 b9 3d f5 b8 9f be a3 38 9c 3e
       0.0040833056 0.09074382 -0.311958 0.3051196
000280 77 c6 b0 ba 05 4b 0b bf 96 b9 4a bf 21 7d f8 be
       -0.0013486882 -0.54411346 -0.7918943 -0.48532966
000290 a7 98 52 3e d0 68 3c 3d 69 b0 70 be 23 0e f1 3d
       0.20566045 0.045998394 -0.23504795 0.117702745
0002a0 11 ef 06 3d 0c c6 b2 be 96 c2 c0 3d 19 dc 29 bf
       0.032942835 -0.34916723 0.09412114 -0.6635147
0002b0 34 d3 41 3e 46 8c ce bc cf c4 83 be 13 1a 2c 3e
       0.18928224 -0.025213372 -0.2573609 0.16806822
0002c0 d6 61 55 be 1b cb 7d be 52 11 2a 3f ee cd b8 be
       -0.20838103 -0.2478451 0.6643268 -0.36094612
0002d0 1e 3b 24 be 82 11 76 3e 53 3f 39 be c4 3e 93 be
       -0.16038176 0.24030116 -0.18090563 -0.28758824
0002e0 9d f9 ec be d0 63 29 be d8 e1 18 bf 01 b4 2a 3e
       -0.4628419 -0.16541982 -0.5971961 0.16670229
0002f0 d5 42 2f bf 65 40 8c bc 18 ab 0c 3e ef 67 1f be
       -0.6846135 -0.01712055 0.13737142 -0.15566991
000300 ea db ca be f0 be 6e be 71 23 29 bf 3b 12 22 be
       -0.39620906 -0.23315024 -0.66069704 -0.15827267
000310 2b 26 94 be 2f de 59 bc 56 73 1c bf 12 08 20 bf
       -0.2893537 -0.013297602 -0.6111349 -0.62512314
000320 56 19 e1 bd 56 22 a3 bd f4 3e 4c 3d 1f 09 78 be
       -0.109911606 -0.079655334 0.049864724 -0.2422223
000330 1f f4 40 bf 7f 4a 4a bf 97 6a 59 3e 9c 8f 61 3e
       -0.753725 -0.7901992 0.21232067 0.22027439
000340 99 b6 0f bf 98 2e 3d bf b9 19 ac be 04 93 40 bf
       -0.56137997 -0.7389922 -0.33613375 -0.7522433
000350 f8 92 44 be 27 26 9b 3e 4d 6f c1 3e 72 3e b9 bd
       -0.19196689 0.30302545 0.37780228 -0.090451136
000360 23 f3 67 bf 34 1d d0 3d c0 88 48 3d 2f 72 a8 3e
       -0.9060537 0.1016182 0.04895854 0.32899615
000370 05 fe e8 bd 38 b0 08 bf 6a 4f 93 3d 0f e6 1a bf
       -0.113765754 -0.5339389 0.071928814 -0.6050729
000380 43 4b 85 bc 9b aa af 3e 36 df e0 3e 3d 76 f2 be
       -0.01627124 0.3430985 0.43920296 -0.47355834
000390 04 24 f8 bc 89 18 d9 bc c6 e7 bc be 38 33 7e 3d
       -0.030290611 -0.026500957 -0.3689558 0.062060565
0003a0 aa c4 cc bd 30 e8 ef be f1 1c 1d bf b1 9b c0 bd
       -0.09998448 -0.46856833 -0.61372286 -0.09404696
0003b0 15 61 ad 3e 23 5f 7b bc c5 80 0e 3f 69 da f8 be
       0.3386313 -0.015342507 0.55665237 -0.48604134
0003c0 6f d2 94 be b6 f5 ad be 1c 9c a9 be 94 b0 e4 be
       -0.29066798 -0.33976525 -0.33126915 -0.44665968
0003d0 63 0f 00 3f 44 e3 92 3e 78 06 66 bf 64 23 b4 3e
       0.5002348 0.28689015 -0.8985362 0.3518325
0003e0 9f 68 eb 3d 3c b6 12 be bc 94 22 bf 81 72 fa 3d
       0.11494564 -0.1432733 -0.635082 0.12228871
0003f0 88 36 31 bf 2e 20 22 bd 65 3e c6 3e e2 c6 a1 be
       -0.69223833 -0.03958147 0.38719478 -0.31597048

bias f4 [10]
000000 df 04 7b be e9 53 e9 bd 4e ef a4 be 1f 29 54 be
       -0.24513577 -0.11392958 -0.32213825 -0.20718811
000010 b0 0c 9f bd e0 13 19 3f d5 9e 77 be 7a 9d b2 bd
       -0.07766092 0.5979595 -0.24181683 -0.087214425
000020 71 13 2c 3e 89 87 b4 bd
       0.16804291 -0.08814914
