06 MNIST/MNIST.pt (torch, 441268 bytes, 6 tensors)

weight f4 [128, 784]
-0.018334785 -0.016038818 0.025115639 -0.0030360743 0.00906717 -0.014305333 0.0025817566 -0.006570991
0.0038392618 -0.018391155 0.027013998 -0.024610665 0.005427272 -0.0011427518 -0.035163574 -0.016000494
-0.009491444 0.013129473 -0.012399333 -0.033879157 -0.0136677325 0.016158178 0.012794513 -0.013896683
0.03358588 0.025715936 -0.016834779 0.021986496 -0.032019988 -0.013879389 -0.03064176 -0.020976681
-0.028163018 0.03552681 -0.0070484555 0.010949105 0.0277113 0.023838816 -0.0012786929 0.028367566
0.02216099 -0.026894102 0.020319533 -0.031690467 -0.033776708 0.029708873 0.019185156 0.0044005127
-0.0021413947 -0.027813544 -1.8566766e-06 0.029283531 -0.02874768 0.016952738 -0.020775205 0.023584228
0.023276925 -0.005619198 -0.026760103 -0.034787424 0.029768571 0.030904261 0.01780373 -0.016282862
0.013918357 -0.040051647 -0.009537079 -0.023566278 0.023136867 0.023127668 -0.018366538 0.0022481098
-0.022499964 0.026075922 -0.008695811 -0.036546677 -0.012860402 -0.012729317 -0.00054685754 -0.008515455
-0.0016358295 -0.0035830452 -0.01981109 -0.025704628 0.02825189 -0.019162277 0.016353782 -0.027479976
-0.011602864 -0.021731732 -0.00788676 -0.0007353827 0.010310233 -0.016489545 0.011286105 0.022077704
0.0735393 0.041906755 0.041213643 0.06345417 0.034253668 0.03672545 -0.031904295 0.005187896
0.001712428 0.0083240615 -0.015799988 -0.010309042 0.02316728 0.0135798035 0.021052955 -0.0090268515
-0.022510964 0.002765126 0.009605933 0.004105547 0.02384004 -0.00031813132 -0.01534253 0.008893903
0.06678985 0.057001833 0.03498383 0.0487044 0.042202298 -0.00941151 -0.005673228 0.022646803
0.024803877 -0.027618473 -0.044553485 -0.013157201 -0.0171789 -0.045905154 -0.037709597 -0.0025574085
0.00037140353 0.012773388 -0.0056163096 -0.0032014563 0.004966058 -0.004345242 0.01130093 0.0030151487
-0.02219745 0.006473182 0.00924559 0.059133787 0.029512867 0.004595763 0.009134373 -0.07535767
-0.058680262 -0.10584669 -0.029181657 -0.01975462 -0.011105465 -0.055609073 -0.05385245 -0.047065623
-0.032887276 0.028497884 -0.03806491 -0.022313166 0.0037782877 0.022149459 0.028838553 0.021073833
0.033377256 0.011037568 -0.0047905548 0.0048634107 0.03078569 -0.01423168 0.020069148 0.011859576
0.021208892 -0.042294316 -0.059037402 -0.07267984 -0.11431166 -0.093011305 -0.10728916 -0.06510791
-0.06857615 -0.09224824 -0.041685995 -0.06302398 -0.06664111 -0.033433363 -0.01668692 -0.037880715
-0.014866209 -0.02679437 0.0011483193 -0.016176881 0.020105705 -0.007870035 -0.028436242 0.036343202
0.043948695 0.011454573 0.030694727 0.098233536 -0.008157998 -0.021405682 0.007998122 -0.020532142
-0.04934125 -0.03231106 -0.014723777 -0.057020847 -0.06748925 -0.063523434 -0.026028214 -0.02351168
-0.05288871 -0.03238576 -0.025455648 -0.018106932 0.0073695714 -0.032504957 0.019444095 -0.03295376
-0.03464344 0.016031647 -0.019298827 0.008317733 0.043760896 0.004869575 -0.0040375106 0.05589022
-0.005128819 -0.0050222673 0.08775953 0.0027958956 0.07852768 0.046671353 0.015978022 0.04772659
0.028353896 0.0446905 -0.026842408 0.039371423 0.031330187 -0.004879899 0.021395171 -0.00047325328
-0.009697977 -0.043840855 -0.020875685 -0.014736118 0.03080333 0.017362427 -0.0003588697 0.034260083
00000000: d532 96bc d763 83bc 50bf cd3c e0f8 46bb
00000010: 788e 143c ea60 6abc b032 293b 7851 d7bb
00000020: 209c 7b3b 0ca9 96bc 764c dd3c 4e9c c9bc
00000030: 42d7 b13b 63c8 95ba ae07 10bd 7813 83bc
00000040: 0082 1bbc 001d 573c 9226 4bbc dfc4 0abd
00000050: a0ee 5fbc 285e 843c 14a0 513c eaae 63bc
00000060: 5991 093d 3aaa d23c 17e9 89bc 061d b43c
00000070: 6427 03bd 6066 63bc 6e04 fbbc 4ad7 abbc
00000080: 21b6 e6bc 8f84 113d bbf6 e6bb e063 333c
00000090: cf02 e33c 9f49 c33c d099 a7ba 1963 e83c
000000a0: f78a b53c 0551 dcbc 2675 a63c ddcd 01bd
000000b0: 7259 0abd 0660 f33c 302a 9d3c 2d32 903b
000000c0: a456 0cbb 3bd9 e3bc ec32 f9b5 04e4 ef3c
000000d0: 4180 ebbc 78e0 8a3c c330 aabc b633 c13c
000000e0: 40af be3c 4021 b8bb 0138 dbbc 427d 0ebd
000000f0: 38dd f33c ef2a fd3c 21d9 913c a363 85bc
00000100: d209 643c 320d 24bd 6941 1cbc 110e c1bc
00000110: 8789 bd3c 3c76 bd3c 6c75 96bc 0655 133b
00000120: d851 b8bc 2c9d d53c e078 0ebc f8b1 15bd
00000130: 70b4 52bc a08e 50bc fd5a 0fba 6884 0bbc
00000140: 5469 d6ba 86d1 6abb de4a a2bc 8392 d2bc
00000150: 8270 e73c 35fa 9cbc 5ef8 853c b01d e1bc
00000160: f019 3ebc bf06 b2bc 7837 01bc b3c6 40ba
00000170: 40ec 283c 1515 87bc 5be9 383c 4ddc b43c
00000180: c69b 963d 6ba6 2b3d a3cf 283d 43f4 813d
00000190: 934d 0c3d 6d6d 163d 14ae 02bd 3aff a93b
000001a0: 8d73 e03a a561 083c fa6e 81bc 42e7 28bc
000001b0: 4fc9 bd3c d37d 5e3c 3f77 ac3c 5ce5 13bc
000001c0: ea68 b8bc 1e37 353b 3462 1d3c d387 863b
000001d0: 304c c33c ddca a6b9 3c5f 7bbc bcb7 113c
000001e0: 1ec9 883d c17a 693d 344b 0f3d 447e 473d
000001f0: 51dc 2c3d bc32 1abc 7ce6 b9bb ca85 b93c
00000200: 8031 cb3c 2340 e2bc b77d 36bd 4d91 57bc
00000210: c4ba 8cbc 0b07 3cbd 6175 1abd 329a 27bb
00000220: f0b8 c239 7947 513c 0509 b8bb 86cf 51bb
00000230: 50ba a23b 8862 8ebb 8927 393c cd99 453b
00000240: 6dd7 b5bc fc1c d43b d17a 173c 4536 723d
00000250: f8c4 f13c 0e98 963b 56a8 153c 1f55 9abd
00000260: b75a 70bd 26c6 d8bd 5f0e efbc 71d4 a1bc
00000270: b2f3 35bc 57c6 63bd 6394 5cbd e2c7 40bd
00000280: cfb4 06bd 6574 e93c f3e9 1bbd 1aca b6bc
00000290: 269d 773b c872 b53c d43e ec3c 08a3 ac3c
000002a0: 97b6 083d ead6 343c 16fa 9cbb 3f5d 9f3b
000002b0: 4532 fc3c fe2b 69bc 0e68 a43c ab4e 423c
000002c0: 45be ad3c ce3c 2dbd 34d1 71bd 2bd9 94bd
000002d0: 3b1c eabd b67c bebd 6bba dbbd 4c57 85bd
000002e0: a771 8cbd a5ec bcbd efbe 2abd b712 81bd
000002f0: 227b 88bd 6cf1 08bd 02b3 88bc cf28 1bbd
00000300: 6691 73bc de7f dbbc 3483 963a 6185 84bc
00000310: b8b4 a43c 52f1 00bc 1ff3 e8bc 9cdc 143d
00000320: 8c03 343d f6ab 3b3c 8273 fb3c aa2e c93d
00000330: 20a9 05bc f85a afbc 8e0a 033c 0633 a8bc
00000340: 0d1a 4abd 9a58 04bd ff3b 71bc b18e 69bd
00000350: ce37 8abd 9318 82bd 1f39 d5bc 919b c0bc
00000360: d5a1 58bd eea6 04bd 5d88 d0bc fd54 94bc
00000370: 727c f13b eb23 05bd 3949 9f3c 86fa 06bd
00000380: 48e6 0dbd cd54 833c 9318 9ebc 1a47 083c
00000390: a03e 333d f590 9f3b 184d 84bb 25ed 643d
000003a0: a70f a8bb d591 a4bb 45bb b33d 583b 373b
000003b0: 1fd3 a03d 762a 3f3d 57e4 823c f57c 433d
000003c0: 6e46 e83c 630d 373d 9ce4 dbbc ee43 213d
000003d0: 1554 003d 8fe7 9fbb ed44 af3c fb1e f8b9
000003e0: 44e4 1ebc 7892 33bd 7c03 abbc c26f 71bc
000003f0: 4457 fc3c a63b 8e3c ad26 bcb9 4d54 0c3d

bias f4 [128]
-0.06896803 0.006993368 0.112480275 -0.16351274 0.13224658 0.01496023 0.007367139 0.043594763
-0.026390187 0.22113667 -0.051133286 0.020331 -0.00074448856 0.0022689968 -0.020553833 0.038371306
0.14746276 0.021452373 0.15070142 -0.065774225 0.047039725 0.0019554168 0.06988159 0.13731642
0.00090277375 0.053875174 0.21540107 -0.020393042 -0.15163317 -0.016705394 0.019440275 -0.000790565
0.012696284 0.030496988 -0.020142676 -0.015910726 0.05434684 0.063756764 0.0839776 0.0795873
-0.10297098 0.06864788 -0.002379976 -0.07910914 -0.07742984 -0.022750538 -0.0044584787 0.09283487
0.037767548 -0.018278835 0.075095475 -0.002192094 0.031412803 0.15442978 0.10017575 0.027541576
0.06913506 0.008938687 -0.015950037 0.046394777 0.019488676 0.13666557 0.15738806 0.006635006
0.016619382 0.12992299 0.06247862 -0.010301837 0.16224985 0.025271125 -0.01462004 0.17609893
-0.03507769 -0.032658998 -0.058283605 -0.09267272 0.11397056 -0.10096159 -0.12280349 -0.050334096
0.13045394 0.00332509 -0.039470356 0.20027879 0.15274425 0.058434844 -0.051622972 -0.034935664
0.22466153 0.23813231 0.11417102 0.01829444 -0.06448503 -0.051745202 0.06395301 -0.012712828
0.037472375 0.0085199 0.103008345 0.090566054 0.03550992 -0.013260117 0.026597625 0.11288746
-0.01101604 -0.029751787 0.07746232 0.105896965 0.12687102 -0.014959042 0.14006963 -0.037067577
-0.15905344 0.24256209 0.066985205 0.070694506 -0.066846564 0.005589218 0.035699744 -0.011255172
-0.028622465 0.013143554 -0.044281047 -0.008161268 0.08383721 0.075589135 0.07700766 0.11101127
00000000: 1c3f 8dbd 9f28 e53b 0f5c e63d e26f 27be
00000010: a66b 073e c11b 753c 0b68 f13b 6c90 323d
00000020: 3c30 d8bc a771 623e 2371 51bd 338d a63c
00000030: c829 43ba 73b3 143b 8360 a8bc 3b2b 1d3d
00000040: 7a00 173e e3bc af3c 7951 1a3e a3b4 86bd
00000050: baac 403d 7326 003b 141e 8f3d ad9c 0c3e
00000060: 1fa8 6c3a 37ac 5c3d 1992 5c3e 4f0f a7bc
00000070: ba45 1bbe c0d9 88bc 3641 9f3c eb3d 4fba
00000080: 1304 503c d2d4 f93c 4102 a5bc 3657 82bc
00000090: cb9a 5e3d e892 823d 73fc ab3d abfe a23d
000000a0: 73e2 d2bd 4297 8c3d 5ff9 1bbb f903 a2bd
000000b0: 8993 9ebd 565f babc 6e18 92bb 3520 be3d
000000c0: 25b2 1a3d 7fbd 95bc a8cb 993d 3ca9 0fbb
000000d0: b6aa 003d d722 1e3e f228 cd3d df9e e13c
000000e0: af96 8d3d 9273 123c a7a9 82bc 7308 3e3d
000000f0: b7a6 9f3c 0ff2 0b3e 562a 213e 776a d93b
00000100: 5f25 883c 880a 053e 95e9 7f3d 09c9 28bc
00000110: d324 263e 6405 cf3c e488 6fbc 4753 343e
00000120: a0ad 0fbd 71c5 05bd caba 6ebd 32cb bdbd
00000130: 6669 e93d f3c4 cebd 6580 fbbd 202b 4ebd
00000140: b895 053e c1e9 593b abab 21bd e215 4d3e
00000150: fd68 1c3e 6059 6f3d 9c72 53bd b318 0fbd
00000160: ac0d 663e f5d8 733e 7fd2 e93d 39de 953c
00000170: ba10 84bd c7f2 53bd ccf9 823d 7749 50bc
00000180: a27c 193d 0d97 0b3c 0af6 d23d b27a b93d
00000190: da72 113d f640 59bc 43e3 d93c 8a31 e73d
000001a0: 9f7c 34bc 05ba f3bc 91a4 9e3d 82e0 d83d
000001b0: 7aea 013e c516 75bc 6a6e 0f3e 2cd4 17bd
000001c0: e8de 22be 3262 783e 8a2f 893d 48c8 903d
000001d0: dae6 88bd c225 b73b e539 123d 9d67 38bc
000001e0: a979 eabc 1058 573c 0b60 35bd d7b6 05bc
000001f0: d8b2 ab3d 7ace 9a3d 31b6 9d3d e059 e33d

weight f4 [64, 128]
0.08905957 -0.019049546 -0.10260022 0.1457964 -0.19691417 -0.025812749 -0.050694965 0.2052992
0.2048553 -0.1606156 -0.13996916 -0.07964085 0.15533309 0.19902682 -0.18307115 -0.029249962
-0.06767177 0.0831677 0.084357694 -0.019657096 0.030737214 -0.08540652 0.13087066 0.11386235
-0.02600796 -0.0628315 0.21473277 0.16597821 -0.1471351 0.12477515 -0.027692482 0.14881478
-0.03578448 -0.28717443 0.05549679 -0.021056164 -0.032580547 -0.07220589 0.11943186 0.008549666
0.051980555 0.22903942 0.25568014 -0.13247177 -0.015260824 -0.09573936 -0.111688495 0.24475516
-0.052940253 -0.26004407 0.002542785 0.08275754 -0.057549015 0.20873347 0.03555243 0.015782783
0.17948443 0.16129826 -0.15767787 0.15403008 0.030263461 -0.061670553 0.26566336 -0.23558249
0.027274812 -0.039182078 0.22188869 0.16692747 0.061509617 -0.25477785 0.04959372 0.29736274
0.07689127 0.04216 -0.165421 0.12722556 0.13106175 -0.21376032 0.2232244 0.1051827
0.050621025 0.07542766 0.09810744 -0.20203012 0.02485798 0.107426874 -0.3854738 -0.027195381
-0.118843295 -0.090989456 0.018559543 0.20061332 0.18748568 0.2220125 0.16643411 0.017095245
0.074319884 -0.06954488 0.035932973 -0.05852458 0.14626548 -0.17470033 0.0992829 0.05950332
0.09661841 0.34349912 0.036549762 -0.02255724 0.103710935 0.23387393 0.10917384 0.10950007
-0.02637604 0.13830167 -0.028723046 0.11116268 0.09873066 0.08063957 -0.0060216845 -0.2651881
0.34203312 0.10935627 -0.1963034 0.24039623 0.11240616 -0.22177173 -0.005985004 0.1364945
-0.006020704 -0.14191025 -0.0078057786 0.16350837 -0.04305321 -0.03169194 -0.05825985 -0.07844718
0.13715519 -0.07804477 -0.08153113 -0.00047737826 0.005931472 0.08301768 -0.06899068 -0.009069739
-0.022001911 -0.07444365 0.023789972 -0.022623727 -0.04229947 0.030841144 0.03091412 0.018248007
-0.03364553 -0.01922369 0.14986372 -0.10937884 -0.05124968 -0.0098974835 -0.015368433 -0.024961889
-0.11246935 -0.14429796 -0.08601882 -0.052620966 0.049588606 -0.12683107 0.02037734 0.12339658
0.089646064 0.067246154 -0.12030281 0.08132932 0.073391356 -0.06428383 -0.013593383 0.08291179
-0.07009869 0.00908879 0.12394127 0.07012155 -0.094319195 0.026749937 0.12905468 -0.02732581
0.067606844 0.11345526 -0.093676 0.0587194 -0.041313116 -0.013553314 0.09576669 -0.04799358
-0.03335474 -0.06108778 0.09999151 0.032061 -0.08782218 0.08822228 0.15671822 0.06344409
0.0599455 -0.0865128 -0.12210271 0.09209662 0.13263918 0.078881815 0.07801501 0.06437479
0.0663081 0.0048561655 0.025065249 -0.08315936 0.027062995 0.0046890676 0.0324009 0.1027316
0.083593264 -0.0115604615 0.0072102146 0.08332721 0.058593336 0.05984472 0.013142014 -0.053455554
0.09519026 -0.15568465 0.070173025 -0.15733996 0.13711993 0.005390262 -0.07309303 -0.02170295
0.0011240793 0.08747304 0.15933745 -0.062281027 0.08955753 -0.12870595 -0.056300733 -0.017124765
-0.06449756 0.020082943 -0.052422013 -0.03851493 -0.043266952 0.06678215 0.03749873 0.03379228
0.25481144 0.07138159 -0.05200431 0.048307035 0.12032747 -0.045074258 0.04124285 0.103213646
00000000: dd64 b63d cb0d 9cbc 1020 d2bd a74b 153e
00000010: dea3 49be 4275 d3bc 86a5 4fbd f439 523e
00000020: 96c5 513e 6a78 24be 1354 0fbe be1a a3bd
00000030: a30f 1f3e b0cd 4b3e 0177 3bbe 9e9d efbc
00000040: 7f97 8abd d453 aa3d bac3 ac3d eb07 a1bc
00000050: 9ccc fb3c 9de9 aebd f502 063e aa30 e93d
00000060: a50e d5bc cdad 80bd e8e2 5b3e 31f6 293e
00000070: 95aa 16be 1d8a ff3d 58db e2bc e762 183e
00000080: bf92 12bd 8708 93be 9a50 633d fa7d acbc
00000090: 2e73 05bd afe0 93bd b198 f43d e613 0c3c
000000a0: 90e9 543d 4f89 6a3e 82e8 823e aea6 07be
000000b0: 8908 7abc ff12 c4bd f0bc e4bd 19a1 7a3e
000000c0: e1d7 58bd 7f24 85be daa4 263b c97c a93d
000000d0: 84b8 6bbd 3abe 553e 6d9f 113d e54a 813c
000000e0: c4ca 373e 5f2b 253e 4f76 21be 10ba 1d3e
000000f0: 14eb f73c 439a 7cbd 0705 883e 893c 71be
00000100: 6d6f df3c 637d 20bd ca36 633e 09ef 2a3e
00000110: 82f1 7b3d 3e72 82be c922 4b3d ee3f 983e
00000120: 2c79 9d3d f7af 2c3d 1f64 29be 6b47 023e
00000130: 0d35 063e fce3 5abe f094 643e 076a d73d
00000140: fe57 4f3d d179 9a3d 8eec c83d fce0 4ebe
00000150: f6a2 cb3c 9f02 dc3d d25c c5be d9c8 debc
00000160: 1d64 f3bd ae58 babd 2f0a 983c 946d 4d3e
00000170: 3ffc 3f3e 3f57 633e b46d 2a3e 540b 8c3c
00000180: 0635 983d 8c6d 8ebd 742e 133d 78b7 6fbd
00000190: 9ec6 153e a5e4 32be d554 cb3d c1b9 733d
000001a0: dfdf c53d 1edf af3e 34b5 153d f6c9 b8bc
000001b0: 6666 d43d a67c 6f3e 8996 df3d 9341 e03d
000001c0: 9112 d8bc f49e 0d3e 984c ebbc 42a9 e33d
000001d0: 4d33 ca3d 5c26 a53d 8d51 c5bb bcc6 87be
000001e0: f71e af3e 2ef6 df3d c203 49be 6e2a 763e
000001f0: 3335 e63d 2118 63be da1d c4bb 37c5 0b3e
00000200: 5349 c5bb ec50 11be 9ec7 ffbb bd6e 273e
00000210: 9058 30bd 68cf 01bd e1a1 6ebd eaa8 a0bd
00000220: 6972 0c3e f0d5 9fbd cbf9 a6bd a048 fab9
00000230: cb5c c23b 2c05 aa3d fc4a 8dbd 3e99 14bc
00000240: 5a3d b4bc ea75 98bd 30e3 c23c 6555 b9bc
00000250: 3642 2dbd 91a6 fc3c 9c3f fd3c d87c 953c
00000260: e5cf 09bd 007b 9dbc e075 193e 0302 e0bd
00000270: 2feb 51bd 0e29 22bc e1cb 7bbc e07c ccbc
00000280: 5556 e6bd d8c2 13be a32a b0bd 1589 57bd
00000290: 6c1d 4b3d 01e0 01be 61ee a63c 59b7 fc3d
000002a0: 5b98 b73d 5ab8 893d 5261 f6bd fd8f a63d
000002b0: 354e 963d 3ea7 83bd c8b6 5ebc a8cd a93d
000002c0: e78f 8fbd 26e9 143c ecd4 fd3d e39b 8f3d
000002d0: 6c2a c1bd af22 db3c e926 043e 61da dfbc
000002e0: 7575 8a3d 3b5b e83d 34d9 bfbd c183 703d
000002f0: f137 29bd b80e 5ebc 5421 c43d eb94 44bd
00000300: fb9e 08bd 2e37 7abd 59c8 cc3d 6552 033d
00000310: 1ddc b3bd e2ad b43d be7a 203e faee 813d
00000320: 6a89 753d 9f2d b1bd fc10 fabd 279d bc3d
00000330: 91d2 073e ca8c a13d 55c6 9f3d eed6 833d
00000340: 8bcc 873d 7820 9f3b a355 cd3c 744f aabd
00000350: 37b3 dd3c c0a6 993b ceb6 043d f264 d23d
00000360: f232 ab3d 1768 3dbc aa43 ec3b 75a7 aa3d
00000370: 91ff 6f3d bd1f 753d 9a51 573c 36f4 5abd
00000380: 1cf3 c23d cc6b 1fbe e0b6 8f3d ba1d 21be
00000390: 2b69 0c3e cca0 b03b ccb1 95bd 63ca b1bc
000003a0: d855 933a 1125 b33d 5b29 233e 641a 7fbd
000003b0: f069 b73d 7ecb 03be 999b 66bd 3c49 8cbc
000003c0: 4c17 84bd fc84 a43c 77b8 56bd d5c1 1dbd
000003d0: b038 31bd 14c5 883d 4598 193d c669 0a3d
000003e0: a576 823e 8330 923d 7902 55bd 99dd 453d
000003f0: 406e f63d c99f 38bd 43ee 283d ad61 d33d

bias f4 [64]
0.17449191 0.13302992 0.001888456 0.028023817 0.10246698 -0.022392908 0.0530846 0.19318463
-0.056558765 0.08269355 0.0021413462 0.0460554 0.27073166 -0.024996994 0.030555518 0.20532049
0.13254723 -0.008904189 -0.021863874 0.2560818 0.21810928 0.035662428 0.25444946 0.03498384
0.008262978 0.04179232 -0.02584772 -0.05334534 0.073377565 -0.087966986 0.13846561 -0.009731974
-0.066958226 -0.009939954 -0.0573352 0.056218013 0.20734847 0.17545973 0.1754235 0.17484519
0.048423056 0.022119673 0.12587065 0.06697202 0.14729023 0.16899025 0.010243879 0.0052131424
0.032227363 -0.046543457 0.05977109 -0.026320152 0.08268138 -0.043013703 0.07211217 0.20411913
-0.077728786 0.038802207 0.025219826 -0.063828364 0.110960744 0.005408364 0.21701458 0.21757422
00000000: 02ae 323e ff38 083e 1286 f73a 3492 e53c
00000010: 35da d13d 5571 b7bc 3d6f 593d 31d2 453e
00000020: 2aaa 67bd 3c5b a93d d455 0c3b 96a4 3c3d
00000030: 579d 8a3e 7fc6 ccbc 914f fa3c 893f 523e
00000040: 76ba 073e e0e2 11bc de1b b3bc 271d 833e
00000050: 0a58 5f3e c412 123d 3347 823e 374b 0f3d
00000060: 7161 073c 6c2e 2b3d 99be d3bc a580 5abd
00000070: fa46 963d 0928 b4bd eec9 0d3e dc72 1fbc
00000080: 6521 89bd 30db 22bc 51d8 6abd dc44 663d
00000090: 2853 543e b7ab 333e 38a2 333e 9e0a 333e
000000a0: 4157 463d 5134 b53c 3ce4 003e a028 893d
000000b0: 40d3 163e c80b 2d3e f1d5 273c 02d3 aa3b
000000c0: d700 043d 5aa4 3ebd 88d2 743d 5c9d d7bc
000000d0: db54 a93d 232f 30bd 8caf 933d 9b04 513e
000000e0: 4530 9fbd 10ef 1e3d cf99 ce3c 72b8 82bd
000000f0: 633f e33d a538 b13b 1239 5e3e c7cb 5e3e

weight f4 [10, 64]
-0.52549964 0.032840684 -0.14874421 -0.20151089 0.1636735 -0.0466835 -0.08570416 -0.09513898
-0.022996921 0.61974543 -0.028291002 -0.05259429 -0.1543655 0.71369207 -0.19795212 -0.33245412
0.019002113 0.19776896 -0.28306118 0.04258953 0.79783785 -0.04231818 -0.5345103 0.45584294
0.15559858 -0.416796 0.1337779 -0.26786098 -0.059857443 0.024088526 -0.5700749 -0.05589178
0.011328986 0.32537642 -0.024372144 -0.5354004 -0.27032351 -0.05752025 -0.29766262 -0.49550685
0.22782518 -0.31922936 0.16940819 -0.113114506 -0.33970752 0.22768536 0.78026724 0.014433776
-0.41248843 -0.1526251 0.1595811 0.44645226 -0.03213003 -0.17757079 0.010253676 0.18254332
0.67666525 -0.355855 0.5082218 -0.12831472 0.15089197 -0.15232882 -0.8608951 -0.086999066
0.31167996 0.4537175 0.45457995 0.38494956 0.1160122 0.16793527 0.8752092 -0.25452518
0.05706813 0.15225229 0.13475859 -0.05356036 0.3315274 0.15069935 -0.08118481 -0.19555846
-0.25541583 0.36056328 -0.2063085 0.6481614 -0.7290918 0.032823317 -0.41096413 -0.37444112
-0.5302284 -0.15179381 -0.0047127227 -0.3791681 0.03569894 -0.11307275 -0.25388408 -0.1603269
-0.5646664 -0.5312471 -0.07522868 -0.1279007 0.29092818 0.032171234 -0.025332803 -0.21659134
0.061335653 0.5327403 -0.061279003 -0.124545306 -0.31895494 -0.05969932 -0.4633158 -0.10339933
0.4409562 -0.064932615 -0.5184824 0.057137065 -0.35403392 -0.4161696 0.38626 -0.6671546
0.04433425 -0.35937414 -0.17926572 0.1052119 0.63103855 -0.03449934 0.7361639 0.7569215
-0.15547684 0.1652739 0.29026628 0.5439806 0.49569836 0.13123241 -0.05657493 0.3974687
-0.031084064 -0.5114612 -0.5322053 0.16567156 0.27924752 0.17287342 0.19157083 0.039735436
0.9225807 -0.34080884 0.019956902 -0.3477221 0.30434072 -0.09117684 0.030404147 0.46634167
-0.26245648 0.13957848 -0.03707446 -0.42200747 0.59774554 -0.03539487 -0.39074984 -0.24281535
0.14385672 -0.012144415 0.093603685 0.749467 1.2098795 0.012354658 0.40936938 -0.72411394
-0.020786049 -0.6742686 0.51031625 -0.0830289 -0.11399267 0.6797024 0.3037542 0.0214377
-0.4092286 0.06987345 -0.43333727 -0.49583358 -0.36899376 -0.80818486 -0.27587497 0.43452695
-0.42347804 0.47479084 0.05688673 0.062412325 0.14939658 -0.054733112 -0.47996256 0.076582514
0.15566522 -0.23067133 -0.09610344 0.1584371 -0.27385592 0.2355697 0.22876427 -0.16772832
-0.028172264 0.04167083 0.3451526 -0.063913055 -0.30507633 -0.45716703 -0.1967742 -0.19029258
0.13998488 0.042640068 -0.026164211 -0.41915888 -0.1514126 -0.067315966 0.038658712 0.3280842
0.35765535 0.011078552 0.033071492 0.19570088 -0.12940572 0.0290202 0.31804258 0.041459877
0.37220633 0.5926276 -0.009311569 0.20315365 -0.29508874 -0.04599037 0.14917506 0.13207375
-0.12544891 0.31542754 0.15145959 0.25994146 0.06713778 0.12651151 -0.40721712 0.15587813
0.2888987 0.23590924 -0.046198316 0.018055554 0.3019744 0.29059854 -0.15404783 -0.23859312
0.12628742 0.06283633 -0.07413318 0.08233802 -0.5122558 -0.15781452 0.36298385 -0.36989075
00000000: 2587 06bf f483 063d 6750 18be df58 4ebe
00000010: 079a 273e 3337 3fbd aa85 afbd 3ad8 c2bd
00000020: 0a64 bcbc a3a7 1e3f 88c2 e7bc 1c6d 57bd
00000030: fd11 1ebe 86b4 363f f6b3 4abe 6d37 aabe
00000040: 52aa 9b3c f283 4a3e 65ed 90be 5c72 2e3d
00000050: 1a3f 4c3f d455 2dbd abd5 08bf 3f64 e93e
00000060: 3c55 1f3e 4966 d5be 13fd 083e 1325 89be
00000070: 142d 75bd 4d55 c53c 6ef0 11bf c7ee 64bd
00000080: 369d 393c bd97 a63e 17a8 c7bc 0010 09bf
00000090: d867 8abe 5b9a 6bbd 3c67 98be 13b3 fdbe
000000a0: 014b 693e 0872 a3be 5779 2d3e 94a8 e7bd
000000b0: 25ee adbe 5a26 693e 98bf 473f a57b 6c3c
000000c0: af31 d3be c149 1cbe 3a69 233e 6495 e43e
000000d0: c79a 03bd 1ed5 35be 09ff 273c a3ec 3a3e
000000e0: ef39 2d3f a032 b6be d31a 023f ef64 03be
000000f0: 6d83 1a3e 16fc 1bbe 9f63 5cbf 912c b2bd
00000100: 8494 9f3e a94d e83e b4be e83e 1c18 c53e
00000110: ce97 ed3d 39f7 2b3e b60d 603f 2051 82be
00000120: 45c0 693d 06e8 1b3e 28fe 093e 1c62 5bbd
00000130: f6bd a93e ee50 1a3e 3944 a6bd 7a40 48be
00000140: ddc5 82be c09b b83e 8942 53be e8ed 253f
00000150: c3a5 3abf be71 063d e469 d2be bfb6 bfbe
00000160: 0cbd 07bf d66f 1bbe 2f6d 9abb 5222 c2be
00000170: 0d39 123d b092 e7bd 18fd 81be bc2c 24be
00000180: fa8d 10bf cfff 07bf 7f11 9abd 67f8 02be
00000190: 8af4 943e fcc5 033d bd86 cfbc 1fca 5dbe
000001a0: 183b 7b3d ab61 083f b1ff 7abd 9c11 ffbd
000001b0: 104e a3be 4687 74bd bb37 edbe 07c3 d3bd
000001c0: 03c5 e13e 64fb 84bd 43bb 04bf 8e08 6a3d
000001d0: ef43 b5be 2f14 d5be dfc3 c53e a5ca 2abf
000001e0: d597 353d e3ff b7be 6f91 37be 5679 d73d
000001f0: be8b 213f 2e4f 0dbd 3d75 3c3f 9cc5 413f
00000200: 5235 1fbe 903d 293e c89d 943e 5042 0b3f
00000210: 2dcc fd3e ca61 063e 1dbb 67bd 0481 cb3e
00000220: 02a4 febc 1fef 02bf 9b3e 08bf cea5 293e
00000230: 88f9 8e3e bb05 313e 252b 443e a0c1 223d
00000240: 402e 6c3f 7f7e aebe a87c a33c a208 b2be
00000250: 8cd2 9b3e ecba babd 1e12 f93c 56c4 ee3e
00000260: b260 86be a9ed 0e3e 64db 17bd 5d11 d8be
00000270: da05 193f 36fa 10bd 5d10 c8be 96a4 78be
00000280: 2d4f 133e 5ef9 46bc 4ab3 bf3d 12dd 3f3f
00000290: 55dd 9a3f 316b 4a3c dd98 d13e 885f 39bf
000002a0: 8147 aabc de9c 2cbf 16a4 023f 0e0b aabd
000002b0: fd74 e9bd fa00 2e3f ac85 9b3e 1e9e af3c
000002c0: 6986 d1be d019 8f3d 62de ddbe e6dd fdbe
000002d0: c0ec bcbe 34e5 4ebf 7c3f 8dbe 517a de3e
000002e0: 1dd2 d8be c917 f33e 0f02 693d 11a4 7f3d
000002f0: 6bfb 183e d42f 60bd a7bd f5be 4bd7 9c3d
00000300: b466 1f3e 1b35 6cbe e1d1 c4bd 563d 223e
00000310: d836 8cbe 2f39 713e 2e41 6a3e f9c0 2bbe
00000320: 85c9 e6bc 08af 2a3d d7b7 b03e d9e4 82bd
00000330: f732 9cbe cc11 eabe 2d7f 49be 0fdc 42be
00000340: 3258 0f3e 5aa7 2e3d 5456 d6bc fe9b d6be
00000350: e80b 1bbe f4dc 89bd 9958 1e3d a7fa a73e
00000360: 9a1e b73e d182 353c f975 073d d065 483e
00000370: ef82 04be c5bb ed3c 7ad6 a23e d5d1 293d
00000380: d491 be3e 71b6 173f 8d8f 18bc 8307 503e
00000390: df15 97be 6660 3cbd 59c1 183e 573e 073e
000003a0: ae75 00be b87f a13e 3918 1b3e 0c17 853e
000003b0: 887f 893d 3c8c 013e c37e d0be 849e 1f3e
000003c0: 88ea 933e 3192 713e 723a 3dbd 3ee9 933c
000003d0: 639c 9a3e 55c9 943e b7be 1dbe c151 74be
000003e0: 7d51 013e 55b0 803d 23d3 97bd d6a0 a83d
000003f0: 3223 03bf 219a 21be 05d9 b93e 5262 bdbe

bias f4 [10]
-0.30858982 0.4173836 0.05654847 -0.039443575 0.024953648 0.3678142 0.070983835 0.0367727
0.059468888 0.0309599
00000000: 7cff 9dbe 4eb3 d53e 5e9f 673d 968f 21bd
00000010: 986b cc3c 2552 bc3e f95f 913d f89e 163d
00000020: a695 733d 9e9f fd3c
