06 MNIST/MNIST2.pt (torch, 441278 bytes, 6 tensors)

weight f4 [128, 784]
00000000: 6025 cf3c 808d 8a3c f283 2fbc 5469 073c
00000010: 321f 39bc 9e70 9e3c 2868 733c 4ac5 8b3c
00000020: de7d 823c d81c 2fbc 3c5f fbbc 18b1 5bbc
00000030: 3289 323c 8236 d23c bc42 bfbc a09d 86bc
00000040: 4e99 ed3c fc3c 34bc 20ec 043b 98f9 a5bc
00000050: 0041 74bc 607e f8ba 6880 f13b 68cd d93b
00000060: 2af7 c8bc 8047 a0bb 7a7b d03c 00cc 89b8
00000070: 18bc b33b 1c1b 52bc b232 15bc e890 a33b
00000080: f226 af3b fa08 7d3c 1b2e 5a3c f022 b6bc
00000090: 9d3e d2bc e95c 1db9 d014 d5bc 1c27 94bb
000000a0: b3a1 ac3c 7ddb dc3c 8845 a8bc c457 873c
000000b0: 8ae2 fcbc dfe6 823b 9d95 123a 401d 70bc
000000c0: faf4 01bc e57e 16bb c2c3 95bc e295 363c
000000d0: 2a87 43bc e80e 813b 59d8 0f3d dee0 f23c
000000e0: 9c5e 28bc 22ea 803c 464d 983c 2d4e 5ab9
000000f0: 964f bd3b 0f75 0ebd 410f e13b b4a7 2c3c
00000100: 286e f2bb 5c64 f3bc 2e52 073d 5071 2a3d
00000110: 5c4c d3bc faad 903b 5ce8 533c da08 793c
00000120: ba12 0d3d 3983 793a a2b8 cb3c f4f7 deba
00000130: 55ee 953c 59dc f8bb a171 0fbd 4a4b f0bb
00000140: 1b96 25bc 65e0 2b3c ad91 103d 0386 c3bc
00000150: dce9 d9bc c07a 81bb d3cb b43c 7dbc 883b
00000160: 4465 023d abc3 90bc 1dc4 1f3c 2e47 e2bc
00000170: 6289 8e3c 13cf 03bb 71da 243c b722 1e3d
00000180: b12e 203d f357 f83c c783 ed3c 3d4e 02bd
00000190: b860 2a3c 88e0 67bb 2220 10bd b3db 693c
000001a0: 000e c2ba eb0f 2fbd e335 38bc 05fd b0bc
000001b0: 51a4 30bc adcf e43c 89ff 073d be0a 873c
000001c0: 1073 a83b ed43 db3c 38a3 17bc 654c 0d3d
000001d0: a4d4 4b3c 84b9 a33c af1d 953c 2f8f 50bb
000001e0: 1ac0 d93c a115 e43c b92b b4bb e64c 4dbc
000001f0: aea5 383d 6e2c 5e3c 8f6b 39bc 0384 2a3d
00000200: 0739 e8bb 589b a3bc 6fea bd3c cd1c 33bc
00000210: c913 093a 743c a8bc bd0f 2fbd edea c13a
00000220: 62b0 19bd 1376 723b a7bc b53c 7514 02bd
00000230: 60f7 f73b 3c46 10bd cd9f 8a3c 3a0d c1bc
00000240: 6f0f 033d 20b3 91bc 44a4 023d 8396 ee3a
00000250: 2dbd 0b3d 268f f2bb 2dcd c23c 1a2d 1a3c
00000260: 3d0f c33b 7f53 2bbc 63d8 40bc 8a02 173c
00000270: 76c4 09bc 178d a6b7 bb57 4abd fb37 50bd
00000280: 871d 9abc 1315 04bd 2926 7abd c83f e7bc
00000290: e0f2 13bd af75 063d 113e 86bc 28aa c13c
000002a0: 6028 0cbd c62d a93c 9a72 92bc 5222 9f3b
000002b0: 46d5 9a3c 813c 40bb efed fa3c 74ef 53bb
000002c0: 74e5 73bb 3af1 143d 18bb 363d 2737 3c3a
000002d0: 83cd b33c 3e68 6e3d 5e74 753c 1958 053d
000002e0: 8f9d eb3c 537d 063d c729 863b 004f fabc
000002f0: 406a 2abc f42a 00bd 36e9 09bd 96f0 3fbd
00000300: 9e7e 20b9 80cd 73bb 3569 2bbc 95fb ce3c
00000310: 897c 633c ba78 903b 2dd0 0cbd 12bd ee3c
00000320: c26e 7fbb c53f bb3c 8717 d33c a673 54bc
00000330: f92d 513d 5435 283b 4fe9 313c 25df a33d
00000340: 5f54 ae3d ae0b 793d 21da d13d 40a4 7e3d
00000350: 6a5a a63d bd50 443d 439a 813d 330b 853c
00000360: 5a15 73bc 05b1 9f3b 5750 25ba e2a0 38bd
00000370: 180d 68bd 7a83 58bc 844d 433c f50a a83c
00000380: 826d 583c 07fd 803c ac5a 0e3d 62a7 dabc
00000390: a390 8dbc 3739 263d dc4d b4bb 8805 453d
000003a0: 2166 4a3c d599 563d 8d69 953d 9cf9 983d
000003b0: 6e92 913d ed6f ed3d 5a8b d13d 8a11 d83d
000003c0: 15c6 723d 8a1d aa3d 7228 103d 296a 203d
000003d0: 6c4f 8ebc 8b4e d5bc 0259 683b d0f7 343a
000003e0: 29d9 4dbd e4bf 883a 1e84 c7bc 2b2e 5cbc
000003f0: cb71 9b3c 3bbd 533c 67b5 843c c748 0c3c
0.025286376 0.016913176 -0.010712611 0.008264858 -0.011298941 0.01934081 0.014856376 0.017061848
0.015929159 -0.010688029 -0.03068506 -0.013408922 0.010896968 0.025660757 -0.023347251 -0.016432583
0.029003765 -0.011000868 0.0020282343 -0.020260617 -0.014908075 -0.0018958561 0.0073700435 0.006646801
-0.02453192 -0.004891336 0.025449503 -6.570667e-05 0.005485069 -0.012823846 -0.009106325 0.0049916394
0.005345219 0.015444035 0.013316656 -0.022233456 -0.025664622 -0.00015007298 -0.0260109 -0.0045212638
0.021073198 0.026960129 -0.020540968 0.016521342 -0.030869741 0.003994807 0.0005591752 -0.014655411
-0.007931942 -0.0022963819 -0.018281821 0.011144133 -0.011934081 0.0039385445 0.035118435 0.02964824
-0.010276463 0.015736643 0.018591534 -0.00020819223 0.0057773096 -0.034779605 0.0068682735 0.01053803
-0.0073983856 -0.029710941 0.033037357 0.04161197 -0.025793247 0.004415271 0.012933817 0.015199864
0.034441687 0.000951815 0.024868313 -0.0017011152 0.018302122 -0.007594627 -0.035020474 -0.007333194
-0.010106589 0.010490512 0.035295177 -0.023867613 -0.02660077 -0.0039514005 0.022069847 0.00417286
0.031834856 -0.017671427 0.009751347 -0.027621832 0.017399494 -0.002011244 0.010061846 0.038607325
0.03910703 0.030315375 0.0289935 -0.031812895 0.010399036 -0.0035381634 -0.035186894 0.014273572
-0.0014805198 -0.04273979 -0.011243316 -0.021605024 -0.010781364 0.027931059 0.03320268 0.016484614
0.0051406696 0.026765788 -0.009255223 0.034496684 0.012440834 0.019985922 0.01820263 -0.0031823625
0.026580859 0.027842345 -0.005498376 -0.012530541 0.04507988 0.013560398 -0.011317148 0.041629802
-0.0070868763 -0.019971535 0.023183076 -0.01093216 0.00052290835 -0.020536639 -0.04273962 0.0014794745
-0.037521727 0.0036996647 0.022184683 -0.03175779 0.007567331 -0.03522323 0.016921902 -0.023565877
0.03199714 -0.017785609 0.031894937 0.0018202815 0.03411596 -0.0074023185 0.023779476 0.009410167
0.0059527443 -0.010456919 -0.011770341 0.009216914 -0.008408656 -1.9854442e-05 -0.049400073 -0.050834637
-0.018812908 -0.03224666 -0.06107155 -0.028228655 -0.036120296 0.032827076 -0.016387017 0.023640707
-0.034218192 0.02065171 -0.017876912 0.004856386 0.018900525 -0.0029332938 0.030631034 -0.003233877
-0.0037215622 0.036362864 0.04461202 0.0007179849 0.021948582 0.05820488 0.014981357 0.03255472
0.028761653 0.032834362 0.0040943357 -0.030555248 -0.010401309 -0.031290963 -0.033669673 -0.0468603
-0.00015305958 -0.0037201345 -0.010462095 0.025266448 0.013884672 0.004408923 -0.03437822 0.02914289
-0.003897593 0.022857556 0.025768055 -0.012967026 0.051069234 0.0025666552 0.010858848 0.08001546
0.08512186 0.060802154 0.10246683 0.06216836 0.08122714 0.04792856 0.06328251 0.016240692
-0.014836634 0.0048733973 -0.0006306222 -0.045075305 -0.056653112 -0.01321494 0.011920337 0.020513037
0.013209702 0.015745653 0.03475444 -0.026691142 -0.017280882 0.040581908 -0.0055024456 0.048100978
0.012353451 0.0523928 0.07295523 0.07469484 0.07108007 0.11593614 0.10231657 0.1055022
0.059270937 0.083064154 0.03519482 0.039163742 -0.017371856 -0.026038429 0.0035453443 0.0006903382
-0.05025593 0.0010433164 -0.02435499 -0.013438742 0.01897516 0.012923534 0.01619978 0.008562273

bias f4 [128]
00000000: 0a9c 0c3d 75fa 9fbc 26ac 1b3c 7d42 d1bd
00000010: 017e 733c 6d70 12bd 4b6e 513d 291a 083d
00000020: 8acc 853d 3bec 2b3d 79ad b33d 22d5 a63d
00000030: 77c9 ccbc 8ca0 393d 6161 c43c 1611 103c
00000040: 5c8b d5bc 883b beba 9c63 013d d22b edbb
00000050: dddd 15bc 233f 453d 8152 743c 2143 843c
00000060: 595e 35bd 86f3 b7bc 8e0d e33c 8f75 143d
00000070: a6d2 cebc f664 53bd 1ee4 0b3c 64b0 99ba
00000080: b68b 593d 9206 d7bb 8b58 86bd 1300 9dbc
00000090: 599c 5ebc c866 dfbc eb56 2d3d 3ab8 be3c
000000a0: c95d 7b3c 026f 52bc ab90 bb3d 99f6 0ebd
000000b0: 2c27 a3bc fce5 1c3d 3340 853d 8881 2cbc
000000c0: 670f b03b c319 053c 7ebe 10bb 071b f83b
000000d0: 99f5 7c3b 51b9 0abd 14f7 6f38 b65c e63b
000000e0: 3899 0abd c75f 233d 2096 c23c 61de f23b
000000f0: 80dc d1bb 3081 4b3d d670 9ebc 756e 943b
00000100: c910 aebc 3359 973b 97fe b6bc 6795 ab3c
00000110: b67f 343c ab17 bfb9 f57b df3d d138 a63b
00000120: 4143 02bc 3fb2 4c3c c2c8 00bd 82bf 803c
00000130: 0e72 a7bc ce92 3bbd 5bde 8d3c 4155 b93c
00000140: 1331 3bbc d125 80bd cd6b c9bc 5b1e a23c
00000150: 81d0 a2b6 6d0c 363c 9ed2 ef3c 81a6 4c3d
00000160: df8d 96bc 48a0 f73b c940 133c 0ad1 f3bc
00000170: 5112 6f3d 8bfb d83b 112f 9738 2aab b23c
00000180: fcf2 123d 6ab5 eeba a51f ac3c efce c33c
00000190: 21cf 3d3c c15a 3d3c afb9 003a aa10 503c
000001a0: bee1 f33c fbfc 823d a1ba e33c 1819 c63c
000001b0: 9721 85bb 4ff8 283d c37b 32bc 23ba 813d
000001c0: a655 27bc ff55 353d ed89 a9bb 03af ba3d
000001d0: ba1c d8bc 1860 8c3b 9ca3 4bbc b0d0 623d
000001e0: 2964 6b3d 90b5 2cbc 05f1 6f3b 3efb f8bb
000001f0: 80b8 9e3d ddf8 3f3d 240e 4b3c 6594 3b3d
0.034328498 -0.019528607 0.009501493 -0.1021776 0.014861585 -0.03575175 0.051130574 0.033228073
0.06533153 0.041973334 0.08773322 0.081461206 -0.02499841 0.045319125 0.023972215 0.008793136
-0.026067428 -0.0014513591 0.031589136 -0.00723789 -0.009147135 0.048155915 0.014912249 0.01614529
-0.04427943 -0.022454988 0.027716424 0.036244925 -0.02524693 -0.051609956 0.008538274 -0.0011725542
0.053111754 -0.0065620625 -0.06559857 -0.019165074 -0.013587081 -0.02727069 0.04231922 0.023281205
0.015342184 -0.012843849 0.091584526 -0.034903143 -0.01991614 0.038305268 0.06506386 -0.0105289295
0.00537293 0.008123818 -0.0022086198 0.0075715813 0.0038598536 -0.033868138 5.721215e-05 0.007030095
-0.033837527 0.039886262 0.023753226 0.0074117635 -0.0064044595 0.04968375 -0.019340914 0.004529769
-0.021248238 0.0046187877 -0.022338195 0.020945264 0.011016777 -0.00036447993 0.10912315 0.005072691
-0.007950605 0.012493669 -0.031441458 0.015716318 -0.020440128 -0.0457943 0.017317941 0.02262366
-0.011425274 -0.06257213 -0.024587536 0.019789865 -4.8522493e-06 0.011111361 0.029275235 0.049963478
-0.018378196 0.007556949 0.008987614 -0.029762764 0.058367077 0.006621783 7.209008e-05 0.021810133
0.03587626 -0.0018212025 0.021011183 0.023902385 0.011585028 0.011557282 0.00049104815 0.0126992855
0.029770728 0.063959084 0.027798953 0.024181888 -0.004062842 0.04125243 -0.010893765 0.06334331
-0.010213291 0.044271465 -0.0051739127 0.09115412 -0.026380885 0.004283916 -0.012429144 0.0553748
0.057468567 -0.010541335 0.0036612165 -0.00759831 0.07750034 0.046868194 0.012393508 0.045795817

weight f4 [64, 128]
00000000: 423c 70bc 7f75 543c f9e3 2cbd 8e9f 71bc
00000010: 190c 393d 4887 333d fc35 aabd b354 0b3d
00000020: d136 10bd 4505 093c 5450 82bd 34b1 8c3c
00000030: e565 423d 3743 d2bc 907c ccbc b810 9dbd
00000040: d2a4 82bd 92fe 0a3d e893 a23d a4cc a73d
00000050: 76f8 463d efa4 48bc 21f7 883d 7fdc ffbb
00000060: 7636 88bd ed20 8abd abfa c33b 927a 32bd
00000070: 01e2 193c c227 c6bc 2e54 a3bd e3fc 9bbd
00000080: fbf7 a53d 8a8a 753c 58b6 1a3d fc9e fc3c
00000090: d56a 87bd 710b 17bc 3b5e 19bc 275d 06bd
000000a0: ddc1 7e3d 69c5 63bd 91c5 a1bc 6d86 86bd
000000b0: 0afe c03a 9a46 253d 0bd8 9bbd e75f 6abc
000000c0: bfcb 99bd 3df2 21bd bd1b a9bd 5d7f 89bc
000000d0: fb4d a73d 72a7 a13d a549 87bd 53c3 3cbb
000000e0: ab0d 943d 2c0b 933d 75f2 05bd 46c6 543d
000000f0: da62 8b3c 4512 0c3d 24ac 4e3d fcf4 a13d
00000100: 151b 8fbd fd72 3cbd 96ee 903d e173 1dbd
00000110: 76de 92bd d57e 62bd 9557 3e3d 0cb9 a23c
00000120: 169c 643d 55b2 993b 5942 393d 1343 463d
00000130: 2151 223c 7f32 6c3d f466 5f3d bef3 c8bc
00000140: ab96 96bd 9443 463d 9ad5 47bd cf24 be3d
00000150: 9f05 b5bb d4f0 cfbc 1dff 993d 1dec 26bd
00000160: 94b4 11bd d578 c83c 042a c4bc 95bf d63c
00000170: d356 9ebd 8607 46bd ad3a 6b3d 04dc 47bc
00000180: 5b25 10bd 4f0e 09bd 85f5 81bd da73 363d
00000190: 8069 6abc 5efb b2bc 1fe5 9b3d 0a33 6cbc
000001a0: 6fde 0d3d 1e76 643d fa7a 533d df78 bb3d
000001b0: 9540 22bd 699a c1bc 29b4 06bd 084c 0e3d
000001c0: fb59 9a3c 8eaf a03d 6084 42bc 8478 803d
000001d0: 6b65 463d d55a 7cbc fe44 91bd 4461 00bd
000001e0: 111e eb3c aa1d 973d 3bf4 39bd fbae 8b3d
000001f0: ca37 a6bd 971b 243d 7db6 af3d eba8 96bd
00000200: b665 b53d 7bec ac3d d4f1 b9bc 0597 303e
00000210: cec6 8fbd cc54 9d3d 4166 88be b338 6f3d
00000220: afea 06be b73f 10bc c8c9 b4bb 69e4 c0bc
00000230: c4e6 9b3c a72a b6bd d9f2 aa3b 3a0c 29bd
00000240: 4ebb 99b9 cc80 71bd 4549 143d 6562 c53d
00000250: b5d8 b0bd a345 423e 877b 7abd 141e 3abc
00000260: 6aca 183d fa2e 543e 4830 8a3d bef7 2fbd
00000270: 55e7 633d 7241 253e 466f 88bd fc71 513d
00000280: 8777 c53d ced3 e93a 03dc 9b3e 3934 f6bc
00000290: a187 b83d 3bfa c13d c36a 553d bee8 a63d
000002a0: 404d 9d3d a5fb f93c 2a53 133d 61ed 9dbd
000002b0: 1491 98bc beaa f33d c685 52bd b6eb 063e
000002c0: 4c6e e7bc 608f 57bd 9cae fabc 19f1 793b
000002d0: be99 e9bc 366b 273e 5f36 243e c9a8 793d
000002e0: dfa2 3b3d 9b66 433c 1050 9d3d 10fc 023c
000002f0: e069 923d 4010 f3bc 14a7 1c3e dc88 0cb9
00000300: 6c4d 843d fc83 953d a269 723d 6535 a3bc
00000310: 8cad 283d a6d9 ca3d be60 2e3d 766e 0e3d
00000320: 709d 97bc 8159 8c3b 7f3e 283d 99d9 a03d
00000330: 1cf0 db3d 6203 803d 00a6 95bd e076 debd
00000340: 67e5 8bbd dc34 593e 76d7 97bd 6e00 043d
00000350: 3de0 a4bc 4d3a 613d 0c94 4b3d fc3c b53d
00000360: 5513 443e 58e8 8f3a aeff 66bd df46 efbc
00000370: d773 debd 2b2a 683d 4ff2 9fbd 2dee cfbc
00000380: d64a 47bc 81f4 073d 7829 32bd dcbe adbc
00000390: 7cb6 e4bd 3be9 a2bd cb12 8ebd 946e 493d
000003a0: b48f 67bd 6ea1 49be c79c 0f3c df72 2a3d
000003b0: 1f5b 08bd 83a6 113c 8aab 283b 3293 243e
000003c0: c0bd 58bd 79c7 e63d 0654 80bd 6b16 04be
000003d0: 0677 903d a4cd 663c f1ba aebc 2cf7 043c
000003e0: 50ee f03d b6a0 85bd ae76 0bbe ff0e b63d
000003f0: 0801 1bbd c729 843d e0c2 1e3e 939d 0cbe
-0.014662804 0.012967466 -0.0422096 -0.014747513 0.045177553 0.043830186 -0.08311078 0.034016322
-0.035208527 0.008363073 -0.063629776 0.01717434 0.047460455 -0.025666816 -0.02496174 -0.076692045
-0.06379093 0.033934183 0.07938367 0.08193329 0.048576795 -0.0122463545 0.06687761 -0.0078082676
-0.066510126 -0.06744561 0.0059808097 -0.043573923 0.009392262 -0.02418888 -0.079750404 -0.07616594
0.08103939 0.014986644 0.037771553 0.030837528 -0.066121735 -0.009219036 -0.009360845 -0.03280368
0.0621966 -0.055608187 -0.019747527 -0.065686084 0.0014724147 0.040350534 -0.07609566 -0.014305091
-0.075095646 -0.039537657 -0.08257244 -0.016784364 0.081691705 0.07893266 -0.066058435 -0.0028802946
0.072291695 0.07179865 -0.03270193 0.0519469 0.01701491 0.03419711 0.050457135 0.07908055
-0.06987587 -0.0460081 0.07076757 -0.03844059 -0.07171337 -0.055296738 0.046470243 0.019863628
0.055812918 0.0046904483 0.04522929 0.04840381 0.009907038 0.057665344 0.054541543 -0.024530288
-0.073529564 0.04840429 -0.04878769 0.092843644 -0.0055243517 -0.02538339 0.07519362 -0.04075252
-0.035572603 0.02447168 -0.023945816 0.0262144 -0.07731404 -0.04834702 0.057429004 -0.012198452
-0.035191875 -0.03346091 -0.06345657 0.04454408 -0.01430738 -0.021848377 0.07612061 -0.014416466
0.034635957 0.055776708 0.05163095 0.09153914 -0.03961237 -0.023633199 -0.032886658 0.034740478
0.018841734 0.078459844 -0.011872381 0.062729865 0.048436563 -0.015402515 -0.07093237 -0.03134276
0.02870086 0.07378705 -0.045398932 0.06820484 -0.0811611 0.040065374 0.08579729 -0.07356437
0.088572904 0.084435426 -0.02269832 0.1724511 -0.07020341 0.07682189 -0.26640514 0.058403682
-0.13175462 -0.008804253 -0.0055172183 -0.023546414 0.019030936 -0.08894854 0.005216938 -0.041271426
-0.00029321987 -0.05896072 0.036202688 0.09637908 -0.086350836 0.18971877 -0.06115296 -0.01135971
0.037302412 0.20721045 0.0674749 -0.042960875 0.055640537 0.16138247 -0.06661849 0.051134095
0.09641939 0.0017839612 0.30441293 -0.030054199 0.09010244 0.09471556 0.05210377 0.08149861
0.0768075 0.030515501 0.035967983 -0.07711292 -0.018623866 0.11897801 -0.051397108 0.13175854
-0.028250836 -0.052626967 -0.030600838 0.003813809 -0.028515693 0.16349491 0.16036366 0.06095198
0.045809623 0.0119263185 0.07681286 0.007994667 0.071491 -0.029670835 0.1529811 -0.00013402425
0.064600796 0.07300565 0.05918277 -0.019922921 0.041181132 0.099047944 0.04257273 0.034773313
-0.01850769 0.0042831306 0.041075226 0.078540035 0.107391566 0.06250645 -0.073070526 -0.10862517
-0.068308644 0.2121157 -0.07414143 0.032226972 -0.020126456 0.05498724 0.049701735 0.088495225
0.19148 0.0010979278 -0.05639618 -0.029208599 -0.108619384 0.05668084 -0.078098886 -0.025382126
-0.012163838 0.03319216 -0.04349658 -0.021209173 -0.11167619 -0.079546414 -0.06937178 0.04917772
-0.05653353 -0.19690487 0.008765406 0.041613456 -0.033290025 0.008889797 0.002573701 0.16071776
-0.052915335 0.11268515 -0.06266026 -0.12899177 0.07053952 0.0140871145 -0.021329375 0.008115571
0.117642045 -0.06524794 -0.13619491 0.08889579 -0.03784278 0.06453281 0.15504026 -0.13731985

bias f4 [64]
00000000: eead 80bd 9377 3abd 7dd5 90bc 3549 183e
00000010: f435 e53b a336 eb3b 02d3 a7bc bd07 9f3d
00000020: b252 bf3d 50e2 1aba 375f 11bd 38b6 8ebd
00000030: 5fcc 8cbd 9da2 a43d 4743 0d3e 180b df3d
00000040: 564d 8abd 2ae9 b13d 8321 283d 3d95 a03d
00000050: 04e2 1dbd 4000 913d 59a1 a03c df42 d03d
00000060: 5a67 903d 9fda 5f3d 4b29 12bd 2f21 9abd
00000070: bd29 a23d 2c75 183c 5caf 84bd 6eef 9c3d
00000080: 9f15 e13d 708f 96bc 5c68 513e 01f6 b63c
00000090: f332 e1bc c00d fe3c bb52 103e 9d42 c0bc
000000a0: 29c1 253d ad67 033d b646 203e ac56 0f3d
000000b0: a6c0 a8bc 5583 f73d f959 a5bc 0785 373b
000000c0: eb6d 133d e4db 1c3d 4934 86bd 43a3 a73d
000000d0: 138e 9ebd bd8f 47bd ecb9 29bc a7b6 dd3d
000000e0: bcd5 453e 60a7 a53c fe80 d33b f4ca 643b
000000f0: 15d0 f4bc ef9e 163e e724 c2bd cd1d 3fba
-0.062831745 -0.04552419 -0.017679924 0.14871676 0.006994957 0.007178144 -0.020486359 0.07765148
0.09341945 -0.0005908357 -0.035491195 -0.06968349 -0.06874918 0.080388285 0.13795196 0.10890788
-0.06753032 0.08687051 0.041047584 0.07840965 -0.038545623 0.07080126 0.019608187 0.10169005
0.07050963 0.054651853 -0.03568391 -0.075258605 0.07918117 0.00930528 -0.0647876 0.07662855
0.10990452 -0.018378943 0.20449966 0.0223341 -0.027490115 0.031012416 0.14094059 -0.023469264
0.040467415 0.032081295 0.15651974 0.034994766 -0.020599674 0.120855965 -0.020184504 0.0028002874
0.035993498 0.03829564 -0.06552941 0.081854366 -0.07741942 -0.048721064 -0.010359269 0.10825854
0.19319814 0.020221412 0.006454586 0.0034911009 -0.029884377 0.14709066 -0.09479695 -0.00072905124

weight f4 [10, 64]
00000000: bcaa 2d3d 6b61 f33d 91b1 f9bd 9cf7 cfbe
00000010: c6e9 803e 1554 50be 9695 ea3e aded 483c
00000020: 9db9 93bd 5174 92bc 697c 86bd 9217 e23d
00000030: cf27 61bd 00fb e8bc b119 a4bd 008d 87be
00000040: b33d 00bc a909 9c3e 2b31 66bd e254 eb3b
00000050: 7f5f 23be 9b2a 033e 7343 abbc f060 f7bd
00000060: d233 ecbd 0d9e dabd 7a66 56bb 3a75 da3e
00000070: 3116 1b3b cb0d 39be 5fe3 afbd e741 a03e
00000080: 3757 16bd c4a4 d7bd e114 aebe cd42 b6bd
00000090: b84d 60bd 4eb1 95bd 2ad4 03bf fbe6 503e
000000a0: be7f d63e c4db d33d d714 3bbd d104 67be
000000b0: 30fa 2fbd 067c f43d ffbf 3fbe 6c56 253a
000000c0: cbcd 5e3e 5185 133e be77 f33c 08f1 a5be
000000d0: 9b01 313e 99ea 9fbe 8729 28be e9d1 bdbe
000000e0: 8693 ccbd cc71 623e 889a 1bbe 0a3c a73d
000000f0: 80ba 6fbe bdd2 8b3d 2d17 603d ffa2 80be
00000100: 34e2 3c3d 1d73 a2bd 9c68 71bd 306c a0bd
00000110: 414f 433d c183 c2bd 8932 d2bd 174b efbd
00000120: 701d e0bd 7696 923d 74f2 913d cebf 173d
00000130: 1401 8dbc f860 f53d 154d 5c3d 9784 c1bc
00000140: 525c df3d 038d 0bbd db3e 233d e167 153d
00000150: b2ed f8bd 39fe c2bc e7b8 213d 27e3 d53d
00000160: 5d14 2dbc 68c0 a1bd b77f 583d 1c50 fbbd
00000170: ceae e13d f645 e3bb bb56 55bd c680 a93d
00000180: fb5f 65bd d2b5 ce3b 7a53 67bd e343 403d
00000190: fcd4 d0bc dba0 643c 269b 0ebe 6f02 d33c
000001a0: b692 0abc 82ee cc3d b3f4 b2bb 3a06 06bb
000001b0: 2858 4ebd 3f7b 6dbd 906e a2bd c347 b73d
000001c0: 6d54 7e3d 28ed be3d 5d1f fabd d409 9b3d
000001d0: c4ba 80bd 7d65 f4bd 31c3 01be 7f8c e73c
000001e0: 88c6 593d af6a 3c3d 0b12 89bd da77 aabd
000001f0: 4e6f 9c3c 659a b73d 19c0 693c cf34 9d3d
00000200: 5ef8 ebbd e8f6 e1be d661 2f3d ab3f aabd
00000210: 7ec0 1b3e 3b3a 18be 96fe dcbc b390 d93d
00000220: 0c6a 5abd dbd1 2b3e 9acf a13d da1d 6d3e
00000230: 2f9a 323e 3ea8 113d ba57 1e3e 411a ad3e
00000240: c971 d53d d15d fa3d b66e e93a 8f50 b43d
00000250: a0b4 b53d 53c1 863d 8599 013e f336 4dbd
00000260: f2cf 863e 25d5 f33d d54d cebd 4aec 8c3e
00000270: 9b01 fd3d ac92 a43e a7be 81bd c4ba eb3d
00000280: 8765 75bc 8c03 f2bd f515 cabe be1c 48bd
00000290: 0b82 0a3e 9d37 833e 83ea 9dbe d3bf ec3d
000002a0: f3f8 91bd 542a d3bd e774 13bf e556 143f
000002b0: e37f 36be c8b1 1d3e 3148 84be dcb4 00be
000002c0: 0d42 74be 38d0 a8bd 01eb 533d ed6e c63d
000002d0: d7de a63e cf7e 9dbe cfab 9d3e daec a1bd
000002e0: 5234 d9bd 156a b3bd 94ae b53e 8f22 f53d
000002f0: c2c7 d5bd 06fd c43e 39b0 c63e ffe1 fd3a
00000300: e8a5 25bd d3ad f03c 2a01 e3b9 bf66 c2bd
00000310: 08d2 3ebe b097 873c fe7f a3be cd82 16bd
00000320: 6f6f 67be 794b 833c 85d6 c93d 152c c4bd
00000330: f690 1fbb 2dd1 41bd 57fd 303e 6663 d7bc
00000340: c5ea e93d 1ac4 633d ace3 20bd 8867 0e3e
00000350: 84ea 0e3e d24a 983c 6f8e 33be 5044 21be
00000360: ac56 45be 907b 6f3d 9a2b 63be 421e 433e
00000370: 00d5 8fbc f7c2 953e 41e9 a03d e7ff 803d
00000380: 3eec 6dbe e937 82bc 6a75 2a3e ab0f 80be
00000390: 4f98 443e 6f3e 0f3d a63e 18be d262 90be
000003a0: b132 debe 3a43 973d 114a 0cbf 144f 8c3e
000003b0: e752 6a3e 5cfc 373e 383a b13e 57f7 eabe
000003c0: 944a d1bd 604a 6e3e 6ac1 3bbc 4416 573d
000003d0: 2188 133e e0b0 e13d 0228 563e 8f9c 79bd
000003e0: 3f76 943e 5432 903d 737e b83e b6b5 193e
000003f0: c8f6 e4be 6bc5 cbbe 5f55 c13d e017 f03e
0.042399153 0.118838154 -0.12192071 -0.40618598 0.25178355 -0.20344575 0.4581725 0.012263698
-0.07213137 -0.01787773 -0.06566698 0.11039652 -0.054969605 -0.028439999 -0.08012713 -0.26474762
-0.00782721 0.3047612 -0.056199234 0.0071817497 -0.15954398 0.12809221 -0.020906186 -0.12079036
-0.115333214 -0.10674677 -0.003271489 0.42667562 0.002366435 -0.18071668 -0.085882895 0.3130028
-0.03670427 -0.105294734 -0.34000304 -0.0889946 -0.05476162 -0.07309209 -0.5149561 0.20400612
0.41894335 0.10344651 -0.04567417 -0.22560431 -0.042963207 0.11937718 -0.18725584 0.00063071284
0.21758191 0.14406325 0.029720183 -0.32410455 0.17285769 -0.3123367 -0.16422091 -0.3707421
-0.09989075 0.22113723 -0.15195668 0.081657484 -0.23410988 0.068273045 0.054709602 -0.25124356
0.04611416 -0.07932112 -0.058937654 -0.07833135 0.047683004 -0.09497786 -0.10263545 -0.11684244
-0.10943115 0.071576044 0.071263224 0.037048154 -0.017212428 0.11981386 0.05378445 -0.023622794
0.109062806 -0.034070026 0.039854866 0.03647602 -0.12154712 -0.023802863 0.039482977 0.104437165
-0.010563937 -0.07898027 0.052856173 -0.12271139 0.110196695 -0.00693583 -0.052084666 0.08276515
-0.055999737 0.0063082958 -0.056476094 0.04693974 -0.025492184 0.013954367 -0.13926372 0.025757996
-0.00845783 0.10006429 -0.0054612993 -0.0020450489 -0.05037704 -0.057978865 -0.079312444 0.08949234
0.062092233 0.09322578 -0.12213013 0.07570234 -0.06285623 -0.1193342 -0.12672116 0.028265236
0.05316785 0.04600018 -0.066928945 -0.08323641 0.019096043 0.08964995 0.014266991 0.07676088
-0.11521982 -0.44133687 0.042817913 -0.08312925 0.15210149 -0.14865963 -0.026976865 0.10623302
-0.05332379 0.16779272 0.07900925 0.23155919 0.17441629 0.03556084 0.15463153 0.33809093
0.104220934 0.12224925 0.0017809484 0.08804428 0.08872342 0.065798424 0.1265622 -0.05010123
0.26330525 0.119058885 -0.10073439 0.27524024 0.12353822 0.32143152 -0.06335192 0.11510232
-0.014977819 -0.11817083 -0.39469877 -0.048855536 0.1352617 0.25628367 -0.3084298 0.11560025
-0.071275614 -0.10310808 -0.57600254 0.5794509 -0.17822222 0.1539985 -0.25836328 -0.12568992
-0.23853321 -0.082428396 0.05173779 0.09689126 0.32591888 -0.3076081 0.30795142 -0.07906504
-0.106056824 -0.08760468 0.35484755 0.11969482 -0.104384914 0.38474292 0.38806322 0.001936972
-0.040441424 0.02937976 -0.0004329768 -0.094922535 -0.18634808 0.016551822 -0.31933588 -0.036745835
-0.22601102 0.0160272 0.098553695 -0.095787205 -0.0024347878 -0.047318626 0.17284141 -0.026292514
0.11421732 0.05560694 -0.039279625 0.13906682 0.13956648 0.018590365 -0.17534803 -0.15748715
-0.19271344 0.058467448 -0.22184601 0.19054511 -0.017557621 0.2925031 0.0785699 0.062988095
-0.2323465 -0.0158958 0.16646352 -0.25011954 0.19198726 0.03497165 -0.14867648 -0.28200394
-0.4339805 0.07385869 -0.54800516 0.27404082 0.22883187 0.17967361 0.3461473 -0.4589183
-0.10219303 0.2327056 -0.011459688 0.05251147 0.14407398 0.11020064 0.209137 -0.06094032
0.28996465 0.07040849 0.36033973 0.15010723 -0.4471953 -0.39799055 0.09440111 0.46893215

bias f4 [10]
00000000: 48cb 61bd e869 cabd 7992 37be 25e0 52be
00000010: ef0c 343e 4583 c33d 0d7b dbbc a6f8 5e3d
00000020: f25c 8dbe 588a e3bd
-0.055125505 -0.09883481 -0.17926969 -0.20593317 0.17583059 0.09546522 -0.026792074 0.05443635
-0.27609974 -0.11110371
