06 MNIST/MNIST.pt (torch, 441332 bytes, 6 tensors)

weight f4 [128, 784]
00000000: 0ac6 cebc 2aa2 05bd 7410 7d3c 1ed2 c8bc
00000010: 70b6 043c bcc0 53bc 2ec9 90bc 2266 e23c
00000020: a861 be3c b017 363b 4903 063d e8f4 86bb
00000030: 6ccb 8e3c 2173 443c 5103 cf3c 0360 e0bc
00000040: 30f0 0b3b 801e 533b 68c5 983b 6ca2 bebc
00000050: bc40 d8bc 1495 e7bb 18dc 23bc 0881 393c
00000060: 24c4 243c 8ce3 b03c 14f9 773c a8c8 ae3c
00000070: 6e85 c43c 4c4c d0bc 807e 44bc 466a a93c
00000080: c40a 0cba f24f 853c fa18 e3bc 0a60 b63b
00000090: d742 143b fb98 97bc 63d1 9a3c b6cd b33c
000000a0: 77af 16bc fa78 dc3c 0c1a d93c fa5f 873a
000000b0: aa95 87ba 7e12 cdbb a29b c83c 7e21 3d3c
000000c0: 8494 b73c de75 1a3a 893f f1bc 74a4 0b3c
000000d0: 8393 a1bc 9a1a aabc 2eed c8bc 1780 83bc
000000e0: 507d 22bb 72cd 10bd 91b4 88bc 1de3 d23c
000000f0: 39e1 c83c 3f30 87bc 0153 e63c cff6 0abd
00000100: f9ae 17bc 642c 59bc 2999 c4bb 125c 1fbd
00000110: 2f51 e03c a7fd d33b 36de 8cbc ca4d f43c
00000120: 19ca f7ba 5f83 01bc 60a2 663b 55b3 933c
00000130: ec76 1ebc 49e9 11bc 3007 7e3c 85da 083d
00000140: 5bcb b83c 28ae 0bbd dc1d c03c e032 ef3b
00000150: 14a9 033c c079 e53b bfad ca3c 0af6 e13c
00000160: 1846 15bc 7497 b4bc 25e2 793c ac93 e43c
00000170: 957f 25bd 9021 af3c b818 31bc e3fd 293c
00000180: 0f8c cfbc 8622 9b3b 32b3 22bd cdc2 33bd
00000190: 7d4f 5e3c 2588 9a3c a97b f0bc d59b 0fbc
000001a0: 5680 51bc 1705 863b cdf1 31bd 3d3f 0dbd
000001b0: fb0e b3ba ef91 3abb f0fc 313b a047 9cbc
000001c0: 503b 913c d074 5fbb bb0f d63c 51a6 b73b
000001d0: f5d9 e63c 4de0 10bb 118c 7fbc 9c82 353c
000001e0: b084 79b9 2f66 62bc be24 60bd 818b 4ebd
000001f0: 04b7 5abd 8418 5cbd 17d2 6ebd 0eb0 adbc
00000200: cdc2 853b 36ea 76bc 889c 9dbc fb84 79bc
00000210: bdc1 43bd c6db 48bd a9ea 063c 24dd 383c
00000220: 5420 823b c98a 20bc f8d3 0f3d ec6c c6bc
00000230: 2af7 98bc 380e dbbb b323 9b3c c4ee 4ebc
00000240: 31db bf3c ae84 bb3c c276 66bc 0629 5fbd
00000250: 4cf2 abbc 3da6 2ebd 4c0f a9bd 2aca 57bd
00000260: 2cc1 81bd b644 babd bb69 13bd a26e c5bd
00000270: d164 a2bd 088e bebd 5a97 c6bd 7081 b3bd
00000280: 94c0 6abd 06de f4bc cd04 d2bb 266d bcbc
00000290: e018 febc 2c50 8b3b 5f97 e4ba 2558 a6bc
000002a0: b0da 6ebb 3deb e13c d889 0a3d c0dc bebb
000002b0: a4af 6bbc 8f51 cc3b e511 87bc 1159 003c
000002c0: 146e 1abd 3dd4 44bd df04 a6bd 5bc8 70bd
000002d0: ae36 91bd 4d88 b7bd 7d45 0abe a372 37be
000002e0: b781 06be d8cb 07be 5799 d9bd 10e1 c6bd
000002f0: f6a7 67bd 44dc 08bd 562c 2e3c 6a59 473c
00000300: 5beb ff3c 1b83 a83c 9c7d e2bc 1ebe f5bb
00000310: 7095 c83b 52de c73c 939d 153d 76f5 62bc
00000320: be70 073d 435c 2cbc 5776 623b 23e0 59bc
00000330: 6164 d0bb 1b95 933c ebc2 2ebc a634 0cbd
00000340: 98b0 89bd b748 18be d681 13be 3ff5 27be
00000350: 8e10 01be b379 e6bd 5711 e8bd 1309 40bd
00000360: 7a0a 91bd d20e 1abd 9670 babb 62a4 6f3d
00000370: 6af4 603b aeb7 303d 7565 3b3b 1afe 103c
00000380: 10a5 35bc b4f3 22bb 49b0 143c b33b 193b
00000390: 856f 213c 0cbc 143d 8204 293d 2382 5d3c
000003a0: 4e6e 4c3d 6e8b b6bc 55d5 ccbb cd57 cfbb
000003b0: 5027 e6bc 1373 aebc a37d 41bb debf 1abd
000003c0: 0503 36bd 8a7f 753c 3151 aa3b cd82 8d3c
000003d0: 3e57 4b3d bd7b 793d bb23 7b3d 41d0 e73d
000003e0: 8d6d 943d 6e44 8c3c a7f8 d4ba 835a 86bc
000003f0: 0414 633b 5d6a d33b fb5a 6b3c d9fa 063d
-0.025240917 -0.032625355 0.015445817 -0.024514254 0.008100137 -0.012924369 -0.017674055 0.027636591
0.023239926 0.0027785115 0.032717977 -0.0041185506 0.017430983 0.0119903395 0.025270136 -0.027389532
0.002135288 0.0032214224 0.0046622045 -0.023270808 -0.026398055 -0.007067332 -0.010001205 0.011322267
0.010056529 0.021592878 0.015135068 0.021335915 0.023989405 -0.025427006 -0.011993051 0.020680558
-0.00053421804 0.016273472 -0.02772187 0.005565648 0.0022622847 -0.018505564 0.018898671 0.021948677
-0.0091971075 0.026913155 0.026501678 0.0010328286 -0.0010344286 -0.006258308 0.024488274 0.01154363
0.022409685 0.00058921974 -0.029449241 0.008523095 -0.01972366 -0.020764638 -0.024527159 -0.016052289
-0.002479393 -0.035352178 -0.016687663 0.025743062 0.024521457 -0.016502498 0.028115751 -0.03392678
-0.009258025 -0.013255212 -0.0059997034 -0.038906164 0.027382461 0.0064694467 -0.017195802 0.029822249
-0.0018904834 -0.0079048565 0.0035191998 0.018029848 -0.009671908 -0.008905717 0.015504643 0.03341152
0.022557905 -0.034101635 0.023451738 0.007299766 0.008035917 0.007003039 0.024741052 0.02758314
-0.00911095 -0.022044875 0.015251671 0.027902447 -0.040404875 0.021378309 -0.010809116 0.010375473
-0.02533534 0.00473434 -0.039721675 -0.04388695 0.013568756 0.018863747 -0.02935584 -0.008765181
-0.012786945 0.004089962 -0.04344349 -0.034484137 -0.0013661081 -0.002846833 0.002715882 -0.019077122
0.017728478 -0.0034096725 0.026130548 0.0056045433 0.028180102 -0.002210635 -0.015597359 0.011078503
-0.0002379592 -0.013818308 -0.05472254 -0.05042601 -0.053397194 -0.053734317 -0.058305826 -0.021202113
0.00408206 -0.015070489 -0.019239679 -0.015229459 -0.047792185 -0.049037717 0.008234658 0.011283193
0.003971139 -0.009798714 0.03511426 -0.02422186 -0.018672545 -0.0066850446 0.018937921 -0.012630168
0.023419948 0.022890415 -0.0140664 -0.054482482 -0.02098956 -0.042639006 -0.08254871 -0.052683033
-0.06335673 -0.09095137 -0.035989504 -0.09640242 -0.079293855 -0.09304434 -0.09696837 -0.087649226
-0.057312563 -0.029891025 -0.0064092637 -0.023001265 -0.03101772 0.0042515006 -0.0017440132 -0.020305702
-0.0036446266 0.02757799 0.033822864 -0.0058246553 -0.014385138 0.0062353085 -0.016488025 0.007833735
-0.037702635 -0.04805397 -0.08106398 -0.058784824 -0.070905074 -0.08961544 -0.1350307 -0.17914824
-0.1313542 -0.13261354 -0.106249504 -0.09710896 -0.056556664 -0.033413187 0.010630688 0.012167314
0.031240156 0.020570328 -0.027647786 -0.0074994704 0.00612133 0.024398003 0.036527228 -0.013852468
0.033066504 -0.010520044 0.00345554 -0.013298067 -0.0063596223 0.018015435 -0.010666589 -0.034229897
-0.06723136 -0.14871489 -0.14404997 -0.16402148 -0.12603971 -0.11253681 -0.11331432 -0.046883654
-0.07082076 -0.03761179 -0.005689691 0.058506377 0.003432537 0.04314392 0.0028594409 0.008849645
-0.011086717 -0.0024864497 0.009075233 0.002338153 0.0098532485 0.036312148 0.041264065 0.013519797
0.049909882 -0.022283282 -0.006251017 -0.0063276053 -0.028094918 -0.021295106 -0.0029524348 -0.037780635
-0.044436473 0.014984021 0.005197667 0.017274285 0.049643748 0.06090902 0.061313372 0.11319018
0.07247458 0.017122474 -0.001624842 -0.016400581 0.0034649381 0.0064518885 0.014364953 0.03295407

bias f4 [128]
00000000: 81b8 0b3e 7328 d2bb 8363 94bd 10d8 b53b
00000010: c078 a13c 4a6a 683d 4669 d1bc 900e 383e
00000020: eb5f b73d 0422 5abc d3b6 0ebc 2978 aebb
00000030: 26bb 1b3e 4d78 9c3d 0251 8a3d 3bf0 0dbd
00000040: e903 ae3d 4143 41bd 2302 c93c 96ae a8bd
00000050: b8a1 0cbd 5096 953d eb8f 083e 0808 1abd
00000060: 4f1e 99bd ba22 833d 9c5a 753d 5aa2 eebc
00000070: 3fbb abbd a892 153e d604 ac3c e1e3 543d
00000080: 1fb2 b43c b18b 58bd 9e56 eabc 6477 3dbd
00000090: db48 cdbd 6d46 933c f1d0 b43d 2ff5 143b
000000a0: ae26 953c ce61 d7bb 8122 6a3d 4963 9e3c
000000b0: fb0e db3c 0446 d93d 0631 c3bd fe21 a23d
000000c0: 536d 9ebc b6fb 4bbd 67d1 173d 4952 f0bc
000000d0: b704 16bd 9e41 063e 861d ebba c91b 0cbd
000000e0: c25c 063d c942 1a3d 7813 933c 6609 313c
000000f0: 6d14 e23c 4e2d 6ebd 3a2d 00bc 6f2e c83c
00000100: 028e 1fbd f797 c3bc f628 2abd edd2 a23d
00000110: 1a6d bf3d 60ba 8d3d 7f5b a13d 9484 14be
00000120: 02ad 28bd f558 183d 227b 4f3c e1e2 2abd
00000130: c42b b9bc a4d2 6e3d 9db8 8f3d eed9 a33d
00000140: 31d8 05bd 1ae5 12bd 9b5e 4cbd bcb7 38bd
00000150: 4596 68bb 184c 473d c312 ca3d 649c 083e
00000160: f0fd 8abc 8949 b3bb 59b5 0c3e 28ad 723d
00000170: 6723 2a3c 60c3 8dbc bf4b 903d 9fc9 81bd
00000180: 3f5d ebbc 12ce 00bd 8b12 65bd d157 453d
00000190: 346b 723d 92e9 633d 295a 0cbd 248a 33bb
000001a0: 8ee6 f83d b4bd ab3d 766e 3e3d 4c8c 8b3d
000001b0: 0248 d43d ddff 473b 446b 6c3d 0682 983d
000001c0: 4200 db3a 52ae d33d 0e44 3e3d ecca 72bb
000001d0: feb1 ec3c 65b1 a5bc bab2 ee3c 3d9f 62bd
000001e0: b1b5 46bd 46c6 2c3c ca9e 45bc 4a08 18be
000001f0: 1d96 1c3e fab3 1ebc ebdd a23d 7200 ac3d
0.13644601 -0.0064135133 -0.07245543 0.0055494383 0.019710898 0.05674199 -0.025562894 0.17974305
0.08953842 -0.013313774 -0.008710581 -0.005324383 0.1520811 0.07640133 0.06753732 -0.03465293
0.084968396 -0.04718328 0.024537152 -0.082364246 -0.034333915 0.073040605 0.1333615 -0.037605315
-0.07476484 0.06403108 0.059900865 -0.02913015 -0.08385324 0.14606726 0.0209984 0.051975135
0.022057591 -0.052867595 -0.028605755 -0.046256438 -0.10023662 0.017977918 0.08828915 0.0022729149
0.01820692 -0.0065729385 0.05716181 0.019334452 0.026740542 0.106090575 -0.09530835 0.0791664
-0.01933924 -0.049800597 0.037064936 -0.029336112 -0.03662559 0.13110968 -0.0017937876 -0.034206185
0.032803304 0.037661348 0.01795362 0.010805463 0.02759763 -0.058148675 -0.007823283 0.024436204
-0.03895379 -0.023876173 -0.04154297 0.07950387 0.09346981 0.06920314 0.078787796 -0.145037
-0.041180618 0.03719421 0.0126636345 -0.041720275 -0.022603877 0.05830635 0.07017634 0.08000551
-0.03267688 -0.03586302 -0.04989491 -0.045097098 -0.0035489958 0.048656553 0.0986686 0.13340908
-0.01696679 -0.0054714126 0.13741054 0.059247166 0.010384417 -0.017305076 0.070456974 -0.06337284
-0.028730987 -0.031446524 -0.055925887 0.04817945 0.059184268 0.055642672 -0.03426567 -0.002739557
0.1215335 0.083857924 0.046492063 0.06813869 0.10365297 0.0030517497 0.057719484 0.07446675
0.0016708451 0.10335983 0.04645162 -0.003704722 0.028893467 -0.02022619 0.029137958 -0.055327643
-0.04851312 0.010545319 -0.012061784 -0.14846912 0.15291639 -0.009686464 0.07952484 0.083985224

weight f4 [64, 128]
00000000: a6aa 46bc c8e1 943d cca0 5dbc 6bdb d93c
00000010: b910 37bd 0e49 f6bc 1041 7f3d a3c4 c83c
00000020: 4588 78bd c5fb 83bd f8ee 1f3b 8b1c 46bd
00000030: 84c0 043d 3fa8 ccbc c831 d4bb 3a5d 5b3d
00000040: 39ce 38bd 9c14 b43d bcda 763c fe88 23bc
00000050: 1695 45bd e1d4 1cbd 3425 46bd 9256 15bd
00000060: 4654 8dbb 789f c9bb a280 52bd 84f8 2a3c
00000070: 13ac 493d 2ec2 7c3c 3b28 a73d f052 70bd
00000080: d808 773d feec cd3d 02dc 83bd 47f9 533d
00000090: 56e9 d0bc c867 ebbb 5eed 0fbd 3b83 88bc
000000a0: db32 8c3d 8c0f a0bd 2ab6 86bd 3ce4 a2bd
000000b0: 0b17 1a3d ac92 a33d ac6a dd3d 9aa5 c5bd
000000c0: ea24 923d b9b8 3b3d 9dd3 85bd 1182 9a3c
000000d0: cc96 8fbc 7b0c 81bd a66a 433d 8389 3e3c
000000e0: 6117 8dbd 2ed4 1bbd 4039 80bd a4d0 b1bb
000000f0: 38d5 533d ef25 88bd 3065 bdbc 5a4f a0bc
00000100: 6661 d83d af7d a43c d07a 58bc 1950 1ebd
00000110: efba 273d 3f7e 3abd b238 a0bc 18b6 c03d
00000120: 91fb 853c b4b7 873d 738a 78bd e627 b73d
00000130: c336 bb3c bf7e 6bbd 499f 0bbd cabf bd3c
00000140: 7d05 e13c 2cec 563d f579 8bbd 09d3 433d
00000150: a6e6 93bd 5ad3 a63d ca90 8d3b e16c afbc
00000160: b7ab 2bbd f764 05bd ed9d 273c 5317 3b3d
00000170: 2f42 bf3d d004 e03c fbe4 923d 4474 d43a
00000180: 6160 df3c f057 5bbd 8feb 95bd 79e2 27bd
00000190: 1d16 b93d f2e3 7abc 0890 83bd 0cee a039
000001a0: 0470 863d ee78 b1bd 17da 7abd d5a4 80bd
000001b0: e86d 4c3d ca88 983d d3e2 09bd 1067 82bd
000001c0: ea4e 903d 1363 2fbd ac5f b3bd 52e5 65bc
000001d0: 72a3 c03d a987 c53c 0f85 f8bc 9255 67bd
000001e0: b517 2ebc be6b e7bb 63ff d6bc c99d d93d
000001f0: 35ff 463d f771 513d 4ade 34bd 08d6 aa3d
00000200: 83e4 92be ba13 4f3d 9677 c83d 0ab6 c63c
00000210: e4e3 2cbd c454 313e 7d02 06bd cd13 4bbd
00000220: 62f5 a23c b463 443e 4829 563d 1fc7 523e
00000230: 57fd cdbb d345 d23d 7310 c83d db77 25be
00000240: 4926 343e c636 793d 3745 5d3e a567 dabd
00000250: ff5f 96bc d798 06bd 52e6 6cbe c288 b2bc
00000260: 09ed 95bc f16e 8b3d 3d50 1e3e 1658 a53d
00000270: 4da0 a93d d33b 10be 64cf 0e3d 3dc1 86bd
00000280: 17fd 003d 7d96 fcbc 539c 30bc 8740 74bd
00000290: 96ee 6cbd 845a a1bd e432 09be 437c e8bb
000002a0: bead 963d acf1 99bd 566b 48bd 7be4 1bbe
000002b0: d3ca ab3d 3d08 8bbe 5732 cfbd aff0 7dbc
000002c0: 2cc9 d53c 5e53 a0bd faad d43c 0bb1 cfbd
000002d0: 2d32 51be 866f 08be ab56 ba3d 5110 913d
000002e0: fec3 c8bb 419d b53c a43c 94bc 40c5 c53a
000002f0: d504 1e3c 0374 033e 10ae 9cbc 533a 9e3d
00000300: ee4a c4bd a913 5ebe fdbe 9d3d 95ca 6c3d
00000310: 281a a33d 3f49 f73d bd31 f43d 9502 3e3e
00000320: 8012 2d3e 9906 30bd 3e20 c3bd bc11 2bbe
00000330: bbb4 093e ea09 be3d 0abf 5a3c b6a2 33bc
00000340: 3ff6 f7bc cb36 893d 6eea dd3d 3256 ef3d
00000350: 2039 91bd 802e 06bd d465 6d3d b9fd b13d
00000360: d9be 2fbe 2380 55bd ebba c23d 9076 ebbd
00000370: 0421 72bd 243c f3bd 8500 843e 40c5 23be
00000380: f909 32be d36a af3c c6cd 4f3d dd32 a5bc
00000390: ea2d 2b3d 703c dc3d 2378 8bbd a0ef 9b3c
000003a0: 44fb 913d 28b2 3b3e c2fa a53b 3fcb abbc
000003b0: 5841 b4bd 16f1 6fbc 3068 06bd e93e 4abc
000003c0: 2c7c 0b3e 55d1 f6bd 9251 513d b898 b43b
000003d0: cbb3 c13d afef 393d 11ec 2abc 5db8 bfbd
000003e0: 3466 613b de42 97bd 68dd a9bd 3747 9abd
000003f0: fe2e 2c3e 1eda f3bd ce03 d73d 0772 73be
-0.012125647 0.07269627 -0.0135271065 0.026593884 -0.044693682 -0.030064132 0.062317908 0.024507826
-0.06067683 -0.064445056 0.002440391 -0.048367064 0.03241016 -0.02498257 -0.006475661 0.053555705
-0.045118544 0.087929934 0.015066799 -0.009981392 -0.048237883 -0.038288955 -0.048375323 -0.036459513
-0.0043130247 -0.0061530434 -0.051392205 0.010435227 0.04923637 0.015427155 0.0816197 -0.058672845
0.06031117 0.10054968 -0.064384475 0.0517514 -0.025501888 -0.0071840025 -0.03513848 -0.016664138
0.068456374 -0.07815465 -0.06577714 -0.079536885 0.03761963 0.0798696 0.10811362 -0.096507266
0.07135947 0.045830462 -0.06534503 0.018860849 -0.01752796 -0.063012086 0.04770913 0.011629465
-0.06889225 -0.038044147 -0.062609196 -0.005426483 0.051717013 -0.0664786 -0.023119539 -0.019569088
0.10565452 0.020079462 -0.0132128745 -0.038650606 0.04094976 -0.045530554 -0.019558284 0.094097316
0.016355308 0.066268355 -0.06067891 0.08943157 0.02285326 -0.05749392 -0.034087453 0.023162741
0.027468437 0.052471325 -0.06810371 0.04780868 -0.07221727 0.08145781 0.0043202387 -0.021414222
-0.041911807 -0.03256699 0.0102305235 0.04567654 0.093387954 0.027346045 0.07172581 0.0016208966
0.027267637 -0.05355066 -0.0732032 -0.040987466 0.09037421 -0.015313135 -0.06423956 0.00030694937
0.06564334 -0.08665644 -0.061243143 -0.06281439 0.049909502 0.074479654 -0.033663582 -0.06367314
0.07046302 -0.042819094 -0.08758482 -0.014031725 0.09406175 0.02411254 -0.030336885 -0.05647809
-0.010625769 -0.0070624044 -0.026244825 0.10625798 0.04858323 0.051134076 -0.044157304 0.083416045
-0.28689966 0.050555922 0.09788434 0.024256725 -0.04220952 0.17317492 -0.032717217 -0.04957943
0.019892398 0.19178659 0.052285463 0.20583771 -0.006286304 0.10267224 0.097687624 -0.16159002
0.1759273 0.06084325 0.21608435 -0.106643 -0.018356321 -0.032860603 -0.23134735 -0.021793727
-0.018301504 0.0680827 0.15460296 0.08073442 0.08282528 -0.14085321 0.03486575 -0.06579826
0.031491365 -0.030833477 -0.010779458 -0.05963185 -0.05784472 -0.078785926 -0.1339832 -0.0070948913
0.073573574 -0.075167984 -0.04893049 -0.15223877 0.08388295 -0.27154723 -0.101170234 -0.015499278
0.026096903 -0.07828401 0.025961865 -0.1014119 -0.20429297 -0.13323793 0.09098562 0.0708319
-0.0061268797 0.022169711 -0.018095322 0.0015088692 0.009644707 0.12837224 -0.019125968 0.07725968
-0.09584604 -0.21687187 0.07702444 0.057810385 0.07963973 0.120745175 0.11923549 0.18555672
0.16901588 -0.042975042 -0.09527634 -0.16705984 0.1344785 0.09279235 0.013351211 -0.010964086
-0.030268786 0.06699904 0.108357295 0.11686362 -0.07090974 -0.03275919 0.05795844 0.08690972
-0.17162646 -0.052124154 0.09508308 -0.114972234 -0.059113517 -0.11876705 0.25781646 -0.15993214
-0.17386617 0.021413242 0.05073335 -0.020165855 0.041791834 0.10753715 -0.06810024 0.01903516
0.07128003 0.1832968 0.005065293 -0.020970939 -0.08801526 -0.014644882 -0.032814205 -0.0123441005
0.13621587 -0.12051646 0.051103182 0.0055113696 0.09458121 0.045394596 -0.010432259 -0.093613364
0.0034393193 -0.07385801 -0.08294183 -0.075331144 0.16814801 -0.11906837 0.104987726 -0.23773967

bias f4 [64]
00000000: 9021 f3bc b1c7 223d 24f9 ad3d 300c 013e
00000010: 9235 ffbb ce12 183c c9b2 46bd a45b 0fbe
00000020: 5d2e 76bc 6e56 4d3e 6276 fcbb 210a 97bc
00000030: 095b 4abd 36be 313d 0808 453d 4c11 343e
00000040: bcc4 11bb ea85 ad3d a8fe 323d cf4d 3cbd
00000050: b50e b23d f664 2a3d b315 85bd 920c 95bd
00000060: d9ef f7bd 23a8 4dbc 414c e33d 8fae 77bd
00000070: eea1 c73d 44c8 af3d ab64 79bc bb28 663d
00000080: ee55 823d d0ae 65bd 67cd 643e 11e0 bd3d
00000090: df11 093e 6076 b73c 442c f8bd a8c0 323d
000000a0: 857b 3dbd 74a2 4a3d 75f2 c23d e306 1c3d
000000b0: 2a31 d03d 62b0 a43d 0310 d53d 624e 60bd
000000c0: 1ae4 0a3e c820 82bd 866c 3f3e 7843 fbbc
000000d0: fb82 9fbd 324c a53c 48ef 1cbd aa3f 4d3b
000000e0: 7caa 99bc 1854 883e b395 643d 4013 a53d
000000f0: 7ecb 563d f2ec 37bd a60f 843d a183 1ebc
-0.02967909 0.03974122 0.084947854 0.12602305 -0.0077883685 0.009281827 -0.048510347 -0.13999802
-0.015025702 0.20052502 -0.007704542 -0.018437447 -0.049403224 0.04339429 0.048103362 0.17584723
-0.0022242507 0.08472808 0.04369989 -0.04597264 0.086942114 0.04160019 -0.064982794 -0.07277788
-0.12106294 -0.012552294 0.11098529 -0.060469206 0.097476825 0.085831195 -0.015221755 0.056191187
0.06364046 -0.056074917 0.2234398 0.09271253 0.13385724 0.022395313 -0.12117818 0.043640763
-0.046260376 0.049471334 0.09518901 0.038092505 0.10165627 0.08041455 0.104034446 -0.05476225
0.13563576 -0.06353909 0.18693742 -0.03067182 -0.077886544 0.020177934 -0.038314134 0.0031318464
-0.018758051 0.26626658 0.055806827 0.08060312 0.05244016 -0.044903703 0.06448297 -0.009674937

weight f4 [10, 64]
00000000: 553d 00be 2ae9 3bbe 0ea1 5abe 837d 0c3e
00000010: 1acd 563e 5c06 01be 1dcf efbd ac4b bcbd
00000020: 2a52 c9bd 4cc9 dcbe 05ec abbc e34d aabe
00000030: 2dab e8be bf25 40be caf4 c23e e08a 9f3c
00000040: 9b73 0abe b13b 37bf 26a0 04be 253c df3c
00000050: ce61 e6be efc6 b23e cc04 0f3e 6515 2d3d
00000060: 054a 513e 126b 1ebe ff7b 503e 98f4 b4bd
00000070: c35c 163e 366e d5be f6a2 a1bd ab20 c2be
00000080: 81b5 e63d 235e 34be 2ca2 18bf 0181 93bd
00000090: 174f a6be 54d5 f4bd 5494 c0be 99d2 91be
000000a0: 4017 26be eb1c b5be 75c4 37bf 12bb c6be
000000b0: ee05 993e 22ec 1ebe c49e 4abc 7adb c13e
000000c0: 48ab 14bf 7cde f33e dc7c 6bbf e620 aabd
000000d0: 5165 803e 6e7f ff3d c3c3 3bbd 7b7e 093f
000000e0: 6117 753e 57d8 49bf 91c1 a9be f9db 643d
000000f0: 2cc4 97be a4e7 bbbd 9ef9 27be 72a2 83bd
00000100: 3a78 573d ee33 f63d f75f 19be e25c b63e
00000110: b5b0 613d 1f37 353e 66e8 8d3e 6992 5fbd
00000120: ed02 da3c fc70 13bf 3ad8 26bf 704d 9fbe
00000130: 4865 e33e 69c8 b1be 15c8 c8be dcb9 2d3c
00000140: c0df 1bbf 9f8c b53e 0d15 b3be 5d5b 763d
00000150: be7e 75bd d38e 21bf 8de5 26bd 85e6 49be
00000160: 9575 b2be 0cf8 e43d db73 1fbe 9efe a0bc
00000170: 8345 c9bc c4ad a53e de7c 56bc 679b 943d
00000180: 5907 f2be bd9a d73e dfd5 a73e a870 2f3e
00000190: aced c9be 4ea2 523e 9976 a93c a875 b03e
000001a0: d9d5 8e3d 55a7 b2be fff9 d3be 743e f9bc
000001b0: e5d0 ffbe 811c 9abe 4648 9cbe 80ca 3abf
000001c0: 51b1 ae3e 8628 353d 7b87 a63e 0803 eabd
000001d0: 9bf0 03bf 1f01 ca3b 84b6 0dbd 093b b43c
000001e0: 72c0 e5bd 921c c43e adb2 e7be e133 303e
000001f0: 7a3d cdbd 8118 d3bd ac7a 79be c9f8 793c
00000200: 30db 013e f672 a4be 548b 053e 87a1 bd3d
00000210: 320d 103e d009 ab3c c297 02bf 1069 e53d
00000220: d1af 1b3f fc2b edbe a328 0d3f 9db4 8639
00000230: d8ad 9fbe da9a f53e acbc 01bf b192 f7be
00000240: ed63 803e 7bbc 0cbd 0155 eebe f523 adbd
00000250: fb6b 583f 06f3 08bf 4c8c 973d d52e 393c
00000260: 28b4 d6bc 0954 5ebd 4b18 05bf 4461 973d
00000270: eb73 8bbd 01b1 f13d 7a06 64bc 7e07 a3bd
00000280: aee4 53bf 8bc5 c8be cf9a 7fbd 77f7 5f3e
00000290: 1b65 dabe 9599 09bf 7965 ca3e 7e60 403e
000002a0: b47f 41be cdb0 8dbe 0f9c 28bf 0785 eabe
000002b0: 326c ac3e f1a2 293e 8656 56bd 93fb 293f
000002c0: 22f1 dcbe 4672 00bd 53d5 66be e8e6 a63c
000002d0: 0082 74be 387b 9b3e 238b aebd 7c70 d2be
000002e0: 6aa6 c53d 5797 37bf 8d58 d2be 991c 9dbe
000002f0: 3368 b73e 88e5 4f3d 504b 5b3e 59a9 d83d
00000300: 06d4 b9bc 4c86 af3e 1542 c8bd e37c 21bf
00000310: 7e8b 31bf 09fc 6cbe 8ab8 0d3e 139c c93e
00000320: a8fb 7d3e 133c 83bf 627f 21bf d7fd 86be
00000330: 0b82 2fbe c8bd c7be f79a ecbe 9bdd 7dbd
00000340: 3945 2d3e 8ce1 74be e255 8f3e beb8 4a3d
00000350: 156e 3abf 4fd5 473e 6d1c f13d 2c48 d1be
00000360: 918a 89be b62b 7cbe 63ac 1fbf 28c1 36be
00000370: 7327 e63c a637 27bf d672 343c a2e0 483f
00000380: 54c6 503e f794 8a3e ff5c 7abf 9df7 85be
00000390: dd85 07bf d992 7f3e 2320 b43e 76c3 64be
000003a0: 9f36 91be 842e 10be 8417 e2bd b189 1a3f
000003b0: c15b 913e 006d 5bbd 109f 74be 9551 3d3e
000003c0: 9496 42bf 922f bebe 2680 fe3e 1c14 d33d
000003d0: 7545 533e c8c4 bc3b c9f6 09bd 4520 f0be
000003e0: 12b9 023f 2315 1fbe 9408 5bbe bdbd 283e
000003f0: 3a4d bd3d 157f d9bd 9621 03be 47f0 a43d
-0.12523396 -0.18350664 -0.213505 0.13719754 0.20976678 -0.12600082 -0.117094256 -0.09194121
-0.09830125 -0.43122327 -0.020986566 -0.33262548 -0.45443097 -0.18764399 0.38077384 0.0194754
-0.13520662 -0.71575457 -0.12951717 0.027250359 -0.44996494 0.349174 0.13966674 0.04225673
0.20438392 -0.15470532 0.20359801 -0.08835715 0.14683823 -0.41685647 -0.078924105 -0.3791555
0.11265088 -0.17614035 -0.59622455 -0.0720234 -0.32482216 -0.119547516 -0.37613165 -0.28480986
-0.16219807 -0.35373625 -0.71784145 -0.38814598 0.29887336 -0.15519765 -0.012366954 0.3786276
-0.58073854 0.4763068 -0.91987395 -0.08307056 0.25077298 0.12475477 -0.04584099 0.5370862
0.239347 -0.78845733 -0.33155492 0.055873845 -0.29641855 -0.09175041 -0.16403815 -0.06427468
0.05260489 0.120216236 -0.14978014 0.3561774 0.05510016 0.17696808 0.27716368 -0.054582987
0.026612723 -0.57594275 -0.65173686 -0.31113768 0.4441321 -0.34723213 -0.3921515 0.010603394
-0.6088829 0.35458848 -0.34976998 0.060145725 -0.059935324 -0.6310856 -0.04074626 -0.19716842
-0.34855333 0.11180124 -0.15571539 -0.019652661 -0.024569279 0.32359135 -0.013091294 0.07256203
-0.4727123 0.42110243 0.32780358 0.17132819 -0.39439142 0.20569727 0.020686435 0.34464765
0.06974382 -0.3489329 -0.4140167 -0.030425288 -0.4996406 -0.30099872 -0.3052389 -0.7296524
0.34119657 0.0442281 0.32525238 -0.114263594 -0.5153901 0.0061646844 -0.03459789 0.022000806
-0.11218347 0.38303047 -0.45253506 0.1720729 -0.10021491 -0.10307408 -0.24363202 0.015257069
0.1268127 -0.32118958 0.1304143 0.092593245 0.14067534 0.020878702 -0.51012814 0.1120168
0.6081515 -0.4632262 0.5514013 0.0002569304 -0.3118732 0.47969705 -0.50678515 -0.48354104
0.25076237 -0.034359436 -0.46549228 -0.08454124 0.84539765 -0.53495824 0.073998064 0.0113026695
-0.026208952 -0.05427936 -0.51990193 0.07391599 -0.06809219 0.11801339 -0.01391756 -0.079604134
-0.8277081 -0.39213213 -0.062403496 0.21871744 -0.42655262 -0.5374997 0.39530542 0.18786809
-0.18896371 -0.2767395 -0.65863127 -0.45804617 0.33676296 0.16566063 -0.05232861 0.66399497
-0.4315272 -0.03135898 -0.22542314 0.020373777 -0.23877716 0.30367446 -0.08522632 -0.41101444
0.096508816 -0.717153 -0.41083184 -0.3068588 0.35821685 0.050756007 0.21415448 0.105791755
-0.022684108 0.34282148 -0.09778229 -0.63081187 -0.69353473 -0.23143019 0.13839927 0.39376888
0.2480303 -1.0252708 -0.63084996 -0.2636554 -0.17139451 -0.3901198 -0.4621198 -0.061978918
0.16920938 -0.23914164 0.2799521 0.04949259 -0.7282422 0.19514965 0.11773 -0.40875375
-0.2686353 -0.2462605 -0.62372416 -0.17847121 0.028094983 -0.6531929 0.011013707 0.7846776
0.20388156 0.27066776 -0.9779815 -0.26165476 -0.52938634 0.24958362 0.35180768 -0.22340187
-0.28361985 -0.14080244 -0.110396415 0.6036635 0.28390315 -0.053570747 -0.23888803 0.18488152
-0.76011014 -0.37145668 0.49707144 0.1030657 0.20631965 0.005760763 -0.03368262 -0.4689962
0.51063645 -0.15535407 -0.21389991 0.1647863 0.092432454 -0.10619942 -0.12805781 0.08053642

bias f4 [10]
00000000: 1234 f6bd a7a2 ce3d e40c a6bc 1658 73be
00000010: 97dd da3d 524b 193e 9388 17be 3c6c 73bc
00000020: 04f2 58be 09f4 c7bc
-0.120216504 0.10089617 -0.020269819 -0.23764071 0.10686796 0.14970139 -0.14798193 -0.014857348
-0.21186072 -0.024408357
