05 income/income.pt (torch, 8510 bytes, 6 tensors)

weight f4 [16, 63]
00000000: 6049 d6bf 4e4f 84bf 928f 6bbf 81b1 e53d
00000010: 9f3b d8be be22 d5be 51fe 003e 2eee e03e
00000020: 4500 fdbe 93b8 693f aeee 0f3f 8960 913d
00000030: 4e33 1e3f 35a2 1a3f 0abb 363e 9ad7 c4bd
00000040: 5e07 be3d 94ac 323d 0278 e63d a6f6 563e
00000050: d4b4 e1bb 789a d0be 7895 fdbd 42f6 393f
00000060: 9a0a c7be b4bb df3d 49b7 1dbf 9a44 83bc
00000070: e1e2 1e3f fef6 41be c243 eabe a77a ce3c
00000080: 3664 d93e 8f5d 5dbc 49ba 8d3e 9468 633e
00000090: d7dd 0dbf 3b0f fa3d 4b64 29be 9bfe febe
000000a0: 9812 343f 619f 523f 558f 153f 3046 1e3f
000000b0: 740b 7a3e 39a6 37bf 4184 15be d0f7 b73c
000000c0: 3d3d 2abf a804 0d3f 47c6 b5bd b5e4 f03e
000000d0: b70f f83e bbea 083f 2562 e83e 7db4 23bf
000000e0: 8a4b e73e 0f15 a33e 0cb0 fa3e cfd1 33bc
000000f0: 8efb 04bf 173c 603f e567 683d f4ba a240
00000100: 3075 e83f b4d4 2a40 4572 97bf 947b d43f
00000110: 3b3d 7fbe 0f83 81bc 393d 053f eb57 733f
00000120: f62f 24c0 e47f 19c0 88fb 87be 5027 17c0
00000130: fe7b fdbf 1bae d5bf f860 ed3c 88bd 263d
00000140: 582a 553d 20b5 2fbd f4da ea3d 5d9f a8bf
00000150: 9af9 183f b0ea 05bd 10c8 453f 5dc2 e43e
00000160: 8434 d83d d926 0640 2bcc c6be 2893 a5bf
00000170: 9d02 893e 8c81 723f feab 72bd a323 16c0
00000180: 2167 10bf 1403 9abe 83ba 98bf cb05 013e
00000190: 6f6e 04be 7ac6 413f 1348 f93f e752 14c0
000001a0: 0fc5 21c0 fd1a 17c0 c3e5 40c0 1a1c 4ebe
000001b0: 7984 0340 166d 8b3f 7821 eb3f 74a0 1940
000001c0: a3cb 12c0 6728 74bf aff1 d5bf 0da5 40bf
000001d0: 83b3 b7bf 9327 a9bf 057b 1d40 2ed0 c2bf
000001e0: b7f9 41be 358b 20be 0d66 99be a8fd a8bf
000001f0: a537 aabf fd9e 06c0 b796 3a40 751d 3940
00000200: 18f5 1340 a047 06bf 4408 fd3e 3c10 173f
00000210: 76c3 833c fc2c 6fbf 829a d33f 8b63 18c0
00000220: 00a1 15c0 6236 d2be 9082 e6bf b406 bfbf
00000230: 4b4b c0bf a898 59bd b015 bbbd 3017 cf3d
00000240: 4807 513d 637c abbd f56d 35bf ea00 2d40
00000250: a06d cdbc 7902 23c0 b82f a93f a826 f7bc
00000260: e2a1 0240 c721 b5bf 187f 6abf 8beb 553e
00000270: 50ad e0be 64ad 81be 261e cabf 40eb 9abe
00000280: 4115 84be 2e8f b3be 0200 adbf c7bd 5e3c
00000290: c0dd 4bbf 287c be3f 3180 02c0 1725 ddbf
000002a0: e0a0 c4bf ddc4 0dc0 53aa 74be f65f 5840
000002b0: 7857 9e3f a406 203f 0231 1d40 2874 0bc0
000002c0: 5585 2dbf 95cc 9cbf 8b62 5ebf 6d53 13bf
000002d0: a77d 72bf 6f31 623f 22e8 9fbf b246 3bbf
000002e0: fc77 35bf 2054 4ebe 1f14 e5be e67c dbbf
000002f0: 8330 dcbf 893b 6cbe 3603 c6be 491f 7cbe
00000300: 801b 703d b802 e63d 047b 0bbd 794b f6bd
00000310: 4913 24be cba0 4a3d d340 b4bd 7e48 be3d
00000320: 6e59 fd3c 5a98 c03d 4a4e eebd 5882 0d3e
00000330: b09a 333d 33eb cbbd a67f ae3d c0df a0bb
00000340: c53a 1ebd 98ea f13d ad38 28be cc69 9cbd
00000350: 4bfb 55bc fc56 38be 189d a6bd 0fb8 60bd
00000360: a797 4ebc acef f63c 1caf f9bd e6e4 cfbe
00000370: b287 0c3d 20dc db3c 9976 3cbe 93cb 093e
00000380: 6223 f3bc 4200 653e 282c c4bc 1fc5 b83c
00000390: f6a9 fabd 711b c2bd 44d4 32bc ffbf 213e
000003a0: cc85 c13d 1a9d f6bc 6159 afbd d8c7 2cbd
000003b0: a7e9 b43d f6f8 d6bd 5461 4c3d 6b10 b8be
000003c0: be73 2d3e 5f96 043e 9c24 8e3c 040a 3cbd
000003d0: 879b 08be f5d8 e03d dd82 c13c 80e1 513d
000003e0: 058c e43d 968e 0fbf 616d d9bc 2e00 6dbe
000003f0: 0545 a1bf c673 26bf b254 93bf 98d1 d33d
-1.6741142 -1.0336702 -0.92015946 0.11215497 -0.42232987 -0.4162807 0.12597014 0.43931717
-0.49414268 0.9129726 0.5622357 0.07098491 0.61797035 0.6040376 0.17844787 -0.09611435
0.09278749 0.043621615 0.112533584 0.20992526 -0.0068880115 -0.4074285 -0.123820245 0.72641385
-0.38875276 0.109244734 -0.61607796 -0.016023923 0.6206494 -0.18941876 -0.4575482 0.02520497
0.42459267 -0.013511076 0.27681187 0.22207862 -0.55416626 0.12209936 -0.16542165 -0.49803624
0.7034087 0.8227444 0.5842183 0.6182585 0.24418432 -0.7173801 -0.14601232 0.022457033
-0.6649969 0.5508523 -0.08875709 0.4704949 0.4844949 0.5348317 0.45387378 -0.6394728
0.4517482 0.31852004 0.48962438 -0.010975315 -0.5194634 0.8759169 0.056739707 5.0853214
1.8160763 2.6692324 -1.1831747 1.6600213 -0.24925701 -0.015809564 0.52046543 0.9505603
-2.5654273 -2.3984308 -0.2655909 -2.3617744 -1.9803464 -1.6693758 0.028976902 0.040708095
0.052042335 -0.042897344 0.11467543 -1.3173634 0.5975586 -0.03269452 0.77258396 0.44679537
0.105568916 2.096121 -0.38827643 -1.2935534 0.26759806 0.9472892 -0.059246056 -2.345925
-0.5640736 -0.30080473 -1.1931919 0.12599866 -0.12932752 0.75693476 1.947512 -2.31756
-2.5276525 -2.3610222 -3.0140235 -0.20127907 2.0549605 1.0892665 1.8369589 2.4004183
-2.293679 -0.9537415 -1.6714381 -0.7525185 -1.4351658 -1.3215202 2.4606335 -1.5219781
-0.18942915 -0.15678103 -0.2996067 -1.320241 -1.3298231 -2.1034539 2.915449 2.892423
2.3118343 -0.5245304 0.4942037 0.59009147 0.016084414 -0.93428016 1.6531527 -2.3810756
-2.3379517 -0.41057116 -1.8008595 -1.4923921 -1.5022978 -0.0531241 -0.09134996 0.101118445
0.051032335 -0.08373334 -0.70870906 2.7031808 -0.025076687 -2.547026 1.3217688 -0.0301698
2.0411305 -1.4150933 -0.9160018 0.20890634 -0.43882227 -0.253276 -1.579045 -0.30257607
-0.25797465 -0.35070175 -1.3515627 0.013595051 -0.7963524 1.488164 -2.0390742 -1.7276944
-1.5361595 -2.2151406 -0.23893099 3.380857 1.2370443 0.6251013 2.4561162 -2.1789646
-0.67781574 -1.2249933 -0.86869115 -0.5754917 -0.9472298 0.8835668 -1.2492716 -0.7315475
-0.70886207 -0.20149279 -0.44741914 -1.7147491 -1.7202305 -0.23069586 -0.38674325 -0.2462131
0.058619976 0.11230987 -0.034052864 -0.12026114 -0.16022982 0.04946975 -0.08801427 0.092911705
0.030926432 0.09404059 -0.11636026 0.13819253 0.043848693 -0.0995697 0.08520441 -0.0049094856
-0.038630266 0.11812323 -0.1642787 -0.07637367 -0.013060401 -0.18001932 -0.08135432 -0.054863032
-0.012609399 0.030143581 -0.121916026 -0.40604323 0.034309097 0.026838362 -0.18404616 0.13456564
-0.029679958 0.2236338 -0.023946837 0.022554932 -0.12239449 -0.0947789 -0.010914866 0.15795897
0.09449348 -0.030104209 -0.085619695 -0.042182773 0.08833628 -0.10496704 0.049897507 -0.35950026
0.16938683 0.12947987 0.017351441 -0.04590799 -0.13340579 0.10978881 0.02362197 0.051240444
0.11159519 -0.56076944 -0.026541414 -0.231446 -1.2599188 -0.65020406 -1.1510222 0.10342711

bias f4 [16]
00000000: 246e 5b3f a484 63c0 9e28 61c0 dd0d 90be
00000010: 8182 873f bca5 d23f 0101 1f40 91be d2bf
00000020: 50ad 97bf c3e1 ae3f 5347 8a3f 58cc d63f
00000030: 37e2 c23f c722 05c0 c480 3f3f e4cb 4a40
0.85714936 -3.5549707 -3.518104 -0.28135577 1.0586702 1.6456828 2.4844363 -1.6464406
-1.1849766 1.3662647 1.0803016 1.6781111 1.5225285 -2.0802476 0.74805856 3.1686945

weight f4 [8, 16]
00000000: 2437 3d3f ac22 ccbf 38f7 a5bf 34d4 18be
00000010: 4561 1f3f 2792 533f b959 0740 290a 98be
00000020: de1d 26be 9795 883f 3c0a 583f 28d1 863f
00000030: 853d 5e3f 30d1 20bf 0387 1e3f c23b bc3f
00000040: 65fb 043f e45e ebbf d4c8 9abf 7b5c 7a3e
00000050: 5446 233f 4586 763f 71e9 ff3f c745 b3be
00000060: d63b 58be 5af8 623f 17ee 283f ceda 9c3f
00000070: 98db 8a3f 8fb4 c7be b500 2f3f ce4b cb3f
00000080: eb2c 443f a473 b0bf 3050 b2bf 448f 8f3e
00000090: 8f00 863f 2a8b a13f ea0d 0440 d48d d0be
000000a0: 8263 93be 78af 7f3f 6ce1 213f a7ae 5c3f
000000b0: 754d 923f afb8 10bf e8b1 223f 8760 b43f
000000c0: ea58 90bf 48cc 273f a5ab c63f f668 21bf
000000d0: 60a8 97bf 5a03 97bf 6dba afbf ed7f 0b3f
000000e0: 769f 063f ddba 95bf ee53 90bf c9d8 a1bf
000000f0: 116a 9bbf 204c 853f b686 5ebf a6f8 a4bf
00000100: efd1 a5bf 2b40 893f 2b02 f73f cfc0 29bf
00000110: 7fff 83bf 752b d4bf 8a91 eebf 2627 473f
00000120: 5706 9a3e f73a a6bf 1ba3 a1bf f958 bcbf
00000130: dd13 cdbf aabb b43f 7da4 8cbf 9f12 ebbf
00000140: 7d4c a53e 28b9 c4bf 80c2 afbf 9d5d 6d3e
00000150: 793e 163f 9f00 563f c290 d83f 76f3 82be
00000160: a80c bebd 6005 323f d187 e33e 6f5f 443f
00000170: 8e90 323f 289a c2be 6072 2b3f aaf8 973f
00000180: da7a 0e3f 830f babf fdde 96bf aac3 2bbd
00000190: a602 073f 759e ea3e ed6c ab3f e344 26be
000001a0: 1f86 09be 65ce 053f 6013 293f ca2e 723f
000001b0: 9489 513f 71cd c3be 8e30 6a3e 8725 733f
000001c0: ce72 c33e a923 d8bf 2bf4 b3bf f86e 20be
000001d0: 51ab 3c3f 5df3 053f c5b2 d63f 728d 86be
000001e0: e8e8 93be 7e57 5a3f 2a7f 503f fcce 763f
000001f0: a5de 313f 8805 b2be 65a9 103f d9cf 8c3f
0.7391226 -1.5948081 -1.296607 -0.14924699 0.62257797 0.82644886 2.1148512 -0.29695252
-0.16222331 1.0670651 0.84390616 1.053258 0.8681262 -0.62819195 0.6192476 1.4705737
0.519461 -1.8388333 -1.2092538 0.24449341 0.6377919 0.9629863 1.9993116 -0.35014173
-0.21116576 0.88660204 0.65988296 1.2254274 1.0848265 -0.39004943 0.68360454 1.5882509
0.7663104 -1.3785291 -1.3930721 0.2803899 1.046892 1.2620595 2.0633492 -0.40733206
-0.28786856 0.9987712 0.6323459 0.86204 1.1429888 -0.56531805 0.63552713 1.4091958
-1.1277134 0.65546083 1.5521132 -0.6305078 -1.1848259 -1.1797898 -1.3728768 0.54492074
0.5258707 -1.1697651 -1.1275613 -1.2644283 -1.2141744 1.0413857 -0.869243 -1.2888381
-1.2954692 1.0722708 1.9297537 -0.6630983 -1.0312346 -1.6575762 -1.8638165 0.7779411
0.30082962 -1.2986745 -1.2627901 -1.4714652 -1.6021687 1.411977 -1.0987698 -1.8365058
0.32284918 -1.5369005 -1.3731232 0.23180242 0.58689076 0.835947 1.6919177 -0.2557637
-0.09279758 0.6953945 0.44439557 0.7670812 0.6975182 -0.38008237 0.669714 1.1872761
0.55656207 -1.4535984 -1.1786801 -0.041934647 0.52738416 0.45824018 1.3392617 -0.16237216
-0.1343007 0.5226806 0.6604519 0.94602644 0.8185055 -0.38242677 0.22870085 0.9497914
0.38173527 -1.6885883 -1.4058889 -0.15667331 0.7369891 0.5232447 1.6773306 -0.2627979
-0.2888863 0.8528975 0.81444037 0.96409583 0.69480354 -0.34769845 0.56508476 1.100093

bias f4 [8]
00000000: 057e c8bf 19d9 f9bf 8026 a6bd d15e e0bf
00000010: 6c7d 1ec0 1f80 37bf 7c60 6fbf 1cc5 c2bf
-1.5663458 -1.9519378 -0.08112812 -1.7528936 -2.4764051 -0.7167987 -0.935066 -1.5216403

weight f4 [2, 8]
00000000: 8c52 2040 95f2 3f40 755b ac3f c690 18c0
00000010: 0c52 12c0 32d6 f23f 3874 ea3f c2bd 2e40
00000020: e3bb 34c0 b3de 3ac0 59cc 65c0 d48a 2240
00000030: 64a6 6d40 4595 36c0 0cf7 19c0 2755 10c0
2.5050383 2.999181 1.346541 -2.3838363 -2.2862577 1.8971617 1.8316717 2.730332
-2.8239677 -2.9198425 -3.5905974 2.5397234 3.7132807 -2.8528607 -2.4057035 -2.2551973

bias f4 [2]
00000000: 01d9 75c0 9aed 49bf
-3.8413699 -0.78878176
