05 income/income.pt (torch, 8510 bytes, 6 tensors)

weight f4 [16, 63]
0.3112799 0.2271766 0.293615 -0.15466057 0.040887125 -0.120318085 -0.05398747 0.11530937
0.118814245 -0.045514856 -0.094016604 -0.09891997 -0.26922193 -0.20791465 -0.08529951 -0.11444253
-0.044005357 -0.007978894 -0.009012066 -0.039636005 0.013140386 0.0616561 -0.003384009 -0.12233881
-0.019943215 0.11303498 0.2665471 -0.035591792 -0.09816091 -0.060830332 0.036858995 -0.14160107
0.0049957857 0.024472035 0.07292655 0.064434774 -0.08226951 0.05673342 -0.070608675 0.16553317
-0.11574657 -0.29917812 0.019259416 -0.18508181 -0.050543096 0.042944513 0.16992325 0.014769785
0.13398738 0.05107722 0.13266468 -0.023230432 -0.17884342 -0.11472063 -0.14227243 0.33304566
-0.09089108 -0.059256982 0.1193086 -0.062022567 0.14118224 -0.056643847 -0.019211678 -0.7874232
-0.56346214 -0.51961076 0.00054869615 -0.16326986 0.18911293 -0.06869838 0.1776737 -0.076099865
0.25886604 0.21190587 0.07282646 0.3420583 0.44364613 0.23408155 -0.06473987 0.07670094
-0.06505044 0.09369658 0.047335137 0.08999002 -0.078429356 0.05836393 0.1947301 -0.35732815
0.046091154 -0.6023359 0.02840739 0.3372734 -0.22549571 -0.38166043 0.39578393 0.31719908
0.100603975 0.20692307 0.022065444 -0.12289775 0.045085147 -0.12813915 -0.35982373 0.43976375
0.3229561 0.11977184 0.5371318 0.008415118 -0.22115697 -0.35238743 -0.057353403 -0.24825868
0.0429839 -0.124924935 0.061932344 0.31334233 0.56767786 0.22555645 -0.55307305 0.39756843
0.13803945 0.23867974 -0.0027505388 0.044982187 0.6178087 -0.07072488 1.2776383 0.7416134
1.0083903 -0.10847339 0.27730155 0.0162324 -0.12241888 0.27885 0.14609289 -0.7755889
-0.5065947 -0.014903567 -0.5778502 -0.59130645 -0.5836822 0.10564996 -0.026666023 -0.11046315
-0.025886208 -0.21518523 -0.27384543 0.027172348 -0.009489231 0.26605457 0.14011742 -0.07647771
0.9512682 -0.09255053 -0.37472627 0.18908487 0.41143197 -0.4451649 -0.3911905 -0.16502964
-0.14917193 -0.1668262 0.065906875 -0.053782385 0.25148496 0.1816152 -0.7928343 -0.82807165
-0.22831684 -1.0131183 -0.12663661 0.5164319 0.44819582 0.55472034 0.39931977 -0.30134016
-0.26141652 -0.06630838 -0.46909592 -0.5985964 -0.10074497 1.059611 -0.56006986 -0.1492794
0.33454877 -0.01910145 -0.027983185 -0.34377983 -0.53711814 0.12658317 0.26550722 0.27350888
-0.075232744 0.12337484 0.073089704 0.060574763 -0.011375069 0.14409259 -0.2225165 -0.024999077
-0.08254209 -0.15661117 -0.17123722 -0.10064909 0.044024512 -0.039679848 -0.06317026 0.083583534
-0.08491797 -0.13530502 0.09667811 -0.11769434 -0.019159324 -0.019052127 0.059589878 0.06497469
0.09278713 -0.029402198 0.08379755 0.015591459 -0.031923946 0.058758657 0.111559436 0.0051283967
-0.008484098 -0.01599357 -0.09858693 0.0012312075 0.22779822 -0.044489853 0.00526858 0.07991528
-0.11907797 0.08512108 0.23545465 0.06366621 0.1553991 0.18143445 0.019024 -0.12935846
-0.05259151 0.0162514 -0.08850521 0.029339088 0.22530733 -0.18433489 -0.06397494 -0.053311836
-0.11723248 -0.01792075 0.03742752 0.0041931593 0.8024914 0.7346149 0.6160867 -0.10304118
00000000: 1460 9f3e fca0 683e b554 963e 575f 1ebe
00000010: 4279 273d 5469 f6bd f721 5dbd 5227 ec3d
00000020: e254 f33d c96d 3abd c78b c0bd 8e96 cabd
00000030: 75d7 89be 94e7 54be 82b1 aebd d860 eabd
00000040: f63e 34bd e8b9 02bc 58a7 13bc 5d59 22bd
00000050: c64a 573c 1b8b 7c3d 40c6 5dbb c58c fabd
00000060: f45f a3bc e27e e73d dd78 883e b3c8 11bd
00000070: 9608 c9bd 3a29 79bd 75f9 163d dfff 10be
00000080: b0b3 a33b 9479 c83c 845a 953d 61f6 833d
00000090: eb7c a8bd 4d61 683d 489b 90bd 8781 293e
000000a0: 8a0c edbd e02d 99be ecc5 9d3c 1686 3dbe
000000b0: 4706 4fbd 96e6 2f3d 5c00 2e3e f8fc 713c
000000c0: fd33 093e 5936 513d 40d9 073e bf4d bebc
000000d0: bb22 37be a6f2 eabd ddaf 11be f684 aa3e
000000e0: 1a25 babd 73b7 72bd 1158 f43d 600b 7ebd
000000f0: 1492 103e 6103 68bd cf61 9dbc 9194 49bf
00000100: 0e3f 10bf 3605 05bf 60d6 0f3a 3730 27be
00000110: d2a6 413e bcb1 8cbd 18f0 353e 3fda 9bbd
00000120: 178a 843e dafd 583e 0a26 953d 4422 af3e
00000130: 9625 e33e 13b3 6f3e 5696 84bd 6215 9d3d
00000140: 2a39 85bd fee3 bf3d 7de2 413d b04c b83d
00000150: 929f a0bd 040f 6f3d 5467 473e b7f3 b6be
00000160: 14ca 3c3d af32 1abf 9db6 e83c 19af ac3e
00000170: 59e8 66be ff68 c3be 31a4 ca3e eb67 a23e
00000180: 7509 ce3d a4e3 533e 97c2 b43c d1b1 fbbd
00000190: 34ab 383d e936 03be d13a b8be b728 e13e
000001a0: 805a a53e f04a f53d 7881 093f 90df 093c
000001b0: f976 62be 206c b4be 67eb 6abd 8637 7ebe
000001c0: e30f 303d a5d8 ffbd c5ac 7d3d 686e a03e
000001d0: 5653 113f 45f8 663e 3296 0dbf 178e cb3e
000001e0: 375a 0d3e 7668 743e 6242 34bb 3e3f 383d
000001f0: b628 1e3f 35d8 90bd a789 a33f 60da 3d3f
00000200: ef12 813f 4c27 debd 78fa 8d3e cff9 843c
00000210: c0b6 fabd 6dc5 8e3e 6099 153e ff8c 46bf
00000220: 31b0 01bf 172e 74bc feed 13bf dc5f 17bf
00000230: 326c 15bf 025f d83d b472 dabc 813a e2bd
00000240: 500f d4bc 8459 5cbe 7835 8cbe 8b98 de3c
00000250: b878 1bbc 4e38 883e f17a 0f3e 58a0 9cbd
00000260: 5086 733f 228b bdbd 1fdc bfbe 779f 413e
00000270: 36a7 d23e a7ec e3be 1f4a c8be 88fd 28be
00000280: 87c0 18be 7dd4 2abe 2ffa 863d eb4a 5cbd
00000290: a3c2 803e 56f9 393e 30f7 4abf 81fc 53bf
000002a0: e4cb 69be dcad 81bf 07ad 01be e234 043f
000002b0: ec79 e53e 2702 0e3f a473 cc3e 4249 9abe
000002c0: 63d8 85be b0cc 87bd 572d f0be 9d3d 19bf
000002d0: 6153 cebd 55a1 873f bd60 0fbf b3dc 18be
000002e0: fa49 ab3e a57a 9cbc fe3c e5bc e903 b0be
000002f0: 9380 09bf 059f 013e 90f0 873e 5b09 8c3e
00000300: a013 9abd f3ab fc3d 0eb0 953d 3e1d 783d
00000310: 7f5e 3abc 028d 133e 5edb 63be ddca ccbc
00000320: d40b a9bd ae5e 20be cf58 2fbe 1c21 cebd
00000330: 0c53 343d 5687 22bd 695f 81bd d82d ab3d
00000340: 79e9 adbd 668d 0abe 2cff c53d bb09 f1bd
00000350: 04f4 9cbc 3513 9cbc 8414 743d 7311 853d
00000360: 2e07 be3d e1dc f0bc 0d9e ab3d 5273 7f3c
00000370: afc2 02bd ebac 703d 4679 e43d 1c0c a83b
00000380: e300 0bbc f304 83bc f2e7 c9bd 7860 a13a
00000390: f043 693e fe3a 36bd 0da4 ac3b 9faa a33d
000003a0: 27df f3bd f653 ae3d 061b 713e 6e63 823d
000003b0: f120 1f3e f4c9 393e 38d8 9b3c 8b76 04be
000003c0: 326a 57bd a821 853c 3842 b5bd 8758 f03c
000003d0: f7b6 663e 49c2 3cbe 4b05 83bd 835d 5abd
000003e0: 9517 f0bd 89ce 92bc 994d 193d c566 893b
000003f0: 1470 4d3f b90f 3c3f dcb7 1d3f 4107 d3bd

bias f4 [16]
-0.20789221 0.51731753 -0.7670788 -0.035056528 -0.9021493 0.122796535 0.09744009 0.22663009
-0.040420223 0.46046942 0.098619975 0.6056342 -0.5224944 0.9719081 -0.21030335 0.52243114
00000000: b2e1 54be ec6e 043f 475f 44bf 6f97 0fbd
00000010: 42f3 66bf c07c fb3d ab8e c73d b811 683e
00000020: ad8f 25bd a6c2 eb3e 45f9 c93d d80a 1b3f
00000030: 31c2 05bf f8ce 783f c359 57be 0cbe 053f

weight f4 [8, 16]
-0.44243065 0.93006545 -1.0191824 -0.3069232 -0.9684163 0.5060334 0.3443248 0.3934138
-0.04594603 0.90285677 0.17676881 0.67124283 -0.3556856 0.9577953 -0.32810685 0.69151664
-0.14733644 0.5767514 -1.3585674 -0.19437446 -0.8325678 0.2756791 0.0083619775 0.8422019
0.17554204 0.7852941 0.4383678 0.93789476 -0.69742566 1.1833782 -0.45033303 0.47038478
0.2802081 -0.7875426 1.0183203 0.4543271 0.75148875 -0.63494503 -0.18514423 -0.35790947
-0.29257062 -0.74285585 -0.2698947 -0.61723137 0.70781475 -0.87410843 0.59323835 -0.5350146
-0.49122986 0.94157135 -1.5745915 0.08448417 -1.135457 0.57322544 0.047721393 0.74002934
0.27302942 1.0105197 0.29208422 0.9408832 -0.8501966 1.2459519 -0.42212912 0.7758625
-0.32875493 1.0483882 -1.7726381 -0.3230963 -1.3761915 0.6802509 0.40489998 0.7501391
0.064604 1.3084198 0.24128744 1.1657503 -0.5193949 1.299655 -0.6358853 0.89821875
-0.056252863 0.41536933 -0.34711233 -0.12650447 -0.59762055 -0.014484282 -0.04923747 0.20897302
-0.0038520019 0.0478883 0.06546387 0.48674342 -0.3197787 0.26790142 0.07248233 0.299331
-0.51919675 0.73910284 -1.153919 -0.021726355 -1.0539703 0.24830383 0.3226833 0.63900715
0.23244497 0.67872965 0.49339238 1.0083196 -0.76898074 1.3391907 -0.2802684 0.53532475
-0.44489315 1.2022682 -1.704284 -0.29128143 -1.0977459 0.5769065 0.41828957 0.58258754
0.14376521 1.3138685 0.35588282 1.1379851 -0.9198391 1.675563 -0.43788096 1.0183549
00000000: 4586 e2be c518 6e3f 9274 82bf 0a25 9dbe
00000010: 21ea 77bf 688b 013f 574b b03e 896d c93e
00000020: e831 3cbd 9f21 673f e202 353e 92d6 2b3f
00000030: 6c1c b6be 1332 753f 9ffd a7be 3c07 313f
00000040: 5ddf 16be fba5 133f 89e5 adbf 190a 47be
00000050: 2a23 55bf d025 8d3e ad00 093c 8b9a 573f
00000060: 4bc1 333e 0909 493f bf71 e03e df19 703f
00000070: 7d8a 32bf f078 973f 0d92 e6be 46d6 f03e
00000080: 7077 8f3e 649c 49bf 5258 823f 909d e83e
00000090: 9161 403f c28b 22bf 7396 3dbe e93f b7be
000000a0: d1cb 95be cd2b 3ebf a32f 8abe e002 1ebf
000000b0: 5933 353f 92c5 5fbf 78de 173f b8f6 08bf
000000c0: 7b82 fbbe d20a 713f 378c c9bf 0906 ad3d
000000d0: a856 91bf e7be 123f 8277 433d 9072 3d3f
000000e0: 83ca 8b3e b658 813f 108c 953e b9dd 703f
000000f0: 7ca6 59bf 5a7b 9f3f 4f21 d8be ed9e 463f
00000100: 9152 a8be 9631 863f cee5 e2bf e16c a5be
00000110: 0b27 b0bf ec24 2e3f 0d4f cf3e 1e09 403f
00000120: 1a4f 843d 4d7a a73f 0e14 773e 4e37 953f
00000130: 10f7 04bf 185b a63f 61c9 22bf aaf1 653f
00000140: 6769 66bd 4aab d43e b5b8 b1be 638a 01be
00000150: a9fd 18bf 7b4f 6dbc 3bad 49bd 06fd 553e
00000160: de71 7cbb 8626 443d ec11 863d 6f36 f93e
00000170: 09ba a3be 602a 893e 9e71 943d ea41 993e
00000180: 14ea 04bf d835 3d3f 9eb3 93bf 78fb b1bc
00000190: 80e8 86bf 5c43 7e3e bf36 a53e f995 233f
000001a0: 0e06 6e3e 3ac1 2d3f ed9d fc3e 9e10 813f
000001b0: ecdb 44bf 9a6a ab3f 577f 8fbe 0b0b 093f
000001c0: 09c9 e3be ede3 993f fa25 dabf d722 95be
000001d0: f082 8cbf 25b0 133f 0d2a d63e 7524 153f
000001e0: 3037 133e d82c a83f 4636 b63e 7fa9 913f
000001f0: 937a 6bbf d978 d63f ef31 e0be 7459 823f

bias f4 [8]
-0.35177234 -0.22183837 -0.035416905 -0.14039096 -0.15416157 -0.42035937 -0.23425539 -0.4331478
00000000: 811b b4be 9929 63be 5111 11bd a6c2 0fbe
00000010: 88dc 1dbe 5839 d7be a5e0 6fbe 8cc5 ddbe

weight f4 [2, 8]
1.4485587 1.4687582 -2.7957294 2.1199205 2.8317106 0.26219264 2.1762285 2.8854897
-1.5260061 -1.8708411 2.779456 -2.3807492 -2.7542152 -0.09962047 -1.4394343 -3.0297866
00000000: 5f6a b93f 4500 bc3f 3bed 32c0 c7ac 0740
00000010: bf3a 3540 1d3e 863e 5447 0b40 ddab 3840
00000020: 2b54 c3bf b977 efbf 9be2 3140 325e 18c0
00000030: 1045 30c0 d105 ccbd 623f b8bf 06e8 41c0

bias f4 [2]
-2.6231885 2.699406
00000000: 52e2 27c0 11c3 2c40
