15 Movies_Korean/korean_movie.pt (torch, 488122 bytes, 6 tensors)

weight_ih_l0 f4 [400, 200]
00000000: 717b 953d 46d2 3f3c 684e 813e 4303 e2bd
00000010: 54fc bf3e 733e b3bd 38f1 89be c631 b53e
00000020: 088c 47bc 138c 363e 2485 7abe 79ff 66be
00000030: 1743 7abe e48c 85bd c838 9b3d 26e5 01be
00000040: 71d6 b2be a242 1bbb 5ccd 20be 16a8 8bbb
00000050: 65e1 01bd e538 dabd 9a72 c83b 5c66 55be
00000060: 9127 cc3e ce36 acbe 4136 87be 2f1c 9a3c
00000070: b26a 7d3d 4115 ccbc fc8d 19be e1ce 36bd
00000080: b23f d53d 8461 0a3e 9b29 91be 8e42 abbd
00000090: 6039 193e 96fb 17be ae44 10be 64e3 a23d
000000a0: 4eb9 683d fe26 443e 52d8 9f3b ec24 863e
000000b0: 83e3 0d3e b442 86be 6c3b 1e3e 866f 37bc
000000c0: 3894 963e f1b3 513d 02cb dfbd 852a 82be
000000d0: cb5c 933e 9d42 5c3e 6695 cabd 7c97 71bd
000000e0: 83ee e73d ccca e8bd cbbc 31be dec8 a73d
000000f0: 868a 153e 3ea6 8dbe f206 62be 14a4 e53c
00000100: 6819 1abf e430 013e d848 b3bc f184 a2be
00000110: aac8 27bc baeb 883c 5a6d 8b3e 5d9e 853e
00000120: 4022 9d3d bcaf 3d3e a000 e0bc 30ad 943e
00000130: 127a 81be cc0a eabd 341f d9bd f3aa dcbd
00000140: 5257 06bc 0f5a e5be d281 19be 75e0 0fbf
00000150: 0a67 af3e 8d2a 8dbe 7068 18be 5a48 833d
00000160: bf5c 9d3e 96d7 833d 368d 1fbd 1516 6fbd
00000170: 5f1b 1a3d bfcf b23c e7ea 433c 5e43 e6bc
00000180: be65 b63d 9d0c 723d dbb3 e83c c88f 18be
00000190: 6bf5 0bbc 53bc 87bd 100d 963e aac1 f7ba
000001a0: 6296 4cbc 0991 203e b9ea f3be ec53 84bc
000001b0: 58eb 783e 85f8 303d a8e4 cb3e 723a 1dbe
000001c0: c18a efbc cd03 84be 1170 a03e 110d 87be
000001d0: c4fd 23be 9154 97be d7be bdbd 9705 8e3e
000001e0: 6094 fb3a 03b3 b2bd 3fc3 09bd 791b 2bbe
000001f0: be4a 36bb 70ca 0c3c ee5f 6cbe f77b a03e
00000200: 9ee8 383d 4a59 97be 3cd6 0c3e f04e 35be
00000210: 1ecb 3dbe cc62 d0bb d837 5bbd 7957 0e3e
00000220: 757a 99bd 0994 f0bc 7b5c 913e 19ba 293d
00000230: 81ae ac3c f606 193e 7963 a3be 387e 28be
00000240: 2495 a13d 8126 babd f324 08be 8ddc 38be
00000250: d184 60bc b849 5bbd 3582 e23d 7213 833d
00000260: 4002 90be 3e68 973e 1b21 25bd 4574 d6bd
00000270: 6706 b93d ef96 95bd 49be f93d 19ac 87bd
00000280: 2bb3 953e a2f2 3bbe 4a3f d33d a326 3f3e
00000290: 2104 21be e039 0d3f 3fe4 5f3d 88eb dc3c
000002a0: 2755 883e 263e dfbd 0fab 87be 10e5 96be
000002b0: 8f92 0a3e d6b5 62be 59c5 203e c632 90bd
000002c0: 807a c1be e313 02bd 0d3f 323e cbd4 39bb
000002d0: b241 463e a98e 24be 42ab 573d 9f60 4ebe
000002e0: 1f97 1cbe 8db9 28be f072 3c3e 8f65 3a3e
000002f0: b635 15be b9f6 8ebd c215 debc 2995 13be
00000300: 979f c83c 962c e13d ed32 853e 43d1 08be
00000310: e123 133e 4263 a7bb 9ee6 3a3e 876f 76be
00000320: 717e 8abf 0b60 6ebf 09dd 02bf e1cf 503f
00000330: a73e a23f 248a 063f 6a73 0d3e aa1f b6bb
00000340: 682b 38be 1019 b83a da5a 3b3d 50ff fdbd
00000350: 1cc5 a4be f102 a9be 8ed7 923f 73f4 a7bf
00000360: 776a 663e c12c 5fbf 7e2a fd3d 4f2b 8d3d
00000370: fcef d7bf 09ca 353f bde4 0ebf cacf 52bc
00000380: 6c94 b73e cef9 2ebf c501 413f 7adb 203f
00000390: a64c 753e f92a 09bf ac62 04bf 3764 56bf
000003a0: 6422 cdbf c131 98bd 291b 633f 6a09 54bf
000003b0: bf10 3bbf 15be 0ebf 42dd 1dbf f932 1fbf
000003c0: a917 5cbf f376 ea3e 297d aabd 0b29 f2be
000003d0: 034d 153f 13d7 b8bd 6cbb 0b3f 18aa a6be
000003e0: b0df c8be c0fe 2a3f c89a 1e3e 20c5 2a3d
000003f0: da5f 0d3d 1714 ad3e 104a 233e 42aa 0e3f
0.07298935 0.011707848 0.25255132 -0.110357784 0.374972 -0.087521456 -0.26941848 0.35389537
-0.012179382 0.17826872 -0.24464852 -0.22558393 -0.24439655 -0.065210134 0.075791895 -0.1268507
-0.3492923 -0.002369084 -0.15703338 -0.0042619808 -0.031709094 -0.10655383 0.006117177 -0.20839828
0.39873937 -0.33635563 -0.2640858 0.018812267 0.06186933 -0.024912478 -0.14995569 -0.04463089
0.104125395 0.13513762 -0.28352055 -0.08362304 0.14963293 -0.14842066 -0.14088699 0.079535276
0.056817345 0.191555 0.0048780823 0.26200044 0.1385632 -0.26222765 0.15452355 -0.011196023
0.29409957 0.051196996 -0.109273925 -0.25423065 0.28781733 0.21509786 -0.09891777 -0.058982357
0.113247894 -0.113668054 -0.17357175 0.08192609 0.14603624 -0.27665895 -0.22072962 0.02803234
-0.60195017 0.12616307 -0.02188532 -0.3174205 -0.010240713 0.016713966 0.27231866 0.26097384
0.07672548 0.18524069 -0.027344048 0.29038382 -0.25288445 -0.114278406 -0.10601655 -0.107747935
-0.00819953 -0.44795272 -0.14990929 -0.5620187 0.342583 -0.27571526 -0.1488359 0.06410284
0.30734822 0.06437604 -0.03895303 -0.05837067 0.03762376 0.021827577 0.011957861 -0.028108295
0.089061245 0.05909406 0.028406074 -0.14898598 -0.008542399 -0.06627717 0.2930684 -0.0018902321
-0.012487026 0.15680327 -0.47640017 -0.016153298 0.24308527 0.043205757 0.39822888 -0.15354326
-0.029240968 -0.2578415 0.313355 -0.26377156 -0.16014773 -0.29556707 -0.092649154 0.2773864
0.0019194 -0.0872555 -0.033633467 -0.16709699 -0.0027815546 0.008593187 -0.2308347 0.31344578
0.045143716 -0.2956031 0.13753599 -0.17705894 -0.18534514 -0.0063594338 -0.053520054 0.13900556
-0.0749406 -0.029367464 0.2839087 0.041437242 0.021079304 0.14944062 -0.3191183 -0.16454399
0.078897744 -0.09089375 -0.13295345 -0.18052883 -0.013703541 -0.0535371 0.11059991 0.06400193
-0.28126717 0.29571718 -0.040314775 -0.104713954 0.09034424 -0.07304179 0.12194497 -0.06624622
0.29238257 -0.18354276 0.10314806 0.18667082 -0.15724231 0.55166435 0.05466103 0.026967779
0.26627466 -0.10900526 -0.26497695 -0.29471636 0.1353247 -0.22139677 0.15700282 -0.07040934
-0.37788773 -0.031757247 0.17406864 -0.0028355594 0.19360998 -0.16070046 0.05265356 -0.20154046
-0.15292023 -0.16477032 0.1840322 0.18202804 -0.1457127 -0.06980652 -0.027109984 -0.14412369
0.02449016 0.10994832 0.26015416 -0.13361077 0.14369155 -0.005108268 0.18252036 -0.24065982
-1.0819837 -0.931153 -0.5111852 0.815672 1.267537 0.52554536 0.13813558 -0.005557974
-0.17985308 0.0014045555 0.04574094 -0.124022126 -0.32181633 -0.33010057 1.1472032 -1.3121475
0.2250155 -0.87177664 0.1236162 0.06893026 -1.6870112 0.71011406 -0.55817777 -0.012866924
0.35855424 -0.6834992 0.75393325 0.62834895 0.2395502 -0.53581196 -0.5171306 -0.83746666
-1.602612 -0.07431365 0.8871332 -0.82826865 -0.7307243 -0.5575879 -0.6166574 -0.62187153
-0.859736 0.45793876 -0.08324654 -0.47296938 0.58320636 -0.09025397 0.5458286 -0.32551646
-0.3923316 0.6679497 0.15488732 0.0416919 0.03451524 0.3380439 0.15946221 0.5572854

weight_hh_l0 f4 [400, 100]
00000000: 8860 423e 9bad c2bd 7fb3 52be 6a17 c1bd
00000010: 9bdc 23be 8969 ee3d 97ed cabd beaa 623d
00000020: ce28 e63b fe96 3abd 3739 e7bc 83ce 4d3e
00000030: 8718 f43d 8ed7 e93d 6f4a 853d ed57 13be
00000040: 41ee 6dbe ec47 af3e 6dcc e73d 24b6 10be
00000050: 8dcf 403e 6481 7dbc d0b3 e43d b1db 553e
00000060: fd98 8c3e 2092 23be 1809 5bbd 2c72 d13d
00000070: bb40 1f3e 01fe 0f3e 7ab0 2a3e 9c5e d13d
00000080: 07c2 d0bd 22cb 78bd d44a 233d 556e 0e3e
00000090: 68c1 cebc aabf 8e3e a85c feba e293 873e
000000a0: cc4f 133e 0a2c 003c 86e0 aa3d 43df c63d
000000b0: f295 903c 2387 443e a563 8abe 8f16 acbd
000000c0: d686 923d 40bf f43d 2597 f9bd 9561 663e
000000d0: dca9 ce3c 6636 fd3d 674a c93d de65 9b3e
000000e0: a6ec 3dbe 6597 b4b9 b9a3 d83b 6ec6 f9bd
000000f0: 70b7 8c3c b356 643d b8ff 0b3d f384 fe3d
00000100: fd71 3bbe ae6a 40be f1fb 85bd 7359 cb3e
00000110: 6383 0fbe 2a8b 0ebe eb5f 8bbe 9065 6e3d
00000120: e544 08bd b535 43be 18ec 263e 5e80 1d3b
00000130: dfe2 f9bd 6c5e f7bd f05a 8abd 462f 2b3e
00000140: 750f 573e 6795 8dbd 9848 673e 6586 b03d
00000150: b7d3 8abd d600 1b3c 38be d5bd 1aac 35bd
00000160: 561c 143e e9fc b43d 17a5 12be 1b93 b63c
00000170: bb16 a43d cf79 643d ba53 aa3c e6a7 223e
00000180: fb99 713e 49f8 18be ec5c 8cbc 7ca8 173d
00000190: 6413 c6be 4b5e c03e c3b7 a13e 9eed 2cbf
000001a0: 5fb5 b13f 52f8 833e d51b cebe e011 e5bf
000001b0: d1c0 b83e 45ba f63d f9be 3a3f 71a8 fc3e
000001c0: 3243 313f 7fdd 25bf 5399 2cbf c7f0 0fbf
000001d0: 1f91 3d3e 336d e43d d587 9fbf f55b 903e
000001e0: 275d c6be 8004 93be 53b5 c4be 6fdc 73be
000001f0: 80d0 953e 847b c1be 4b45 39bf e558 003f
00000200: 4020 f0bd f0c1 903e cca0 c6be dd4e 4cbe
00000210: 6aae 2ebe 8732 16bf 639c 4e3e 4ba4 573f
00000220: 7caf 14bf 740e bbbf e1b4 69bf c843 4abf
00000230: 3e6f 003f 5771 e7be 64ba a73e 52d4 353f
00000240: eb1b 693f 6bbd 533d 91a0 b23e 57b8 ca3f
00000250: 1952 28be 4698 80be 1ad8 593e 34b7 393f
00000260: 4258 0bbf d6a1 953e f0fd 293f 402e 62be
00000270: dbb7 1d3f 1c6b bb3c af30 48bf 9f6a 98be
00000280: 5d94 853e 9f73 4c3e 96f1 be3d c26a 973e
00000290: c33c 89be f669 f3be 6ca3 073e 5593 963f
000002a0: ee7e 8cbe e522 8d3f 3af4 5c3f ac98 c8be
000002b0: 008b a1be ff47 513e 6022 84bb a6ce a6be
000002c0: a380 e83e e147 ddbe a098 a13e d681 5a3f
000002d0: 7ccc 66bf 4f22 0f3d 81f5 78be 3e79 873e
000002e0: 8101 ab3e b6ca 23be 5a4b e2be b083 803d
000002f0: f54e ea3e 56cb 803f 8cb9 023f 2542 1ebf
00000300: 4388 ed3e b057 4dbf 1fb2 9cbe 9871 303f
00000310: e3dc e43e 2d57 c13e ae98 493f 24d3 74bf
00000320: bd3a 38be 28ea afbd e8ef 50be a036 0cbe
00000330: 8aab fc3d 6b0f 78bd b975 153e 77b8 3cbe
00000340: 2d11 31be cf58 0cbb 1f7d b7bc d3fd b9bd
00000350: 1707 77be 130c dcbc cea9 f33d cdb4 a3be
00000360: 1568 3a3e 6de0 ecbd 2ed4 49be 9a21 ce3d
00000370: f484 fabd fc1d dabc d1e3 b4be b1cf 113e
00000380: 6743 1abe a261 72be ff07 e9be c6b9 03be
00000390: a175 853d 2ef7 463e cf34 073e f873 5bbe
000003a0: 4219 383d c0e5 b23d bfc4 2dbe 2816 49be
000003b0: b292 363e 4823 b23c 2f12 e7bc 1084 263e
000003c0: 37db adba eefa 883e a780 fd3c b279 23be
000003d0: 10f6 b83e 8768 88bd e280 a0bd 435c 033e
000003e0: 53fe 583e fc14 ba3d fcc9 c7bd b9f9 91bd
000003f0: 593d da3d 3114 253e 6a34 cdbd 6a8e 463b
0.18982136 -0.09505769 -0.20576285 -0.09428294 -0.16002123 0.11641223 -0.09908598 0.055338614
0.0070239073 -0.045554154 -0.028225524 0.20098309 0.11918741 0.11418067 0.06508338 -0.1438901
-0.23235418 0.3423456 0.11318288 -0.14131981 0.18829174 -0.015472744 0.11167109 0.20884587
0.2746047 -0.15973711 -0.05347547 0.10226855 0.15552036 0.14061739 0.16668883 0.102231234
-0.10193258 -0.060740598 0.039866284 0.13909276 -0.025238708 0.27880603 -0.0019406276 0.26480013
0.14385909 0.007823 0.08343606 0.097105525 0.017649624 0.19192176 -0.27029148 -0.0840274
0.07154624 0.119505405 -0.12187032 0.22498162 0.02522748 0.12363891 0.09828644 0.30351156
-0.18547305 -0.00034445073 0.006611314 -0.121960506 0.017177314 0.055746745 0.03417942 0.12427702
-0.18305202 -0.18790695 -0.06542195 0.39716682 -0.14014964 -0.13920274 -0.27221617 0.058202326
-0.033268828 -0.19063456 0.16301 0.0024032812 -0.12201475 -0.120785564 -0.06755626 0.16717252
0.2100199 -0.06913262 0.22586286 0.08619384 -0.06778663 0.0094606485 -0.10436672 -0.044353582
0.14463934 0.08837301 -0.1432079 0.022286942 0.08012148 0.05578023 0.020791877 0.1588436
0.23593895 -0.14938463 -0.017134152 0.037025914 -0.3868667 0.3757194 0.31585512 -0.67550075
1.3883475 0.2577539 -0.4025561 -1.789608 0.36084607 0.12047247 0.7294765 0.4934726
0.69243157 -0.647911 -0.67421454 -0.5622677 0.1851239 0.111536406 -1.2463328 0.28195158
-0.38742945 -0.2871437 -0.3841959 -0.23814557 0.29260635 -0.37789547 -0.7237136 0.5013564
-0.11724901 0.28272963 -0.38794553 -0.19951959 -0.17058721 -0.5867085 0.20176844 0.84235066
-0.5808027 -1.4613786 -0.91291624 -0.79009676 0.5016974 -0.4520366 0.32759392 0.710271
0.91058224 0.051694315 0.34888127 1.5837506 -0.16437568 -0.25116175 0.21273842 0.7254517
-0.54431546 0.29225034 0.664031 -0.22087955 0.61608666 0.022878222 -0.78199285 -0.29768845
0.26089755 0.19965981 0.093234226 0.29573637 -0.2680417 -0.4754178 0.13245934 1.1763712
-0.2744059 1.1026274 0.8631016 -0.3917898 -0.3155136 0.2043762 -0.004032418 -0.32579535
0.45410642 -0.43218902 0.31561756 0.85354364 -0.9015577 0.03494483 -0.24312402 0.26459688
0.33399585 -0.15995297 -0.44198114 0.062751174 0.45763364 1.0062053 0.5106437 -0.6181968
0.46393022 -0.80211926 -0.30604646 0.6892333 0.44699773 0.37761822 0.78748596 -0.95634675
-0.17991157 -0.08589584 -0.20404017 -0.13692713 0.12337406 -0.06056158 0.14595689 -0.18429743
-0.17291708 -0.0021415239 -0.02239853 -0.09081616 -0.24123798 -0.026861226 0.11897622 -0.31973878
0.18203767 -0.11566243 -0.19709846 0.10065003 -0.1223239 -0.026625626 -0.3533006 0.14239384
-0.15064774 -0.23670056 -0.45513913 -0.12863836 0.065165766 0.19430229 0.13203739 -0.21430957
0.044945963 0.087352276 -0.16969584 -0.19637358 0.17829397 0.021745339 -0.028206913 0.16261315
-0.0013264184 0.26753944 0.030945135 -0.15964392 0.3612523 -0.06660562 -0.078370824 0.12828164
0.21190767 0.09086034 -0.09755322 -0.07127709 0.106562324 0.16120984 -0.10019763 0.0030297288

bias_ih_l0 f4 [400]
00000000: 2d9d 283e 20ef 6dbf 6473 28be bd16 bf3d
00000010: b123 89be 89f0 c6bd c579 d73c cb5a e7be
00000020: 0780 703e d8af 31be 087d a13e 6510 1a3e
00000030: a501 683e 1398 9dbd c6e1 c4bd fe6c a33e
00000040: 689f 53bd b8f6 c1be f2f0 ab3e 5845 cabb
00000050: 5533 96bd 880d debe 64b7 00bc d938 06be
00000060: ecc2 423e fedf 173e 5983 8c3e d9a9 cabd
00000070: d853 8c3d ba89 753e fb5e f43d 6aea 07be
00000080: a424 1d3c 3be2 8b3e ad0d acbe 589d 80be
00000090: 7e74 cd3c 1afe e43e 6025 16bc 7217 853d
000000a0: 0139 33be a6fd c33d 0060 a8be 1b1c 9cbe
000000b0: 8984 17bc b8b7 1dbd 034a e33d 6a10 87be
000000c0: 60db 9f3e 1ccd 6f3e 6f55 febc 6f46 873e
000000d0: 5568 b03d da16 133e edc9 933e bc1a 223e
000000e0: 65f5 b63e a76d cfbd cdc2 61be 5be6 073e
000000f0: 8c26 9cbe 18f8 b03d 1641 d4be e9d4 84be
00000100: 7e3e fa3d b68e 0bbd 77b4 6f3e aa68 94bf
00000110: e5b4 6fbe ec8a 323e 4d5e 743e d366 453e
00000120: d579 5b3d d1c7 33be adb7 30bf 3e54 11bf
00000130: 8278 803e 4167 09bd c0ca 8abe 8c5a 00be
00000140: c889 2dbc 4d2a 703e be3c b93e 54b1 413e
00000150: 41f4 cf3c 4959 46be a385 b2bd 44e0 a43d
00000160: ae55 573e 8296 983e 7c6d 72bd 5b35 2a3e
00000170: f781 763d a065 3cbe 4fd9 8e3e b59f 153e
00000180: 9f95 b33e db7b 0f3e 4b34 813d 5227 843d
00000190: 54ef 483e 1198 a33f 775d 6a3e 33cb f03d
000001a0: 03fe bebd 9697 13bd 8405 023e e6f9 023e
000001b0: 3d6b e83d 4296 e33e e937 883f c585 f93d
000001c0: 9fc4 67bd e48c 0a3f 02d4 273f 994c 653e
000001d0: ea2d b23e 1742 51be c6f9 76bb 70f8 11bd
000001e0: a7b8 ca3e d945 e83f 18d7 323e 6544 513d
000001f0: be20 c23e 8ef5 b93d fb85 493e b67c fc3e
00000200: 0d26 7f3c d02f 7bbd 5a7c 233e aef4 b13e
00000210: 5be7 8d3c c6b0 583e a44f e33e 2c22 a73d
00000220: c243 563f 24e9 6abd 2383 a53e 86cc 16be
00000230: 1663 e33e fc9a 263d be8c fd3e 8e2f 023f
00000240: 166a e43d 5bd3 173e 5032 90bd cbbc b13d
00000250: 75aa 14be c7e1 de3d ecf1 833d 9aeb 06be
00000260: 571d 123e ccb8 613e 2e23 b93e a672 943e
00000270: 599c 943e bef1 003d 235b 4f3e 83c9 763e
00000280: 1c81 7b3e 3962 2a3d 0785 9d3f c80b 473f
00000290: 4913 0ebd 97af 763e 9bcc d23c 60fe b33f
000002a0: 3f16 023f 3652 aa3d 970e 1e3e 7564 b33e
000002b0: 9920 0d3f 894d b7be a8ce 323f 3c6f ef3c
000002c0: bafa 85bc 60fc 073f 1171 4b3e 4cc3 463e
000002d0: 3c55 843f 478d 1a3e 6efd 013d c27e 633e
000002e0: c0cf 953f 2fde 463e dbcd 1b3f eb4b 1d3e
000002f0: add7 d13e 4f1f 083e e229 3e3d f227 953b
00000300: 225c 43bd ae27 723e 5b13 443e 6590 dc3d
00000310: b8cd 5fbe 4c87 263e 3d7b 683e c3f4 8f3e
00000320: df60 4d3d 90db b7bf 662e 11be 6fb2 35bd
00000330: d7ec 31bf 6fee 49be 61bc 72bd c67a e9be
00000340: f630 94bd b161 043e 2d43 a4be 451a 4dbe
00000350: 05ee e03e 810b 283d 8cac c3be c7e1 98bc
00000360: a5d0 a2be c0a3 ca3e 2896 1bbe 9b67 04bf
00000370: 12a1 1abe a0c3 35be dea8 aa3e cff6 c83e
00000380: 93e1 acbe b6f0 1d3d 16c7 aa3d 867a 94be
00000390: cc7a 4f3d 7d43 88be b008 983e ddf5 d1be
000003a0: 3d83 573e 9512 063e 3d4a 373e 2213 1abf
000003b0: e0c0 abbf 588e 5d3e 4b5e e73c 1e83 1bbf
000003c0: f5eb 263f 5427 b53c 7d3c 0d3f cea6 b93e
000003d0: d45e bebd 23d4 043e 7227 b53e db7e 96be
000003e0: 12ca 873e b367 f4bd a6c1 f23e d0de d63d
000003f0: 74de 3d3d fc84 08bd 164e 6abe 6e79 9bbe
0.16466208 -0.92943 -0.16450268 0.09330509 -0.26785043 -0.09713847 0.026303181 -0.45186457
0.23486339 -0.17352235 0.31540704 0.15045317 0.22656877 -0.076950215 -0.09613375 0.31919092
-0.051665694 -0.37883544 0.33582264 -0.006172817 -0.073340096 -0.433697 -0.007856224 -0.13107623
0.1901967 0.1483154 0.2744396 -0.09895677 0.068519294 0.2397832 0.119321786 -0.13273016
0.009591255 0.27321038 -0.33604184 -0.25120044 0.025079962 0.44725114 -0.009164184 0.064986125
-0.17502214 0.09569864 -0.32885742 -0.30490193 -0.009247907 -0.038505286 0.11098101 -0.2637971
0.31222057 0.23418087 -0.031046597 0.26420924 0.0861365 0.14364186 0.28864995 0.15830511
0.35734096 -0.101283364 -0.22046967 0.13271467 -0.3049816 0.0864107 -0.41455907 -0.25943688
0.12218951 -0.034071647 0.23408686 -1.1594441 -0.2340885 0.17435807 0.23864098 0.19277506
0.053582985 -0.17556693 -0.69030267 -0.5676917 0.2509194 -0.033545736 -0.2710781 -0.12534541
-0.010591932 0.23453636 0.36179155 0.18915302 0.025385024 -0.19369997 -0.087168954 0.08050588
0.21028778 0.29802328 -0.059186444 0.16621916 0.060182538 -0.18398142 0.27900168 0.14611705
0.3507509 0.14012091 0.06308802 0.06452812 0.19622546 1.2780782 0.22887217 0.11757507
-0.09325793 -0.036033235 0.12697417 0.12790641 0.11348579 0.44450575 1.0642062 0.12183718
-0.056583997 0.5412123 0.65557873 0.22392501 0.34800655 -0.20435368 -0.0037685498 -0.03563732
0.39594004 1.8146316 0.17464864 0.051090617 0.37915605 0.09080039 0.19680016 0.49313897
0.015573037 -0.061324894 0.15965405 0.34756988 0.017322233 0.21161184 0.44396698 0.08160815
0.8369714 -0.057351246 0.32326612 -0.14726457 0.44411534 0.04067515 0.4952144 0.5085381
0.11153047 0.1482672 -0.07040846 0.086785875 -0.14518149 0.10882907 0.06442627 -0.13175812
0.14269005 0.2204315 0.36159652 0.2899372 0.29025534 0.031480543 0.2024961 0.24100308
0.2456097 0.04159758 1.2306222 0.7775235 -0.03468636 0.2409042 0.02573233 1.4062004
0.50815195 0.08316462 0.15435253 0.3503758 0.55127865 -0.35801342 0.6984658 0.029227845
-0.016354907 0.5311947 0.1986735 0.19410437 1.0338511 0.15092956 0.03173583 0.22216323
1.1704025 0.19420694 0.60860986 0.15360992 0.4098486 0.13293193 0.04642666 0.004551881
-0.047695287 0.23647949 0.19148009 0.107697286 -0.21855819 0.16262549 0.22703262 0.28116426
0.05014121 -1.436388 -0.14177856 -0.04435962 -0.69502014 -0.19719861 -0.059261683 -0.4560148
-0.07235901 0.12927891 -0.320825 -0.20029552 0.43931594 0.041026596 -0.3821758 -0.018662347
-0.31799808 0.39578056 -0.15193999 -0.5172059 -0.15100506 -0.17750406 0.3333196 0.392508
-0.3376585 0.038559638 0.08338754 -0.28999728 0.050654218 -0.2661399 0.29694128 -0.4100789
0.21046157 0.13093026 0.17899413 -0.60185444 -1.3418236 0.21636331 0.028243205 -0.60746944
0.6520379 0.02211348 0.5517042 0.36260074 -0.09295431 0.12971549 0.35381657 -0.29393658
0.26521355 -0.119338416 0.47413367 0.10491717 0.046354726 -0.03332995 -0.2288135 -0.3036608

bias_hh_l0 f4 [400]
00000000: 55df 423e 0f46 75bf 9429 3bbe 012b 813e
00000010: 0802 01be 843c 6f3c 1bed 6b3d 67e7 b2be
00000020: 236e 693e 7084 64be 4319 953e 7fb4 4c3e
00000030: c84c f93d 2249 25bd 5167 303c a258 1c3e
00000040: 5ada 903c 40c5 93be 8ab4 b43e 4fa7 9d3d
00000050: ad66 5a3d bae0 b7be ccec 3f3e f571 34be
00000060: 6e3e 403e 396b 623d 8f27 7e3e 081b 5fbd
00000070: 5d6b 843c 2ce2 cc3d 30ac 7a3e 73f0 90bd
00000080: a06f d23d 6d7d d13e 897a 66be cee9 9cbe
00000090: 30f9 ad3d 5803 ee3e a393 f6bd d086 163e
000000a0: dfbc 02be a665 f83d 3885 b0be c7a5 98be
000000b0: 5132 fe3d d17f 8b3d 6b05 d5bc 1983 34be
000000c0: 6c53 343e 633a b43e 00a5 18bd b198 aa3e
000000d0: 0403 8b3e 464f 393e 5ea3 5e3e ea4b 47bc
000000e0: 9148 e93e 53a0 d03c 8bf2 56be 931e 7b3d
000000f0: 0ebf 3ebe abc9 873d 0029 0bbf 5182 72be
00000100: 761a 513e cc5b 303d b587 823e 2a2d a0bf
00000110: 8578 b1bd 58e3 933e 8cc3 ac3e dba5 7b3d
00000120: 359a 21bd a511 28be 6dac 2ebf 4f60 dfbe
00000130: a2dc 9f3e 1b92 0abd 4204 97be 30fe 0fbe
00000140: aa42 71bc 1854 d13e 08e6 af3e 8000 1c3e
00000150: feed 713d 83b0 20be be5b f13c e770 613e
00000160: b9fd 863e b0e5 9b3e 4b66 1c3d 01f0 443e
00000170: 8dc5 923d ae0c c3bd c418 003e fbb9 193e
00000180: 81ab e83e cade 843d d0da 4e3e 6020 563e
00000190: 1c63 823e ffe6 b13f e176 4d3e 98a9 843d
000001a0: a3c0 ccbd 2653 d43d d4a3 273e 1605 7c3e
000001b0: e1aa 893d e604 b03e efdf 823f e989 7b3d
000001c0: 1f4c 1cbd 50fa 1b3f 5ad4 1f3f 3172 483e
000001d0: 8004 e13e 7067 90bd e88c 863d d6b3 5abd
000001e0: 8214 ef3e 0db5 fb3f 3ac3 153e 3843 e53d
000001f0: d2ba ce3e 1e49 3a3d c706 133e 78b9 fd3e
00000200: 3d5a c7bd 1113 8bbd 30a0 5a3e ec1d b03e
00000210: 92b5 3e3d de88 0e3e 8f52 883e 2e39 da3d
00000220: 8e06 603f bf20 133c b7e1 aa3e b0a0 5cbe
00000230: 2aa5 db3e e26c 87bc b4d7 053f 8fb4 d53e
00000240: 7800 bf3d 086f 853e 20f4 e0bd 43e7 593e
00000250: b9ad 15be 5d5d 023e b0bc 9e3d 9389 f9bd
00000260: 773c 323e 61fa ac3d 9218 963e e4b5 a93e
00000270: fd61 b23e 1a20 c63d eaec 333d 7e49 f93d
00000280: 5252 963e fbf4 073e d19a 953f 448e 3c3f
00000290: 6a1a c63d add9 9c3e b100 36bd 8485 bb3f
000002a0: 6f50 023f a8a3 833d ff39 0f3e 079c b53e
000002b0: d9bd 0e3f 7b5f 99be 8689 403f e90c 0d3d
000002c0: 7afc 543d 4c9e bf3e 4be5 4f3e 8cd8 033e
000002d0: a7b3 733f fe19 7abc 2fc5 f13d 1e07 c43d
000002e0: 58bf 9a3f 81b7 5f3e 7f33 133f 09d7 8c3e
000002f0: 014f ab3e 97e7 163e db23 053e 9422 ef3b
00000300: 892e 09be c12b b53e ffd6 623e dace 063c
00000310: de09 50be a09e 333e 2b7b f03d 9708 9e3e
00000320: 5443 ab3d 2456 aebf 0a30 15be 2f0d b03c
00000330: f3e7 21bf 0b56 e1bd 2339 18bd ac0f 0dbf
00000340: edc1 83bc 5282 2b3d 21c4 85be 4596 aabe
00000350: 4ff0 aa3e ad89 473d 86c3 d8be a662 afbc
00000360: 01ef 96be 3b34 673e 1d64 8abc 59dc 0abf
00000370: a836 20be 88e1 4cbe 5af6 943e b7a1 cb3e
00000380: a792 9dbe c0bd 11bb 4e11 d43d db46 16be
00000390: d350 093d 6555 9bbe 546f 9e3e 45c6 c1be
000003a0: a117 553e 1a12 a33e e4c6 953e 3a0c 1fbf
000003b0: cc96 9dbf 741d 333e bb6e 6fbd 36fa 11bf
000003c0: 25cc 1d3f 1e44 f2bb f7d1 233f 427d ba3e
000003d0: 28e1 e5bd 72a6 9f3c da7f f03e 5ea9 86be
000003e0: 25ba 123e d893 54be 70b7 103f 61e2 b63d
000003f0: c089 15bd 05b7 8dbd 6c95 1ebe f460 39be
0.19030507 -0.95810026 -0.1827758 0.25228122 -0.12598431 0.01460183 0.05759917 -0.3494217
0.2279592 -0.22316146 0.29120836 0.19990729 0.12172848 -0.040352948 0.01076682 0.15268186
0.017682243 -0.28861427 0.3529399 0.07697927 0.053320576 -0.3591364 0.18742675 -0.17621596
0.18773815 0.055278037 0.24819778 -0.05446914 0.016164476 0.10004076 0.24479747 -0.07077112
0.10275197 0.40916005 -0.22507681 -0.3064713 0.08494794 0.46486926 -0.12039878 0.14699864
-0.12767361 0.12128763 -0.34476638 -0.29813978 0.12411941 0.068114884 -0.02600356 -0.17628135
0.17609948 0.35200796 -0.03726673 0.3331962 0.27150738 0.18096647 0.21742007 -0.012164095
0.45563176 0.025467074 -0.2099096 0.061308455 -0.18627569 0.06630262 -0.54359436 -0.23682524
0.2042025 0.043056294 0.2549416 -1.2513783 -0.086655654 0.28884387 0.3374294 0.06143747
-0.039453704 -0.16412981 -0.6823185 -0.43628165 0.31223017 -0.033830743 -0.29495436 -0.14061809
-0.014725367 0.4088447 0.34355187 0.15234566 0.059064858 -0.15692334 0.029462691 0.22015725
0.2636545 0.30448675 0.03818349 0.19232179 0.07166586 -0.09523903 0.12509447 0.15012352
0.45443347 0.06487806 0.20200658 0.20910788 0.2546624 1.389862 0.2006488 0.0647766
-0.0999768 0.10367422 0.16371089 0.24611315 0.06722046 0.34378737 1.0224589 0.06141082
-0.038158532 0.6092882 0.624334 0.1957481 0.43948746 -0.07050979 0.065698445 -0.05339416
0.46695334 1.9664627 0.14625254 0.111944616 0.40376908 0.045479886 0.14358054 0.49555564
-0.097340085 -0.06790746 0.21350169 0.3439783 0.046559878 0.13919398 0.26625487 0.106554374
0.8751 0.008979975 0.33375332 -0.21545672 0.42899448 -0.016531412 0.5228226 0.41739318
0.09326261 0.26061273 -0.10984063 0.21279626 -0.14617051 0.12730928 0.07750833 -0.12184443
0.17405878 0.084461935 0.2931562 0.33146584 0.34840384 0.09674092 0.04392711 0.12172221
0.2935968 0.13277046 1.1687871 0.7365458 0.09673007 0.30634823 -0.044434253 1.4650121
0.5090398 0.06427699 0.13986968 0.35470602 0.55758435 -0.29955658 0.75209844 0.03443614
0.051998593 0.37425458 0.20302312 0.12875575 0.95196 -0.015264986 0.11805188 0.0957167
1.2089643 0.21847345 0.5750045 0.2750781 0.33458713 0.14736782 0.13001959 0.007297823
-0.13396658 0.35384944 0.22152327 0.008228028 -0.20316264 0.1754098 0.117422424 0.3086593
0.08362451 -1.3620038 -0.14569107 0.021490661 -0.6324455 -0.110027395 -0.037163865 -0.5510204
-0.016083682 0.04187233 -0.26126197 -0.33317772 0.33386466 0.048715282 -0.42336673 -0.021409344
-0.2947922 0.22578518 -0.01689344 -0.54242474 -0.1564585 -0.20007908 0.290942 0.39771816
-0.3077595 -0.0022238344 0.10354863 -0.14675467 0.033524346 -0.30338588 0.30944312 -0.3784658
0.20809795 0.31849748 0.29253304 -0.6212803 -1.2311645 0.17491704 -0.05845521 -0.57022417
0.61639625 -0.007393374 0.63992256 0.3642369 -0.11224586 0.019488547 0.46972543 -0.26301092
0.14328821 -0.20759523 0.56529903 0.08929897 -0.03650832 -0.06919674 -0.15486687 -0.18103391

weight f4 [2, 100]
00000000: a019 dbbe 8a34 e6be 3285 0d3f 55f2 f83e
00000010: a02b 803e 31f3 b43e 8cae 17bd b290 c73e
00000020: 2f58 81bf f688 4a3f efb6 14bf 82b7 36be
00000030: 94f3 3d3f 786e d13e 81a1 203f dfab 27bd
00000040: f89b a6be c46b 62bf ac4a 8d3f 33d9 20bf
00000050: 9964 3f3f 5d2b fb3e 7fa6 07be e41f 203f
00000060: 6e7b dbbe a828 ce3e 0c45 0ebf c005 cd3e
00000070: e62d a2bf 12d3 1a3f 9a6d 5f3f b405 f03e
00000080: fef6 39bf 1f07 bf3e 4c81 ecbe 7a09 183e
00000090: e832 d0be d5ea 5fbd 34cc bb3e 16e4 333f
000000a0: 8d53 9f3e 1ad8 53bf 94f6 31bf 673d f93e
000000b0: cdce eabe 0374 3d3f 3291 06bf 1bd9 7d3e
000000c0: 4ced a8bf e89c 31bf 97cc 86bf 80a2 51bf
000000d0: 690d 293f 536f d3be 7b51 07be 6841 483f
000000e0: da0e 863f 1991 953f 9405 9f3e e176 34be
000000f0: 5c4b 013e be1c 9d3e 4cdf 81be 11fa 393f
00000100: 37e5 2b3e 5087 0cbf 8e72 a83f 4ef5 41bf
00000110: 2e9a fabe 6487 0f3f 191a ca3e 800a 5d3e
00000120: 3e07 95bf 5a56 813f 5ad4 1fbf bb1d 193f
00000130: c4cb 36bf 40ec 083f 97a6 ddbe 98ef 80be
00000140: f901 8e3c cc28 59bf 4b2d a6be f2f7 e4be
00000150: 187f cc3e 7c0b 5c3e 4849 19bd d610 083f
00000160: 9d5c 47bd 968a 1f3f 9f09 2cbe 8681 11bf
00000170: c2ac 3bbf daa0 54be 619a 363f bd02 9c3f
00000180: 9879 053c 2acc 5abd f357 9ebe d587 043c
00000190: b068 113f af62 e83e 3b83 dabe efb7 d7be
000001a0: 7629 43be f03f adbe 5ccf bf3d 3cd4 fabe
000001b0: f49b 5e3f 9fef 44bf de61 233f 7c72 ac3d
000001c0: 0695 49bf a2b6 b5be ff19 3fbf 88b5 343e
000001d0: de07 aa3e ee49 6a3f 3b65 97bf 966c f93e
000001e0: b578 46bf 258f 07bf 6ff6 743e 4ae1 1bbf
000001f0: 6cf4 d33e 45f1 f0be 67a8 e43e 9567 00bf
00000200: 0579 a23f 5577 2cbf 15c5 46bf d92d f5be
00000210: 83ee 543f 3765 c9be 315b 223f 8418 edbd
00000220: 9c3b 6d3e 54c7 f83c a8d4 b0be e23f 3ebf
00000230: 1213 9dbe 043b 523f ba11 313f 54c1 c8be
00000240: 8b17 f23e 5e1b 41bf aa77 f93e cfb1 68be
00000250: bc7e a43f d24f 153f 9897 7b3f 21f9 5f3f
00000260: 7110 18bf cbfa d53e 1cfb 4b3d b6d8 43bf
00000270: 366a 85bf f077 92bf c639 8dbe c150 6e3e
00000280: f587 1bbe 06d7 92be 680d 533e f0d3 3cbf
00000290: bf12 58be db08 153f 764c b0bf 158c 563f
000002a0: 7182 e63e 0367 01bf 3d5a c1be d2f6 f7bd
000002b0: d1fb 9e3f b446 73bf 1bc2 203f ac6a 22bf
000002c0: 4a29 1f3f 9443 1bbf 41e1 fa3e f801 c33e
000002d0: c0ba 95bd 0f3c 523f 8699 bb3e 2664 023f
000002e0: 53c8 fcbe 3829 0bbe 6458 9e3d 867a 05bf
000002f0: d073 d73d 9c1b 27bf 7d29 8e3e dc17 323f
00000300: bbd6 483f 7f07 a13e 7a1c 46bf f1df 8bbf
00000310: e1f4 173e 8a7c 253e 1d7e 593e 03a6 b7bd
-0.42792988 -0.4496196 0.55281365 0.48622385 0.25033283 0.3534179 -0.037031695 0.3897758
-1.0105036 0.79115236 -0.58091635 -0.1784344 0.74199796 0.40904593 0.62746435 -0.040935393
-0.3254087 -0.8844569 1.1038413 -0.6283142 0.74762875 0.4905652 -0.13247107 0.6254866
-0.42867607 0.40265393 -0.5557411 0.4004345 -1.2670257 0.6047832 0.87276614 0.4687935
-0.72642505 0.3731012 -0.46192396 0.14847365 -0.40663838 -0.054667313 0.36679232 0.70269907
0.31118432 -0.8275162 -0.69516873 0.4867966 -0.458609 0.74005145 -0.525653 0.2478985
-1.3197417 -0.69380045 -1.0531186 -0.8188858 0.6603609 -0.4129587 -0.13214676 0.782248
1.0473282 1.1684905 0.31058943 -0.17623474 0.12626404 0.3068599 -0.25365674 0.72647196
0.16786657 -0.5489397 1.3159959 -0.7576493 -0.48945755 0.56065965 0.39473036 0.21586037
-1.1642835 1.0104477 -0.624334 0.5981099 -0.7140467 0.5348549 -0.4329116 -0.25182796
0.017334925 -0.84827876 -0.3245643 -0.44720417 0.39940715 0.21488756 -0.037423402 0.5315069
-0.048672307 0.6232084 -0.16800545 -0.5683826 -0.7331048 -0.20764485 0.71329314 1.2188336
0.008146666 -0.053417362 -0.30926475 0.0080890255 0.56800365 0.4538779 -0.42678246 -0.42132518
-0.19058785 -0.33837843 0.093657225 -0.48990047 0.86956716 -0.7692813 0.6382121 0.08420274
-0.78743017 -0.354909 -0.7464904 0.17647374 0.33209127 0.9151906 -1.1827768 0.48715657
-0.77527934 -0.52952796 0.23922132 -0.6089064 0.41397417 -0.47059074 0.4465973 -0.50158054
1.2693182 -0.67369586 -0.77644473 -0.4788654 0.8317644 -0.39335033 0.634204 -0.115769416
0.2316727 0.030368485 -0.34537244 -0.7431623 -0.30678612 0.821213 0.69167674 -0.39209998
0.47283587 -0.75432384 0.4872411 -0.22724079 1.2851176 0.5832492 0.9827819 0.87489516
-0.5940009 0.41792902 0.049800023 -0.7650255 -1.0423038 -1.1442852 -0.2758314 0.23272993
-0.15188582 -0.28679675 0.20610583 -0.7376089 -0.21100901 0.5821664 -1.3773334 0.838075
0.45021394 -0.5054781 -0.3776416 -0.12107624 1.2420598 -0.9502976 0.6279618 -0.6344402
0.6217238 -0.6064999 0.4899998 0.3808744 -0.0731101 0.8212289 0.36640567 0.50934064
-0.49371585 -0.13589942 0.07731703 -0.5214008 0.10520136 -0.65276504 0.27766028 0.69567657
0.7845265 0.31451032 -0.773872 -1.0927716 0.14839508 0.16160789 0.21239515 -0.08967211

bias f4 [2]
00000000: 8ccc 9ebc 6a12 19be
-0.019384645 -0.1494843
