12 Movies/simple_movie_RNN.pt (torch, 16738 bytes, 6 tensors)

weight_ih_l0 f4 [10, 300]
00000000: ab62 7d3f 7116 7ebd fdde abbe 7eb7 bbbd
00000010: af67 b23e 296a 87bd afaf 0d3f 5aa5 7abe
00000020: abc4 f0bd d17a c63e 9652 b63d 6c9b 7d3e
00000030: 56b5 14bd e8fd 5a3f 380d 0abf a1e4 823e
00000040: 9596 2e3d 4889 dabd 35ec f93e 104c 8abe
00000050: e212 d7bd 12db c5be c9cf dd3e 8dd4 823e
00000060: 4011 c03e 9bd7 2f3d 87fd 84be d5bf 48bf
00000070: 27a4 3b3d 6726 f1be a772 f1be fb88 273f
00000080: 9d96 e43e a66f a7bd 6fb6 eabd b366 95bd
00000090: e65f 10bf 0419 423d ffde d13b 35c8 8d3e
000000a0: 9ad7 77ba 9070 e5be ea53 61be 6605 aa3e
000000b0: a277 663d 712a 32be a89a a93c 14b0 4a3e
000000c0: d069 33bf 84af 0dbf f192 8d3f de64 b93e
000000d0: 003d b3bd f2c3 13bf 57dd 563e 17e6 f13e
000000e0: 3880 b23e 9b88 02bf 6ddf 853e 63a1 4d3e
000000f0: 7308 973e 3bd7 993e ad98 29bf f79b 373e
00000100: bd75 323e 52d8 8abc 8553 403f 7438 04be
00000110: cb53 00bf 2cd3 3e3a 70b4 51be 382d 093f
00000120: 03b6 54bf 4d6d bb3e 103e 24be f01c a7be
00000130: c806 f63e 489f 4cbe 9500 943e 1072 f5bd
00000140: 8613 c0bd 685c 76bd 17e9 c83d 258a 06bf
00000150: d728 ecbd 76ac cf3d de94 d33d 7a37 01bf
00000160: 5a3b 6fbd ea19 c8be e1b0 bcbd ac57 d93d
00000170: 857f bd3e 0a32 1dbe 5e3a 29bf c88b bdbe
00000180: 44ba 50be f6aa b23e faa7 d0be ebfc 5dbf
00000190: ef84 a6bd 0252 a3be ca54 b13e a675 d03e
000001a0: 8b8c 05bf 7d8b 7c3e 86d6 b7be 9ca4 c93e
000001b0: cda2 5cbe 221b 703c 77c8 123e 28b1 b33e
000001c0: fefc 0dbf 05bc 51bf 9e27 bd3d cf21 2c3e
000001d0: d28e 84be fedb b8be b52c a6be 1373 693d
000001e0: 3115 62be cbb4 603f 302b f53d b06a c53e
000001f0: f827 1bbf a5c2 c0bd ed5e 7e3e 3380 9b3e
00000200: 6c9d a7bd 15bc 08be f6d1 363d ef5e fbbd
00000210: 7a63 223e 30e8 1dbd 1a46 013e 025f ad3e
00000220: 6aa7 99be 199d 833d 7d76 623e 041a ffbc
00000230: d5de c53e b2bf 6a3e c6d7 2bbe 8954 54be
00000240: c739 233f f5f3 2b3f e8c3 4ebf b8f7 8e3e
00000250: faa7 833e 79cf bf3e c26d c1bd 66c9 393f
00000260: e9bf d9be 134d 21bf 18d6 57be 1f79 8fbe
00000270: ad6f d53d 57a8 ac3e cf5b 073f 94a0 f3bd
00000280: cf32 e9be 446e 113e acf2 433f c1d6 8bbf
00000290: 0f83 81bd b4b8 89bc 9f07 1e3e 120d 28bf
000002a0: 9f71 a6be 0df4 06be 5998 a4be e2d9 ab3a
000002b0: 5c79 173d 7727 433f 7a51 8d3d a048 283f
000002c0: 02cd 2ebe 2ef7 fabe 185d 163f f70d d13d
000002d0: fefd 8e3e 9e3c c63d 772f febd 933a f9bd
000002e0: 1113 04bf bd2c 2e3f 1fd8 90bb 41bd 1fbf
000002f0: f2c8 4bbe 9bb4 aa3e 99c5 9f3e 9cd2 fd3d
00000300: d08c c7be a782 843e 46da 6d3e aa54 0cbf
00000310: 8fcb 53be 0fc0 39bd 3edf 693e 1979 bbbe
00000320: 6c4e 14be 4032 0d3e 0809 3c3f 61e5 d4bd
00000330: 23c4 103e 8392 623d b793 b2bd 5cf9 8e3e
00000340: 7ef2 253f 0130 3fbf 64ad 16be 795e 1ebe
00000350: bb3b 7abe 145d d4bd a792 2bbf 823d de3e
00000360: e8d8 5c3e 92f6 0cbd d4e3 923c e661 eb3e
00000370: 4ca4 60be 8fce 14be c0d1 02bf d377 e43e
00000380: 1cd8 9f3e 31b5 883e 0a6b 4ebf db91 ce3d
00000390: 5428 8dbe 1f59 0c3f 9573 72bf 2bb6 0c3f
000003a0: 2634 1abe dc71 333e 4ff7 1fbf 1f9c a0be
000003b0: 7bd0 2abe c4df 0ebe 881a c3be 4969 b23d
000003c0: ab5b 32bf 3019 fabc 308f 7b3e d6c1 7b3d
000003d0: 18b4 03bf f85b 023f 6d05 fbbd fabf d6bd
000003e0: ae54 2a3e 16a8 3f3c 5634 0dbc bf02 db3d
000003f0: 93d6 79be 471d ffbe d69e fc3e bd65 8e3e
0.9897868 -0.06203312 -0.33568564 -0.09165858 0.3484473 -0.06612045 0.55346197 -0.24477139
-0.117562614 0.38765576 0.08902471 0.2476632 -0.036305748 0.8554368 -0.5392642 0.25565055
0.042624075 -0.106707156 0.48813024 -0.27011156 -0.105016485 -0.386437 0.4332259 0.25552788
0.3751316 0.042930227 -0.25974676 -0.7841771 0.045810845 -0.4709961 -0.47157785 0.6544339
0.4464616 -0.08175592 -0.11460578 -0.07294979 -0.5639633 0.047387138 0.006404757 0.27691808
-0.00094544294 -0.4481244 -0.22004667 0.33207244 0.056266434 -0.17399003 0.020703629 0.19793731
-0.7008333 -0.5534594 1.1060468 0.36209768 -0.08751869 -0.57720864 0.20982872 0.47245857
0.34863448 -0.50989693 0.26147023 0.20081095 0.29498634 0.3004702 -0.6624859 0.1793059
0.17427726 -0.016948853 0.7512744 -0.1291216 -0.5012786 0.0007279392 -0.20478988 0.53584623
-0.8309023 0.36606827 -0.160393 -0.32639265 0.4805205 -0.19982636 0.28906694 -0.11984646
-0.09378724 -0.06014672 0.09810083 -0.5255454 -0.11531227 0.10140316 0.103311285 -0.50475276
-0.05840621 -0.3908227 -0.092134245 0.10612425 0.37011352 -0.1535112 -0.66104686 -0.37020707
-0.20383555 0.34896058 -0.40753156 -0.8671405 -0.08130824 -0.31898504 0.34635 0.4071476
-0.52167577 0.24662586 -0.35905856 0.393834 -0.21546479 0.0146549065 0.14334284 0.35096097
-0.5546416 -0.8192752 0.09236072 0.16809772 -0.25890213 -0.3610534 -0.32455984 0.05699451
-0.22078396 0.8777587 0.11971128 0.3855796 -0.6060786 -0.094121255 0.24840899 0.30371246
-0.08184323 -0.13352998 0.044633828 -0.122739665 0.1585826 -0.03855151 0.12624398 0.33861548
-0.3001054 0.064264484 0.22115512 -0.031140335 0.3864657 0.22924688 -0.1678153 -0.20735373
0.63760036 0.67169124 -0.8076768 0.2792337 0.25714093 0.37462977 -0.09444763 0.72572935
-0.42529228 -0.6300823 -0.21077764 -0.28022096 0.10421691 0.33722183 0.52874464 -0.11895862
-0.45546576 0.14202219 0.7654216 -1.0924913 -0.063238256 -0.016811706 0.15432595 -0.65644944
-0.3250856 -0.13179035 -0.32147482 0.0013111199 0.03698097 0.76232094 0.06900306 0.65735817
-0.17070392 -0.49016708 0.587358 0.10207742 0.27928156 0.096795306 -0.12411397 -0.12169375
-0.51591593 0.68037015 -0.004420295 -0.62398154 -0.19900873 0.33340916 0.31205443 0.12393686
-0.3897462 0.2588093 0.23227796 -0.5481669 -0.2068312 -0.045349177 0.22839066 -0.36615828
-0.1448304 0.137887 0.7345128 -0.10395313 0.1413732 0.055315506 -0.087195806 0.2792462
0.6482314 -0.74682623 -0.14714581 -0.15465726 -0.24436848 -0.10369316 -0.6702065 0.43406302
0.21567118 -0.034414835 0.017930903 0.45973128 -0.21937674 -0.14531921 -0.51101303 0.4462267
0.31219566 0.26700738 -0.8063208 0.100864135 -0.2756983 0.5482349 -0.94707614 0.54965466
-0.15058956 0.17523903 -0.6248674 -0.3136911 -0.16681091 -0.13952547 -0.3810618 0.08711488
-0.69671124 -0.030529588 0.2456634 0.061464153 -0.51446676 0.50921583 -0.12256894 -0.104858354
0.16633865 0.01169779 -0.008618435 0.10693883 -0.2439826 -0.49827024 0.49339932 0.27811995

weight_hh_l0 f4 [10, 10]
00000000: 5d6e 86be cbbd cebf 2a30 a33e 11c8 2cbf
00000010: a940 c2bd 6702 213e f0b4 50be fe88 a8bb
00000020: b2a3 853e 1f9d 7cbe 72b9 3abe 9427 f53f
00000030: fb2b dd3e cf44 b4be a819 093f 05e8 6cbe
00000040: 2145 883e cf20 21bf abba 833e f9ac 8fbe
00000050: ef10 f93e 52f6 8bbf 5ff1 163f 5137 3bbf
00000060: f44a 29bf 131e 043f 7487 f5be 836d 38be
00000070: 5a42 07be c529 f0bd 60e3 f5be 3de0 193e
00000080: 0793 37bf 0b50 283f d251 a73e 0548 bfbf
00000090: c80c 9b3f 001e d6be 5fd6 aebe b611 9a3e
000000a0: 48ce 9dbe 6b91 aa3f e7b8 0fbf b0e7 d9bb
000000b0: e729 643f ac01 5ebf 08ea 8f3f 6bb7 7cbe
000000c0: e6b3 903e 0865 9f3b 48f4 893f 64b7 8cbd
000000d0: d4ee b83e 0643 90be 60fb e73e 89df bb3f
000000e0: 82f9 57bf f32a 803d 6e29 553f 84aa ddbc
000000f0: 5727 4bbf 3d51 dc3e e1ec 06bf 3786 6c3e
00000100: 01bf a33d 4f36 2ebf a108 2a3f d381 883c
00000110: a64f fc3d 8b32 aabe 0485 043e 658b fabe
00000120: e3cb 83be e408 6c3d baf7 e1be ba72 343f
00000130: 8f64 16bd 81db 6a3f 7a4d f7be de8a 623f
00000140: ef29 1e3d baa9 a2bd feff 583d e000 5cbe
00000150: 0787 2a3e bdc8 293e 159f 79be 1a91 cfbe
00000160: c5fa 9d3e 2af1 debe 0be3 dd3e 9c91 18bf
00000170: eaa3 d6bd 89e7 0bbe 6503 01bf 896c 203e
00000180: e921 01bf 0909 033f a34a 073f 1d08 4e3f
-0.26256076 -1.615167 0.31872684 -0.6749278 -0.09484989 0.15723573 -0.20381522 -0.005143284
0.26101452 -0.24669312 -0.18234804 1.9152703 0.43197617 -0.35208747 0.53554773 -0.23135383
0.2661524 -0.62940687 0.25728354 -0.28061655 0.48645732 -1.0934546 0.58962053 -0.7313128
-0.66129994 0.5160839 -0.47954905 -0.18010525 -0.13208905 -0.11726717 -0.48025036 0.15026946
-0.7170872 0.65747136 0.3267961 -1.4943854 1.2113276 -0.41819763 -0.34147927 0.30091637
-0.30821443 1.3325628 -0.56141514 -0.0066499338 0.8912644 -0.867213 1.1243296 -0.24679343
0.28262252 0.004864339 1.0777674 -0.068709165 0.3611971 -0.28176135 0.4530897 1.4677593
-0.84365094 0.06258192 0.8326634 -0.027058847 -0.793569 0.4303073 -0.527052 0.23098074
0.079954155 -0.6805162 0.66419417 0.016663468 0.12319879 -0.33241686 0.12941366 -0.48934475
-0.2574149 0.057625666 -0.44134313 0.7048756 -0.036716994 0.91741186 -0.48301297 0.88493145
0.03861421 -0.07942529 0.05297851 -0.21484709 0.16653071 0.16580482 -0.24377091 -0.4054039
0.30855384 -0.4354337 0.43337283 -0.5959718 -0.10480483 -0.13662542 -0.50395805 0.15666403
-0.5044237 0.5118566 0.5284826 0.8048113

bias_ih_l0 f4 [10]
00000000: e44e f5be b10c 563f d25a 70be d609 b23d
00000010: d8f9 5c3f cabd 503f 2a1f b6bf 5c05 de3e
00000020: 91f9 b8be 1e86 143f
-0.4791175 0.83613116 -0.23472145 0.08693282 0.8631873 0.81539595 -1.422826 0.43363464
-0.36127904 0.58017147

bias_hh_l0 f4 [10]
00000000: 6468 30bd 9191 463f c086 04bc 3d61 7b3e
00000010: d31b 4d3f 8dfa 723f b633 9dbf c04d 0c3c
00000020: 2ee2 49be 84fa 0f3e
-0.043068305 0.77565867 -0.0080887675 0.24548812 0.8012058 0.9491356 -1.2281406 0.008563459
-0.19715187 0.14060408

weight f4 [2, 10]
00000000: 1094 253d f3db 03bf bdce 1fbe b69e 2abd
00000010: 718f 05bf 79b0 913f 96f1 23bf c801 c13e
00000020: 69da 20bf 49d4 bb3d 9515 5abf 12e2 c63f
00000030: 8cc0 4dbf 79cc a43e ff28 95be 1e4c 44bf
00000040: 6bdd f43e bfb0 853e 7893 6dbd e585 fcbe
0.040424407 -0.5150749 -0.15606208 -0.041655265 -0.52172 1.138198 -0.64040506 0.3769667
-0.6283327 0.091713496 -0.8518918 1.5537741 -0.8037193 0.3218725 -0.2913284 -0.76678646
0.47825179 0.2611141 -0.058001965 -0.49320903

bias f4 [2]
00000000: 9b78 abbe b290 36be
-0.33490452 -0.17828634
