16 Seq2Seq/add_ai.pt (torch, 122489 bytes, 20 tensors)

weight f4 [12, 11]
00000000: 0000 0000 0000 0000 0000 0000 0000 0000
00000010: 0000 0000 0000 0000 0000 0000 0000 0000
00000020: 0000 0000 0000 0000 0000 0000 0000 803f
00000030: 0000 0000 0000 0000 0000 0000 0000 0000
00000040: 0000 0000 0000 0000 0000 0000 0000 0000
00000050: 0000 0000 0000 0000 0000 0000 0000 803f
00000060: 0000 0000 0000 0000 0000 0000 0000 0000
00000070: 0000 0000 0000 0000 0000 0000 0000 0000
00000080: 0000 0000 0000 0000 0000 0000 0000 803f
00000090: 0000 0000 0000 0000 0000 0000 0000 0000
000000a0: 0000 0000 0000 0000 0000 0000 0000 0000
000000b0: 0000 0000 0000 0000 0000 0000 0000 803f
000000c0: 0000 0000 0000 0000 0000 0000 0000 0000
000000d0: 0000 0000 0000 0000 0000 0000 0000 0000
000000e0: 0000 0000 0000 0000 0000 0000 0000 803f
000000f0: 0000 0000 0000 0000 0000 0000 0000 0000
00000100: 0000 0000 0000 0000 0000 0000 0000 0000
00000110: 0000 0000 0000 0000 0000 0000 0000 803f
00000120: 0000 0000 0000 0000 0000 0000 0000 0000
00000130: 0000 0000 0000 0000 0000 0000 0000 0000
00000140: 0000 0000 0000 0000 0000 0000 0000 803f
00000150: 0000 0000 0000 0000 0000 0000 0000 0000
00000160: 0000 0000 0000 0000 0000 0000 0000 0000
00000170: 0000 0000 0000 0000 0000 0000 0000 803f
00000180: 0000 0000 0000 0000 0000 0000 0000 0000
00000190: 0000 0000 0000 0000 0000 0000 0000 0000
000001a0: 0000 0000 0000 0000 0000 0000 0000 803f
000001b0: 0000 0000 0000 0000 0000 0000 0000 0000
000001c0: 0000 0000 0000 0000 0000 0000 0000 0000
000001d0: 0000 0000 0000 0000 0000 0000 0000 803f
000001e0: 0000 0000 0000 0000 0000 0000 0000 0000
000001f0: 0000 0000 0000 0000 0000 0000 0000 0000
00000200: 0000 0000 0000 0000 0000 0000 0000 803f
0.0 0.0 0.0 0.0 0.0 0.0 0.0 0.0
0.0 0.0 0.0 1.0 0.0 0.0 0.0 0.0
0.0 0.0 0.0 0.0 0.0 0.0 0.0 1.0
0.0 0.0 0.0 0.0 0.0 0.0 0.0 0.0
0.0 0.0 0.0 1.0 0.0 0.0 0.0 0.0
0.0 0.0 0.0 0.0 0.0 0.0 0.0 1.0
0.0 0.0 0.0 0.0 0.0 0.0 0.0 0.0
0.0 0.0 0.0 1.0 0.0 0.0 0.0 0.0
0.0 0.0 0.0 0.0 0.0 0.0 0.0 1.0
0.0 0.0 0.0 0.0 0.0 0.0 0.0 0.0
0.0 0.0 0.0 1.0 0.0 0.0 0.0 0.0
0.0 0.0 0.0 0.0 0.0 0.0 0.0 1.0
0.0 0.0 0.0 0.0 0.0 0.0 0.0 0.0
0.0 0.0 0.0 1.0 0.0 0.0 0.0 0.0
0.0 0.0 0.0 0.0 0.0 0.0 0.0 1.0
0.0 0.0 0.0 0.0 0.0 0.0 0.0 0.0
0.0 0.0 0.0 1.0

weight_ih_l0 f4 [44, 11]
00000000: 0030 5340 095d 4340 d18c 3f40 5055 4240
00000010: 1acd 3340 282d 2640 c52e 2d40 7a72 e33f
00000020: 72a9 d73f 56c7 8c40 8424 2b41 5c49 3d3f
00000030: 6450 513f bb13 403f d4d7 413f d65f 6a3f
00000040: ef19 5a3f 13fb 343f 747b 3c3f ce46 4e3f
00000050: 74cc 0a3f e615 0cbf e65b aabf 33df b9bf
00000060: 2991 37bd 1651 483f b2e0 803f e519 b43f
00000070: a6c9 953f f83b cbbe c07e 183f d575 233f
00000080: 1a05 89c0 73ea 4c40 0b53 2840 f702 0440
00000090: e267 db3f cd58 dd3f ee36 e53f fd07 f63f
000000a0: d9b5 0f40 5799 3140 250e f940 c571 04c0
000000b0: a47f ec40 4c3a 9840 3e8e 7440 c06a 5740
000000c0: 1379 4c40 0fda 6440 940a 6940 cb34 9940
000000d0: 0a63 4a41 2982 2840 ff7e 3c40 cab6 ad3f
000000e0: 5a87 593f 2ef8 b13e dc0e 39be 03e3 38bf
000000f0: f509 99bf 1a90 e6bf 1b1d 15c0 7962 1ec0
00000100: a54c 0c40 22f8 1dc0 c483 c5bf 0618 b1bf
00000110: e541 b4bf 0695 bebf 60f9 c6bf a88a d2bf
00000120: a0e0 e5bf c828 00c0 8356 10c0 3068 e6bf
00000130: 3fd0 3e40 0f00 283e 9bf6 acbe 2ff1 9dbf
00000140: 56b0 2cc0 da2a 54bf 100c 1bbe 2a86 983e
00000150: 439b 353f e52b 823f 7370 0e3f 80a5 d63e
00000160: 5a3f 133e 0402 093d 928d 0cbe b50f 57bd
00000170: 11e3 f83d 823a 683e 0469 7c3e 32b4 ba3e
00000180: 7b8e e53e d477 1a3e 70dd 1f41 c27d 8fbf
00000190: b945 96bf c81d 82bf 6236 b7bf c294 cfbf
000001a0: b0b8 afbf c1cc 95bf e687 22bf 61d5 70bf
000001b0: e366 79be 2456 35c1 811e 3ac0 0ba0 11c0
000001c0: c586 8bbf 6472 16be 245d 2e3f d4e6 963f
000001d0: c7a0 d43f ada2 0c40 c241 2c40 dcd0 56c0
000001e0: caae 0341 dd12 1240 b1d7 e83f cb57 b33f
000001f0: 3fda c43e e325 82be c479 e8bd b4e3 49bf
00000200: 8981 b5be 916c 4bbf 43f5 0840 d6a1 47c1
00000210: 32da a6bf a6cd 10bf 52e4 c13e dfc2 cb40
00000220: 1637 303f fa81 b23e 88b5 8a3f 15dd a740
00000230: 3b77 983f 88c5 98bf 4f86 b040 3760 8d40
00000240: 211b 6e40 f0fe 4a40 1284 2e40 ef1c 2d40
00000250: ed69 3b40 4da5 4140 9f18 4940 d3f6 6240
00000260: 6677 4341 7fc9 ed3f 1b90 6c41 53e3 3440
00000270: 2667 0340 f879 973f 0eab 0d3f 231e 3e3e
00000280: 2920 873e 25c8 00bf c4ef 7abd 590c 7441
00000290: 8ed2 41c0 cbae 0d40 fa98 0b40 e57e 0740
000002a0: 215b 0740 ea5c e73f 6207 db3f 479f d63f
000002b0: 3508 ea3f 4ffe 0b40 488e 0e40 99f0 90bf
000002c0: aa78 01c0 cd7d 20c0 ed5d 49c0 c54c 67c0
000002d0: ea55 7fc0 bf7a 93c0 2e70 9bc0 ddaf 8bc0
000002e0: 666c c7c0 f72c 07c0 e31a 9f40 c4ba dfbe
000002f0: b317 debe e777 e1be 10fa ccbe 1414 c9be
00000300: c8fd c6be c0b9 bbbe 6fe3 c7be f419 b3be
00000310: 85b9 07bf 4c72 70c0 6d67 1341 98b0 0a41
00000320: f56e 9540 c557 ad40 5c60 8e40 45ab 8540
00000330: 68d0 d740 4b1f 3541 8cab 5b41 109a d740
00000340: bec9 cebe 11a8 2840 f7e6 a540 79c6 c640
00000350: 31ec 0140 7356 f73f 5561 6540 9c5a af40
00000360: 24f0 6e40 b017 d23f 2df1 4840 575b 28bf
00000370: 80fc 903f cbcf 003f 54b6 063e 4e04 353e
00000380: 66eb 1b3f 0a0a 6e3f a706 383f a902 c63e
00000390: be4b d7be 2d5e 3f40 7d7f 0ec0 c4fd 7b40
000003a0: 179d 4f40 202b 4240 f010 1040 8c0a 9b3f
000003b0: ff91 363f 4227 b9be 84dd 7ec0 56e3 9ec0
000003c0: e40f 9740 8639 ba3f 6372 58c0 64a9 55c0
000003d0: 55a8 65c0 e5a9 70c0 ce2a 5fc0 fbc2 4bc0
000003e0: c233 4fc0 836f 51c0 6b4b 3ec0 5799 57c0
000003f0: c034 b33f 7dac f7be e152 01be 4fae 083f
3.2998047 3.0525534 2.9929698 3.036457 2.8093934 2.596506 2.7059796 1.776931
1.6848586 4.399333 10.696415 0.7394006 0.8176329 0.75030106 0.7571995 0.91552484
0.8519582 0.7069561 0.73625875 0.8057679 0.5421822 -0.54720914 -1.3309295 -1.452124
-0.04481617 0.7824873 1.0068572 1.4070402 1.1702163 -0.3969419 0.59568405 0.6385167
-4.2818727 3.2018096 2.6300685 2.062681 1.7141078 1.7292725 1.7907388 1.9221188
2.245474 2.7749841 7.7829766 -2.069444 7.390581 4.7571163 3.8211818 3.3658905
3.1948898 3.5758092 3.6412706 4.7876945 12.649179 2.6329443 2.9452512 1.3571408
0.84972155 0.3475966 -0.18072075 -0.7222139 -1.1956164 -1.8012726 -2.3299015 -2.4747603
2.192178 -2.4682698 -1.5430837 -1.3835456 -1.408261 -1.4889228 -1.5544853 -1.6448565
-1.7959175 -2.002489 -2.2552803 -1.8000546 2.9814603 0.16406272 -0.33781895 -1.2339228
-2.6982627 -0.82877886 -0.1514132 0.2978986 0.70940036 1.0169646 0.55640334 0.4192314
0.14379635 0.033449188 -0.1372588 -0.052505214 0.121526845 0.22678569 0.24649435 0.36465603
0.44835266 0.15084773 9.991562 -1.1210253 -1.1740028 -1.0165339 -1.4313471 -1.6217272
-1.3728237 -1.1703111 -0.63488615 -0.9407559 -0.24355654 -11.33353 -2.9081118 -2.2753932
-1.0900503 -0.14692074 0.6811087 1.1789193 1.6611565 2.197429 2.6915135 -3.3564978
8.230173 2.2824013 1.8190824 1.4011167 0.3844776 -0.2541953 -0.1135135 -0.7886307
-0.3545039 -0.79462534 2.1399696 -12.477011 -1.3035338 -0.56563795 0.37869507 6.367538
0.68834054 0.3486479 1.0836649 5.2457376 1.1911386 -1.1935282 5.516395 4.417995
3.7204058 3.1718102 2.726811 2.704891 2.9283402 3.0257142 3.1421278 3.546315
12.21665 1.8577117 14.785182 2.8263748 2.0531707 1.1834097 0.55339134 0.18566184
0.26391724 -0.50305396 -0.061263815 15.253015 -3.0284762 2.2137935 2.181212 2.11712
2.114937 1.807523 1.7111628 1.6767358 1.8283755 2.1873968 2.2274342 -1.1323425
-2.0229897 -2.5076783 -3.1463578 -3.6140606 -3.9896188 -4.6087337 -4.857444 -4.3652177
-6.231982 -2.1121194 4.972032 -0.43697178 -0.43377456 -0.4403679 -0.40034533 -0.3927313
-0.38865495 -0.36665154 -0.39040706 -0.34980738 -0.53017455 -3.7569761 9.21275 8.668114
4.6697946 5.416964 4.4492626 4.177157 6.74419 11.32014 13.729382 6.7375565
-0.40388292 2.635258 5.184444 6.2117276 2.030041 1.9323257 3.5840657 5.4798107
3.733407 1.6413479 3.1397202 -0.65764374 1.1327057 0.50317067 0.1315549 0.17677423
0.60906065 0.9298407 0.7188515 0.38673905 -0.42049974 2.990123 -2.2265313 3.9373636
3.243963 3.0338821 2.2510338 1.2112594 0.7131652 -0.36162764 -3.9822702 -4.965251
4.72069 1.4548805 -3.3819816 -3.3384638 -3.5883992 -3.7603695 -3.4869876 -3.1837757
-3.237534 -3.2724311 -2.9733531 -3.3687341 1.4000473 -0.48373786 -0.12629272 0.53390974

weight_hh_l0 f4 [44, 11]
00000000: ad4b 20bf 337b 1140 fa72 fb3d f3a2 943f
00000010: 65d2 e9bf fe70 5cbf 7141 80bf 24a1 2a3f
00000020: 7793 f73f a1e7 573f c0d8 09bf 21e7 b0bf
00000030: 16f3 f4bf 6626 393f 874b 06c0 ff11 d33f
00000040: ebb1 39be 020b 6d3f a1f0 ed40 70ba 5ebe
00000050: a8d7 bf40 cd0c 2340 05ef 593e f611 9f40
00000060: a13e 8940 610a f1c0 ba8c 0b40 7559 80c0
00000070: b1ff 24c0 2765 8f40 a76e 93c0 d4ed aebf
00000080: 2fd9 1bc1 37bd cac0 e406 0540 0284 873f
00000090: 680b adc0 75a6 a440 c3dd 91c0 025e 5a40
000000a0: 7488 0cbf 00b1 f2bf 9b2b 8dbe 0033 f7c0
000000b0: b59c 4c40 ee62 d0bf e64d 4ebe 07b8 95bf
000000c0: 1175 d2bd 3f76 063f e597 94be 9fd0 f5be
000000d0: 86ed a9be c704 6f40 9020 67c0 b07c 9ebf
000000e0: 169d efbe ada8 fa3e 323a 283f 7054 47bf
000000f0: 59b7 383f db80 72bf 8e98 08bc 0a99 eebf
00000100: 3da2 db3f b4cb 573f bde7 463f 08b9 c0bc
00000110: 7d10 493f b265 49c1 185d b63f b7b5 1940
00000120: fa7b 1d40 44a3 15bf 7a62 2fc0 d435 29c0
00000130: b0a9 1ec0 6572 a93d 0c62 d6be 1057 193e
00000140: 4fa4 7a3d 1fce 8ebe 3ce7 c1bc bbdc 11be
00000150: bdc1 3c3f d97d fd3e 6861 ad3e 7c4a 443e
00000160: a6b7 2b3f 4513 e1bf dbfc e03e cc23 a540
00000170: cb44 8740 c963 1f3f 9813 eb3f a6ff fcbf
00000180: 42de 60bf 5a79 1cc0 85ca 6340 a8b9 8e3e
00000190: f3f9 a83f edc7 3140 158a aa3f 5cf7 8440
000001a0: ca6d 813f 9be2 0141 dd35 83c0 5ed4 8bbf
000001b0: 691c 443f dd98 64bf b189 3d3f fdc6 4640
000001c0: 95df 933d 5604 18be 3809 8840 b6ba 343e
000001d0: 3507 8240 7a6c 343e 0d43 adc0 34d6 8c40
000001e0: 1b64 a1c0 5d5b 6bbf c9db 40c0 f9b0 f7bf
000001f0: b93e 42c0 702d 863f 9b2b ab3e c335 a7c0
00000200: d54f 0440 5845 4a40 4c13 cbbe 63e1 e241
00000210: 2fd3 d7be d234 5540 66d7 8540 f0e6 533f
00000220: 89a0 a63f c185 74c0 9b4f 8dc0 833a 0a40
00000230: 466c 70bd f1b6 40c1 c62a d6bd 739f 90be
00000240: a06a 513f eef1 d3bd a39f 04c1 4978 4840
00000250: 69dd 58bf b4f8 ddbf a2f6 f7bf d23d 433e
00000260: 8069 03c0 0b98 0740 3257 3940 605b c5bd
00000270: 0690 fe40 073b ed3f cd82 e7bf 7312 74c0
00000280: 8be8 da40 d6ba 023d 62d5 c03e 0259 58bf
00000290: d146 2540 b0e7 c63e 1423 7240 9dd7 5f3f
000002a0: 14d1 4a40 3166 d4be b2bb b63f 8937 93c0
000002b0: f0de 08be e635 5440 b13d b1bf 1bc3 08c0
000002c0: 1e58 4a3f 4891 e23f 5c39 5ac0 16bb 0f3e
000002d0: af23 2bc0 c698 273f 3f10 37c0 5e41 6cbe
000002e0: b92a a33f 5dd0 3ac0 de77 37c0 923b 3840
000002f0: f26f 1abe aee2 733f 3718 aa40 97f5 b5bf
00000300: 080e 87be ac95 3abf 60c4 d63d b6bb 1540
00000310: df9d 09c0 8c1a d3c0 6122 02bf 41ef bc3f
00000320: 44a7 003e c39e 1cbe c5fc c03e 5236 ebbf
00000330: 32c5 94bf fc41 6340 a875 06c0 f88e 93c0
00000340: b632 abbf 9bab 6840 f70c b73f aac1 1a40
00000350: 91a1 3a40 b4bd 4abf a3fd 89bf 714c 8740
00000360: 493a 0540 7c98 a9c0 fd9c bf3f 9dbb 2ac0
00000370: b503 1dc0 18a0 c5bf 31f3 43c0 a36f 3cc0
00000380: d874 9540 6082 91c0 7a83 1c41 09e9 4bc0
00000390: 1ed8 b23d d13f 48c0 3177 7ec0 189e cfbe
000003a0: 72d6 1240 7f76 9840 ea45 87c0 d816 45c0
000003b0: 4512 00c1 c68f edc0 325b 8dbf 1ef9 c33f
000003c0: 0281 6ac0 7faf 1840 a106 68c0 764b 763f
000003d0: 9b25 ea3f b341 1040 8c43 e03f 5b7f 91bd
000003e0: f660 a53e d165 893d b472 1a3f 8daa 78be
000003f0: c562 8d3f 9b26 d83f 687d 8cc0 d021 0a40
-0.6261547 2.2731445 0.122777894 1.1612228 -1.8267332 -0.8610991 -1.0019971 0.6665213
1.9341878 0.8433781 -0.5384636 -1.3820535 -1.9136684 0.72324216 -2.0983598 1.6489867
-0.18134277 0.9259492 7.4356236 -0.21750808 5.995075 2.5476563 0.21282585 4.9709425
4.288895 -7.532517 2.1804643 -4.01092 -2.5781062 4.4810977 -4.6072574 -1.3666329
-9.740523 -6.3355975 2.0785456 1.058716 -5.4076424 5.1453195 -4.5583205 3.4119878
-0.5489571 -1.8960266 -0.2757233 -7.7249756 3.1970646 -1.6280191 -0.20146903 -1.1696786
-0.10276235 0.5252418 -0.29022136 -0.48010728 -0.33189029 3.7346666 -3.6113625 -1.2381802
-0.46799535 0.48956814 0.657138 -0.77863216 0.72154766 -0.9472787 -0.008337153 -1.8640454
1.7158886 0.842952 0.77697355 -0.02352573 0.78540784 -12.587328 1.424716 2.401716
2.460692 -0.5845225 -2.7403855 -2.6439104 -2.479107 0.08273772 -0.4187168 0.14974618
0.061191853 -0.27891633 -0.023669831 -0.14244358 0.7373312 0.49510077 0.33863378 0.19169039
0.670771 -1.7584006 0.43942913 5.1606197 4.2271476 0.62261635 1.8365355 -1.9765518
-0.8783914 -2.4449067 3.5592358 0.2787602 1.3201278 2.7778275 1.3323389 4.155195
1.011163 8.117824 -4.100325 -1.0924184 0.7660585 -0.8929575 0.74038225 3.1058953
0.07220379 -0.14845404 4.2511253 0.1764935 4.06338 0.17619506 -5.414435 4.401148
-5.04347 -0.91936284 -3.0134146 -1.9350883 -3.0350783 1.0482616 0.33431706 -5.2253127
2.0673726 3.1604824 -0.3966316 28.360052 -0.42153308 3.331349 4.1825438 0.8277426
1.3017741 -3.8206637 -4.4159675 2.1598213 -0.058697008 -12.044663 -0.10457377 -0.2824665
0.8180332 -0.10348879 -8.288974 3.1323416 -0.84712845 -1.7341523 -1.9372141 0.19066551
-2.0533142 2.118655 2.895947 -0.09636569 7.955081 1.8533639 -1.8086792 -3.813626
6.8408866 0.031916462 0.37662798 -0.84510815 2.5824473 0.3884864 3.783391 0.87438375
3.169011 -0.41484216 1.427603 -4.600529 -0.13366294 3.3157897 -1.3846952 -2.1369083
0.79040706 1.7700586 -3.409751 0.14036211 -2.674053 0.6546749 -2.8603666 -0.2307181
1.2747413 -2.9189675 -2.866691 2.878636 -0.15081766 0.9526776 5.315456 -1.4215573
-0.26377892 -0.7288463 0.10486674 2.339582 -2.1502607 -6.5969906 -0.5083371 1.4760514
0.12563807 -0.15294938 0.37692848 -1.8375952 -1.1622679 3.5509024 -2.1009312 -4.6112022
-1.3374851 3.635474 1.4300832 2.4180703 2.9161112 -0.79195714 -1.0780529 4.228081
2.0816824 -5.299864 1.4969784 -2.667701 -2.4533513 -1.5439482 -3.0617182 -2.9443138
4.670513 -4.547165 9.782099 -3.1860983 0.08732627 -3.128895 -3.9760249 -0.40550303
2.2943387 4.764465 -4.2272844 -3.0795193 -8.00446 -7.4238005 -1.1043456 1.53104
-3.664124 2.3857114 -3.6254046 0.96208894 1.8292726 2.25401 1.7520614 -0.07104369
0.32300538 0.06708873 0.60331273 -0.2428381 1.1045767 1.6886781 -4.3903084 2.1583138

bias_ih_l0 f4 [44]
00000000: 6983 a53f e415 37be 7aaf 6ebd e308 1fc0
00000010: 81a2 8e3f 97ca 04bf ec74 2bbf daf1 82bf
00000020: 923d 85bf cf2c 1fbf c723 18c0 9a7e 5dbf
00000030: f048 ef3f 9c8d 733e 0ab2 df3f 1cf8 60bf
00000040: 2788 813f d1f5 b93f 3aa8 0fbe 5b8c 663f
00000050: c3e7 4b3f 839a 4f40 148b 723f c984 ab3f
00000060: 3038 983f c7c5 e5bf d701 113e ad60 893d
00000070: ddcf a6be addf 90bc 1edd ad3f 0009 213e
00000080: b65a 23c0 1e55 3c3e 48d7 42bf 9804 e5bf
00000090: 3ca3 41bf 9793 c53e ffd6 1c40 723b 7cc0
000000a0: c682 9a3e 726a 35be 1786 183d 1566 e3be
1.2930728 -0.17879444 -0.058272816 -2.4849174 1.1143342 -0.5187163 -0.66975284 -1.0230057
-1.0409415 -0.6217775 -2.3771837 -0.86521304 1.8694134 0.23784488 1.7476208 -0.87878585
1.0119675 1.4528142 -0.14029017 0.90057915 0.79650515 3.2438056 0.94743466 1.3399898
1.1892147 -1.7950982 0.14160858 0.067078926 -0.32580462 -0.017684782 1.3583105 0.1572609
-2.5524116 0.18391845 -0.76109743 -1.7892027 -0.756397 0.38589165 2.4506223 -3.9411283
0.30177897 -0.17716387 0.037237253 -0.4441382

bias_hh_l0 f4 [44]
00000000: 6ed7 a03f bbeb 43bf b528 bdbe af5d 1ec0
00000010: f64a 2c3f 10f3 2fbf 8b6e 87bf 1f18 46bf
00000020: 9640 7dbf e3d8 97be a453 17c0 81c3 52bf
00000030: 9b25 df3f f7ee b23e 77fc ce3f 7bf0 89bf
00000040: ded1 553f c058 883f 310a ac3d e1f8 6c3f
00000050: 6e86 663f 46d5 4240 946c 363f fedf d83f
00000060: 1214 b63f 200a bfbf 4172 073e 2301 fe3d
00000070: c69f 9fbd c199 bcbe 50cd 863f ea5a 7c3e
00000080: 6b80 1cc0 4b34 a63c 7a5a 4cbf a558 c5bf
00000090: f584 60bf 0eff 2d3f 5a95 2140 2ebe 88c0
000000a0: 7a6b d23e d434 993d ba71 70bd 4a7b 98be
1.2565744 -0.7653157 -0.3694512 -2.474468 0.6730188 -0.6873026 -1.058061 -0.77380556
-0.98926675 -0.2965766 -2.36448 -0.82329565 1.7433351 0.3494794 1.6170796 -1.0776514
0.83523357 1.0652084 0.08400381 0.9256726 0.90048873 3.0442672 0.7125943 1.6943357
1.4224875 -1.4924965 0.13227178 0.124025606 -0.07794146 -0.36836055 1.0531406 0.24644056
-2.445338 0.020288607 -0.79825556 -1.5417677 -0.87702876 0.6796731 2.5247407 -4.2732153
0.41097623 0.07480779 -0.058702208 -0.29781562

weight_ih_l0_reverse f4 [44, 11]
00000000: b6f9 04c0 6152 4dbf dda7 97bf 7d9e d5c0
00000010: 0cea ffbe 89ba f73e fe0e a73f c3a6 1a40
00000020: 7074 4240 bd5b fc3e 2bcc 65c0 a752 ba3f
00000030: 68e3 a43f 17b2 8a3f 28cb 483f 1bb0 563e
00000040: b159 20bf 6604 63c0 e4a8 a0bf be7e 16bd
00000050: f99c a53f 549b e9bf 60a2 f83f 5f8f fc3f
00000060: 6aea ff3f d5cb 0440 775a 1440 cb1d 1a40
00000070: 763d 1d40 0b0b 3240 dfb8 4a40 37d3 f33f
00000080: 13a5 d93f b136 b43d 4386 dcbe 51c9 e4be
00000090: e50e 11bf b214 343e 7635 583f f478 1340
000000a0: 99c1 6140 a601 a440 7fa1 893e dc1a 7940
000000b0: 1bf6 98be 538d 51be 4279 293d 8aab 3cbf
000000c0: abc1 41c0 465d 0dbe deca f93d 0350 4ebf
000000d0: 506f 1dbe fd4d 13bf d057 0ec0 1a71 4a3f
000000e0: 1b8b 833f a9d9 703f c715 903f 8dc2 b63f
000000f0: 8cf1 b23f 9481 b03f 9968 c73f 2b3f d23f
00000100: 1537 903f 8bee 2e40 fb69 75bf 648b 64bf
00000110: 5dff 39bf 9e5d 44bf 0566 16bf 69da 28bf
00000120: 98d9 11bf 6cba 4ebf 15c4 48bf 6b81 82bf
00000130: ca38 1241 347e 5c3e f00c 833e f4af 7b3e
00000140: b2d0 5c3e ba90 4d3e 007b 8f3e 67a0 913e
00000150: 7d6f 8f3e 4ed7 643e cba0 733e 27ec 0240
00000160: d85e a23d 0975 9fbf c633 9ebf 9e60 07bf
00000170: d6ed 14bf 3a0a 4ebf 56d0 90bf 2ec0 b7bf
00000180: bda8 93bf 5e9c 573f b71b a440 8088 69bf
00000190: 86a0 a2bf 6f33 8fbf e698 77bf fae4 66bf
000001a0: 558b 66bf 1e09 69bf 34c4 dcbe ace6 fcbe
000001b0: 6204 60bf 9f88 9340 6f40 ea3f 8cee d23f
000001c0: ca05 bc3f 4e6d a83f aab7 8e3f ee5e 5f3f
000001d0: f2e5 163f 0703 913e 97e1 1dbe 9654 0b40
000001e0: 5471 edbf 0d03 a0c0 6450 29c0 a599 d3bd
000001f0: 4ca5 ac3f 37d6 2c40 3b11 8b3f 2e04 783f
00000200: 5f15 67bd d195 2640 a815 1b3f 96a7 9f41
00000210: 4301 033f 4969 183f be47 b6be a0fe 2e3f
00000220: bb15 353d 7f8a 43bf 7a08 c2bf 458e a6bf
00000230: baa3 89be 0a27 6e40 a459 fc40 e3fe 1040
00000240: 096e 4640 08f1 7240 55b1 6240 e26b 7540
00000250: f321 3940 b6e7 0240 9896 c33f fc6d 953f
00000260: 7ee4 a33f 8ed0 3bc0 3ff5 793d 5e9b b33d
00000270: 53a4 c93e 8013 583f ef0a b53f 439f da3f
00000280: 4dd4 ae3f 78b7 6d3f 1914 8b3c f068 383f
00000290: 94f7 7040 57a7 1240 48b6 373f 48a2 5e3d
000002a0: 91b4 40bf 1dfb b7bf 4479 1cc0 b398 0bc0
000002b0: cd52 8b3f ade2 4a40 ddd9 f53d f685 8d41
000002c0: 86bb 73c0 b4d4 81c0 8ffe 8dc0 a192 60c0
000002d0: 755e 23be c3f2 fd3d dbe4 513f 9f21 7a3f
000002e0: 2525 8f3f 62b6 92bf ed8e e340 1e22 38bd
000002f0: 27f3 1e3e 0802 023f b88e cf3e 08f8 ff3e
00000300: 43c1 f33e 941b c53e 5a87 ad3e ef6c e53d
00000310: 9972 afbe 7ebe 20c0 561a d7bf 7d87 84bf
00000320: 3e5d 8dbd 7609 a33e aef0 883f 0d1f b43f
00000330: b45d 7f3f 6c0e 8f3f 5534 d93f b2ab c5bf
00000340: 3aed 8e3f 2bd9 8e3f 2b58 d9be d0e7 78bf
00000350: 3771 bcbf 51d0 9fbf 534e ccbf ed75 9bbf
00000360: 9ab6 37bf b68b 8abe 73be 4b40 5d27 20c0
00000370: 5493 e240 c4f0 e63f 6b25 d33e bea5 3dbf
00000380: a839 62bf cc7d 79bf 1e1c 06bf f0b4 a3be
00000390: 7ada 1bbf 527a 0240 c1b6 e2bf cf3d 8a40
000003a0: 3c55 1840 6422 a53f 136d 193f 2da4 f83c
000003b0: ffec 06bf 166b 66bf b62f babf 4dda efbf
000003c0: d64e 7841 e2f6 fa40 872f 0ec0 8a91 0e41
000003d0: 54e7 1441 122e b5bf aa75 29c0 47a5 cfc0
000003e0: 5cdf 30c0 a61d e1bf dfb7 03c0 48b7 ffc0
000003f0: f8aa 8e3f a264 ba3f 7949 a43f b365 0040
-2.0777411 -0.80203825 -1.1848103 -6.6755967 -0.4998325 0.48384503 1.305145 2.4164283
3.0383568 0.4928874 -3.5905864 1.4556473 1.2881899 1.0835599 0.7843499 0.20965616
-0.6263686 -3.5471435 -1.2551541 -0.036741965 1.2938529 -1.8250527 1.9424553 1.9731253
1.9993412 2.074941 2.3180215 2.4080684 2.4568763 2.781924 3.1675336 1.9048833
1.7003502 0.08799494 -0.43071184 -0.44684842 -0.5666335 0.1758602 0.84456575 2.3042574
3.5274413 5.125201 0.26881024 3.8922644 -0.29875264 -0.20464067 0.041375406 -0.7369925
-3.0274456 -0.13805112 0.12196897 -0.8059084 -0.15374494 -0.57540876 -2.2241096 0.7907883
1.0276827 0.94082123 1.1256646 1.4278122 1.3979964 1.3789544 1.5578796 1.6425527
1.126681 2.7333095 -0.9586484 -0.89275193 -0.7265528 -0.7670535 -0.5874942 -0.6595827
-0.56972647 -0.8075321 -0.784242 -1.0195745 9.1388645 0.21532518 0.25595808 0.2457884
0.21563986 0.2007474 0.2802353 0.2844269 0.28014746 0.22347757 0.23791806 2.0456636
0.07928246 -1.2457591 -1.235955 -0.528818 -0.5817541 -0.80484354 -1.1313579 -1.4355524
-1.153587 0.8422297 5.128383 -0.9122391 -1.2705238 -1.1187571 -0.9671768 -0.9019314
-0.90056354 -0.91029537 -0.4311844 -0.4939474 -0.8750669 4.6104274 1.8300914 1.6479049
1.4689267 1.3158357 1.11498 0.87254226 0.5894462 0.28322622 -0.15418087 2.1770377
-1.855021 -5.0003724 -2.6455317 -0.1033204 1.3487945 2.7005746 1.0864633 0.9688138
-0.056416865 2.602894 0.6057992 19.95683 0.511738 0.5953565 -0.3560161 0.68357277
0.044210177 -0.76383203 -1.5158837 -1.3012167 -0.26882726 3.7211328 7.8859425 2.265557
3.100466 3.7959614 3.5420735 3.8347096 2.892697 2.0453925 1.5280333 1.167419
1.2804105 -2.9346042 0.0610249 0.08769868 0.39383182 0.84404755 1.4143962 1.7079853
1.3658539 0.92858076 0.016977357 0.7203512 3.765111 2.2914636 0.71762514 0.054353982
-0.7527552 -1.4373509 -2.4449015 -2.181195 1.0884644 3.1700852 0.12004445 17.69041
-3.8083205 -4.0572147 -4.437324 -3.5089495 -0.15954001 0.12399819 0.8198983 0.9770755
1.1183211 -1.1461909 7.111197 -0.04495441 0.15522443 0.5078435 0.40538573 0.4999392
0.47608384 0.38497603 0.33892328 0.11202418 -0.3426712 -2.5116267 -1.6804912 -1.0353848
-0.0690255 0.31843156 1.069845 1.4071976 0.99752355 1.1176276 1.6969095 -1.5443022
1.1166146 1.1160024 -0.4245008 -0.9722872 -1.472205 -1.2485448 -1.5961403 -1.2145363
-0.71763 -0.27059716 3.183499 -2.5024025 7.0804844 1.8042226 0.41239485 -0.7408103
-0.88369226 -0.97457576 -0.52386653 -0.31973982 -0.60880244 2.0387158 -1.7712022 4.320045
2.3802023 1.290112 0.5993206 0.030351723 -0.5270538 -0.9000715 -1.454581 -1.8738495
15.519247 7.842637 -2.2216508 8.910532 9.306477 -1.4154685 -2.6478066 -6.4889255
-2.7636328 -1.7587173 -2.0580976 -7.991123 1.1145926 1.4561961 1.2834922 2.0062072

weight_hh_l0_reverse f4 [44, 11]
00000000: 5d00 643e 8fd3 823f 9329 323e f285 4d40
00000010: 83db 9440 b5eb 8140 9787 5b40 99cc b7c0
00000020: 0152 f73f f8ad e53f a497 be3f 70d2 0bbd
00000030: 013e 253f 1233 cfbe 821b 843f a720 c33f
00000040: ac43 5440 4b83 4f40 481c e3bf b3c1 36bf
00000050: 9509 fb3e 44da 8b3e 2a85 9abe 9838 00be
00000060: a672 1d40 5e19 aec0 772e 5cbf 971d bd3f
00000070: c644 50c0 c807 3a3f e220 3d3f 6656 a5c0
00000080: ba44 34bd deef 6c3c 76e0 433f f66e f43f
00000090: 20d2 83c0 2c0f 953e ef90 70c0 02cb 53c0
000000a0: 4ed0 97bd 49b5 5cbf 7fa9 97c0 a973 3941
000000b0: 2314 a8be a272 9f3e ea23 a7bf 2a8b 463f
000000c0: 4981 413f 94f6 1240 a73e 5440 6910 bfbf
000000d0: 246b 02c0 6117 9a3d 411d 643f 7aad 723f
000000e0: 7fb3 993f e509 7f40 8d24 4440 2ca5 983f
000000f0: 3ab9 4440 9c4c 81c0 f420 a7c0 3138 66c0
00000100: 79d7 a5bf c4ab 57c0 9bca 94be 5431 f43e
00000110: c7f8 2dbe c730 7a3f c782 13c0 2969 0840
00000120: e10f 8dbf 1403 cb3e a3cb c6c0 c239 1341
00000130: 9b89 60bf fd85 b23e f468 ec3e cf6f dabd
00000140: b704 3040 5a8d 1a3f a47e abbf f1c7 593f
00000150: 4e85 edbf b501 b43e 2e92 99bf 8fdd c0bf
00000160: 965f 9a3f 0a21 a7bf 2495 90bf 2795 c23f
00000170: 9e30 553f 4f26 53bf e41d af40 06a0 19c0
00000180: 6b80 d040 6260 563e 4e98 3bbf 68eb 3940
00000190: f595 e4bf 5bd6 2b3f ce5c 9b40 e85a 0f40
000001a0: 1441 f540 507f 95bf 42e3 0dc1 9287 14c0
000001b0: 2775 df40 1850 8ebf f1f2 d2be d543 9e3f
000001c0: bad2 aabf 6208 4f3f 449a 1340 010d 6d3f
000001d0: 5b35 0940 5334 0cbf ec6c 06c0 7703 fabf
000001e0: 844c 923f dd49 11be 4e03 49c0 b449 3240
000001f0: e6ef 81c0 ecb8 f9bf 039b c6bf 4ae3 ecc0
00000200: 45a7 6040 74b8 b540 bcb2 f5bf d20b 36be
00000210: 6252 9dbf bf82 29c0 62df 8e40 4693 78bf
00000220: a54c 9e3d 1488 7bbd 7baa 07c0 bbd1 1140
00000230: 8037 803f 20ec 31bd 3b59 1dc0 e122 9f3e
00000240: dc8a 16be 125c 08c1 1945 b4c0 8521 b23e
00000250: feee 533e 22cd 0940 e883 22bf 4351 41be
00000260: 0267 3cbf d552 8fc0 7065 85be d8b2 23bf
00000270: 4c58 823f 1d85 ec3f 3836 00bf 7f4c cabe
00000280: 5af2 91bf 3c7c 4b3f a61a acbf 59eb 6e40
00000290: a0ec 9cc0 6118 90bf 7ad2 b83e a6fe f53f
000002a0: 8a5a e6bf ef5c a1bf 5f58 48c0 91e3 03c1
000002b0: ad3a 8440 fd86 5140 1d36 0ac0 0d61 fcbd
000002c0: 3cd3 2440 c8b3 683e 6274 8740 d2b3 5cc0
000002d0: 013b ecbf 11ae f140 b81c 603f faaf 5a40
000002e0: 5878 1d40 7026 1e40 baf4 b1c0 7f1e 58bf
000002f0: fe6f b6bf b6d2 b4bf 6c48 a8c0 350a 1e3f
00000300: 2d61 9b3f 9c3e 1040 ac57 fd3f 65bc 3c3f
00000310: 9093 9a3f 46d3 90bf 8293 083f d177 14bf
00000320: 437d 993f 3eb7 ff3d 0487 2b3e 5b6f 9ebe
00000330: e48c 96bd 1538 1940 cc3c 613f d7bc 16c0
00000340: adb6 05bf 4095 99bf c9da 513e e0a4 fb3f
00000350: 32e5 2741 6b5b 29bf dfeb 2c40 93dc dfc0
00000360: 53de 4a40 2dc7 b6bf 7a54 1f41 02ef 9fc0
00000370: 1eb7 d4be 0b39 77bf 6cb2 9a3f d990 51be
00000380: c768 62bf 618d 663f 3fca 66bf 8054 0840
00000390: 5df9 1241 cbe6 acbf 6191 f53f 4d30 57be
000003a0: 7d5c 963c 8d10 21bd 7800 dc3f 0877 0abf
000003b0: 0c23 973f c7d9 55c0 495d 363f eb8b e9bf
000003c0: a454 9940 d0c3 21bf 2cb0 483e cf75 853f
000003d0: 7562 bbbe f920 7b3f 1b55 e83d e5f6 8c3f
000003e0: e02f c8bf 9f9a ca3d 81d9 1740 f321 48bf
000003f0: faa4 55bf 74ee 083f 4f2b 1cbf 9acb d13f
0.22265764 1.0220813 0.17398672 3.2113004 4.651796 4.060023 3.4301507 -5.7437253
1.9321901 1.7943716 1.4890027 -0.034136236 0.64547735 -0.4046865 1.0320895 1.524434
3.3166304 3.2423885 -1.7743006 -0.7138931 0.49030748 0.2731496 -0.3017972 -0.12521589
2.4601226 -5.4405966 -0.860084 1.4774655 -3.2541976 0.72668123 0.738783 -5.1667967
-0.044010855 0.014461486 0.76514375 1.9096363 -4.1194 0.29113138 -3.758846 -3.3092656
-0.07412778 -0.8621412 -4.7394404 11.590737 -0.32827863 0.31142145 -1.3057835 0.775561
0.755879 2.2963 3.316324 -1.4926883 -2.0377893 0.075239904 0.8910714 0.94795954
1.2007903 3.984979 3.064731 1.1925406 3.0738053 -4.0406017 -5.2227726 -3.5971797
-1.2956382 -3.3698587 -0.29060826 0.47693884 -0.16989432 0.9773068 -2.304857 2.1314185
-1.1020471 0.39650786 -6.212358 9.201601 -0.8770997 0.3486785 0.46173823 -0.10665857
2.7502878 0.60371935 -1.3398023 0.8507071 -1.8556306 0.35157552 -1.1997736 -1.5067614
1.206042 -1.3056958 -1.1295514 1.5201768 0.8327731 -0.8248033 5.4723988 -2.400392
6.515676 0.20935205 -0.73279274 2.904993 -1.7858263 0.67123955 4.8550787 2.2399235
7.664194 -1.1679478 -8.867983 -2.3207746 6.983051 -1.1118193 -0.41200975 1.2364451
-1.3345559 0.80872166 2.3062906 0.9259797 2.1438816 -0.5476734 -2.100398 -1.9532307
1.1429601 -0.14188333 -3.1408267 2.7857485 -4.0605345 -1.9509559 -1.5516056 -7.4027452
3.5102093 5.6787663 -1.919517 -0.17777947 -1.2290766 -2.648605 4.4647684 -0.9709972
0.077294625 -0.06140907 -2.1197803 2.278426 1.0016937 -0.043438077 -2.4585712 0.31081298
-0.14701408 -8.522478 -5.633435 0.34791198 0.20696637 2.1531453 -0.6348252 -0.18878655
-0.7359468 -4.4788613 -0.26053953 -0.6394477 1.0183196 1.8478123 -0.5008273 -0.39511487
-1.1402085 0.7948644 -1.3445632 3.7331145 -4.903885 -1.125744 0.3609808 1.9218338
-1.799638 -1.2606486 -3.1303937 -8.243058 4.1321626 3.273864 -2.1595528 -0.123231985
2.5753927 0.22724831 4.232957 -3.4484754 -1.8455507 7.5524983 0.8754382 3.4169908
2.4604702 2.471096 -5.561124 -0.84421533 -1.4252927 -1.4126804 -5.2588406 0.61734325
1.2139031 2.2538214 1.979238 0.7372497 1.2076283 -1.1314476 0.5335008 -0.57995325
1.1991352 0.124861225 0.16750723 -0.30944332 -0.073510915 2.394048 0.87983394 -2.3552759
-0.52231866 -1.1998672 0.20493616 1.9659691 10.493456 -0.6615512 2.7018964 -6.9956756
3.1698196 -1.4279534 9.958124 -4.9979258 -0.41545957 -0.96571416 1.20857 -0.20465411
-0.8844113 0.9005948 -0.90152353 2.1301575 9.18588 -1.3507932 1.9184991 -0.21014519
0.018354649 -0.039322425 1.7187643 -0.5408788 1.180757 -3.341417 0.7123609 -1.8245825
4.791582 -0.6318941 0.19598454 1.0426577 -0.36598554 0.9809719 0.113443576 1.1012846
-1.563961 0.09892773 2.3726504 -0.781768 -0.8345486 0.5348885 -0.61003584 1.6390259

bias_ih_l0_reverse f4 [44]
00000000: 75f9 43c0 5676 bebf 5eea 13bf eb15 833f
00000010: 4866 cfbf 0a7d bfbf 46b9 4cbf 7381 fb3e
00000020: 2014 993e ed95 03bc 7682 6bbf cfe4 d83f
00000030: 1290 ce3e 1bc7 5640 6df7 a93e 2f32 bc3f
00000040: ac8e de3f c72b 8dbf d945 e13f e81f e7bf
00000050: 2bfc 0740 5b06 a93e 37c0 44bf b337 243f
00000060: 9492 133f 5adc 493f 17f9 c73f 184d c4bf
00000070: 1b44 893f a0bc 16be 1e01 ecbe 06d3 06c0
00000080: ec50 8abf 355b 2f3f fba0 f73f 4562 50bf
00000090: 089d e6bf 85a4 0340 75cb 553f a72f ef3d
000000a0: 7b3b a23f b57f dbbf 7162 9e3e fe3d 83bf
-3.0621006 -1.4879863 -0.5777949 1.0241064 -1.6203089 -1.4960034 -0.79970205 0.491222
0.29898167 -0.008031351 -0.9199594 1.6944827 0.40344292 3.3559024 0.33196583 1.4702815
1.738729 -1.1028985 1.7599441 -1.8056612 2.124766 0.3301266 -0.76855797 0.6414749
0.57645535 0.78851855 1.5622891 -1.5336027 1.0723909 -0.14720392 -0.46094602 -2.1066298
-1.0805945 0.68498546 1.9346002 -0.8139995 -1.8016672 2.0569165 0.83513576 0.11679011
1.2674402 -1.7148348 0.3093448 -1.0253294

bias_hh_l0_reverse f4 [44]
00000000: 3b90 65c0 d4f3 bdbf e698 23bf 9cf9 aa3f
00000010: 7f35 ccbf 29df afbf ad25 09bf 2a09 d53e
00000020: 0926 323e 3449 05be 4313 a2bf 2c95 aa3f
00000030: 0026 d03e 7b0f 5840 d8a3 cf3c 4113 da3f
00000040: c39a da3f b44b 92bf d05a c63f b853 b7bf
00000050: 8b56 0440 0679 f83e 033e 05bf 6dee 4e3e
00000060: 1017 2f3f 67cf 293f b994 b73f 988b aebf
00000070: 456a 883f d722 8b3b eba8 56be a117 f4bf
00000080: 5875 a2bf 5128 643f 1975 b03f 5b53 51bf
00000090: eb1f 04c0 1b6a 0940 7764 533f e622 61be
000000a0: c066 a83f 194d cebf f7f1 1b3f 141b 4fbf
-3.5869281 -1.4840035 -0.6390518 1.3357425 -1.5953826 -1.3739978 -0.53573114 0.41608554
0.17397322 -0.13016206 -1.2662128 1.3326774 0.40653992 3.3759449 0.025346681 1.7037126
1.707848 -1.1429353 1.5496464 -1.4322424 2.0677822 0.48529834 -0.5204775 0.2020814
0.68394566 0.66332096 1.4342262 -1.3636351 1.0657431 0.0042460966 -0.20962875 -1.9069711
-1.269206 0.8912402 1.3785735 -0.81767815 -2.064448 2.1471012 0.8257517 -0.21985969
1.3156357 -1.6117278 0.60916084 -0.8090069

weight f4 [12, 11]
00000000: 0000 0000 0000 0000 0000 0000 0000 0000
00000010: 0000 0000 0000 0000 0000 0000 0000 0000
00000020: 0000 0000 0000 0000 0000 0000 0000 803f
00000030: 0000 0000 0000 0000 0000 0000 0000 0000
00000040: 0000 0000 0000 0000 0000 0000 0000 0000
00000050: 0000 0000 0000 0000 0000 0000 0000 803f
00000060: 0000 0000 0000 0000 0000 0000 0000 0000
00000070: 0000 0000 0000 0000 0000 0000 0000 0000
00000080: 0000 0000 0000 0000 0000 0000 0000 803f
00000090: 0000 0000 0000 0000 0000 0000 0000 0000
000000a0: 0000 0000 0000 0000 0000 0000 0000 0000
000000b0: 0000 0000 0000 0000 0000 0000 0000 803f
000000c0: 0000 0000 0000 0000 0000 0000 0000 0000
000000d0: 0000 0000 0000 0000 0000 0000 0000 0000
000000e0: 0000 0000 0000 0000 0000 0000 0000 803f
000000f0: 0000 0000 0000 0000 0000 0000 0000 0000
00000100: 0000 0000 0000 0000 0000 0000 0000 0000
00000110: 0000 0000 0000 0000 0000 0000 0000 803f
00000120: 0000 0000 0000 0000 0000 0000 0000 0000
00000130: 0000 0000 0000 0000 0000 0000 0000 0000
00000140: 0000 0000 0000 0000 0000 0000 0000 803f
00000150: 0000 0000 0000 0000 0000 0000 0000 0000
00000160: 0000 0000 0000 0000 0000 0000 0000 0000
00000170: 0000 0000 0000 0000 0000 0000 0000 803f
00000180: 0000 0000 0000 0000 0000 0000 0000 0000
00000190: 0000 0000 0000 0000 0000 0000 0000 0000
000001a0: 0000 0000 0000 0000 0000 0000 0000 803f
000001b0: 0000 0000 0000 0000 0000 0000 0000 0000
000001c0: 0000 0000 0000 0000 0000 0000 0000 0000
000001d0: 0000 0000 0000 0000 0000 0000 0000 803f
000001e0: 0000 0000 0000 0000 0000 0000 0000 0000
000001f0: 0000 0000 0000 0000 0000 0000 0000 0000
00000200: 0000 0000 0000 0000 0000 0000 0000 803f
0.0 0.0 0.0 0.0 0.0 0.0 0.0 0.0
0.0 0.0 0.0 1.0 0.0 0.0 0.0 0.0
0.0 0.0 0.0 0.0 0.0 0.0 0.0 1.0
0.0 0.0 0.0 0.0 0.0 0.0 0.0 0.0
0.0 0.0 0.0 1.0 0.0 0.0 0.0 0.0
0.0 0.0 0.0 0.0 0.0 0.0 0.0 1.0
0.0 0.0 0.0 0.0 0.0 0.0 0.0 0.0
0.0 0.0 0.0 1.0 0.0 0.0 0.0 0.0
0.0 0.0 0.0 0.0 0.0 0.0 0.0 1.0
0.0 0.0 0.0 0.0 0.0 0.0 0.0 0.0
0.0 0.0 0.0 1.0 0.0 0.0 0.0 0.0
0.0 0.0 0.0 0.0 0.0 0.0 0.0 1.0
0.0 0.0 0.0 0.0 0.0 0.0 0.0 0.0
0.0 0.0 0.0 1.0 0.0 0.0 0.0 0.0
0.0 0.0 0.0 0.0 0.0 0.0 0.0 1.0
0.0 0.0 0.0 0.0 0.0 0.0 0.0 0.0
0.0 0.0 0.0 1.0

weight_ih_l0 f4 [44, 33]
00000000: 21f6 29c0 3450 a940 1c18 833f fc46 6dbf
00000010: f963 a1c0 f864 9abe 8e30 e4bf faf2 8b40
00000020: 9fc1 74c0 3813 143f 0249 6b40 1b2f 5d3f
00000030: a459 e5bf 5045 0ec0 f488 97c0 351d 04c0
00000040: 4f86 fd3e be7f d43b 61b2 b1be 0f34 943f
00000050: 88d9 b6bf 0105 85c0 fe29 7241 427e 7cc0
00000060: 79cc e4bf 246b db3f fb98 6640 eda2 9c40
00000070: 2ba8 9a40 89cd 6e40 cd6b ac40 9588 24bf
00000080: 96c5 223e 1a5e 3540 c095 b43e 669f 09bf
00000090: 9ec5 15bf 8456 133f 18ec 60c0 ff0e 673e
000000a0: d003 c440 a62a 9a3f 6016 4ebf fb5d a240
000000b0: fdf4 193f 7dfa 1f3f cad4 973e b941 0540
000000c0: c8dc 6dbe e596 443f 6bb9 853e dd8c 1abe
000000d0: 1021 3e40 8f6a 8f3d e288 b3bf 1480 b0be
000000e0: 8f09 60be c94e cfbe 26be 933d 850d 483f
000000f0: 046c 9f3f 4e50 923f 203f 9d3f 519f d73d
00000100: 0dae bebe 7d91 05be aa09 513f 89f5 e63d
00000110: 6fb3 28c0 d770 1c3f 3f3f c6bf 2148 3ec0
00000120: e742 333f 7b4f 9040 4a8f f2bf 8627 293c
00000130: 6e77 14c0 9238 b1bf 5a2c 0abf cb2b 2bbe
00000140: 95a0 0240 bce7 df3c b1fa d93f 71a2 9ebf
00000150: 4d5b b13d f546 0640 0266 abbe 7afc 3540
00000160: 9b1a 5d40 94e6 bebf 741b 83bf 7fd9 9fbf
00000170: 0ddc 5abf 31b9 e0bf d0d8 3cc0 402e 2dc0
00000180: 29fd b1bf 93d0 44bf fb1a 3cb9 e82a 15c0
00000190: 0b03 c83e 3128 3640 b282 ffc0 439a f9bf
000001a0: 6e19 a9bd e6a4 ccc0 d3b1 c53f 90d3 0dc1
000001b0: 5e13 6ac0 4358 753f ef70 01bd 4d7a 9bbd
000001c0: b939 9c3f 1e34 2ec0 7f61 7dbe 61a7 ccbe
000001d0: e6aa d53c 650e c23e 1ff7 413d 3c7b 173f
000001e0: 89ea 863e f515 c4c0 d6d6 a840 bdb8 4a40
000001f0: ee23 9840 21d9 1d41 b6d3 dd40 339f 0641
00000200: 06ca fb40 2845 2641 1bb1 5ac0 5573 5e3e
00000210: e401 19c0 342f 8340 bc1a 093d 81a3 a23e
00000220: a3fe 713f 8e84 1fc0 b530 afc0 32a4 7540
00000230: f310 27bf dada 37c0 63a7 8440 9a61 4040
00000240: 89df edbf a2ea 8440 4fc8 89c0 797c 5340
00000250: 2a1e 74bf c0e8 7bc0 41c0 8fc0 8315 19c0
00000260: 8370 2c40 85c0 d440 c6d5 1041 f719 1640
00000270: 2e46 7940 a6ac c640 b331 8340 f65f d53f
00000280: e85e ab3e 6eeb f8bf 8712 c63f 53d6 1340
00000290: b9d8 eb3d e4f5 fb3e 77ae ac3f f5ce a6bf
000002a0: 9f6a 37c0 7731 e33e 631c a1bd e50c ecbf
000002b0: 4f38 c940 5525 11c0 2d67 a8bc a1ef 9f3f
000002c0: 1367 d63e 30a7 803e 23d0 2940 18e9 b540
000002d0: 5618 9dbf ef00 a23f 93fe dbbf 1a4e 31bd
000002e0: baa2 14c0 04be 9cbf 283d 9ec0 ec06 b9c0
000002f0: 4f17 8a40 801c 3641 e65a 993f aa19 debe
00000300: 53bd 843e 99f5 0b40 f9fe 1f40 47b0 ef40
00000310: 3c7c b1c0 33b8 153d f427 3dc0 07ed 6b40
00000320: 7664 7141 2cbe 3641 bc5e dd3f 2cfc 553f
00000330: cbc5 bfc0 ef06 0fc0 de7e 22c0 8478 b3bb
00000340: 23da 8a3f 2394 da3e b26e c8bd 4f25 bbbf
00000350: b549 d141 8865 92bf a606 1940 278a 1ec0
00000360: 70f2 9e3f 1c68 9840 0b9b a93f 9671 e9c0
00000370: 9f73 03c0 a932 e5bf f726 4dc0 5625 0ec0
00000380: 46c6 28bf 6f5b 633f 4f6e f33f 48f6 1840
00000390: 2467 4f40 2117 0bc0 bb6b 0ebd 7cc4 67bd
000003a0: c5b9 583f d9dd 72be cdbe debf 451a 2740
000003b0: 79a4 fbbf f0a4 c63e bd98 a640 d07a 883f
000003c0: dc9e 373f 9c74 1a40 297d 1cbf 390e ddbe
000003d0: 0094 a0bd c47e 33c0 7ba8 1540 66f0 97bf
000003e0: c131 79c0 8ada c9c0 e0e0 8240 bb76 2940
000003f0: 889a ce3f 2adc 20c1 dbb6 44c0 d965 6540
-2.6556475 5.2910404 1.0241733 -0.9268644 -5.0434537 -0.30155158 -1.7827318 4.37341
-3.8243177 0.57841825 3.676331 0.864 -1.7917981 -2.2229805 -4.735468 -2.0642827
0.49516532 0.0064849546 -0.34706405 1.1578387 -1.4285135 -4.156861 15.135252 -3.9452062
-1.78749 1.7142072 3.6030872 4.8948884 4.8330283 3.7312949 5.3881593 -0.6427091
0.15895686 2.8338685 0.352705 -0.5375885 -0.58504665 0.5755389 -3.51441 0.22564314
6.1254654 1.2044265 -0.8050289 5.073972 0.6013945 0.6249159 0.29654533 2.0821364
-0.23228753 0.76792747 0.26118025 -0.15092798 2.970768 0.07002746 -1.4026148 -0.34472716
-0.21878646 -0.40489796 0.07214002 0.7814563 1.2454839 1.1430757 1.2284889 0.10528434
-0.37242165 -0.1304378 0.8165537 0.11277301 -2.6359518 0.6110968 -1.5488051 -2.9731524
0.7002396 4.509702 -1.8949978 0.0103243645 -2.3197894 -1.3845389 -0.53973925 -0.16715924
2.0410511 0.02733218 1.702963 -1.2393323 0.08659992 2.0980809 -0.33476263 2.843535
3.4547489 -1.4914117 -1.0242753 -1.248825 -0.8549202 -1.7556516 -2.9507332 -2.7059479
-1.3905383 -0.7688076 -0.00017939128 -2.3307438 0.39064822 2.846203 -7.984704 -1.9500202
-0.082568035 -6.395129 1.5444893 -8.864151 -3.657432 0.958378 -0.031601842 -0.075916864
1.2205116 -2.721931 -0.24744223 -0.3997145 0.026082467 0.37901607 0.047354814 0.59172416
0.2635081 -6.1276803 5.276225 3.1675255 4.754386 9.86551 6.9320936 8.413867
7.868411 10.391884 -3.4170597 0.21723683 -2.3907404 4.099512 0.03347276 0.3176537
0.9452917 -2.4924655 -5.4746957 3.8381467 -0.6526024 -2.8727326 4.145433 3.0059571
-1.8583843 4.1536417 -4.3057017 3.3044722 -0.95358527 -3.936081 -4.4922185 -2.391938
2.6943672 6.648501 9.052191 2.3453348 3.8949084 6.2085752 4.099817 1.666991
0.33470845 -1.9446847 1.5474404 2.3099563 0.11515946 0.49211037 1.3490742 -1.3031908
-2.8658826 0.44373676 -0.078667425 -1.8441435 6.2881236 -2.2679036 -0.02055701 1.2495004
0.41875514 0.25127554 2.6533287 5.684704 -1.2273052 1.2656535 -1.7187065 -0.043287374
-2.322432 -1.2245488 -4.9449654 -5.782095 4.3153453 11.381958 1.1980865 -0.43378955
0.25925693 2.186865 2.4999373 7.490268 -5.5464153 0.03655262 -2.9555635 3.686342
15.087027 11.421429 1.7294536 0.8358791 -5.9928946 -2.2347982 -2.5389934 -0.005477013
1.084782 0.42691144 -0.097867385 -1.4620761 26.16099 -1.1437235 2.3910308 -2.4771821
1.2417736 4.7627087 1.325044 -7.2951155 -2.053932 -1.7906085 -3.2055032 -2.2210288
-0.6592754 0.8881139 1.9018039 2.3900318 3.2406702 -2.1732867 -0.03477071 -0.056583866
0.8465846 -0.2371744 -1.7401978 2.6109784 -1.9659568 0.38797712 5.206145 1.0662479
0.71726775 2.4133673 -0.6112848 -0.43174914 -0.07840729 -2.8046122 2.3384082 -1.1870239
-3.8936617 -6.307927 4.0899506 2.6478717 1.6140909 -10.053751 -3.0736606 3.5843413

weight_hh_l0 f4 [44, 11]
00000000: aed3 45c0 6641 23c0 35bb cbbf f489 573f
00000010: 4d5b 0e41 bd94 efbf 4879 febf 3a50 f3c0
00000020: f6af d13e 2dcb 9a40 6eae 19c0 ae80 573e
00000030: eceb 0b40 8bd9 a53e 1734 cbc0 b3fa 1dbf
00000040: 4fd5 d0bf dff4 d0bf 1f64 7ebf d26e 5bc0
00000050: ab0e 85bf 2013 0b40 bde0 80bf bea0 90bd
00000060: db98 3340 4257 5d3f e753 4240 838d ef3f
00000070: 0b56 9640 3ca8 6e40 7c40 3040 8916 ea3f
00000080: 3012 f8c0 da50 0540 de0c 69c0 8f05 3bc0
00000090: 9279 bec0 5880 7340 daea f3be a33e b0bf
000000a0: d96f 17c0 27ec 5f40 56b9 8c40 1a95 9a40
000000b0: 5d7b a33f 3efa 80bf 15b1 a0bf 186b adbe
000000c0: 29a6 7440 d396 41c0 ee47 cc40 7a61 ec40
000000d0: 65a9 0640 5009 a040 82bd 803f 0aef b1c0
000000e0: 834f bcbf 9ab3 3ec0 b3a9 2a3f 21b4 62c0
000000f0: 1abb fb3f 6e9a 503f 7856 dfc0 1791 593f
00000100: 3be7 9540 3feb dd3f 04a2 fabf ab39 80c0
00000110: 29cb 84bf 0566 70c1 bf91 5f40 f5fe 04c0
00000120: d66c 6abe b2ce 3dc0 d7e9 33c0 270d 1040
00000130: 0faf 0a40 f1cc c8bf 4dfa df3f ad13 49bf
00000140: ef86 afbe 85e4 763f be84 3cbf 964a 41bf
00000150: 4580 873f 4faf 82c0 842a 6d3f 8056 443f
00000160: 7804 013f 0c17 e5bf 0f9c 893f 34bc 1a3f
00000170: 7831 c6bf 10c7 4e40 680b d13f d685 40c0
00000180: 61b6 0740 1d0a ea3e eb48 88bd 3ac4 ccbe
00000190: 36b4 b9be 6d0d 623f b656 5c40 e300 7ec0
000001a0: 4b95 e73f eb13 a8bf 8dd5 b63e 08b5 ce3f
000001b0: 57c6 88c0 777f 4c40 2490 733e cfec db3e
000001c0: 0721 0c40 2635 c7c0 f730 13bf 788f 80bf
000001d0: 9c1d ecbd 585f fd3c 72f0 1f40 8245 abbf
000001e0: 0fc4 c03e a0a0 29c1 00ae 91c0 1dc9 d43f
000001f0: 0c19 2d3f 6596 c9bf 6548 0940 a101 8e3f
00000200: 7573 d53f af7a 2440 dac1 dabf 0615 debf
00000210: 6ada 01c0 3497 a03f ecc3 503f e0a6 5740
00000220: 6ea9 1440 010a 86bf 09e0 1cc0 5182 73bf
00000230: 7000 513f cc5a 463f e50e b0bf a3c0 f63f
00000240: 0848 9f40 3356 8fbf ddc3 c840 8696 ee3f
00000250: bb1d 36bf 0ff6 34bf 5471 1740 7d21 8ac0
00000260: 52e4 e6bf 19a8 fabf 9d35 2d3e 0c3a d23d
00000270: aea3 7540 9616 d5c0 ac11 c9bf e991 f0bc
00000280: 52a0 6fbf edc7 6d3e 7fb1 54c0 3d9b 843d
00000290: ea7b aa3d 9518 f33e 68cd ca3e 458e 0c41
000002a0: 384f 0340 bab0 cbbe c396 a93f 0349 ffbe
000002b0: f871 1ec0 4530 cfc0 25ed 573f 5868 99bf
000002c0: 8893 8c3f ec95 a93d fb1c fdbf 5054 e43d
000002d0: 8160 c240 c195 94bf b8af 5740 e9c1 bdbf
000002e0: 9d97 9240 b9cf 0741 41d5 fdbf 5491 8f3f
000002f0: e0f1 e1bf 55d7 1e40 01aa 1ec0 a003 8dc0
00000300: 7a9b 65c0 0bd1 c8bf d520 2cc0 ca4d dfc0
00000310: fe3b c53f ab38 38c0 099b 1a3f c0ff 90c0
00000320: 9ddc 9440 5d37 723f 8c82 84c0 8cac 0d3f
00000330: a090 843f aa3e 2cbd e435 bac0 aad4 a6c0
00000340: cc31 ed3f f256 50c0 6d4d bd3f 34c9 a0be
00000350: 03bf e93f 8c2b d73f 337a 0ec0 052b 8dbf
00000360: 0d85 79bf d90c 8ebf 2f4a 053f 15ce 6d3e
00000370: 265d 61c0 248b 1740 d73a c9be 3af6 0140
00000380: 8a85 903f 3d24 fbbf 60ce bdbf e632 bebf
00000390: b82e 47c0 fc52 8c3f 89d6 1ebd b19c dabf
000003a0: 2a48 c3bf 59be 28be 2e33 903f 0a4f 173f
000003b0: ad23 8a40 17a8 7840 368b 513f 10ee 8cc0
000003c0: df75 4fbe c420 4abf 41ed 84bf 37c8 9e3f
000003d0: a9b0 4440 cbbb c13d a5f4 2bc0 5696 2340
000003e0: 0f93 0fbf a842 b0bf 9024 7cc0 c5f5 31bf
000003f0: 575b 6e3f 1197 41bf 0d3d 52c0 11ed 4ec0
-3.091045 -2.5508666 -1.5916506 0.84194875 8.89729 -1.8717266 -1.9880762 -7.6035433
0.4095456 4.8373017 -2.4012713 0.21045181 2.1862745 0.32392535 -6.3501086 -0.6171066
-1.6315097 -1.6324729 -0.9937152 -3.428639 -1.0395101 2.1730423 -1.0068585 -0.07061909
2.8062046 0.8646127 3.036371 1.8715061 4.6980033 3.7290182 2.7539358 1.8288127
-7.75222 2.0830598 -3.6414104 -2.9222143 -5.95234 3.8047085 -0.47640115 -1.3769115
-2.3662016 3.4987886 4.397624 4.830701 1.2772022 -1.0076368 -1.2554041 -0.3387077
3.8226416 -3.0248306 6.3837805 7.386899 2.104089 5.001137 1.0057833 -5.5604296
-1.4711765 -2.979712 0.6666519 -3.5422442 1.9666474 0.8148564 -6.9793053 0.84987015
4.6844764 1.7337416 -1.9580693 -4.0070395 -1.03745 -15.024907 3.4932706 -2.0780613
-0.2289308 -2.9657407 -2.8111475 2.2508028 2.1669347 -1.5687543 1.7498261 -0.7854565
-0.34282634 0.96442443 -0.7364005 -0.75504434 1.058602 -4.0839 0.92643 0.7669449
0.50397444 -1.7897658 1.075075 0.60443425 -1.5483847 3.2308998 1.6331606 -3.0081687
2.1205065 0.4571084 -0.06654533 -0.3999346 -0.36270303 0.88301736 3.4427924 -3.9688041
1.8092436 -1.3131078 0.357098 1.6148996 -4.2742114 3.1952798 0.23785454 0.42954108
2.1895158 -6.225238 -0.5749659 -1.0043783 -0.11529085 0.030929253 2.4990506 -1.3380587
0.3764958 -10.601715 -4.55249 1.6623875 0.67616343 -1.5749022 2.1450436 1.1094247
1.667586 2.569988 -1.7090409 -1.7350166 -2.028956 1.2546144 0.81548953 3.3695602
2.3228412 -1.0471803 -2.451174 -0.9512072 0.8164129 0.77482295 -1.3754545 1.9277538
4.977543 -1.1198181 6.273909 1.8639686 -0.71139115 -0.70687956 2.366292 -4.316588
-1.8038428 -1.9582549 0.16914983 0.10264978 3.8381152 -6.659007 -1.5708518 -0.02936645
-0.93604004 0.23220797 -3.3233335 0.06474922 0.08324416 0.47479692 0.39609838 8.784734
2.0517101 -0.3978327 1.3249134 -0.4986039 -2.475706 -6.4746423 0.8434623 -1.1984968
1.0982523 0.082805485 -1.9774469 0.11148894 6.0742803 -1.1608201 3.3701 -1.4824802
4.5810075 8.488214 -1.9830705 1.1216226 -1.7651939 2.4818928 -2.4791262 -4.4066925
-3.5876145 -1.5688795 -2.689504 -6.9782457 1.5408933 -2.8784587 0.60392815 -4.5312195
4.6519303 0.9461573 -4.140936 0.5534141 1.0356636 -0.04205195 -5.8190784 -5.21346
1.8530822 -3.2553067 1.4789253 -0.31403506 1.8261417 1.6810164 -2.2262084 -1.1028754
-0.97468644 -1.1097671 0.5206632 0.23223145 -3.5213103 2.3678675 -0.39302704 2.0306535
1.1290753 -1.9620434 -1.4828606 -1.4859283 -3.1122265 1.0962825 -0.038778815 -1.7079068
-1.5256398 -0.16478862 1.1265619 0.5910498 4.316855 3.8852594 0.81853044 -4.4040604
-0.20259808 -0.78956246 -1.0384904 1.2404851 3.0732825 0.09459647 -2.686807 2.5560508
-0.5608377 -1.3770342 -3.9397316 -0.6951564 0.93108124 -0.75621134 -3.2849762 -3.2332194

bias_ih_l0 f4 [44]
00000000: 6f45 2540 7b47 173d 56ac 1b3f 56da 72be
00000010: e69c 2740 28af 0240 9a3f 1140 b66a b4bd
00000020: 4b9f 013f e29e a63e be34 6a3f 36d7 e7bf
00000030: 2f05 3d3f b403 103f 2d27 1340 c731 18bf
00000040: d5f1 623f a092 793e 8fc8 dcbf 9747 98bf
00000050: 5e6f 403f 5f79 2b3f 513c efbe 35d3 303e
00000060: e3f5 06c0 3f19 2c3f 7836 0540 d15f 2b40
00000070: c2da 9d3f 5cbd 0c40 0792 0240 12ef 02bf
00000080: b734 0540 3f57 8d3f e315 d73e 4501 8a3f
00000090: 8d81 283f 77de 41be 9e2f 8440 f61c 0240
000000a0: 5388 61be b152 2940 4ac2 5e3f 4d1b 3e40
2.582363 0.036933403 0.6080984 -0.23716101 2.6189513 2.0419407 2.269507 -0.08809416
0.50633687 0.32543093 0.9148673 -1.8112552 0.73836035 0.5625565 2.299266 -0.59450954
0.88650256 0.24372339 -1.7248706 -1.1896847 0.7516993 0.6698207 -0.46725705 0.17268069
-2.1087577 0.6722602 2.0814495 2.6777232 1.2332385 2.1990576 2.0401628 -0.5114604
2.0813425 1.104225 0.42008886 1.0781637 0.6582268 -0.1893252 4.1308126 2.0330176
-0.2202466 2.645672 0.8701521 2.9704163

bias_hh_l0 f4 [44]
00000000: 04b9 2b40 5a10 f73d 068e 963e 1be1 a7be
00000010: 5055 2040 9dff 2440 4bcc 1540 100c ae3e
00000020: 7cb9 c83e ebc0 743e 9b25 3d3f 3db8 09c0
00000030: d171 f53e 7b6f 753f e466 0140 b891 3fbf
00000040: 2f99 4e3f 6f85 243f d9e9 d7bf 86db 5abf
00000050: fc51 723f a96d 2a3f 167c 49bf 6f73 39be
00000060: 2ea8 0dc0 35fe 2c3f f60b 1640 8404 1b40
00000070: 6310 b03f c9ec f13f 3bb9 0440 d435 c5be
00000080: d1d0 d53f 197a 303f 389a ce3e 1998 753f
00000090: 02b0 513f b639 d03e 3cfe 8240 9d02 0740
000000a0: aa2b a6be f2b0 4740 0e89 1e3f 6b5d 3a40
2.6831675 0.12063666 0.2940523 -0.3278893 2.505207 2.5781014 2.340594 0.33993578
0.39204013 0.23901717 0.73885506 -2.15187 0.47938398 0.9587323 2.021905 -0.74831724
0.8070249 0.64266104 -1.686824 -0.85491216 0.9465635 0.6657358 -0.78704965 -0.1811044
-2.2133899 0.6757539 2.34448 2.4221506 1.3755001 1.8900386 2.0738056 -0.3851763
1.6704351 0.68936306 0.40352035 0.9593521 0.8190919 0.4066903 4.0935345 2.1095345
-0.32455188 3.120175 0.6192788 2.9119518
