16 Seq2Seq/decoder.onnx (onnx, 26966 bytes, 6 tensors)

embedding.weight f4 [12, 11]
0.0 0.0 0.0 0.0 0.0 0.0 0.0 0.0
0.0 0.0 0.0 1.0 0.0 0.0 0.0 0.0
0.0 0.0 0.0 0.0 0.0 0.0 0.0 1.0
0.0 0.0 0.0 0.0 0.0 0.0 0.0 0.0
0.0 0.0 0.0 1.0 0.0 0.0 0.0 0.0
0.0 0.0 0.0 0.0 0.0 0.0 0.0 1.0
0.0 0.0 0.0 0.0 0.0 0.0 0.0 0.0
0.0 0.0 0.0 1.0 0.0 0.0 0.0 0.0
0.0 0.0 0.0 0.0 0.0 0.0 0.0 1.0
0.0 0.0 0.0 0.0 0.0 0.0 0.0 0.0
0.0 0.0 0.0 1.0 0.0 0.0 0.0 0.0
0.0 0.0 0.0 0.0 0.0 0.0 0.0 1.0
0.0 0.0 0.0 0.0 0.0 0.0 0.0 0.0
0.0 0.0 0.0 1.0 0.0 0.0 0.0 0.0
0.0 0.0 0.0 0.0 0.0 0.0 0.0 1.0
0.0 0.0 0.0 0.0 0.0 0.0 0.0 0.0
0.0 0.0 0.0 1.0
00000000: 0000 0000 0000 0000 0000 0000 0000 0000
00000010: 0000 0000 0000 0000 0000 0000 0000 0000
00000020: 0000 0000 0000 0000 0000 0000 0000 803f
00000030: 0000 0000 0000 0000 0000 0000 0000 0000
00000040: 0000 0000 0000 0000 0000 0000 0000 0000
00000050: 0000 0000 0000 0000 0000 0000 0000 803f
00000060: 0000 0000 0000 0000 0000 0000 0000 0000
00000070: 0000 0000 0000 0000 0000 0000 0000 0000
00000080: 0000 0000 0000 0000 0000 0000 0000 803f
00000090: 0000 0000 0000 0000 0000 0000 0000 0000
000000a0: 0000 0000 0000 0000 0000 0000 0000 0000
000000b0: 0000 0000 0000 0000 0000 0000 0000 803f
000000c0: 0000 0000 0000 0000 0000 0000 0000 0000
000000d0: 0000 0000 0000 0000 0000 0000 0000 0000
000000e0: 0000 0000 0000 0000 0000 0000 0000 803f
000000f0: 0000 0000 0000 0000 0000 0000 0000 0000
00000100: 0000 0000 0000 0000 0000 0000 0000 0000
00000110: 0000 0000 0000 0000 0000 0000 0000 803f
00000120: 0000 0000 0000 0000 0000 0000 0000 0000
00000130: 0000 0000 0000 0000 0000 0000 0000 0000
00000140: 0000 0000 0000 0000 0000 0000 0000 803f
00000150: 0000 0000 0000 0000 0000 0000 0000 0000
00000160: 0000 0000 0000 0000 0000 0000 0000 0000
00000170: 0000 0000 0000 0000 0000 0000 0000 803f
00000180: 0000 0000 0000 0000 0000 0000 0000 0000
00000190: 0000 0000 0000 0000 0000 0000 0000 0000
000001a0: 0000 0000 0000 0000 0000 0000 0000 803f
000001b0: 0000 0000 0000 0000 0000 0000 0000 0000
000001c0: 0000 0000 0000 0000 0000 0000 0000 0000
000001d0: 0000 0000 0000 0000 0000 0000 0000 803f
000001e0: 0000 0000 0000 0000 0000 0000 0000 0000
000001f0: 0000 0000 0000 0000 0000 0000 0000 0000
00000200: 0000 0000 0000 0000 0000 0000 0000 803f

f.bias f4 [12]
5.165041 2.8752701 -2.2533922 -0.6425473 -0.3569319 -0.8582896 -3.7051294 1.6205226
3.8719287 1.2948976 -1.0345058 -0.60412645
00000000: 0448 a540 6d04 3840 9437 10c0 fb7d 24bf
00000010: c7bf b6be deb8 5bbf d720 6dc0 496d cf3f
00000020: aecd 7740 34bf a53f b06a 84bf 08a8 1abf

onnx::LSTM_611 f4 [2, 88]
-0.056198422 0.6070746 -0.334476 -0.0015385222 -0.5032865 -0.026031546 2.1943424 -0.9488536
2.7497537 1.9891746 1.0712601 -0.76089996 1.774747 2.9596756 2.2538633 2.656407
0.40605116 1.4556693 0.7608154 0.4484774 -0.44413587 -0.038773857 -0.30953407 1.5552745
-2.03192 1.7879777 2.792133 1.574492 -2.928126 0.64449143 3.4512532 0.13976322
1.9042289 -1.6352017 -0.90027136 -2.9055169 -1.1325305 -1.0490799 1.5472622 2.446492
0.05959266 0.064393036 -0.9930803 1.8552309 -0.17491503 0.49724686 -0.43716896 -0.100181706
-0.36882707 0.10078229 2.709556 -1.1398758 2.813657 2.1274557 1.6183317 -0.7963767
1.4672122 3.2068448 1.8509111 2.7629907 0.55444634 1.1048433 0.20657821 0.66572165
-0.41648716 -0.40004167 -0.6175375 1.7563938 -2.336326 1.8282769 2.5513825 1.2735317
-2.883363 0.6167662 3.1194897 -0.07507243 1.7846079 -1.4624416 -0.613616 -2.9353988
-1.1731596 -1.5431018 1.1813325 2.487595 0.007873365 0.06471776 -1.5123073 1.9953085
0.58976835 1.8075465 1.616693 0.27191657 0.547557 1.096833 1.5331216 0.9883473
0.46099144 2.1426694 0.109569535 0.6259695 2.7485723 1.7489991 2.5423737 0.5348896
0.6930895 2.2401328 -0.1363438 1.0297743 0.8547733 -0.43676764 3.951358 -1.9482744
0.10406345 -0.35814285 1.4713615 1.42636 -0.58297545 -2.2155755 0.034216013 -1.0922569
0.84623545 2.4784057 -1.3902259 0.736121 -0.96475506 0.9931038 0.4089648 -0.5411514
-0.30571195 -1.7647296 -1.7194992 0.88764906 0.89476335 2.0508845 1.1016493 0.459402
0.37998435 1.5652573 1.8319494 0.971057 0.4518248 2.0071268 -0.0066351797 0.9074722
2.8091068 1.5356585 2.7324667 0.78617644 0.78559285 1.7460898 -0.25530156 0.98628384
0.96313167 -0.30930966 3.701656 -2.1675227 -0.069658816 -0.37935728 1.7480514 1.4032679
-0.7558699 -2.3380203 0.015817992 -1.1585163 0.42064828 2.677965 -1.3852004 0.52871174
-1.1452055 0.8331418 0.32130438 -0.26923698 0.010242104 -1.5575384 -1.3995363 1.1861792
00000000: 5130 66bd 3e69 1b3f 7040 abbe 3da8 c9ba
00000010: 62d7 00bf 1c40 d5bc 1b70 0c40 12e8 72bf
00000020: f7fb 2f40 469d fe3f 0d1f 893f 57ca 42bf
00000030: e92a e33f 536b 3d40 4c3f 1040 9302 2a40
00000040: f0e5 cf3e 5f53 ba3f ccc4 423f d49e e53e
00000050: c765 e3be 56d1 1ebd 407b 9ebe 3c13 c73f
00000060: fa0a 02c0 74dc e43f 4fb2 3240 f488 c93f
00000070: 6b66 3bc0 64fd 243f 55e1 5c40 171e 0f3e
00000080: c6bd f33f 4a4e d1bf 2f78 66bf fdf3 39c0
00000090: c2f6 90bf 4048 86bf b00c c63f 5393 1c40
000000a0: 6f17 743d 7fe0 833d 833a 7ebf 3578 ed3f
000000b0: ed1c 33be 2497 fe3e 9cd4 dfbe 112c cdbd
000000c0: e7d6 bcbe f266 ce3d 5e69 2d40 73e7 91bf
000000d0: f512 3440 3c28 0840 7e25 cf3f 58df 4bbf
000000e0: 9ccd bb3f f23c 4d40 a8ea ec3f d7d4 3040
000000f0: 32f0 0d3f 816b 8d3f 3d89 533e bc6c 2a3f
00000100: ce3d d5be 43d2 ccbe f016 1ebf 83d1 e03f
00000110: 5d86 15c0 fa04 ea3f da49 2340 1603 a33f
00000120: 0589 38c0 64e4 1d3f b8a5 4740 93bf 99bd
00000130: 086e e43f 4931 bbbf f015 1dbf 93dd 3bc0
00000140: 182a 96bf 5c84 c5bf e735 973f c234 1f40
00000150: 49ff 003c bf8a 843d 4993 c1bf 4566 ff3f
00000160: 0ffb 163f af5d e73f ccef ce3f a638 8b3e
00000170: b22c 0c3f 0665 8c3f 543d c43f 5404 7d3f
00000180: 1207 ec3e 7f21 0940 fe65 e03d 8a3f 203f
00000190: 9ce8 2f40 34df df3f 40b6 2240 86ee 083f
000001a0: 506e 313f 565e 0f40 b69d 0bbe a5cf 833f
000001b0: 6cd2 5a3f 02a0 dfbe 0de3 7c40 0e61 f9bf
000001c0: 381f d53d 805e b7be 9355 bc3f f792 b63f
000001d0: e13d 15bf fdcb 0dc0 1726 0c3d 13cf 8bbf
000001e0: e3a2 583f 339e 1e40 ecf2 b1bf 6d72 3c3f
000001f0: 30fa 76bf 0d3c 7e3f d663 d13e e688 0abf
00000200: 4786 9cbe a9e2 e1bf 8d18 dcbf f83c 633f
00000210: 360f 653f b141 0340 d802 8d3f bd36 eb3e
00000220: 4f8d c23e 5a5a c83f 517d ea3f 3197 783f
00000230: 9555 e73e c474 0040 ec6b d9bb 1950 683f
00000240: 68c8 3340 7590 c43f bce0 2e40 dc42 493f
00000250: 9d1c 493f df7f df3f e3b6 82be 197d 7c3f
00000260: cc8f 763f d65d 9ebe efe7 6c40 b1b8 0ac0
00000270: 48a9 8ebd 1e3b c2be 26c0 df3f 489e b33f
00000280: b180 41bf 20a2 15c0 bc94 813c 434a 94bf
00000290: 365f d73e c763 2b40 3f4e b1bf a759 073f
000002a0: 1896 92bf c848 553f 0282 a43e 6ed9 89be
000002b0: 7fce 273c 6b5d c7bf 0124 b3bf b8d4 973f

onnx::LSTM_612 f4 [2, 44, 33]
2.9993677 -2.2455976 0.5619308 -2.3302364 1.3934134 1.9248832 -2.003896 -17.701372
2.836746 1.1574098 8.550916 2.275025 3.8578608 2.320503 1.9137155 2.7667727
1.3012873 2.489909 0.30733648 -1.558413 -0.520791 1.0913744 -0.959655 -0.34775716
0.29746586 0.7695705 1.110486 2.070833 2.905482 3.4146671 4.773847 -0.3342675
-0.013425112 0.8653862 -0.90977097 0.21735175 0.75937825 1.1111004 -1.8975495 -2.8960757
0.090280674 -5.901268 7.1817994 -2.0843246 -0.52589875 -1.3702598 0.405869 2.1146462
1.2678283 -0.08304361 0.98389035 -0.043074206 -0.97785634 -0.34077364 0.080028474 -0.14591183
0.6117661 1.0676175 1.3136859 1.9481652 2.4446216 2.7708266 3.2997644 3.8466084
-0.33265615 -0.2777594 4.8376904 -0.8651559 10.316313 7.713893 -8.427179 0.12324199
-5.9912534 -3.025423 -6.098726 -0.7066777 -4.1952567 -1.1816511 -0.43440422 -0.045052234
-0.306538 0.22399081 -0.24217376 0.84624386 0.2997238 -0.17528743 -0.85078025 -0.0076867463
1.549302 2.112831 2.0197437 2.2663887 2.2107217 2.3840995 2.5226648 2.7849474
4.0497866 1.1277912 -0.0747208 -6.4193897 -1.0355902 5.835189 1.4694856 -0.23350583
1.2655152 -2.9065788 -2.1769257 -0.15349247 0.8977827 -0.7733107 1.4081168 -0.46057856
-0.020942084 0.09226435 -0.67101985 0.27844983 -0.2325581 -0.90885675 -1.7589386 1.8342816
-0.5849873 2.4341605 3.84543 3.5257957 3.0515363 2.7553828 3.525037 3.7401123
4.0902824 4.3351226 1.5485866 0.03913933 0.37508187 -0.76725364 0.8889182 2.685874
2.4355183 -1.4032588 -1.1350551 1.0530813 -2.920756 -2.7059398 -4.524404 -0.18886814
-0.10574346 -0.16138376 0.7466544 0.2879916 -0.030520177 0.2018984 0.078241624 -0.20037122
0.32267487 -0.033061333 -0.15572095 0.5308814 0.78519166 1.0684463 1.2582316 1.3327545
1.6800766 1.7885623 2.546648 0.022940528 -0.13504371 -14.711294 -0.3704788 11.956637
-3.9399877 2.7458827 6.4302316 0.80038655 3.1122344 8.825304 -0.8769935 1.8988816
-19.589298 4.0621524 0.011057728 -0.3663694 -1.5391045 -0.7884132 -1.9304042 -0.026729101
-0.28789556 2.450222 1.8043503 0.96015424 0.010403854 -0.81766033 -1.7247105 -3.0790691
-2.8978915 -3.0808957 -2.9261546 -3.3963826 1.6606171 0.13159966 4.227327 -3.9459782
0.7709191 3.0537996 -4.9300003 4.134565 0.6824902 -3.8021524 0.49966606 0.78820366
4.9973316 -2.695869 1.1016592 -1.6012875 4.547256 0.699772 -7.0005293 -1.173026
-0.56000787 -3.4914656 1.6740905 0.23881471 0.36891177 -0.25192833 -0.54808563 0.029182633
-0.3542154 1.2601963 4.7100286 7.289021 1.8815824 4.428072 0.14079204 -5.490453
0.2327589 4.413471 -1.293269 0.79739577 -0.44676274 -4.179835 2.0728788 -2.5343494
-1.5034378 -1.8235142 -3.9680202 -3.4335518 -2.1212065 0.83453196 0.2017 -0.4442354
-1.2079237 -0.537559 0.89792764 0.6578089 -1.2097641 7.664227 1.6781396 1.8730041
00000000: a4f5 3f40 dfb7 0fc0 b2da 0f3f 9822 15c0
00000010: 5f5b b23f 9362 f63f d53f 00c0 699c 8dc1
00000020: 3f8d 3540 0126 943f 8dd0 0841 029a 1140
00000030: 31e7 7640 1f83 1440 a1f4 f43f ce12 3140
00000040: 9590 a63f ab5a 1f40 355b 9d3e 147a c7bf
00000050: 8f52 05bf 28b2 8b3f f3ab 75bf 3a0d b2be
00000060: 724d 983e 9302 453f 6824 8e3f 8788 0440
00000070: 6bf3 3940 e889 5a40 5bc3 9840 1c25 abbe
00000080: 00f5 5bbc f389 5d3f c0e6 68bf 7591 5e3e
00000090: 9d66 423f 8a38 8e3f e7e2 f2bf 4e59 39c0
000000a0: 13e5 b83d 30d7 bcc0 4dd1 e540 9365 05c0
000000b0: 4da1 06bf ac64 afbf 10ce cf3e 5d56 0740
000000c0: 3348 a23f c512 aabd 3de0 7b3f 946e 30bd
000000d0: cb54 7abf e279 aebe f8e5 a33d e969 15be
000000e0: b49c 1c3f b1a7 883f dc26 a83f 7a5d f93f
000000f0: ae74 1c40 3955 3140 572f 5340 d52e 7640
00000100: e851 aabe 7b36 8ebe 5cce 9a40 db7a 5dbf
00000110: 9e0f 2541 36d8 f640 bad5 06c1 4c66 fc3d
00000120: 59b8 bfc0 88a0 41c0 c328 c3c0 d4e8 34bf
00000130: 8b3f 86c0 5840 97bf 3b6a debe b188 38bd
00000140: 8cf2 9cbe d95d 653e 66fc 77be 70a3 583f
00000150: 6675 993e 8c7e 33be bccc 59bf 1ae1 fbbb
00000160: 874f c63f a038 0740 7b43 0140 830c 1140
00000170: 777c 0d40 1695 1840 5773 2140 943c 3240
00000180: da97 8140 765b 903f 3807 99bd a46b cdc0
00000190: 388e 84bf deb9 ba40 1b18 bc3f 271c 6fbe
000001a0: 67fc a13f 6305 3ac0 c052 0bc0 212d 1dbe
000001b0: 16d5 653f b1f7 45bf 2c3d b43f f4d0 ebbe
000001c0: bc8e abbc 17f5 bc3d f5c7 2bbf fa90 8e3e
000001d0: b623 6ebe d6aa 68bf e624 e1bf bdc9 ea3f
000001e0: bac1 15bf 49c9 1b40 861b 7640 a3a6 6140
000001f0: 5f4c 4340 3158 3040 359a 6140 005e 6f40
00000200: 98e3 8240 53b9 8a40 1638 c63f 9050 203d
00000210: bb0a c03e bc6a 44bf 2590 633f 5ce5 2b40
00000220: 88df 1b40 fc9d b3bf 7c49 91bf 5ecb 863f
00000230: abed 3ac0 1e2e 2dc0 ebc7 90c0 a666 41be
00000240: 0790 d8bd c941 25be be24 3f3f a373 933e
00000250: 7305 fabc 74be 4e3e 253d a03d 1d2e 4dbe
00000260: a435 a53e 526b 07bd 5075 1fbe d8e7 073f
00000270: 5202 493f d9c2 883f bc0d a13f b397 aa3f
00000280: c00c d73f 9cef e43f 48fc 2240 c6ed bb3c
00000290: e648 0abe 7661 6bc1 66af bdbe 634e 3f41
000002a0: c228 7cc0 8bbc 2f40 75c4 cd40 22e6 4c3f
000002b0: d92e 4740 7234 0d41 a582 60bf 8d0e f33f
000002c0: e2b6 9cc1 27fd 8140 792b 353c c594 bbbe
000002d0: 6001 c5bf 73d5 49bf 7c17 f7bf fdf6 dabc
000002e0: 0c67 93be 70d0 1c40 f3f4 e63f abcc 753f
000002f0: ed74 2a3c 3052 51bf 50c3 dcbf 780f 45c0
00000300: 0e77 39c0 652d 45c0 1e46 3bc0 555e 59c0
00000310: 1a8f d43f 10c2 063e 4346 8740 e88a 7cc0
00000320: f45a 453f 7471 4340 90c2 9dc0 5b4e 8440
00000330: aeb7 2e3f 7756 73c0 3bd4 ff3e b7c7 493f
00000340: 24ea 9f40 1e89 2cc0 2b03 8d3f fdf6 ccbf
00000350: 1f83 9140 4224 333f 5604 e0c0 b725 96bf
00000360: ad5c 0fbf 2c74 5fc0 9948 d63f d88b 743e
00000370: 01e2 bc3e c0fc 80be 574f 0cbf 6b10 ef3c
00000380: b95b b5be 1d4e a13f 8eb8 9640 a93f e940
00000390: b1d7 f03f c4b2 8d40 ca2b 103e cab1 afc0
000003a0: 5958 6e3e 283b 8d40 d789 a5bf 2122 4c3f
000003b0: 16be e4be 35c1 85c0 0caa 0440 c832 22c0
000003c0: a670 c0bf ea68 e9bf 0bf4 7dc0 50bf 5bc0
000003d0: d9c1 07c0 e3a3 553f 728a 4e3e d372 e3be
000003e0: 3e9d 9abf 779d 09bf 96de 653f 2a66 283f
000003f0: 8dd9 9abf 5941 f540 47cd d63f 99be ef3f

onnx::LSTM_613 f4 [2, 44, 11]
1.1530539 0.604432 -8.784847 -6.084749 1.8113958 -5.0482373 4.9715185 1.5792824
3.1636102 -0.9227869 0.41849148 0.40818956 -3.89405 -0.24969031 -4.6484375 -1.2928213
-0.31598628 1.0003964 1.7153739 -5.82737 -0.5663427 0.80570894 1.6323357 -2.411583
-4.1051884 -4.6144204 -2.2931132 0.27970704 -0.4303748 1.0412649 -0.5901225 -1.1772622
0.73781776 -0.54024434 -2.931056 -0.64895034 -1.3957189 -0.30140677 1.502985 2.6696408
0.4035222 -0.09949631 0.09131967 0.7295433 0.35930428 -0.14533505 0.70645344 -3.6109838
-1.2864197 0.18763465 2.5166385 0.7144885 0.49107993 -0.8124007 0.36369315 4.3247085
-2.0901902 2.4136558 5.0593925 3.4294524 1.2194613 -0.8665713 1.730324 2.294429
0.76079947 -3.2015185 0.87178254 -1.625193 -1.0042651 1.5336338 0.9548684 1.7810059
-1.9110613 5.471938 2.1910093 -0.051080644 1.1485188 -0.85089034 1.5540838 -4.737356
-4.5008984 -2.8266678 2.8184137 3.7873602 -2.5086346 3.6533246 1.7725687 -2.275096
-0.90749294 4.6945443 1.2816485 -3.63708 0.78145546 1.1378106 2.831235 2.411865
1.9765704 -6.109002 -0.11179235 4.3357615 5.8866873 1.4432174 11.967934 1.5006841
-6.1214323 -3.1304395 -3.0541413 -1.9384112 -0.6891575 -5.491262 -1.2754998 -3.6123645
3.1545317 -3.1517177 1.7772495 0.9063064 3.3278995 -1.0925483 1.0918779 1.0691048
-0.47929978 0.98572373 -7.7841434 2.716746 6.080555 2.4618528 -0.44143826 2.6262045
2.3336158 6.910625 -0.68461543 -0.35013473 0.38709047 0.5390355 -3.1117375 -0.48571652
-1.445662 2.7046351 4.669862 3.5279348 2.901075 -0.46624014 -0.034700207 1.9279383
-0.7498639 4.600462 6.4236355 5.4277744 0.08380205 -2.4383245 -0.45854443 -12.689819
0.8867171 -0.6457772 0.06760116 -3.1875927 1.12733 -3.8307946 2.650618 -0.6970249
2.6720488 2.1381834 1.7393633 -2.9960337 0.10207676 0.99384856 0.008128751 -1.2650067
-4.708666 1.9206644 0.041249223 2.4210904 0.8945855 -0.028719781 -3.91742 -0.16017906
0.24094765 -1.0099479 -1.3296914 7.141096 1.0734235 2.662348 -3.114807 -4.6552744
1.1019717 3.377361 0.09925785 -0.88123477 2.134813 -3.4348946 -4.153709 -1.9159818
2.709762 13.650833 4.9942446 0.9874144 -0.74421936 2.7324936 -2.5038033 0.46971413
-0.014756745 -3.448907 -2.4517572 1.4067405 4.147583 4.047384 -0.7039199 -2.4794407
3.9915082 0.23609759 0.11749794 -1.358449 -1.3383427 -0.56815857 -0.13647014 0.9982565
0.9486512 -2.0720031 -0.19867782 -0.07322901 3.699179 0.114576235 -1.1222215 -1.5458894
0.91716343 1.4676541 3.6073675 -4.991675 0.60137826 0.86799103 -3.7224293 0.21447183
-11.449327 3.5097177 1.9612423 4.3591194 0.12356878 -4.6542354 -1.4064746 5.166276
1.4006865 0.29513097 2.8501651 2.2957833 3.0372076 4.211162 3.247102 1.0796546
-0.49217787 -2.3854513 -0.06897986 -0.46747094 -1.3954326 0.0029659772 0.3521117 0.949105
00000000: 4597 933f 0ebc 1a3f bc8e 0cc1 44b6 c2c0
00000010: d1db e73f 298b a1c0 ae16 9f40 ed25 ca3f
00000020: 9778 4a40 c33b 6cbf 8444 d63e 39fe d03e
00000030: 1d38 79c0 d1ae 7fbe 00c0 94c0 2b7b a5bf
00000040: f4c8 a1be fd0c 803f 5f91 db3f d179 bac0
00000050: d6fb 10bf f142 4e3f 60f0 d03f 6057 1ac0
00000060: b45d 83c0 55a9 93c0 5ec2 12c0 c335 8f3e
00000070: 165a dcbe 2b48 853f 4512 17bf 87b0 96bf
00000080: a0e1 3c3f 744d 0abf 6c96 3bc0 9c21 26bf
00000090: eba6 b2bf fd51 9abe d061 c03f 65db 2a40
000000a0: 769a ce3e b9c4 cbbd cf05 bb3d 5ac3 3a3f
000000b0: bbf6 b73e b6d2 14be 22da 343f 5c1a 67c0
000000c0: 67a9 a4bf 4c23 403e 9b10 2140 b8e8 363f
000000d0: d46e fb3e 7ef9 4fbf fd35 ba3e 0364 8a40
000000e0: adc5 05c0 5679 1a40 8be6 a140 267c 5b40
000000f0: 4f17 9c3f 9ed7 5dbf 427b dd3f edd7 1240
00000100: c1c3 423f aee5 4cc0 242d 5f3f 5306 d0bf
00000110: c28b 80bf 1d4e c43f 4172 743f 00f8 e33f
00000120: a89d f4bf 1e1a af40 7f39 0c40 f039 51bd
00000130: aa02 933f f3d3 59bf 38ec c63f 6c98 97c0
00000140: 5c07 90c0 20e8 34c0 e460 3440 1c64 7240
00000150: 788d 20c0 12d0 6940 88e3 e23f 2c9b 11c0
00000160: 7551 68bf b539 9640 0f0d a43f ebc5 68c0
00000170: 770d 483f c7a3 913f f432 3540 ff5b 1a40
00000180: 4200 fd3f f27c c3c0 63f3 e4bd 8fbe 8a40
00000190: be5f bc40 59bb b83f a87c 3f41 6b16 c03f
000001a0: c6e2 c3c0 1f59 48c0 0d77 43c0 dc1d f8bf
000001b0: a06c 30bf 6bb8 afc0 9443 a3bf fb30 67c0
000001c0: d9e3 4940 beb5 49c0 e97c e33f b203 683f
000001d0: 4efc 5440 9fd8 8bbf a8c2 8b3f 6dd8 883f
000001e0: c866 f5be 6458 7c3f b417 f9c0 2bdf 2d40
000001f0: e893 c240 ff8e 1d40 3204 e2be bc13 2840
00000200: f659 1540 d723 dd40 f542 2fbf dc44 b3be
00000210: b930 c63e 3bfe 093f b526 47c0 d6af f8be
00000220: 740b b9bf be18 2d40 826f 9540 afc9 6140
00000230: 36ab 3940 07b7 eebe ce21 0ebd afc6 f63f
00000240: 15f7 3fbf fc36 9340 6c8e cd40 54b0 ad40
00000250: 69a0 ab3d 820d 1cc0 56c6 eabe 8009 4bc1
00000260: e4ff 623f a851 25bf 7a72 8a3d 8501 4cc0
00000270: 594c 903f bd2b 75c0 baa3 2940 3970 32bf
00000280: d902 2b40 ffd7 0840 75a3 de3f 04bf 3fc0
00000290: 9f0d d13d dc6c 7e3f 742e 053c bdeb a1bf
000002a0: 64ad 96c0 55d8 f53f f2f4 283d 25f3 1a40
000002b0: 8e03 653f bf45 ebbc 02b7 7ac0 fb05 24be
000002c0: fbba 763e f945 81bf 5433 aabf dc83 e440
000002d0: f165 893f e963 2a40 ff58 47c0 02f8 94c0
000002e0: 690d 8d3f af26 5840 b347 cb3d 9a98 61bf
000002f0: c7a0 0840 50d5 5bc0 2feb 84c0 e43e f5bf
00000300: be6c 2d40 d069 5a41 dad0 9f40 31c7 7c3f
00000310: 2985 3ebf 2de1 2e40 503e 20c0 5f7e f03e
00000320: 46c6 71bc e4ba 5cc0 97e9 1cc0 1310 b43f
00000330: 00b9 8440 2b84 8140 1834 34bf 28af 1ec0
00000340: df74 7f40 91c3 713e c3a2 f03d a8e1 adbf
00000350: d04e abbf d772 11bf d4be 0bbe bd8d 7f3f
00000360: ceda 723f b39b 04c0 3372 4bbe 17f9 95bd
00000370: 59bf 6c40 f2a6 ea3d f4a4 8fbf b4df c5bf
00000380: 39cb 6a3f 17dc bb3f 1cdf 6640 cdbb 9fc0
00000390: edf3 193f a934 5e3f 483c 6ec0 819e 5b3e
000003a0: 7230 37c1 379f 6040 fd09 fb3f e87d 8b40
000003b0: a111 fd3d 7fef 94c0 5c07 b4bf 2252 a540
000003c0: b249 b33f 681b 973e 1b69 3640 1dee 1240
000003d0: 9c61 4240 d7c1 8640 85d0 4f40 1f32 8a3f
000003e0: bdfe fbbe 3cab 18c0 5045 8dbd 5a58 efbe
000003f0: 899d b2bf d760 423b fc47 b43e 8cf8 723f

onnx::MatMul_614 f4 [44, 12]
0.35840258 -1.6635039 3.5569236 5.005299 3.7357185 1.5589527 0.67962027 -2.5130858
-4.9847493 -6.616773 -8.045989 -0.8427041 -2.633869 -0.08501265 -1.7639257 -2.6133745
-0.8877784 3.1702476 4.4714465 0.32843643 -2.6513376 2.0333812 -1.5736533 0.79783577
2.086816 -1.2266464 0.0743971 0.34251145 0.2465692 1.7124711 0.93309546 -1.5350584
0.31923157 -0.13061166 -1.1419489 0.49821934 -3.980574 1.4409724 1.6602029 0.757695
-0.3683675 -1.6555244 -2.6605213 -0.102709785 2.0912018 1.5268441 -0.39187127 -0.42131877
1.8916256 -0.39136505 -0.10279242 0.27494103 0.8219922 0.07144332 -1.4799569 -1.7230588
1.0905977 2.138265 0.10445082 0.5908908 -1.2260864 1.2360065 -0.9631612 -2.6749659
-2.8790336 -1.4766005 -0.09491072 2.097738 4.574084 2.877059 1.1954455 0.42052796
-1.7393967 -1.2212844 -2.1034265 -1.9849377 -0.6928367 1.6977277 2.877478 2.3293822
-0.24040522 -3.2527816 1.3694369 0.44358468 6.433037 1.1371095 -0.6545272 -1.1027938
-1.3099377 -3.2115586 -5.32122 -1.2935262 4.249157 6.576999 8.196221 1.1352606
1.4853202 0.718336 2.3006363 1.5730315 0.7649131 2.8102496 2.2953255 -0.7336951
-4.4184837 -5.3254995 -2.4287364 -1.1351535 6.091101 1.2822429 -5.24323 -7.498816
-6.077942 -3.6696587 0.30279985 5.777816 8.116695 8.151819 7.6545167 -0.6523101
-15.145892 2.9993231 -0.067324355 -1.3678932 -0.53607875 0.45199877 0.073645376 -0.7015896
-2.166188 -0.40341878 4.7673693 -0.12856662 -2.0104012 2.945997 2.1935472 0.92361444
-0.94784904 -2.0901434 -1.1953145 0.30612656 1.1630608 -1.2243567 1.1345704 0.42025998
-1.1991208 1.6797162 1.2752441 0.17838305 -0.9370326 -1.3360898 -1.7191304 -1.3098315
1.0890003 1.4634302 0.02716308 0.51120824 4.0221305 -1.1188407 -0.060331654 -0.3333208
0.2718885 0.7422791 0.74407864 0.63479257 0.4740552 -0.38465503 -2.2545881 -0.20654507
-0.44825572 1.178457 -0.49526235 -0.15909183 0.42248213 -0.5194465 -1.7266293 0.056258336
2.5427558 -0.6605026 0.5173234 -0.98574823 2.0858643 0.6630526 1.2293721 1.1123149
0.90644443 0.18257636 -0.56033266 -1.1370916 -1.289656 -1.371607 -0.13616271 -0.062553436
-1.4618461 0.31779116 0.640882 1.0372386 1.5422087 2.0896482 0.9467722 -1.7213483
-2.749946 -3.1716976 -0.48343143 0.62007874 -1.6104538 0.09075065 1.2620088 1.020304
0.67460775 0.90763426 0.7103328 -1.5257279 -3.5751524 -0.70049244 -0.78507996 1.5112048
0.44395635 -0.9894532 -0.80104864 -0.10994285 0.5449466 0.9717811 1.1888378 0.4598494
0.3275042 -0.27820444 -1.3461863 0.37743044 -4.3892775 -0.583367 -0.5417291 -0.51156694
-0.16902937 -0.23871459 -0.059038244 0.7868148 1.322444 1.282309 -0.46881342 0.19943506
-2.0551383 -0.5938144 -1.5024561 -1.5282583 -1.7941424 -1.2073671 0.29032198 1.7763768
3.2120907 2.4434428 0.8898438 -0.6293507 0.2760787 -0.50976086 -0.9061159 -0.90382826
00000000: 8b80 b73e b2ed d4bf a3a4 6340 692b a040
00000010: 0316 6f40 c38b c73f 98fb 2d3f 66d6 20c0
00000020: 1183 9fc0 9bbc d3c0 5fbc 00c1 75bb 57bf
00000030: 4f91 28c0 1d1b aebd 51c8 e1bf 8741 27c0
00000040: 7245 63bf 56e5 4a40 1716 8f40 d228 a83e
00000050: 84af 29c0 eb22 0240 796d c9bf f73e 4c3f
00000060: 658e 0540 c002 9dbf 825d 983d a95d af3e
00000070: a37c 7c3e 4132 db3f 58df 6e3f cb7c c4bf
00000080: 5272 a33e 10bf 05be 622b 92bf 9b16 ff3e
00000090: b9c1 7ec0 c971 b83f 8781 d43f 4df8 413f
000000a0: aa9a bcbe 39e8 d3bf fb45 2ac0 8259 d2bd
000000b0: 40d6 0540 a16f c33f 5aa3 c8be 18b7 d7be
000000c0: ca20 f23f 0061 c8be d584 d2bd 12c5 8c3e
000000d0: 156e 523f e050 923d 3a6f bdbf 318d dcbf
000000e0: b598 8b3f 55d9 0840 50ea d53d 9f44 173f
000000f0: 66f0 9cbf 7635 9e3f bb91 76bf a432 2bc0
00000100: 1642 38c0 3f01 bdbf 8d60 c2bd 5741 0640
00000110: e55e 9240 bc21 3840 5c04 993f 714f d73e
00000120: 8da4 debf 0c53 9cbf 8a9e 06c0 7012 febf
00000130: bf5d 31bf 244f d93f 9928 3840 9914 1540
00000140: c92c 76be 932d 50c0 b549 af3f 881d e33e
00000150: 70db cd40 ce8c 913f 188f 27bf 5928 8dbf
00000160: 0aac a7bf 2d8a 4dc0 6f47 aac0 4492 a5bf
00000170: 18f9 8740 c776 d240 b923 0341 3850 913f
00000180: f91e be3f dee4 373f a03d 1340 1959 c93f
00000190: 58d1 433f 21db 3340 9de6 1240 71d3 3bbf
000001a0: 3864 8dc0 7e6a aac0 6b70 1bc0 b64c 91bf
000001b0: 4dea c240 8920 a43f 8ac8 a7c0 4df6 efc0
000001c0: 807e c2c0 b0db 6ac0 9508 9b3e dee3 b840
000001d0: fcdd 0141 da6d 0241 cdf1 f440 cbfd 26bf
000001e0: 9355 72c1 e9f4 3f40 5ae1 89bd 2017 afbf
000001f0: 753c 09bf 626c e73e 63d3 963d 609b 33bf
00000200: d3a2 0ac0 e88c cebe 4a8e 9840 f8a6 03be
00000210: 6aaa 00c0 378b 3c40 1463 0c40 ff71 6c3f
00000220: 3ca6 72bf e9c4 05c0 1100 99bf 9fbc 9c3e
00000230: 2ddf 943f b8b7 9cbf 9a39 913f 512c d73e
00000240: ca7c 99bf f100 d73f 333b a33f 0caa 363e
00000250: 5ee1 6fbf fe04 abbf 770c dcbf 8fa8 a7bf
00000260: 5d64 8b3f ae51 bb3f 1c85 de3c 8bde 023f
00000270: 4bb5 8040 2c36 8fbf 531e 77bd 06a9 aabe
00000280: f834 8b3e 0106 3e3f f07b 3e3f c481 223f
00000290: 5db7 f23e 81f1 c4be 2c4b 10c0 8d80 53be
000002a0: c681 e5be aed7 963f 0793 fdbe f8e8 22be
000002b0: 944f d83e 72fa 04bf 3002 ddbf 246f 663d
000002c0: 83bc 2240 b316 29bf 4e6f 043f ff59 7cbf
000002d0: cd7e 0540 d1bd 293f 115c 9d3f 5660 8e3f
000002e0: be0c 683f 4cf5 3a3e f671 0fbf 388c 91bf
000002f0: 7313 a5bf d190 afbf 3d6e 0bbe 041c 80bd
00000300: c61d bbbf 86b5 a23e d810 243f 3cc4 843f
00000310: 1867 c53f ccbc 0540 aa5f 723f 2455 dcbf
00000320: 1eff 2fc0 18fd 4ac0 5384 f7be 7bbd 1e3f
00000330: 5a23 cebf 7adb b93d 8189 a13f 5299 823f
00000340: 18b3 2c3f b85a 683f 5fd8 353f 0d4b c3bf
00000350: 4ccf 64c0 7953 33bf 00fb 48bf 296f c13f
00000360: 3f4e e33e ce4c 7dbf 8611 4dbf b829 e1bd
00000370: 9f81 0b3f a5c6 783f d62b 983f 6171 eb3e
00000380: a1ae a73e d070 8ebe d54f acbf 903e c13e
00000390: f674 8cc0 8a57 15bf c2ae 0abf 0df6 02bf
000003a0: 0916 2dbe 9971 74be 16d2 71bd b26c 493f
000003b0: d845 a93f b422 a43f 5008 f0be b438 4c3e
000003c0: 6387 03c0 3804 18bf 7b50 c0bf f89d c3bf
000003d0: 75a6 e5bf 018b 9abf 15a5 943e 5160 e33f
000003e0: e592 4d40 5e61 1c40 cecc 633f 211d 21bf
000003f0: 305a 8d3e b07f 02bf 36f7 67bf 4a61 67bf
