16 Seq2Seq/num_encoder.pt (torch, 14021 bytes, 9 tensors)

weight f4 [12, 11]
0	0x00000000	0.0
1	0x00000000	0.0
2	0x00000000	0.0
3	0x00000000	0.0
4	0x00000000	0.0
5	0x00000000	0.0
6	0x00000000	0.0
7	0x00000000	0.0
8	0x00000000	0.0
9	0x00000000	0.0
10	0x00000000	0.0
11	0x3f800000	1.0
12	0x00000000	0.0
13	0x00000000	0.0
14	0x00000000	0.0
15	0x00000000	0.0
16	0x00000000	0.0
17	0x00000000	0.0
18	0x00000000	0.0
19	0x00000000	0.0
20	0x00000000	0.0
21	0x00000000	0.0
22	0x00000000	0.0
23	0x3f800000	1.0
24	0x00000000	0.0
25	0x00000000	0.0
26	0x00000000	0.0
27	0x00000000	0.0
28	0x00000000	0.0
29	0x00000000	0.0
30	0x00000000	0.0
31	0x00000000	0.0
32	0x00000000	0.0
33	0x00000000	0.0
34	0x00000000	0.0
35	0x3f800000	1.0
36	0x00000000	0.0
37	0x00000000	0.0
38	0x00000000	0.0
39	0x00000000	0.0
40	0x00000000	0.0
41	0x00000000	0.0
42	0x00000000	0.0
43	0x00000000	0.0
44	0x00000000	0.0
45	0x00000000	0.0
46	0x00000000	0.0
47	0x3f800000	1.0
48	0x00000000	0.0
49	0x00000000	0.0
50	0x00000000	0.0
51	0x00000000	0.0
52	0x00000000	0.0
53	0x00000000	0.0
54	0x00000000	0.0
55	0x00000000	0.0
56	0x00000000	0.0
57	0x00000000	0.0
58	0x00000000	0.0
59	0x3f800000	1.0
60	0x00000000	0.0
61	0x00000000	0.0
62	0x00000000	0.0
63	0x00000000	0.0
64	0x00000000	0.0
65	0x00000000	0.0
66	0x00000000	0.0
67	0x00000000	0.0
68	0x00000000	0.0
69	0x00000000	0.0
70	0x00000000	0.0
71	0x3f800000	1.0
72	0x00000000	0.0
73	0x00000000	0.0
74	0x00000000	0.0
75	0x00000000	0.0
76	0x00000000	0.0
77	0x00000000	0.0
78	0x00000000	0.0
79	0x00000000	0.0
80	0x00000000	0.0
81	0x00000000	0.0
82	0x00000000	0.0
83	0x3f800000	1.0
84	0x00000000	0.0
85	0x00000000	0.0
86	0x00000000	0.0
87	0x00000000	0.0
88	0x00000000	0.0
89	0x00000000	0.0
90	0x00000000	0.0
91	0x00000000	0.0
92	0x00000000	0.0
93	0x00000000	0.0
94	0x00000000	0.0
95	0x3f800000	1.0
96	0x00000000	0.0
97	0x00000000	0.0
98	0x00000000	0.0
99	0x00000000	0.0
100	0x00000000	0.0
101	0x00000000	0.0
102	0x00000000	0.0
103	0x00000000	0.0
104	0x00000000	0.0
105	0x00000000	0.0
106	0x00000000	0.0
107	0x3f800000	1.0
108	0x00000000	0.0
109	0x00000000	0.0
110	0x00000000	0.0
111	0x00000000	0.0
112	0x00000000	0.0
113	0x00000000	0.0
114	0x00000000	0.0
115	0x00000000	0.0
116	0x00000000	0.0
117	0x00000000	0.0
118	0x00000000	0.0
119	0x3f800000	1.0
120	0x00000000	0.0
121	0x00000000	0.0
122	0x00000000	0.0
123	0x00000000	0.0
124	0x00000000	0.0
125	0x00000000	0.0
126	0x00000000	0.0
127	0x00000000	0.0
128	0x00000000	0.0
129	0x00000000	0.0
130	0x00000000	0.0
131	0x3f800000	1.0

weight_ih_l0 f4 [44, 11]
0	0x40cc9dd3	6.3942657
1	0x404dbc20	3.2146072
2	0x400c9b3d	2.196975
3	0x3fce30b5	1.6108614
4	0x3f2d108f	0.6760339
5	0x3d2aec9e	0.041729562
6	0xbe9b1277	-0.30287525
7	0xbf2edd3c	-0.68306327
8	0xbf405f0f	-0.7514505
9	0x3ed0df2d	0.4079527
10	0x40ad44f1	5.4146657
11	0xbf5a4a2a	-0.85269415
12	0xbf9c2d1f	-1.220127
13	0xbf99f92d	-1.2029167
14	0xbf874440	-1.0567703
15	0xbf743821	-0.95398146
16	0xbf013933	-0.50477904
17	0x3d39f7f2	0.045402475
18	0x3f5ace8a	0.85471404
19	0x400f5e53	2.240132
20	0xbf1a5e96	-0.60300577
21	0x40cf5fae	6.4804296
22	0xbfd6eedf	-1.6791648
23	0xbe2c7940	-0.16843128
24	0x411a0d74	9.628284
25	0x4132e732	11.181444
26	0x412c1151	10.754228
27	0x3fb16feb	1.386228
28	0xbf01fa40	-0.50772476
29	0xbfd2fd4d	-1.6483551
30	0xc02773b6	-2.6164374
31	0xc14bd2b5	-12.738942
32	0xc0cdf9a9	-6.436726
33	0x3e5617de	0.20907542
34	0xbee59ddd	-0.44847003
35	0xbf6b77b5	-0.91979533
36	0xbfb0c05a	-1.3808701
37	0xc00454b6	-2.0676703
38	0xc0dc612a	-6.886861
39	0xc00a5e8d	-2.162021
40	0xbfd62247	-1.6729211
41	0xbfb503bc	-1.4141765
42	0x403bdd2a	2.9353738
43	0x40b5bc59	5.6792417
44	0x3fca3ab2	1.5799162
45	0x3f8f1558	1.1178389
46	0x3eae9e8c	0.34105337
47	0xbff0bb7d	-1.8807217
48	0x3ebde370	0.37087584
49	0x3f8ef26f	1.1167735
50	0x3fcdc219	1.6074859
51	0x3ffd22f0	1.9776287
52	0x4011cdee	2.278194
53	0x3ff84f5f	1.9399222
54	0xc08b7fc9	-4.359349
55	0x3db71916	0.08940332
56	0xbf06176c	-0.5237949
57	0xbf962c63	-1.1732296
58	0xbfc0b55e	-1.5055349
59	0xbfe4005a	-1.7812607
60	0xc0120aa0	-2.2818985
61	0xc02fa48a	-2.7444177
62	0xc08202ab	-4.0628257
63	0xc0a3e994	-5.122263
64	0x3faa2a04	1.3294072
65	0x403f31ca	2.987414
66	0xbf498d24	-0.7873099
67	0xbf427385	-0.7595752
68	0xbf3a3b70	-0.72746944
69	0xbf361886	-0.7113117
70	0xbf32e484	-0.6987994
71	0xbf3b6782	-0.73204815
72	0xbf36eaff	-0.71452326
73	0xbf411e7e	-0.7543715
74	0xbf4c7b45	-0.79875594
75	0xbf3ee089	-0.74561363
76	0x3f2639bc	0.64931846
77	0xbfa8da74	-1.3191667
78	0xbfcf2b9e	-1.6185186
79	0xbffd5954	-1.9792886
80	0xbff63fbc	-1.92382
81	0xc0039347	-2.055864
82	0xc01d86d4	-2.4613543
83	0xc04071f1	-3.0069544
84	0xc05f38a0	-3.487831
85	0xc0c44272	-6.133111
86	0x40dae636	6.840602
87	0x410bebda	8.745081
88	0x3ffd634f	1.9795932
89	0x3fe70ebe	1.8051374
90	0x3ffa5b62	1.9559138
91	0x3fd89b13	1.6922325
92	0x3fd70247	1.679757
93	0x3feba8f6	1.8410938
94	0x3ff49d6d	1.9110543
95	0x3ff4a1b2	1.9111845
96	0x400617d5	2.0952046
97	0x40105c56	2.2556357
98	0x402703cf	2.6096075
99	0x3ec29187	0.38001654
100	0xbe2c41be	-0.16821954
101	0xbf0422c2	-0.51615536
102	0xbf30b7ed	-0.6903065
103	0xbf95c825	-1.1701704
104	0xbfac624d	-1.3467499
105	0xbfd37f01	-1.6523134
106	0xbfd7dccc	-1.6864257
107	0xbffe71c8	-1.9878473
108	0x3f7901c5	0.97268325
109	0xc0c6c33c	-6.2113323
110	0xc096c6cf	-4.7117686
111	0xc0a26cca	-5.07578
112	0xc0b7cc98	-5.743725
113	0xc1617b9a	-14.092676
114	0xc0c40ded	-6.1267
115	0xc0a67f56	-5.203044
116	0xc095f401	-4.6860356
117	0xc08fc759	-4.4930844
118	0xc09786ad	-4.73519
119	0xc08fbe22	-4.4919596
120	0xc0332057	-2.7988489
121	0x3e918413	0.28421077
122	0x3f0c2568	0.5474458
123	0x3f55087f	0.8321609
124	0x3f86d463	1.0533565
125	0x3fb316ed	1.3991371
126	0x3ff3db80	1.9051361
127	0x4010900d	2.2587922
128	0x4029ee59	2.6551726
129	0x40601731	3.5014155
130	0xbd42e5be	-0.04758238
131	0x3fac8300	1.3477478
132	0x3f664a34	0.89956975
133	0x3ff68c78	1.9261618
134	0xbdd8819f	-0.10571598
135	0x3f12cdf3	0.57345504
136	0xbf4fa435	-0.81109935
137	0xbf5049aa	-0.813624
138	0xbde2b509	-0.11069686
139	0x4049dad3	3.153981
140	0x40a30531	5.0943837
141	0xbfdedf37	-1.741187
142	0xc070de34	-3.7635622
143	0xc087957c	-4.2369976
144	0xc051fd9f	-3.2811048
145	0x3fccf4ea	1.6012242
146	0x40de52cb	6.9476066
147	0xc0059dcf	-2.0877569
148	0xc046ce3a	-3.106337
149	0xc0756764	-3.8344355
150	0xc083e91c	-4.1222057
151	0xc0838ec9	-4.11118
152	0xc05166b0	-3.2718925
153	0xbff2f7c6	-1.8981864
154	0xc03943c0	-2.8947601
155	0xc0853af3	-4.163446
156	0xc0930d41	-4.595368
157	0xc04e9d60	-3.2283554
158	0xc0512cdb	-3.2683628
159	0xbff768b6	-1.932883
160	0xc05061dc	-3.2559729
161	0xc053fcda	-3.3123078
162	0xc053dc67	-3.3103273
163	0xc0aad71a	-5.3387575
164	0xc10738b7	-8.451346
165	0xbf0b413c	-0.54396415
166	0xbedae3fd	-0.42752066
167	0xbe93c75b	-0.28863034
168	0xbe70e26f	-0.23523878
169	0xbb6f94c8	-0.0036557186
170	0x3e6272d7	0.2211412
171	0x3ebc00cc	0.36719358
172	0x3f532cfc	0.82490516
173	0x40a574cd	5.170508
174	0xbf2717d5	-0.6527074
175	0x41001676	8.005484
176	0x405e642c	3.474864
177	0x4003ad84	2.0574656
178	0x406c3ee6	3.691339
179	0x407d1cd3	3.9548843
180	0x400e7895	2.2261097
181	0x40631492	3.5481305
182	0x40f7628d	7.73078
183	0x40fc11f6	7.8771925
184	0x40a3f2e9	5.123402
185	0x410a35de	8.638151
186	0x40957e53	4.6716704
187	0x3ffea7f0	1.9895
188	0x40022737	2.0336435
189	0x4009f2a3	2.1554344
190	0x4018a004	2.3847666
191	0x402b2456	2.6740928
192	0x3fe3cd4c	1.7797027
193	0x3ff8b2c0	1.942955
194	0x400debf4	2.2175264
195	0x405cd9de	3.4507976
196	0x40d04e85	6.509585
197	0xbf96faf4	-1.1795335
198	0x3fe0842e	1.7540338
199	0x3fd305f2	1.6486189
200	0x3fea42eb	1.8301672
201	0x40363b61	2.8473742
202	0x402eecce	2.7332034
203	0x3febe60f	1.8429583
204	0x40302bc1	2.7526705
205	0x3fc176be	1.5114362
206	0x3f548122	0.8300954
207	0xc074bf07	-3.8241594
208	0xc00d03ca	-2.2033563
209	0x40155f8f	2.3339574
210	0x40370bbd	2.8600914
211	0x4042a54c	3.041339
212	0x403b0df4	2.9227266
213	0x405cacf2	3.4480557
214	0x407a01ad	3.9063523
215	0x407110d3	3.7666519
216	0x404d04b4	3.203412
217	0x4035040e	2.8283725
218	0x3fbb090b	1.4612135
219	0xbf4df225	-0.8044761
220	0x3c36e173	0.01116215
221	0x3eb25a5f	0.34834573
222	0x3f416ed7	0.75559753
223	0x3f8442cc	1.0332885
224	0x3f8e6024	1.112309
225	0x3f8321b0	1.0244656
226	0x3fa3ce3c	1.2797313
227	0x3fd23748	1.642312
228	0x3ff3361a	1.9000885
229	0xc0c032ab	-6.006185
230	0xc0a68e04	-5.204836
231	0x3fe21ad4	1.7664437
232	0x4032fe11	2.796757
233	0x4080f314	4.0296726
234	0x40f7047f	7.719299
235	0x4116fe91	9.43715
236	0x411d26a8	9.821938
237	0x41196bb4	9.588795
238	0x405065fd	3.2562249
239	0x403a13d7	2.907461
240	0x3f28eb38	0.65983915
241	0xbf869a44	-1.0515828
242	0xc003d37a	-2.0597825
243	0xbff96423	-1.9483684
244	0xbfd6c8e3	-1.6780056
245	0xbfcadd21	-1.5848733
246	0xbfbd4b56	-1.4788616
247	0xbfad3d0f	-1.3534259
248	0xbfa7b72d	-1.3102776
249	0xbf946a56	-1.1594951
250	0xbf5655fc	-0.8372495
251	0xc0194b37	-2.3952157
252	0xbf56e176	-0.83937776
253	0xbf9e7008	-1.2377939
254	0xbf5304fc	-0.8242948
255	0xbe12bdb3	-0.14330177

weight_hh_l0 f4 [44, 11]
0	0xbf9a23f4	-1.2042222
1	0xbe07b985	-0.13254364
2	0x3f5c177d	0.8597334
3	0x4028d0d9	2.637747
4	0x3f26f36c	0.6521518
5	0x40f37b97	7.6088367
6	0x3d5a05b8	0.05322811
7	0xc0315b17	-2.7711847
8	0x3ff62129	1.922887
9	0x3fca3705	1.5798041
10	0x3ff55428	1.9166307
11	0xc02f8587	-2.7425249
12	0xbe3173a3	-0.17329268
13	0xbfd1876e	-1.6369455
14	0xbed46d1c	-0.41489494
15	0xbef3d48c	-0.47623098
16	0x402743df	2.6135175
17	0x3ed68707	0.41899893
18	0xbfa10323	-1.2579082
19	0xbfbe27f3	-1.4855942
20	0x3dc0fe29	0.09423477
21	0xbf975aca	-1.1824582
22	0xc0852ca2	-4.1616983
23	0x405f6fd7	3.4912012
24	0x3f4d1c1c	0.80121017
25	0xc026392a	-2.597239
26	0x3e9df3aa	0.30849963
27	0xc091a3d0	-4.5512466
28	0x40d85067	6.7598147
29	0xbffa79fb	-1.9568475
30	0x3fe0ba1e	1.7556798
31	0xc072a10c	-3.7910795
32	0xbff0ca4a	-1.8811734
33	0x3eaea9c3	0.34113893
34	0xbf27e7d4	-0.65588117
35	0xbf65b38e	-0.89727104
36	0x3eaaf3fe	0.33389276
37	0x3ddc1d12	0.10747732
38	0x3ecf69ef	0.40510508
39	0xbd917de0	-0.07104087
40	0xbf43144b	-0.7620284
41	0xbecde4cc	-0.4021362
42	0x3f6eaa4f	0.9322862
43	0xbe1d852c	-0.15382832
44	0x3e04f581	0.12984277
45	0xbe00cf0c	-0.12578982
46	0x3d5127f9	0.05106351
47	0x3e14dfe3	0.14538531
48	0xbe42ae27	-0.19011746
49	0x3e0808b0	0.13284564
50	0xbe3be212	-0.18347958
51	0x3e827960	0.25483227
52	0xbe74dcc8	-0.23912346
53	0x3e8b693e	0.2722873
54	0x3c9fb204	0.019494064
55	0x4042704e	3.0381045
56	0x411bd8ea	9.740458
57	0x401a7c1a	2.4138246
58	0xbea88d57	-0.32920334
59	0xbf210ec7	-0.62913173
60	0x40888dba	4.2673006
61	0xbe27cc7f	-0.16386603
62	0xc0f796b4	-7.7371464
63	0x3f506b09	0.8141332
64	0x3f5053cd	0.8137787
65	0x4048fd4a	3.1404595
66	0xbb7b2b78	-0.003832547
67	0x3f0b2432	0.54352105
68	0xbf643664	-0.89145494
69	0x407ebaa9	3.9801428
70	0x3e003585	0.12520416
71	0xbf95e1ae	-1.1709497
72	0x3f27ee09	0.6559759
73	0x3dc0c0b9	0.09411759
74	0x3e622355	0.2208379
75	0x3e28addd	0.16472574
76	0xbd4ba60a	-0.049718894
77	0x4135f007	11.3711
78	0xbfcaf4bb	-1.5855936
79	0xc03b50cc	-2.9268064
80	0x3f9837b8	1.1892004
81	0xbfd4e1dd	-1.6631428
82	0xbf1b4e86	-0.6066669
83	0x4089fed8	4.312359
84	0xc09c8c7e	-4.89215
85	0xc08fcdcb	-4.493871
86	0xbf5031e6	-0.8132614
87	0x3fa98c98	1.3246031
88	0x3da1da75	0.079029955
89	0xbf9e2243	-1.2354206
90	0xbff467a0	-1.9094124
91	0x3f8c8787	1.097886
92	0xc03e488d	-2.9731781
93	0xbf5d9e77	-0.86569923
94	0x406597a2	3.58738
95	0xbfb663fe	-1.4249265
96	0xbfe1efb8	-1.7651281
97	0xbf6fedc7	-0.93722194
98	0xbfb815f4	-1.43817
99	0xbf810a45	-1.0081259
100	0x40028b3e	2.0397487
101	0xc003b210	-2.057743
102	0xbf954bc6	-1.1663749
103	0xbf9473f6	-1.1597888
104	0x3fdbe6a7	1.7179765
105	0xbe266600	-0.16249847
106	0xc0317302	-2.7726445
107	0x408f672b	4.4813437
108	0x3f48eb8f	0.78484434
109	0xbfcdfaac	-1.6092124
110	0x3e52ee91	0.20598818
111	0xbf7e6f77	-0.9938883
112	0xc01d4baf	-2.4577444
113	0x3e77dd2a	0.24205461
114	0x3ef76804	0.48321545
115	0xc0421557	-3.0325525
116	0x3f9e2e50	1.2357883
117	0xbfafe6aa	-1.3742268
118	0xbf923fd1	-1.1425725
119	0x40314ddd	2.7703774
120	0xbe921e1f	-0.28538606
121	0x40f2ba36	7.585231
122	0xbecd3a9e	-0.40083784
123	0xc061d910	-3.5288734
124	0x3fb9a0ae	1.450216
125	0xbfa69df2	-1.3016951
126	0x40a568f7	5.169063
127	0xc0435d6e	-3.0525775
128	0x3fb94a2f	1.4475764
129	0x3e4beb6d	0.19914027
130	0x3f78a9d6	0.9713415
131	0x3d37b489	0.044849906
132	0x40ac98fc	5.393675
133	0x3f89d690	1.0768604
134	0x3eb990ac	0.36243188
135	0xbe0817d5	-0.13290341
136	0xbfdf8fba	-1.7465737
137	0x3ff09bc5	1.8797537
138	0x3fed58fa	1.8542778
139	0xc050aba6	-3.2604766
140	0x4088bb51	4.272866
141	0x403a2f90	2.909153
142	0xbe9f12d7	-0.3106906
143	0x3ffdc513	1.9825767
144	0x3f689b7e	0.9086226
145	0xc0b9ae2c	-5.802511
146	0xc061d179	-3.5284102
147	0xbfdc3fda	-1.7206986
148	0x408081d5	4.0158486
149	0xc044ce6a	-3.0750985
150	0x3f93b798	1.1540403
151	0x3ea9f7d6	0.33196896
152	0x3ff716b4	1.9303803
153	0xc0048ce4	-2.0710993
154	0xc101d1b4	-8.113697
155	0xc01f136d	-2.4855607
156	0x4058e922	3.3892293
157	0xc0201dc9	-2.501818
158	0xc0430bed	-3.047603
159	0xbeb694fd	-0.35660544
160	0xbf17c96c	-0.5929172
161	0xbfe30589	-1.7736064
162	0x3e4e0525	0.2011915
163	0x3e7ac691	0.2448981
164	0x3ef3aa2c	0.47590768
165	0x3f0c4dfd	0.548065
166	0x3f3a65f5	0.72811824
167	0xc081f2b9	-4.060879
168	0x3d4ae23a	0.049532153
169	0xbf101154	-0.5627644
170	0x40271a9b	2.6109989
171	0xc0ebb61e	-7.365981
172	0xbf658185	-0.89650756
173	0x40a1b392	5.05317
174	0x404d3bde	3.206779
175	0x3fd2444d	1.6427094
176	0xbf761beb	-0.9613635
177	0xc06373f1	-3.5539515
178	0x3e8bd85e	0.27313513
179	0xc0930f0f	-4.595588
180	0xc0c86348	-6.2621193
181	0xc0b6ef2c	-5.716696
182	0x3f87a11d	1.0596043
183	0xc023a2ed	-2.5568192
184	0x3e414068	0.18872225
185	0x402512ef	2.5792806
186	0x40680b57	3.6256921
187	0x3fa9d1ee	1.326719
188	0xbf38da93	-0.7220852
189	0xbf974eee	-1.1820962
190	0xc1209de4	-10.0385475
191	0xbf989238	-1.1919622
192	0xbece9b07	-0.4035265
193	0xbf596878	-0.8492503
194	0xbfa24854	-1.2678323
195	0x4008d4f2	2.1379972
196	0xbf83f1a0	-1.0308113
197	0x403c8cbc	2.9460897
198	0x3e6935c9	0.22774424
199	0xbfb66962	-1.425091
200	0x3e63b319	0.22236289
201	0xbe724879	-0.23660459
202	0xbe73090f	-0.23733924
203	0xc01c5d3d	-2.4431908
204	0xc036fe0a	-2.8592553
205	0x3ed7bef6	0.4213788
206	0x3f24c3ec	0.64361453
207	0x4065c6de	3.590263
208	0x3e24e3d2	0.16102532
209	0x3e935f58	0.2878368
210	0xbffe0a3c	-1.9846873
211	0x3f196904	0.59925866
212	0xbf65a616	-0.8970655
213	0xc002f6d7	-2.046316
214	0x40685017	3.6298883
215	0x3f151c55	0.58246356
216	0x3f5d9f94	0.8657162
217	0xc03d9582	-2.9622502
218	0xbdeaf8e8	-0.11473256
219	0x400688e8	2.102106
220	0x3fc9e385	1.5772558
221	0xc021eb78	-2.5299969
222	0x3f28a98f	0.65883726
223	0x3f349f66	0.7055572
224	0xbf76879d	-0.9630068
225	0x3df35404	0.11881259
226	0x3fb6d54c	1.4283843
227	0x3e98d61a	0.29850847
228	0xc02aa813	-2.6665084
229	0xbfdb5624	-1.7135663
230	0x3f2e692b	0.68129224
231	0x401954f6	2.3958106
232	0x3ee0c8dd	0.43903247
233	0x40348f81	2.8212588
234	0xbfb20c7c	-1.391006
235	0xbfbd9203	-1.4810184
236	0x3f72bef1	0.94822603
237	0xc0ea7cca	-7.327733
238	0x405167e7	3.2719667
239	0x3fcf6023	1.6201214
240	0xbf9e2863	-1.2356075
241	0x3fb2aaf2	1.3958418
242	0x3feee864	1.866467
243	0x407cd111	3.9502604
244	0xbf4418cf	-0.76600355
245	0xc0a8accf	-5.271095
246	0xbf137e5d	-0.5761469
247	0xc09936ea	-4.7879534
248	0x3d6fdcaa	0.05856005
249	0x3fa91a1b	1.3211092
250	0x3fda5b9c	1.7059207
251	0xbf62ccab	-0.8859355
252	0x3dec1faf	0.11529481
253	0x40b18e10	5.5485916
254	0x4024e25a	2.5763154
255	0x4082d20e	4.0881414

bias_ih_l0 f4 [44]
0	0x3f242982	0.64125836
1	0xbe5d80b8	-0.21631134
2	0x3fd40226	1.6563156
3	0xbdfdaec8	-0.123868525
4	0xbfe588f6	-1.7932422
5	0xbe2f09ef	-0.17093633
6	0xbf35949f	-0.709299
7	0x3d465719	0.048422907
8	0xbf42b894	-0.76062894
9	0xbd938867	-0.07203751
10	0x3f396ce1	0.7243176
11	0x3e307f9f	0.17236184
12	0x3f9ecad8	1.2405653
13	0x3fa258eb	1.2683386
14	0xbfe21656	-1.7663066
15	0x3fe57bee	1.7928445
16	0x3f0b54c7	0.54426235
17	0x40023665	2.03457
18	0x3eded778	0.43523765
19	0xbee2be3a	-0.44285756
20	0xbf07ca54	-0.53043103
21	0x3f11ebab	0.57000226
22	0x3f8ba5b1	1.090994
23	0x3e92365c	0.28557098
24	0xc02156df	-2.5209272
25	0x3e487b84	0.19578367
26	0x3f273c46	0.65326345
27	0x3f81e243	1.0147175
28	0xbe0ec0de	-0.1394076
29	0xbfe8ba7d	-1.8181912
30	0xbedbf07c	-0.42956913
31	0xbf8355b0	-1.0260525
32	0xbeb62459	-0.35574606
33	0xbf7cce6e	-0.98752487
34	0xbfa00891	-1.2502614
35	0xbfebc1df	-1.841854
36	0x3e93a327	0.28835413
37	0x3f8f97b0	1.1218166
38	0xbf07a055	-0.5297902
39	0x3ebb005b	0.3652371
40	0xbf2f7c84	-0.6854937
41	0xbfadf20e	-1.3589494
42	0x3f5ae4d5	0.8550542
43	0x3f5c8d53	0.86153144

bias_hh_l0 f4 [44]
0	0x3f56c857	0.83899444
1	0xbdab31b2	-0.08359088
2	0x3f9746bf	1.1818465
3	0x3e2afbb4	0.1669758
4	0xbfb28daf	-1.3949488
5	0xbe846c0d	-0.25863686
6	0xbf05c8fe	-0.52259815
7	0xbe0bf5de	-0.1366801
8	0xbf6dab41	-0.9283944
9	0x3e42236b	0.18958823
10	0x3f5d737e	0.8650435
11	0x3ea8e601	0.3298798
12	0x3f894bad	1.072622
13	0x3fc489bd	1.5354534
14	0xbfd5637c	-1.6670985
15	0x3ffe4615	1.9865137
16	0x3edc5865	0.4303619
17	0x4009bb82	2.1520696
18	0x3f0085bd	0.5020407
19	0xbda886a3	-0.08228805
20	0xbf09aa36	-0.53775346
21	0x3f42c674	0.76084065
22	0x3f907096	1.1284359
23	0xbd298b89	-0.041392837
24	0xc00c60f9	-2.1934187
25	0xbcd9fd60	-0.026610076
26	0x3f63179c	0.887079
27	0x3f8a0b4f	1.0784701
28	0xbdd8b218	-0.10580844
29	0xbfe76406	-1.80774
30	0xbe809f44	-0.2512151
31	0xbf23fa18	-0.6405349
32	0xbe4065c9	-0.18788828
33	0xbf3cc939	-0.7374454
34	0xbfd1981e	-1.6374547
35	0xbfc59622	-1.5436442
36	0x3f1206d4	0.5704167
37	0x3f8db2a3	1.1070141
38	0xbf4e376b	-0.8055331
39	0x3f10a71e	0.56505
40	0xbf834f19	-1.0258514
41	0xbfaeff7d	-1.3671719
42	0x3f12c9e5	0.57339317
43	0x3f04d60a	0.518891

weight_ih_l0_reverse f4 [44, 11]
0	0xbf390492	-0.722726
1	0xbea0c6e0	-0.3140173
2	0xbe858649	-0.26079014
3	0xbdc39a39	-0.095509
4	0x3e578e27	0.2105032
5	0x3da29e37	0.07940333
6	0x3e3c00ae	0.18359634
7	0x3e683bda	0.22679082
8	0x3ea77cc0	0.32712364
9	0xbfebb0c1	-1.8413316
10	0xc03f674e	-2.9906802
11	0x4002518d	2.0362275
12	0x3f53b21c	0.8269365
13	0x3e55071d	0.20803495
14	0x3f147d52	0.58003724
15	0x3e48bf26	0.19604167
16	0x3ca93b65	0.020658204
17	0x3d4f59a1	0.050622586
18	0x3e9d6fe7	0.30749437
19	0x3f47680d	0.77893144
20	0x40242d1c	2.5652533
21	0xbf719789	-0.9437185
22	0x3f57a141	0.8423043
23	0x3ecf35f4	0.4047085
24	0xbfef38cd	-1.8689209
25	0xbf027a00	-0.5096741
26	0xbe2c7044	-0.16839701
27	0xbf07095b	-0.5274865
28	0xc09e4c68	-4.946827
29	0x3f2e8505	0.6817172
30	0xbf9cb0d0	-1.2241459
31	0x40218dcf	2.5242803
32	0xc10030aa	-8.011881
33	0xbe75e841	-0.24014379
34	0x3f732b72	0.9498817
35	0x3f96b120	1.1772804
36	0x3fc4f2f3	1.5386642
37	0x3fd12a4e	1.6341035
38	0x402a0826	2.6567473
39	0x403e1770	2.9701805
40	0x3c86e7b0	0.0164679
41	0xbfa4d8e1	-1.2878686
42	0x406f5e9c	3.7401495
43	0x3f1c5f9f	0.61083406
44	0xbe672152	-0.22571304
45	0xbf40d40f	-0.75323576
46	0xbf9a8d80	-1.2074432
47	0xbfd3fb66	-1.6561096
48	0xc038240c	-2.8772001
49	0xbffedf32	-1.9911864
50	0xbfe26bfd	-1.7689205
51	0xc00645ff	-2.0980222
52	0xbf045857	-0.51697296
53	0x3ef21dd0	0.4728837
54	0xbff6206d	-1.9228646
55	0x3f94bc61	1.1619989
56	0x3fd390e3	1.6528591
57	0x3fe58e37	1.7934026
58	0x3ffd0cb0	1.9769497
59	0x40218fff	2.5244138
60	0x4006c1d5	2.1055806
61	0x401c65ed	2.443721
62	0x3ff92d88	1.946702
63	0x3f5b155c	0.85579467
64	0x3fde53df	1.7369345
65	0xbf010928	-0.50404596
66	0xbf02c967	-0.51088566
67	0xbfd42262	-1.6572993
68	0xc0b7fc7e	-5.749572
69	0xbfc721a0	-1.5557137
70	0xbf3022a9	-0.6880289
71	0xbe980420	-0.29690647
72	0x3df4b380	0.119482994
73	0x3ef4efe3	0.4783927
74	0x3f526272	0.82181466
75	0xbe563779	-0.20919599
76	0xc00ebfd9	-2.2304595
77	0x3f89d258	1.0767317
78	0x3f1956aa	0.59897864
79	0x3e99fbdf	0.30074975
80	0x3c2988ee	0.010347588
81	0xbec0f0e5	-0.37683788
82	0xbef69ed7	-0.4816806
83	0xbf4e1b80	-0.8051071
84	0xbf7e68de	-0.99378765
85	0xbf58c003	-0.84667987
86	0x3fd80794	1.6877313
87	0xbdbef5bd	-0.093242146
88	0xbe411325	-0.1885496
89	0xc05a60aa	-3.41215
90	0xbf4ad88c	-0.79236674
91	0x3e8fe790	0.28106356
92	0x3e6ca8c4	0.23111254
93	0xc0895ff3	-4.2929626
94	0xbf45b67f	-0.7723159
95	0x3f432349	0.76225716
96	0x3fb8af89	1.4428569
97	0x3df82d9a	0.12118073
98	0xbff50546	-1.9142234
99	0x3e86abdb	0.2630299
100	0xbedfc7ec	-0.43707216
101	0xbf22c66b	-0.6358401
102	0xbf3c5f3d	-0.7358282
103	0xbf00ebb3	-0.5035965
104	0xbf17124c	-0.59012294
105	0xbf80c0f1	-1.0058881
106	0xbf444259	-0.7666374
107	0xbf6f368f	-0.93442625
108	0x3f397615	0.72445804
109	0x401c3a12	2.4410443
110	0x3fbe6459	1.4874374
111	0x3f2fc15b	0.6865441
112	0x3ec90a45	0.39265648
113	0x3fc89376	1.5670002
114	0x3feff231	1.8745786
115	0x40492568	3.142908
116	0x40961848	4.690464
117	0x4127f9db	10.4985
118	0x4123e85c	10.244228
119	0x401c5899	2.4429076
120	0x40649bc8	3.5720081
121	0x3febe871	1.843031
122	0x3f9b0c63	1.2113155
123	0x3ea70139	0.3261812
124	0xbe69d19c	-0.22833866
125	0xbf33eece	-0.7028626
126	0xbf068402	-0.5254518
127	0xbf1aa9e1	-0.60415465
128	0xbdef3040	-0.11679125
129	0x3f7731ab	0.9656016
130	0x4055364d	3.3314393
131	0x41177387	9.465705
132	0x3fd73cad	1.6815392
133	0x3ff545b8	1.9161901
134	0x400392f9	2.0558455
135	0x404e7b71	3.2262843
136	0x402834a0	2.628212
137	0x400df5ad	2.2181199
138	0x40284647	2.6292894
139	0x407d24fc	3.9553823
140	0x400c2b4f	2.1901433
141	0x4021f34b	2.5304744
142	0xc0921b6c	-4.5658474
143	0x408e2ec5	4.443209
144	0xbfc4abdb	-1.5364946
145	0xbfe92765	-1.8215147
146	0xc00d6dbd	-2.209823
147	0xbf3a2ed1	-0.72727686
148	0xbf352e1e	-0.70773494
149	0xbfd85e0f	-1.6903704
150	0xbee8bfdd	-0.4545888
151	0xbe2250db	-0.15851156
152	0xc08aa84e	-4.333045
153	0x410f91b3	8.973071
154	0x40240b37	2.5631845
155	0x3fb8bd38	1.4432745
156	0x3f86789e	1.050556
157	0x3f3153ba	0.6926838
158	0x3e4f900b	0.20269792
159	0xbe1de550	-0.15419507
160	0xbeb0e261	-0.34547713
161	0xbe449b89	-0.19199957
162	0xbeed5cc9	-0.46359852
163	0x4050ff54	3.265584
164	0x40d6d8ea	6.713979
165	0xc03c5158	-2.9424648
166	0xc01f18ef	-2.4858968
167	0xc00ec112	-2.230534
168	0xbfea5954	-1.8308511
169	0xbfbee837	-1.4914616
170	0xbf86e9ea	-1.0540135
171	0x3c8999d6	0.016796988
172	0xbbc21b2a	-0.0059236484
173	0x402a7eab	2.6639812
174	0xc0564ca5	-3.348428
175	0x40b708c8	5.719822
176	0x3fb0ddca	1.3817685
177	0x3fa1ec3d	1.2650219
178	0x3ef005bd	0.46879378
179	0x3f0c6238	0.5483737
180	0xbe8baf4d	-0.2728218
181	0xbe9c96f9	-0.30583933
182	0xbee6f211	-0.45106557
183	0xbedd1b36	-0.43184823
184	0xbf0a3c02	-0.53997815
185	0x3fbc92e3	1.4732326
186	0x400c07ec	2.1879835
187	0xbf760453	-0.9610035
188	0xbf51c5a5	-0.81942207
189	0xbf85e803	-1.0461429
190	0xbf7521af	-0.9575452
191	0xbf33ad39	-0.7018619
192	0xbe73aecd	-0.2379715
193	0x3dccccde	0.10000013
194	0x3f0d4f04	0.55198693
195	0x3f6dd8f2	0.9290916
196	0xbdba4b87	-0.09096437
197	0x40b24d7b	5.571958
198	0xbf58cd57	-0.84688324
199	0xbf599553	-0.84993476
200	0xbf782270	-0.9692755
201	0xbf57babc	-0.8426931
202	0xbf5b2b90	-0.85613346
203	0xbf1b49f5	-0.60659724
204	0xbf483155	-0.78200275
205	0xbe8cf203	-0.2752839
206	0xbe947edb	-0.29003033
207	0xbfc7c658	-1.5607405
208	0x4104326c	8.26231
209	0x3ef63047	0.48083708
210	0xbc3d620f	-0.0115590235
211	0xbf04041b	-0.51568764
212	0xbfb9fa26	-1.4529464
213	0xbfe41d62	-1.7821467
214	0xbfd672c2	-1.6753771
215	0xbfa7c84c	-1.3108001
216	0x40267705	2.6010144
217	0x4151c62b	13.110881
218	0xbeb98c9b	-0.36240086
219	0x4133cb98	11.2372055
220	0xbfa24525	-1.2677351
221	0xbfaffc8d	-1.3748947
222	0xbfad1107	-1.3520821
223	0xbf9ea78e	-1.2394884
224	0xbfa1b0cb	-1.2632078
225	0xbfa0063d	-1.2501904
226	0xbfa5597d	-1.2917935
227	0xbf9297fe	-1.1452634
228	0xbf820956	-1.0159099
229	0xbf8daa7d	-1.1067654
230	0xbec19086	-0.37805575
231	0xc007662a	-2.1156106
232	0x3e26dbb9	0.16294755
233	0x40cba0e1	6.3633885
234	0x40a9ab6e	5.3021765
235	0x3fc2c7a5	1.5217177
236	0x4077caa2	3.8717427
237	0x4113c3b8	9.235283
238	0x3ff2dc27	1.8973435
239	0xbe4194ce	-0.1890442
240	0x3fd91ee1	1.6962548
241	0x4058b7fd	3.3862298
242	0x405af517	3.421209
243	0x404378dd	3.054252
244	0x40229530	2.5403557
245	0x400d8bd9	2.2116606
246	0x4021779e	2.5229259
247	0x401c97cc	2.446765
248	0x402db337	2.7140634
249	0x4045a158	3.0879726
250	0x4059c420	3.4025955
251	0x4032ece8	2.7957096
252	0x408f78af	4.483482
253	0x3fe59768	1.793683
254	0x400f5875	2.239774
255	0x401f54f3	2.48956

weight_hh_l0_reverse f4 [44, 11]
0	0x40260981	2.59433
1	0x3eb9ffae	0.3632788
2	0x3f0aa092	0.5415126
3	0x410a2c1f	8.635772
4	0xc02da133	-2.7129638
5	0x407a10c1	3.9072726
6	0x3f7d53ca	0.98955977
7	0xbfe57c2d	-1.792852
8	0xbe7404a2	-0.23829892
9	0xbf6c2bf6	-0.9225458
10	0xbf0fb0ee	-0.5612935
11	0x40b55d5f	5.667648
12	0xc004b3d2	-2.0734754
13	0x402b29fc	2.6744375
14	0xbf142e6b	-0.5788333
15	0x3f907a87	1.1287392
16	0xc047e111	-3.123112
17	0x400350d3	2.051808
18	0x3f37a23e	0.71731937
19	0xbf82d814	-1.0222192
20	0x4018cb19	2.387396
21	0xbfe7b224	-1.8101239
22	0xbe9694d4	-0.29410422
23	0x3f988fbc	1.1918864
24	0x3e3232c8	0.17402184
25	0xc0538c7c	-3.3054495
26	0x3eab1db5	0.33421102
27	0x3ffd807d	1.9804837
28	0xbea964bf	-0.33084676
29	0xbf6ec047	-0.9326214
30	0x3dee3e04	0.11632922
31	0xc104755e	-8.278654
32	0x3fd08fb4	1.6293855
33	0x4066b233	3.6046264
34	0xbfdd61ef	-1.7295512
35	0xbf9572e8	-1.1675692
36	0xbf91835a	-1.136821
37	0x3f362f2d	0.71165735
38	0xc0c792c1	-6.2366643
39	0xbfbc1536	-1.4693973
40	0x40505608	3.255251
41	0xbfb4fb97	-1.4139279
42	0xc0b8a33b	-5.7699256
43	0xbfbdb03c	-1.4819407
44	0xbf22ccdb	-0.63593835
45	0x3d829e71	0.063778765
46	0xbe61b6f7	-0.22042452
47	0xc05c5b68	-3.443079
48	0xbf3a9945	-0.7289012
49	0xbd485422	-0.04890836
50	0x3f192c6a	0.59833395
51	0xbecee6aa	-0.40410358
52	0xbbb5a36b	-0.0055431626
53	0xc0449d61	-3.0721056
54	0x3e525723	0.20541053
55	0x40aa4f3b	5.3221717
56	0x3fd327ab	1.6496481
57	0x3e656e9f	0.2240548
58	0x40353565	2.831384
59	0xbf9f3597	-1.2438229
60	0x401a606e	2.4121356
61	0xbd5e3e44	-0.0542586
62	0xbfda8b11	-1.707369
63	0x3e571ba1	0.21006633
64	0x3dc37b81	0.09545041
65	0x3e00a24f	0.12561916
66	0x3dc618f5	0.09672729
67	0xbe9c7911	-0.30561116
68	0xbe714cad	-0.23564406
69	0xc01b13d6	-2.4230857
70	0xbe3150e9	-0.17316021
71	0xbec16b21	-0.37777045
72	0x3f42f59d	0.76156026
73	0xbea703a4	-0.32619965
74	0xbe0d07fc	-0.13772577
75	0xc02aa223	-2.666146
76	0xbe6bb2b2	-0.23017386
77	0xc0b70558	-5.7194023
78	0x3ef120e1	0.47095397
79	0xbe6ac718	-0.2292751
80	0x3fc980b5	1.5742403
81	0xbec9e704	-0.39434063
82	0x3e99c90d	0.30036202
83	0xbf63cb8e	-0.88982475
84	0xc03e23af	-2.970928
85	0x3ecbfc34	0.39840853
86	0xc07b7eb5	-3.9296086
87	0x3fa5035d	1.2891651
88	0xbdb3f5c7	-0.08787113
89	0xbf0b3c5d	-0.5438898
90	0xbf035c50	-0.5131273
91	0xc0810218	-4.0315056
92	0xbd0efddc	-0.034910068
93	0x3f55735d	0.83379155
94	0xbf69673e	-0.9117316
95	0xbf204241	-0.62601095
96	0xbf80d0f1	-1.0063764
97	0xc0eba6a7	-7.3640933
98	0x3eab8731	0.3350158
99	0xbeb71ecf	-0.35765693
100	0xc02fde78	-2.7479534
101	0xbf8edb15	-1.1160609
102	0x400121b6	2.0176826
103	0x3fa985df	1.3243979
104	0xc0aa3f0e	-5.320197
105	0x3faa4cdd	1.3304707
106	0xc064c755	-3.5746663
107	0xbf8c7751	-1.0973912
108	0x403f84b3	2.9924743
109	0xbf21294c	-0.6295364
110	0xbf4798fe	-0.7796782
111	0xc0359ec4	-2.8378153
112	0x3f38f9d5	0.72256213
113	0xbf90ddf3	-1.1317734
114	0xbf35858a	-0.7090689
115	0xbd7ea368	-0.062167555
116	0xbf759156	-0.9592489
117	0xbfe1d8b3	-1.7644256
118	0xbee7de36	-0.4528672
119	0xc0166a3c	-2.350234
120	0x3f3a6e5f	0.7282466
121	0xbfe8c327	-1.8184556
122	0x3f9d27cd	1.2277771
123	0x40868e78	4.204891
124	0x402f9aa0	2.7438126
125	0xc02c119f	-2.6885755
126	0xbed9053d	-0.4238681
127	0xc0b2ab84	-5.583437
128	0xc0728270	-3.7892113
129	0x3f9f19ed	1.2429787
130	0x3ffe5fa0	1.9872932
131	0x3ea01cab	0.31271872
132	0x409c239c	4.879347
133	0xbffa9910	-1.9577961
134	0xc04c8493	-3.1955917
135	0x3fdad930	1.709753
136	0xbf04ce39	-0.5187717
137	0x3e950abf	0.2910976
138	0xbf87989b	-1.0593446
139	0xbe835690	-0.2565198
140	0x3f962928	1.173131
141	0x3f3422d4	0.70365644
142	0xbecd90f5	-0.40149656
143	0xbf97112c	-1.1802115
144	0x40d155e8	6.5417366
145	0x4080def4	4.027216
146	0x40db32de	6.8499594
147	0xc0668a9a	-3.6022096
148	0x3f49ef2f	0.7888059
149	0x4031000f	2.7656286
150	0x3ea4a7f2	0.32159382
151	0xbfcd2d22	-1.6029398
152	0x40ca32e3	6.3187118
153	0xbea46d31	-0.32114556
154	0xbfac0d40	-1.3441544
155	0x3fc93f2f	1.5722407
156	0xbca0cacb	-0.01962795
157	0x4052fc76	3.296659
158	0xbef19587	-0.47184393
159	0xbf516eb0	-0.8180952
160	0x3ead2259	0.33815268
161	0xbfae95ea	-1.36395
162	0x3e16cfa7	0.1472765
163	0xbed909bc	-0.4239024
164	0x3e2b2ad5	0.16715558
165	0xbff49d78	-1.9110556
166	0xbd9ee80d	-0.07759104
167	0x3f55e52a	0.835528
168	0x40bb10af	5.8457866
169	0xbf582786	-0.8443531
170	0xbfc2b8b2	-1.5212615
171	0x3f8d25c8	1.1027155
172	0x400f43b2	2.2385068
173	0xbebfbe60	-0.37449932
174	0x408c3a3c	4.3821087
175	0xbd1fae3a	-0.038984515
176	0x3fc96042	1.57325
177	0x4053d21e	3.3096995
178	0x39b37603	0.00034229466
179	0x3fc6988a	1.5515301
180	0x3f26d3fc	0.6516721
181	0x4068e8ce	3.6392093
182	0xc05d5ae8	-3.4586735
183	0xbfeebc90	-1.8651295
184	0xbfc36045	-1.5263754
185	0xbf0f4054	-0.5595753
186	0x403b779f	2.929176
187	0xbea41f88	-0.32055306
188	0x3fb7a2de	1.4346578
189	0xbee0bf08	-0.43895745
190	0x3fa3ff92	1.2812369
191	0x3f861efb	1.0478204
192	0xbff4c755	-1.9123331
193	0xc01150c6	-2.270555
194	0x3d8e6cef	0.06954371
195	0xbf8ed661	-1.1159173
196	0x40920ec3	4.564302
197	0xbee70787	-0.4512293
198	0xbf8d54ae	-1.1041467
199	0x409ac816	4.8369246
200	0x40b50f19	5.658093
201	0x40100e61	2.2508776
202	0xc0dc5d4f	-6.88639
203	0x40b047ee	5.5087805
204	0x403b55d7	2.9271142
205	0xbf8f9a88	-1.1219034
206	0x3fa6b9b2	1.302542
207	0x3f923ea0	1.1425362
208	0xc04b1993	-3.173436
209	0xc044ac3c	-3.0730124
210	0x3ecf8257	0.4052913
211	0x3f84512d	1.0337273
212	0x40b4a18c	5.64472
213	0xc0021bfa	-2.0329576
214	0x3e82a0a2	0.25513178
215	0xc0aa3674	-5.319147
216	0xbfacb24c	-1.3491912
217	0xbf3be98f	-0.7340326
218	0x40ef8f15	7.486216
219	0x3e208128	0.15674269
220	0x3f106f59	0.56419903
221	0x3f56f08d	0.839608
222	0x3fd2c894	1.6467462
223	0x4031688f	2.7720068
224	0x3f80d2c7	1.0064324
225	0xbfb26e34	-1.3939881
226	0x4005b904	2.0894175
227	0xbf24f0f8	-0.6443019
228	0x3f238739	0.6387821
229	0x3f9b5cba	1.2137673
230	0xbe6ac97e	-0.22928426
231	0xbff0e61f	-1.8820227
232	0xc075b8f0	-3.8394127
233	0x3f03fe4f	0.5155992
234	0x40d6ddcb	6.7145743
235	0xbc6d4075	-0.0144807
236	0xbf896a9f	-1.0735663
237	0x3fe37364	1.776959
238	0xc00a605e	-2.1621318
239	0xbee41386	-0.44546145
240	0x4080e12e	4.0274878
241	0xc00556e0	-2.0834274
242	0x406143a9	3.5197546
243	0xbf9a1c34	-1.2039857
244	0xc0fce18f	-7.902534
245	0x40da28ec	6.8174953
246	0xc092aa7f	-4.5833125
247	0xc002e7c8	-2.0453968
248	0x4085e808	4.184574
249	0x3fcf50e2	1.6196558
250	0xbf72807e	-0.94727314
251	0xc009502a	-2.1455178
252	0xbf776472	-0.9663764
253	0x3f541e98	0.8285918
254	0x3fe083d9	1.7540237
255	0xbfab6fd7	-1.3393506

bias_ih_l0_reverse f4 [44]
0	0xbf0b8d0e	-0.5451211
1	0xbe6a59c3	-0.22885804
2	0xc014ca5f	-2.3248518
3	0x3e22fb37	0.15916143
4	0xbecc9dfe	-0.39964288
5	0x3f5cd101	0.86256415
6	0xbf2db23d	-0.67850095
7	0xbf27d49f	-0.6555881
8	0xc0019c38	-2.0251598
9	0x3f9b64f6	1.2140186
10	0x3d97042d	0.07373843
11	0x3feefb5e	1.8670461
12	0x3ed6c85f	0.41949746
13	0xbd670d6b	-0.05640928
14	0x3f38ff71	0.7226477
15	0x3e938e7e	0.2881965
16	0xbf5878b4	-0.8455918
17	0x3f4d5f7e	0.80223835
18	0x3e5cbf2c	0.21557301
19	0x3f3e77ad	0.7440136
20	0xbf877bca	-1.0584652
21	0x3faaa296	1.3330867
22	0xbf3570c6	-0.70875204
23	0xbfcfafc9	-1.622552
24	0x3f7871bd	0.9704855
25	0x3f47cf8e	0.7805108
26	0x3f018c50	0.50604725
27	0xbf71165e	-0.94174755
28	0xbf884488	-1.0645914
29	0x3f03ff9f	0.5156192
30	0x3d4e4285	0.050356407
31	0x3f8e8242	1.1133502
32	0xbff477f0	-1.9099102
33	0xbf320555	-0.69539386
34	0xbf9a3ecb	-1.2050413
35	0x3f9a85ec	1.207212
36	0xbfe9494b	-1.8225492
37	0x3fa9a06c	1.3252082
38	0xbf233ef1	-0.63767916
39	0x3f7e9da3	0.99459285
40	0x3e0c5a2d	0.13706274
41	0x3fcf16c3	1.6178821
42	0x3fc4b020	1.5366249
43	0xbda9ca37	-0.082905225

bias_hh_l0_reverse f4 [44]
0	0xbf07b1fa	-0.53005946
1	0xbe56692a	-0.20938554
2	0xc0358667	-2.8363283
3	0x3eeddae8	0.46456075
4	0xbf583170	-0.84450436
5	0x3f608a2d	0.8771084
6	0xbf9c397b	-1.2205042
7	0xbf00692c	-0.5016048
8	0xbfe22ca2	-1.7669871
9	0x3f9ded35	1.2338015
10	0x3f05c33c	0.5225103
11	0x3fe74c4b	1.8070158
12	0x3e5022dc	0.20325798
13	0xbe0ad65b	-0.13558333
14	0x3ec1dd53	0.3786417
15	0x3f382b10	0.7194071
16	0xbf26c842	-0.6514932
17	0x3f0b0de2	0.5431806
18	0x3f1a1386	0.6018604
19	0x3f3c6ba3	0.7360174
20	0xbf8b2966	-1.0872009
21	0x3f949a4d	1.1609589
22	0xbf673794	-0.9031918
23	0xbfeb3d9b	-1.8378175
24	0x3f128453	0.5723316
25	0x3fa1840e	1.2618425
26	0x3f596de2	0.8493329
27	0xbfa17faa	-1.2617085
28	0xbf3a8b46	-0.72868764
29	0x3f35fa24	0.7108481
30	0xbe5f27e3	-0.2179256
31	0x3fce28cb	1.6106199
32	0xbfd662b9	-1.6748878
33	0xbf2648e5	-0.6495498
34	0xbfa5f9eb	-1.2966894
35	0x3fbb6b5d	1.464214
36	0xbfe50a9d	-1.7893864
37	0x3fdd339c	1.7281375
38	0xbf404228	-0.75100946
39	0x3f926f4c	1.1440215
40	0xbe3aa7f5	-0.18228133
41	0x40040d57	2.0633142
42	0x3f7b3b7a	0.9813763
43	0x3da06076	0.078308985
