16 Seq2Seq/num_encoder.onnx (onnx, 10790 bytes, 4 tensors)

embedding.weight f4 [12, 11]
0.0 0.0 0.0 0.0 0.0 0.0 0.0 0.0
0.0 0.0 0.0 1.0 0.0 0.0 0.0 0.0
0.0 0.0 0.0 0.0 0.0 0.0 0.0 1.0
0.0 0.0 0.0 0.0 0.0 0.0 0.0 0.0
0.0 0.0 0.0 1.0 0.0 0.0 0.0 0.0
0.0 0.0 0.0 0.0 0.0 0.0 0.0 1.0
0.0 0.0 0.0 0.0 0.0 0.0 0.0 0.0
0.0 0.0 0.0 1.0 0.0 0.0 0.0 0.0
0.0 0.0 0.0 0.0 0.0 0.0 0.0 1.0
0.0 0.0 0.0 0.0 0.0 0.0 0.0 0.0
0.0 0.0 0.0 1.0 0.0 0.0 0.0 0.0
0.0 0.0 0.0 0.0 0.0 0.0 0.0 1.0
0.0 0.0 0.0 0.0 0.0 0.0 0.0 0.0
0.0 0.0 0.0 1.0 0.0 0.0 0.0 0.0
0.0 0.0 0.0 0.0 0.0 0.0 0.0 1.0
0.0 0.0 0.0 0.0 0.0 0.0 0.0 0.0
0.0 0.0 0.0 1.0
00000000: 0000 0000 0000 0000 0000 0000 0000 0000
00000010: 0000 0000 0000 0000 0000 0000 0000 0000
00000020: 0000 0000 0000 0000 0000 0000 0000 803f
00000030: 0000 0000 0000 0000 0000 0000 0000 0000
00000040: 0000 0000 0000 0000 0000 0000 0000 0000
00000050: 0000 0000 0000 0000 0000 0000 0000 803f
00000060: 0000 0000 0000 0000 0000 0000 0000 0000
00000070: 0000 0000 0000 0000 0000 0000 0000 0000
00000080: 0000 0000 0000 0000 0000 0000 0000 803f
00000090: 0000 0000 0000 0000 0000 0000 0000 0000
000000a0: 0000 0000 0000 0000 0000 0000 0000 0000
000000b0: 0000 0000 0000 0000 0000 0000 0000 803f
000000c0: 0000 0000 0000 0000 0000 0000 0000 0000
000000d0: 0000 0000 0000 0000 0000 0000 0000 0000
000000e0: 0000 0000 0000 0000 0000 0000 0000 803f
000000f0: 0000 0000 0000 0000 0000 0000 0000 0000
00000100: 0000 0000 0000 0000 0000 0000 0000 0000
00000110: 0000 0000 0000 0000 0000 0000 0000 803f
00000120: 0000 0000 0000 0000 0000 0000 0000 0000
00000130: 0000 0000 0000 0000 0000 0000 0000 0000
00000140: 0000 0000 0000 0000 0000 0000 0000 803f
00000150: 0000 0000 0000 0000 0000 0000 0000 0000
00000160: 0000 0000 0000 0000 0000 0000 0000 0000
00000170: 0000 0000 0000 0000 0000 0000 0000 803f
00000180: 0000 0000 0000 0000 0000 0000 0000 0000
00000190: 0000 0000 0000 0000 0000 0000 0000 0000
000001a0: 0000 0000 0000 0000 0000 0000 0000 803f
000001b0: 0000 0000 0000 0000 0000 0000 0000 0000
000001c0: 0000 0000 0000 0000 0000 0000 0000 0000
000001d0: 0000 0000 0000 0000 0000 0000 0000 803f
000001e0: 0000 0000 0000 0000 0000 0000 0000 0000
000001f0: 0000 0000 0000 0000 0000 0000 0000 0000
00000200: 0000 0000 0000 0000 0000 0000 0000 803f

onnx::LSTM_187 f4 [2, 88]
-0.403484 0.45988926 -0.2736434 2.1863823 0.3268913 -0.86212826 -0.24761659 -0.19160333
-0.10071889 0.21188527 2.1817079 -0.6183147 -0.17654292 0.6317164 0.8894062 -0.6600492
1.2719972 0.32827005 0.3135909 -0.376437 -1.6665835 0.54552716 -0.8872263 -1.2812426
1.1197448 -0.70569026 1.4646703 1.6381382 -0.21230096 0.10554551 0.42647764 0.83787316
-1.3775598 -0.32417637 -0.8351338 -1.0686326 -1.6445463 1.4241636 -0.31829825 0.334418
-0.47033754 -0.5563556 -1.1157748 -0.01805134 -0.50531685 -0.091338836 -0.26706976 1.9751583
0.6674792 -0.9773824 -0.37055328 0.004958576 -0.45911723 0.17323244 2.2446244 -0.8320082
0.054683458 0.68422973 1.0989977 -0.3046856 1.1057738 0.13569604 0.1592568 -0.6071019
-1.9488591 0.26668367 -0.5027638 -1.1854738 1.3573328 -0.6943577 1.2034978 1.4554802
0.086973645 0.45856428 0.91576403 0.84131986 -1.4799318 -0.08971509 -0.29318103 -1.1833265
-1.2887558 1.2684633 -0.70828396 0.33259317 -0.7948639 -0.49396157 -0.7708372 -0.04234903
-1.7427428 -1.9425379 -0.44417918 -2.7786653 0.5912691 -0.03327597 -1.5253774 0.82939374
-0.27274147 -1.0974817 -0.99930084 -0.41513586 -0.8808649 -0.23946616 -0.14534311 -1.582109
-1.8816506 -0.7297764 -0.21989734 -0.94476175 0.27712575 -0.4882841 -0.057147868 2.4200454
-1.4925028 -0.051207807 0.32494694 1.4650377 0.5627026 -0.24319562 3.675563 -0.4516856
-1.0563537 -0.34779334 0.4969586 -0.20063348 -0.18005924 -0.7656738 0.52488464 -0.074188225
-0.17385414 0.25702655 0.34954762 0.32133028 -1.4050004 -1.6966366 -0.34431717 -2.4969776
0.74113494 0.018311597 -1.4215921 0.9214854 -0.5878882 -1.445667 -0.59450036 -0.11445408
-0.6147785 -0.21027467 -0.08646131 -1.509054 -2.4214969 -0.39779377 -0.49186614 -1.2591404
0.12937255 -0.48867112 0.18169571 2.75789 -1.7695118 -0.16832107 0.7392193 1.3768442
0.3934911 -0.725515 3.608813 -0.45771182 -0.973448 -0.33769134 0.31067267 -0.37423646
0.25497887 -0.84692997 0.63942975 0.22605988 0.14740089 0.029357698 0.16261968 0.49752715
00000000: 7495 cebe 9b76 eb3e fd1a 8cbe b0ed 0b40
00000010: 4c5e a73e 70b4 5cbf 348f 7dbe aa33 44be
00000020: b545 cebd 74f8 583e 1aa1 0b40 df49 1ebf
00000030: abc7 34be 2ab8 213f 20b0 633f fcf8 28bf
00000040: ced0 a23f 0313 a83e fd8e a03e 5abc c0be
00000050: 9c52 d5bf aba7 0b3f 4321 63bf c2ff a3bf
00000060: cc53 8f3f 1ea8 34bf 517a bb3f 83ae d13f
00000070: 6c65 59be 3f28 d83d 475b da3e db7e 563f
00000080: e153 b0bf 72fa a5be 54cb 55bf f4c8 88bf
00000090: 7e80 d2bf fe4a b63f fdf7 a2be d638 ab3e
000000a0: 15d0 f0be 526d 0ebf b5d1 8ebf 67e0 93bc
000000b0: 725c 01bf db0f bbbd 5ebd 88be fdd1 fc3f
000000c0: ebdf 2a3f bc35 7abf 29b9 bdbe 8d7b a23b
000000d0: 6a11 ebbe d863 313e eda7 0f40 7dfe 54bf
000000e0: c3fb 5f3d ae29 2f3f f5ab 8c3f c0ff 9bbe
000000f0: ff89 8d3f e7f3 0a3e 3714 233e 086b 1bbf
00000100: 3774 f9bf c38a 883e 21b5 00bf 9bbd 97bf
00000110: 15bd ad3f 6dc1 31bf 370c 9a3f 2d4d ba3f
00000120: 3d1f b23d f0c8 ea3e 836f 6a3f bd60 573f
00000130: 686e bdbf 8cbc b7bd d31b 96be 3e77 97bf
00000140: f3f5 a4bf 015d a23f 1952 35bf a749 aa3e
00000150: 337c 4bbf 88e8 fcbe 9655 45bf 2d76 2dbd
00000160: 3212 dfbf 15a5 f8bf 746b e3be a7d5 31c0
00000170: 695d 173f 624c 08bd 913f c3bf 2653 543f
00000180: c5a4 8bbe 487a 8cbf 2ed2 7fbf b08c d4be
00000190: 5d80 61bf 9e36 75be d3d4 14be 8c82 cabf
000001a0: edd9 f0bf a0d2 3abf c52c 61be e8db 71bf
000001b0: 6de3 8d3e 6000 fabe e213 6abd 06e2 1a40
000001c0: 550a bfbf 47bf 51bd 725f a63e 5b86 bb3f
000001d0: 470d 103f 4608 79be 6d3c 6b40 5643 e7be
000001e0: 9936 87bf f811 b2be 5c71 fe3e dd72 4dbe
000001f0: 7361 38be 3303 44bf d75e 063f ffef 97bd
00000200: d206 32be fc98 833e e8f7 b23e 6785 a43e
00000210: 0ed7 b3bf 632b d9bf 574a b0be 7bce 1fc0
00000220: 05bb 3d3f 3402 963c bbf6 b5bf 78e6 6b3f
00000230: d77f 16bf 9e0b b9bf 2d31 18bf e766 eabd
00000240: 2062 1dbf 3e52 57be a112 b1bd ae28 c1bf
00000250: cef9 1ac0 a0ab cbbe e1d5 fbbe 832b a1bf
00000260: 3d7a 043e 1a33 fabe 710e 3a3e 4581 3040
00000270: 5d7f e2bf 5c5c 2cbe 7a3d 3d3f 6e3c b03f
00000280: aa77 c93e 5abb 39bf cbf6 6640 3459 eabe
00000290: e333 79bf e1e5 acbe 7d10 9f3e ec9b bfbe
000002a0: 978c 823e 67d0 58bf abb1 233f 3e7c 673e
000002b0: 42f0 163e 8e7f f03c c685 263e e1bb fe3e

onnx::LSTM_188 f4 [2, 44, 11]
-0.48499092 -1.493957 -1.9766881 -0.88944405 -0.10593886 0.4837185 1.0410156 1.6771683
2.4364743 0.346919 -0.8578047 1.8901286 0.17291263 -0.20944315 -0.8562606 -2.5404112
-2.0201328 -0.82270724 1.119477 2.9301844 0.96655995 -2.8627815 1.565935 1.7142899
1.2814758 1.3290855 1.1379951 1.0668538 1.0163703 0.92071515 1.0369269 1.3100021
4.2787256 8.423324 1.2706314 -0.9175378 -1.9612163 -0.5932238 -0.9973089 -1.0833104
-0.8934334 2.3229492 2.5783978 1.5249563 1.5188329 0.14273465 -0.82515055 -1.3157027
-1.2052292 -0.43931118 0.8116115 2.9991508 4.292114 2.0242724 -0.5268833 -0.5741765
-0.57246673 -0.4639336 -0.4975977 -0.4070538 -0.4878035 -0.45079044 -0.40130326 -0.40820828
-0.5534522 -1.674705 0.57978654 0.12408969 -0.17292462 -0.715487 -1.5923439 -1.9713249
-1.6235954 -1.2005187 -0.58701044 0.9930263 -2.7002149 -2.155307 -1.6877283 -1.4576298
-1.1656464 -0.49317542 -0.27733988 0.14028803 0.2679799 0.92403567 -2.653645 0.81577355
-1.3915476 -1.8598273 -1.522821 -0.7978533 -0.66979426 -0.70527965 -0.97886926 -1.1503819
-0.9111883 -1.3550384 -3.368377 1.9284142 3.4020195 5.4901094 7.7362075 3.7025175
-0.58406234 -1.8059145 -2.9577408 -0.6371414 1.4299396 -3.2013545 -2.991936 -2.8945837
-4.0500746 -5.9126906 -1.1262044 -5.4717493 -3.6477075 -2.6760912 -6.1801515 -3.198122
2.3480182 2.2109883 2.3124487 1.8745372 1.255243 1.2844533 0.9851221 0.62934756
0.4690493 0.56838787 4.273154 3.0411057 -0.44876975 -0.08627753 0.45527786 0.30865833
-0.19175549 -0.08701472 0.13814743 0.5993606 1.2416501 0.757357 -8.751883 0.39971888
0.44802895 0.55942214 0.72158194 1.3631172 1.5019598 1.8166845 1.8637923 1.6280326
0.5092126 -0.7193435 -1.4777786 -1.659302 -1.645358 -1.7286665 -1.6331329 -1.565713
-1.3939877 -1.5247204 -1.5940745 -1.765753 1.9263761 1.1868851 1.213051 1.1475456
1.1358827 1.3569452 1.325927 1.4425998 1.2616633 1.4380314 1.2813894 -3.2304344
0.5679829 -0.28042617 -0.8492975 -0.830408 -0.9645944 -1.520719 -1.2861433 -1.1726803
-0.73614365 4.6624227 -6.4830737 0.9453598 0.72222614 0.571811 0.6636164 0.36210695
0.24488758 0.18243213 0.043745846 -0.00037825192 0.84422696 -4.4981704 1.2381729 1.3501452
1.2861915 1.1709411 1.1067094 1.2297753 0.9209966 1.3013691 0.9707059 1.1175971
-1.1398607 2.2904005 1.8730199 1.934944 2.0074124 2.0070784 1.9505737 2.0161269
1.9053527 2.0400407 2.2083113 9.622738 2.5498037 2.3191614 2.152207 2.3663747
2.3176599 1.8260155 1.5817885 1.2680737 0.40404415 1.9314263 -0.7491626 -2.9179645
-3.2251985 -3.4364321 -4.0062146 -4.0874023 -4.8098307 -5.052414 -5.2025557 -4.624094
-3.186718 -1.5225405 7.8149366 7.3231125 7.364603 7.299029 7.2323217 8.57209
10.911404 9.5634575 11.423379 8.681476 -7.427071 2.6053338 3.0238101 3.1958528
00000000: bb50 f8be fc39 bfbf 1e04 fdbf 9bb2 63bf
00000010: 79f6 d8bd f4a9 f73e 0040 853f 73ad d63f
00000020: 32ef 1b40 5e9f b13e 1799 5bbf bcef f13f
00000030: 0210 313e 4478 56be e533 5bbf 1996 22c0
00000040: db49 01c0 f19c 52bf 064b 8f3f 2488 3b40
00000050: 7970 773f d037 37c0 8f70 c83f da6d db3f
00000060: 6607 a43f 791f aa3f d3a9 913f aa8e 883f
00000070: 6c18 823f fdb3 6b3f 05ba 843f 26ae a73f
00000080: 52eb 8840 efc5 0641 0da4 a23f c2e3 6abf
00000090: 2309 fbbf 84dd 17bf a34f 7fbf eaa9 8abf
000000a0: 0db8 64bf 33ab 1440 7804 2540 c531 c33f
000000b0: 1e69 c23f 0829 123e 113d 53bf f268 a8bf
000000c0: f344 9abf 65ed e0be c5c5 4f3f 16f2 3f40
000000d0: ff58 8940 ae8d 0140 d3e1 06bf 3bfd 12bf
000000e0: 2e8d 12bf b488 edbe 20c5 febe 5b69 d0be
000000f0: 61c1 f9be 01ce e6be 9f77 cdbe ad00 d1be
00000100: 0baf 0dbf bc5c d6bf e46c 143f bc22 fe3d
00000110: 2713 31be 282a 37bf edd1 cbbf 6054 fcbf
00000120: f9d1 cfbf 99aa 99bf 5146 16bf f936 7e3f
00000130: 52d0 2cc0 8df0 09c0 7b07 d8bf 9d93 babf
00000140: e733 95bf 7d81 fcbe 7eff 8dbe aaa7 0f3e
00000150: a934 893e 9a8d 6c3f 52d5 29c0 89d6 503f
00000160: 3b1e b2bf d20e eebf cceb c2bf 1d40 4cbf
00000170: a377 2bbf 358d 34bf 2d97 7abf b73f 93bf
00000180: a343 69bf e671 adbf 7d93 57c0 47d6 f63f
00000190: b0ba 5940 faae af40 038f f740 0cf6 6c40
000001a0: 1c85 15bf 3528 e7bf a04b 3dc0 b31b 23bf
000001b0: 4308 b73f fee2 4cc0 e17b 3fc0 dc40 39c0
000001c0: 369a 81c0 c334 bdc0 7727 90bf 9218 afc0
000001d0: 0a74 69c0 1445 2bc0 cdc3 c5c0 08ae 4cc0
000001e0: ee45 1640 d580 0d40 29ff 1340 d6f0 ef3f
000001f0: cdab a03f f768 a43f f630 7c3f ec1c 213f
00000200: 3b27 f03e de81 113f adbd 8840 7aa1 4240
00000210: 26c5 e5be 46b2 b0bd 2e1a e93e 7708 9e3e
00000220: 8d5b 44be c634 b2bd 8576 0d3e b26f 193f
00000230: 64ee 9e3f 26e2 413f b607 0cc1 f4a7 cc3e
00000240: 0d64 e53e 4a36 0f3f 98b9 383f a07a ae3f
00000250: 3840 c03f 1e89 e83f bf90 ee3f 5f63 d03f
00000260: c25b 023f e526 38bf d927 bdbf 0264 d4bf
00000270: 179b d2bf f244 ddbf 800a d1bf 4969 c8bf
00000280: 306e b2bf 0a2a c3bf a20a ccbf 3204 e2bf
00000290: 7e93 f63f daeb 973f 4145 9b3f c6e2 923f
000002a0: 9b64 913f 61b0 ad3f fab7 a93f 1ca7 b83f
000002b0: 2f7e a13f 6a11 b83f 9104 a43f 70bf 4ec0
000002c0: 5467 113f 0594 8fbe 906b 59bf 9e95 54bf
000002d0: a9ef 76bf eca6 c2bf 58a0 a4bf 631a 96bf
000002e0: e973 3cbf 9132 9540 5775 cfc0 1a03 723f
000002f0: d0e3 383f 3562 123f c4e2 293f 1566 b93e
00000300: cfc3 7a3e 7dcf 3a3e d82e 333d 1d50 c6b9
00000310: 421f 583f 03f1 8fc0 737c 9e3f 8fd1 ac3f
00000320: eca1 a43f 66e1 953f a7a8 8d3f 4769 9d3f
00000330: 6fc6 6b3f 4393 a63f 2f80 783f 6c0d 8f3f
00000340: f5e6 91bf ec95 1240 1ebf ef3f 3fac f73f
00000350: 7279 0040 f973 0040 66ac f93f 3908 0140
00000360: 99e2 f33f 0790 0240 f954 0d40 bcf6 1941
00000370: fc2f 2340 246d 1440 c2bd 0940 af72 1740
00000380: 8a54 1440 e0ba e93f 0c78 ca3f 3d50 a23f
00000390: e0de ce3e fa38 f73f 1fc9 3fbf eebf 3ac0
000003a0: a769 4ec0 81ee 5bc0 e932 80c0 00cc 82c0
000003b0: 22ea 99c0 60ad a1c0 567b a6c0 94f8 93c0
000003c0: 30f3 4bc0 9be2 c2bf f613 fa40 f056 ea40
000003d0: d4aa eb40 a591 e940 2e6f e740 4827 0941
000003e0: 1c95 2e41 ec03 1941 29c6 3641 53e7 0a41
000003f0: 91aa edc0 cabd 2640 1b86 4140 da88 4c40

onnx::LSTM_189 f4 [2, 44, 11]
4.472166 2.1123602 -0.12657762 0.47872868 -2.224417 -1.4667114 -4.752222 -2.25649
-0.67287105 -1.1219634 -0.8856334 -0.7299269 0.97791415 -0.01901988 -0.6420054 -0.77100605
4.2177134 -1.9559524 1.1758864 -0.08974974 0.24020429 -0.49023736 0.4299437 0.71304154
-2.5523667 -2.0539823 0.18313402 -0.24129848 -0.3162437 -1.0451733 -0.39057744 0.39112827
2.4055302 -11.943566 -2.229844 -2.9461331 -2.7345114 8.324389 -9.51376 -0.52508897
3.9819374 2.9915643 -2.2433782 -6.4115415 -3.6437738 -2.1411853 0.7242985 2.410479
-0.86748004 8.642714 -6.0098567 -1.5577806 -1.9046576 0.47682652 -0.15183139 -0.49566147
2.2062979 -1.5939764 -2.0201087 1.0494087 0.171057 0.72122043 -0.1904302 3.982207
-0.5962412 -2.5989015 1.99301 -1.3653854 0.11250228 0.24177648 -0.8170727 -0.44631407
-0.3190146 -0.98654234 -0.038570352 1.7896808 -0.4767942 0.56838834 0.040952187 -1.2926879
1.2189202 2.5957897 -0.31796196 -1.6164237 0.2933212 -0.6078748 -1.6345176 -2.377012
3.8403893 -2.8943624 1.0665588 -0.21050337 -0.10933204 -2.359685 -4.3866625 -3.480794
2.471397 -0.10916304 1.8595746 -3.0774875 -1.098313 3.0324292 1.558046 3.239468
0.010891525 0.33621833 0.40211192 1.2077638 2.948117 -1.5610446 -2.3378148 -0.79620886
3.335781 3.9818423 -1.3854504 2.4407465 4.48259 5.4354186 1.2397327 -0.2553003
-7.005432 -1.6409234 1.8081393 -0.6876969 -1.721533 2.3070688 -1.0544924 1.7237786
4.097722 -0.33747 1.5799323 -4.6549263 1.0550706 3.4648457 -0.2833443 2.402045
-3.0486991 -1.0378757 -5.831728 -2.1942623 0.7359105 3.8663979 0.49738196 -0.44794133
0.60130876 -1.7761688 -1.1076274 -1.6560488 0.14875995 -0.16325851 -1.0158132 1.0745411
-0.35039535 -0.10988709 -1.5962453 -0.15351453 -2.642192 -2.1969113 -3.03125 -0.480064
-0.30632615 -2.5912282 -0.30670458 1.4251381 4.0664544 0.47340482 0.77322686 1.749414
-0.818748 -0.8886778 -0.8040845 1.517674 -1.9085385 -1.8480302 0.26775545 9.022927
-3.5177958 -0.5773671 -2.250498 -3.8519022 2.4589818 -1.000929 2.6427865 0.90120906
-0.172332 -1.7705879 -1.8955958 3.3948936 -1.4914491 -0.03241223 0.1819203 -0.2559885
0.06543728 -1.1867324 0.8457886 0.8697249 0.11491737 -1.9566158 0.09124 0.05459001
-0.040093053 0.30064452 0.61345464 -0.37022072 -0.77095217 -0.58854395 -0.50516576 -0.31625512
-1.6841856 2.2591963 0.93146753 -4.3524165 -1.1140802 -1.8735688 1.7103498 2.537492
2.4758036 -1.203768 3.1192832 2.3448887 -0.9934039 -1.3558056 -2.6214104 -1.1701227
-1.5636911 1.349873 1.560791 -2.4797053 -0.82885855 -0.41916895 -2.06249 -0.07831257
0.3689331 -0.042408925 0.52181923 -0.5015072 0.35453698 -1.2484758 -0.5831357 -1.1795639
-0.11905395 -0.5834835 -1.181031 1.5108498 -0.36827275 -5.0756097 -2.533971 -1.5370464
1.2580698 -1.682698 -0.04731673 0.040159997 -4.5037737 -2.45439 5.6531706 0.35253924
00000000: fc1b 8f40 e930 0740 909d 01be ed1b f53e
00000010: d95c 0ec0 33bd bbbf 3412 98c0 556a 10c0
00000020: 4741 2cbf 7f9c 8fbf dfb8 62bf 7ddc 3abf
00000030: 9558 7a3f 94cf 9bbc 775a 24bf a760 45bf
00000040: 82f7 8640 a65c fabf 7283 963f b6ce b7bd
00000050: 1df8 753e 6400 fbbe 9521 dc3e e489 363f
00000060: fa59 23c0 7274 03c0 7c87 3b3e f316 77be
00000070: b2ea a1be 3dc8 85bf c4f9 c7be f741 c83e
00000080: 35f4 1940 d918 3fc1 c4b5 0ec0 728d 3cc0
00000090: 3c02 2fc0 b330 0541 5c38 18c1 3b6c 06bf
000000a0: 10d8 7e40 ca75 3f40 8293 0fc0 592b cdc0
000000b0: 9733 69c0 2e09 09c0 a06b 393f 4a45 1a40
000000c0: 2c13 5ebf 8e48 0a41 bf50 c0c0 5b65 c7bf
000000d0: d2cb f3bf 9b22 f43e b079 1bbe 57c7 fdbe
000000e0: fc33 0d40 6b07 ccbf 7649 01c0 0653 863f
000000f0: 9129 2f3e e7a1 383f 2200 43be 7bdc 7e40
00000100: 43a3 18bf 6754 26c0 f41a ff3f f3c4 aebf
00000110: 9867 e63d 4194 773e ad2b 51bf 4783 e4be
00000120: e255 a3be 0a8e 7cbf f2fb 1dbd 4314 e53f
00000130: 5f1e f4be e681 113f 7bbd 273d cc76 a5bf
00000140: 9405 9c3f 6b21 2640 e9cb a2be f9e6 cebf
00000150: 322e 963e af9d 1bbf df37 d1bf f720 18c0
00000160: f0c8 7540 3c3d 39c0 0085 883f 328e 57be
00000170: 7ae9 dfbd 1405 17c0 8a5f 8cc0 54c5 5ec0
00000180: 5e2b 1e40 df90 dfbd 8a06 ee3f 8ef5 44c0
00000190: 8595 8cbf 5213 4240 0d6e c73f 7253 4f40
000001a0: 5e72 323c cf24 ac3e 9de1 cd3e 0198 9a3f
000001b0: f3ad 3c40 4fd0 c7bf c29e 15c0 58d4 4bbf
000001c0: 707d 5540 81d6 7e40 7056 b1bf 3135 1c40
000001d0: 6171 8f40 f3ee ad40 90af 9e3f b9b6 82be
000001e0: 802c e0c0 c709 d2bf 1c71 e73f e70c 30bf
000001f0: 315b dcbf 04a7 1340 9bf9 86bf c7a4 dc3f
00000200: 8a20 8340 dec8 acbe 393b ca3f 28f5 94c0
00000210: 8e0c 873f 08c0 5d40 8112 91be 1bbb 1940
00000220: e31d 43c0 1cd9 84bf 849d bac0 cb6e 0cc0
00000230: a164 3c3f 1073 7740 d9a8 fe3e 9158 e5be
00000240: 5fef 193f 8059 e3bf bcc6 8dbf 68f9 d3bf
00000250: 8754 183e 3d2d 27be 2b06 82bf 908a 893f
00000260: 0567 b3be 7c0c e1bd c451 ccbf ea32 1dbe
00000270: ac19 29c0 329a 0cc0 0000 42c0 f3ca f5be
00000280: c8d6 9cbe afd6 25c0 6208 9dbe ed6a b63f
00000290: 6520 8240 1e62 f23e 32f2 453f ccec df3f
000002a0: 7899 51bf 6380 63bf 7bd8 4dbf 2443 c23f
000002b0: fd4a f4bf 418c ecbf 3e17 893e e95d 1041
000002c0: 9123 61c0 55ce 13bf 2908 10c0 9185 76c0
000002d0: f55f 1d40 711e 80bf 6a23 2940 a3b5 663f
000002e0: cd77 30be a0a2 e2bf e2a2 f2bf f045 5940
000002f0: cee7 bebf b0c2 04bd 5149 3a3e ed10 83be
00000300: fb03 863d d9e6 97bf 9a85 583f 4ba6 5e3f
00000310: cc59 eb3d 6372 fabf 0adc ba3d c699 5f3d
00000320: 9d38 24bd 14ee 993e 5d0b 1d3f 928d bdbe
00000330: 1f5d 45bf d1aa 16bf 8b52 01bf 31ec a1be
00000340: 6593 d7bf ac96 1040 a874 6e3f ff46 8bc0
00000350: 2e9a 8ebf 1ad1 efbf beec da3f 4566 2240
00000360: 9173 1e40 1215 9abf 56a2 4740 a812 1640
00000370: b84f 7ebf 0a8b adbf 30c5 27c0 95c6 95bf
00000380: 0827 c8bf a3c8 ac3f 00c8 c73f 7eb3 1ec0
00000390: 1330 54bf 509d d6be d6ff 03c0 5762 a0bd
000003a0: cde4 bc3e fbb4 2dbd f295 053f c762 00bf
000003b0: df85 b53e 0ece 9fbf 6248 15bf f3fb 96bf
000003c0: 8fd2 f3bd 2d5f 15bf 062c 97bf 8763 c13f
000003d0: 3f8e bcbe 656b a2c0 952c 22c0 f0bd c4bf
000003e0: 6e08 a13f a662 d7bf 30cf 41bd cf7e 243d
000003f0: ea1e 90c0 ba14 1dc0 c6e6 b440 0680 b43e
