16 Seq2Seq/num_decoder.onnx (onnx, 26966 bytes, 6 tensors)

embedding.weight f4 [12, 11]
0	0x00000000	0.0
1	0x00000000	0.0
2	0x00000000	0.0
3	0x00000000	0.0
4	0x00000000	0.0
5	0x00000000	0.0
6	0x00000000	0.0
7	0x00000000	0.0
8	0x00000000	0.0
9	0x00000000	0.0
10	0x00000000	0.0
11	0x3f800000	1.0
12	0x00000000	0.0
13	0x00000000	0.0
14	0x00000000	0.0
15	0x00000000	0.0
16	0x00000000	0.0
17	0x00000000	0.0
18	0x00000000	0.0
19	0x00000000	0.0
20	0x00000000	0.0
21	0x00000000	0.0
22	0x00000000	0.0
23	0x3f800000	1.0
24	0x00000000	0.0
25	0x00000000	0.0
26	0x00000000	0.0
27	0x00000000	0.0
28	0x00000000	0.0
29	0x00000000	0.0
30	0x00000000	0.0
31	0x00000000	0.0
32	0x00000000	0.0
33	0x00000000	0.0
34	0x00000000	0.0
35	0x3f800000	1.0
36	0x00000000	0.0
37	0x00000000	0.0
38	0x00000000	0.0
39	0x00000000	0.0
40	0x00000000	0.0
41	0x00000000	0.0
42	0x00000000	0.0
43	0x00000000	0.0
44	0x00000000	0.0
45	0x00000000	0.0
46	0x00000000	0.0
47	0x3f800000	1.0
48	0x00000000	0.0
49	0x00000000	0.0
50	0x00000000	0.0
51	0x00000000	0.0
52	0x00000000	0.0
53	0x00000000	0.0
54	0x00000000	0.0
55	0x00000000	0.0
56	0x00000000	0.0
57	0x00000000	0.0
58	0x00000000	0.0
59	0x3f800000	1.0
60	0x00000000	0.0
61	0x00000000	0.0
62	0x00000000	0.0
63	0x00000000	0.0
64	0x00000000	0.0
65	0x00000000	0.0
66	0x00000000	0.0
67	0x00000000	0.0
68	0x00000000	0.0
69	0x00000000	0.0
70	0x00000000	0.0
71	0x3f800000	1.0
72	0x00000000	0.0
73	0x00000000	0.0
74	0x00000000	0.0
75	0x00000000	0.0
76	0x00000000	0.0
77	0x00000000	0.0
78	0x00000000	0.0
79	0x00000000	0.0
80	0x00000000	0.0
81	0x00000000	0.0
82	0x00000000	0.0
83	0x3f800000	1.0
84	0x00000000	0.0
85	0x00000000	0.0
86	0x00000000	0.0
87	0x00000000	0.0
88	0x00000000	0.0
89	0x00000000	0.0
90	0x00000000	0.0
91	0x00000000	0.0
92	0x00000000	0.0
93	0x00000000	0.0
94	0x00000000	0.0
95	0x3f800000	1.0
96	0x00000000	0.0
97	0x00000000	0.0
98	0x00000000	0.0
99	0x00000000	0.0
100	0x00000000	0.0
101	0x00000000	0.0
102	0x00000000	0.0
103	0x00000000	0.0
104	0x00000000	0.0
105	0x00000000	0.0
106	0x00000000	0.0
107	0x3f800000	1.0
108	0x00000000	0.0
109	0x00000000	0.0
110	0x00000000	0.0
111	0x00000000	0.0
112	0x00000000	0.0
113	0x00000000	0.0
114	0x00000000	0.0
115	0x00000000	0.0
116	0x00000000	0.0
117	0x00000000	0.0
118	0x00000000	0.0
119	0x3f800000	1.0
120	0x00000000	0.0
121	0x00000000	0.0
122	0x00000000	0.0
123	0x00000000	0.0
124	0x00000000	0.0
125	0x00000000	0.0
126	0x00000000	0.0
127	0x00000000	0.0
128	0x00000000	0.0
129	0x00000000	0.0
130	0x00000000	0.0
131	0x3f800000	1.0

f.bias f4 [12]
0	0x4030a916	2.7603202
1	0x403bf4f0	2.9368248
2	0x3f9923ac	1.1964011
3	0xbff41758	-1.9069624
4	0xc098fc9f	-4.7808375
5	0xbfd15ffe	-1.635742
6	0x3fc2222a	1.5166676
7	0x40655ec0	3.583908
8	0xbf0cc1e1	-0.54983336
9	0xbf6b311d	-0.91871816
10	0x3f2a1fa6	0.6645454
11	0xbf2bda9c	-0.67130446

onnx::LSTM_611 f4 [2, 88]
0	0x3fd82354	1.6885781
1	0x3fcd3566	1.6031921
2	0x3f18cf5d	0.5969141
3	0x3faecb0a	1.3655713
4	0x3fb850a3	1.4399608
5	0x3f08d84c	0.5345504
6	0x3f116f2d	0.56810266
7	0xbe4d3af4	-0.2004202
8	0xbde2a9af	-0.11067521
9	0x3fd2463c	1.6427684
10	0x4016456e	2.3479877
11	0x3f88f822	1.0700724
12	0x40609b10	3.5094643
13	0x40360c5e	2.8445048
14	0x4032a33b	2.7912128
15	0x3e5b993f	0.21445177
16	0x3e952f09	0.29137447
17	0x3f222137	0.6333193
18	0x3fee70b9	1.862815
19	0x40023bfd	2.0349114
20	0x400ac87e	2.168487
21	0x3ead1cf1	0.33811143
22	0x3ff54655	1.9162089
23	0xbf647a7a	-0.89249384
24	0x3fcec643	1.6154255
25	0xbfb9f337	-1.4527348
26	0xbf96285f	-1.173107
27	0x3fc8ce2d	1.568792
28	0xbf160a84	-0.58609796
29	0x3f7e0acd	0.9923523
30	0xbfa52836	-1.2902896
31	0xbeb5320b	-0.35389742
32	0xc018d6e1	-2.3881152
33	0xbf8d7032	-1.1049864
34	0xbf1c9aa9	-0.6117349
35	0xbebff763	-0.3749343
36	0x3f881c6e	1.0633676
37	0x3fd86645	1.690621
38	0xbfbc4623	-1.4708904
39	0xbe11d1a4	-0.14240128
40	0x3f061731	0.5237914
41	0xc01e49ef	-2.4732625
42	0xbe1eb0a1	-0.15497066
43	0xbe25a845	-0.16177471
44	0x3fd8ae0a	1.6928113
45	0x3fc37820	1.5271034
46	0x3f35d0a7	0.71021503
47	0x3fbb9827	1.4655808
48	0x3fcbc5d1	1.5919744
49	0x3f8a294d	1.0793854
50	0x3f43ea06	0.76528966
51	0xbe806d8f	-0.25083587
52	0xbdc528b6	-0.096269056
53	0x3fb474b9	1.4098121
54	0x40046a11	2.0689738
55	0x3f4c4dda	0.7980629
56	0x40675795	3.6147206
57	0x403a37aa	2.9096475
58	0x40235ea4	2.5526514
59	0x3d4f6363	0.050631892
60	0x3ee79647	0.4523184
61	0x3f4c3e1e	0.79782283
62	0x3fe1562e	1.7604425
63	0x400353b8	2.0519848
64	0x3ffc2704	1.9699407
65	0x3e63e967	0.22257005
66	0x3fd94ef0	1.6977215
67	0xbf946420	-1.1593056
68	0x3fde2f1d	1.7358128
69	0xbff22f51	-1.892069
70	0xbf7c1130	-0.98463726
71	0x3fd7c6a2	1.6857493
72	0xbf3decae	-0.7418927
73	0x3f8fc405	1.1231695
74	0xbfb61ed7	-1.4228162
75	0xbf3f93fc	-0.7483518
76	0xc019184d	-2.3921082
77	0xbfa4e9d5	-1.288386
78	0xbf3ffd3c	-0.7499578
79	0xbee528c5	-0.44757667
80	0x3f5b6cb0	0.8571272
81	0x3faad2f9	1.3345634
82	0xbfb5693a	-1.4172738
83	0xbeb3a149	-0.35083988
84	0x3ef593b7	0.4796426
85	0xc00d57c2	-2.2084813
86	0xbeb9c36a	-0.36281902
87	0xbeb2f179	-0.34949854
88	0x3f9255e0	1.1432457
89	0x401ecf3f	2.4813993
90	0x3f88c1b3	1.0684112
91	0x3fafb84a	1.3728116
92	0x3e65f5a1	0.22456981
93	0xbf8b5256	-1.0884502
94	0x3f7de95c	0.99184203
95	0x3fcecdb7	1.6156529
96	0x3fc0cadc	1.5061908
97	0x3e7ff2ea	0.24995008
98	0x3faaa79e	1.3332403
99	0x3b9dd53c	0.0048166793
100	0x3eeaa958	0.45832324
101	0x400d1d01	2.2048953
102	0x3ee14034	0.43994296
103	0x40949a3c	4.6438274
104	0x3fc19bc5	1.5125662
105	0x3ef16014	0.47143614
106	0x40006a99	2.0065062
107	0x3fe04305	1.7520453
108	0x3fafaa26	1.37238
109	0x408ef487	4.4673495
110	0xbf0b921f	-0.5451984
111	0x3f563118	0.8366866
112	0x3ec889e9	0.39167717
113	0x3e9f7758	0.3114574
114	0xbfc50438	-1.5391912
115	0x4038f5cf	2.890003
116	0x3f36ae0a	0.7135931
117	0xbf8042df	-1.0020407
118	0x3f790c92	0.97284806
119	0xbfaff71d	-1.3747288
120	0x3f09a1a1	0.5376225
121	0x3fa12bd6	1.2591503
122	0xbf0786fd	-0.5294035
123	0xc0000a52	-2.00063
124	0x3d0b0576	0.033940755
125	0xbfc50785	-1.539292
126	0x3e6bc5bc	0.23024648
127	0xbfc8b92b	-1.5681509
128	0x3f954078	1.1660299
129	0xbfa0dd81	-1.2567598
130	0xbf934da9	-1.1508075
131	0xbec51a74	-0.38496745
132	0x3f38e424	0.72223115
133	0x4033f5e6	2.8118834
134	0x3fa90e8f	1.3207568
135	0x3f906070	1.127943
136	0x3f3dd418	0.74151754
137	0xbf997cd5	-1.1991221
138	0x3f504496	0.81354654
139	0x3fa52dd9	1.2904617
140	0x3fb0390a	1.3767407
141	0x3ef379ea	0.4755395
142	0x3fb6d33c	1.4283214
143	0xbe572e29	-0.21013702
144	0x3e884970	0.26618528
145	0x401f6b83	2.490937
146	0x3ea716fc	0.32634723
147	0x4082cdea	4.087636
148	0x3fb9def8	1.452117
149	0x3f798a33	0.974765
150	0x4002dbe4	2.044671
151	0x3fb6c48d	1.4278733
152	0x3f9fc3a2	1.2481577
153	0x408623f8	4.1918907
154	0xbf5482dc	-0.83012176
155	0x3f8cc231	1.0996763
156	0x3e9be392	0.3044706
157	0x3e32817d	0.17432208
158	0xbfceabdc	-1.6146197
159	0x40362c74	2.8464632
160	0x3f6cffe3	0.9257795
161	0xbf874a6d	-1.0569588
162	0x3ee90eb6	0.45519036
163	0xbf98beda	-1.1933243
164	0x3f20b1c2	0.62771237
165	0x3f854d66	1.0414245
166	0xbf32a847	-0.6978802
167	0xc010c1f7	-2.2618387
168	0xbd42d5a9	-0.047567043
169	0xbfc692b3	-1.5513519
170	0x3e35bc5a	0.17747632
171	0xbfac27a5	-1.3449599
172	0x3f8d9ba2	1.106312
173	0xbf74ae8b	-0.9557883
174	0xbf861fed	-1.0478493
175	0xbeb55c31	-0.354219

onnx::LSTM_612 f4 [2, 44, 33]
0	0xc0881d4c	-4.2535763
1	0x3f902c2c	1.126348
2	0x41683bfa	14.514643
3	0xc08f8ecc	-4.4861813
4	0x40f73104	7.7247334
5	0x40a21883	5.065492
6	0x4164bcda	14.296106
7	0xc01c09c7	-2.4380968
8	0xbfb0d69f	-1.3815497
9	0xc086cb93	-4.2123504
10	0xc047b0cf	-3.1201665
11	0xbf2c70a6	-0.6735939
12	0xbf9efb97	-1.2420529
13	0x3e0b644f	0.13612483
14	0x3f1b15b2	0.6057998
15	0x3df1d120	0.118074656
16	0x3e828d17	0.25498268
17	0x3f4454b9	0.76691777
18	0x3f82d7ea	1.0222142
19	0xbd0a252d	-0.03372686
20	0xbfc5065f	-1.5392569
21	0x3f081b17	0.53166336
22	0x40260aed	2.5944169
23	0x4024e6ad	2.5765793
24	0x4092e5ff	4.5905757
25	0x402e68ef	2.7251546
26	0x404a2d4f	3.1590154
27	0x414401dd	12.250455
28	0x415c961d	13.786649
29	0x41932083	18.390875
30	0x41c3b711	24.464388
31	0x40275d8a	2.6150842
32	0x3e26a1f6	0.1627272
33	0xc08d8693	-4.4226775
34	0x3fca12b8	1.5786963
35	0x40aa69e1	5.3254247
36	0xbdf0e374	-0.11762133
37	0xc13cfe22	-11.812044
38	0x40101682	2.2513738
39	0x400ea97d	2.2290947
40	0x3ffad64c	1.9596648
41	0x40ecee98	7.404125
42	0x4000effe	2.014648
43	0x3d8556f5	0.06510726
44	0x3fd84ad8	1.689784
45	0xc0ed918f	-7.4240184
46	0x3f04487d	0.5167311
47	0x3fa25d9d	1.2684819
48	0xbf862be0	-1.048214
49	0xbfce5448	-1.6119471
50	0xbfbd5c57	-1.4793805
51	0x403797d0	2.868641
52	0x3fc60291	1.5469533
53	0xc03db85b	-2.9643772
54	0x405a2e83	3.4090889
55	0x4124e179	10.305047
56	0x40ea5412	7.3227625
57	0x40acb4bc	5.3970623
58	0x40b0b1fa	5.5217257
59	0x40a2f12f	5.0919414
60	0x40db6f4f	6.8573375
61	0x40fad0a2	7.837968
62	0x41064f49	8.394357
63	0x4120935f	10.035979
64	0x412a4fed	10.644513
65	0xbd85c4bc	-0.06531665
66	0x40ed776d	7.4208283
67	0xbd433989	-0.04766229
68	0xc09bc7bc	-4.8681316
69	0x3ff05d8d	1.877855
70	0x3e0d465b	0.1379637
71	0x404ab3c0	3.167221
72	0xc0d9781c	-6.795912
73	0xc0699553	-3.649739
74	0x3f3e870b	0.7442481
75	0x3f7fa86c	0.99866366
76	0x3fe02b82	1.7513278
77	0xbe81afdc	-0.25329483
78	0x3caf77b8	0.021419391
79	0x3e41bcdb	0.18919699
80	0xbf9e4851	-1.2365819
81	0x3f1011c3	0.562771
82	0xbebedbf5	-0.3727719
83	0x3e844f12	0.25841576
84	0x3d9879e2	0.07445122
85	0xbefce364	-0.49392235
86	0xbed60625	-0.41801563
87	0x3fda2efb	1.7045587
88	0x3e4ca69b	0.1998543
89	0x3de2e8aa	0.110795334
90	0x3b550690	0.0032505132
91	0xbef9c775	-0.48784986
92	0x3dde7979	0.10863013
93	0x3fd185ce	1.6368959
94	0x400cdd6f	2.2010152
95	0x40648395	3.5705311
96	0x408f6781	4.4813848
97	0x3dc8ff13	0.098142765
98	0x3e065ea6	0.13122043
99	0xbf42992f	-0.7601499
100	0x3fa90f8d	1.3207871
101	0x40566e49	3.3504813
102	0xbfe9e621	-1.8273355
103	0x408098b5	4.018641
104	0x3fc78304	1.5586858
105	0x40d741a2	6.726762
106	0xc084a368	-4.144947
107	0x3fff9230	1.9966488
108	0xbf9675bd	-1.1754681
109	0xc0d74f92	-6.728463
110	0xbf339313	-0.7014629
111	0xc02e90bc	-2.727584
112	0x3f00768f	0.50180906
113	0x4087ea3c	4.247343
114	0xbfbc076e	-1.4689767
115	0xc01a1a90	-2.4078712
116	0x3fe5ca22	1.7952311
117	0xbfe55a04	-1.7918096
118	0x3f508b75	0.81462795
119	0x4003a74a	2.0570855
120	0xbfab2dbd	-1.3373333
121	0xc0bb9cb3	-5.8628783
122	0xc11d7f91	-9.843644
123	0xbfc64e31	-1.5492612
124	0xbfc106ba	-1.5080178
125	0xbfa2ed29	-1.2728626
126	0xbe4641ba	-0.1936101
127	0xbed0b711	-0.4076467
128	0xbf1dbda5	-0.616175
129	0xbf618c11	-0.8810435
130	0x3ea78b2b	0.32723364
131	0x3e7352d8	0.23762071
132	0x3ef18b5c	0.47176635
133	0x4015eefd	2.3427117
134	0x401836cf	2.3783453
135	0xbf8c5a0f	-1.0964984
136	0xc04d36b5	-3.206464
137	0xbfbd1f0e	-1.4775102
138	0x40293a64	2.644189
139	0x3e8c12c4	0.27358067
140	0x410d49a8	8.8304825
141	0xbf7a8b27	-0.9786858
142	0xbff331f0	-1.8999615
143	0x3e59b81c	0.21261638
144	0xc1176015	-9.460958
145	0x3ecf1262	0.40443712
146	0x401e7fb9	2.4765456
147	0xbfdb480a	-1.713136
148	0xbf69dc1b	-0.9135148
149	0xbfba84ba	-1.4571755
150	0x3fe02fad	1.751455
151	0x3f89b82e	1.0759332
152	0xbf990ae2	-1.1956446
153	0x4090e89c	4.5283947
154	0x40066aab	2.1002605
155	0x40ec9cd2	7.394143
156	0x414a93e9	12.661111
157	0x412c6697	10.775046
158	0x41085d31	8.522752
159	0x40ed5042	7.416047
160	0x41283b12	10.514421
161	0x4128f2bf	10.559264
162	0x4133a19c	11.226955
163	0x3f71f235	0.94510204
164	0xbe8558a0	-0.26044178
165	0x3f873c8a	1.056535
166	0xbfe675e1	-1.8004724
167	0x40b9c180	5.8048706
168	0x402ae6f3	2.670346
169	0xc02734c6	-2.612596
170	0x3f82d954	1.0222573
171	0x3de1bb1d	0.11022017
172	0x3f7947b2	0.97375023
173	0x406a7925	3.663644
174	0xbfed90a6	-1.8559768
175	0xbe5127c4	-0.20425326
176	0x400bd6bf	2.184982
177	0x3f3faa91	0.7486964
178	0x3f515652	0.8177234
179	0xc03bdda4	-2.9354029
180	0x4085c842	4.1806955
181	0x3e290a09	0.16507734
182	0x3fe0cfd5	1.7563425
183	0xc020d1e2	-2.5128102
184	0xc01f5a94	-2.4899035
185	0xc0194052	-2.3945508
186	0x3f7c1890	0.9847498
187	0xbf02bf79	-0.51073414
188	0xbf23abf4	-0.63934255
189	0x3df86832	0.12129249
190	0xbe89a260	-0.26881695
191	0xbf579d20	-0.8422413
192	0xbf5a23af	-0.852107
193	0xbf29b499	-0.66291195
194	0x40033483	2.05008
195	0x415fd8b2	13.990404
196	0x40f784b3	7.7349486
197	0xbcb21480	-0.02173829
198	0xc002a244	-2.041154
199	0xc046cc21	-3.106209
200	0x4098ced8	4.7752495
201	0xc02db983	-2.7144477
202	0xbfe42f11	-1.7826864
203	0xbee1965f	-0.44060037
204	0xbf877389	-1.0582134
205	0x3f10eba5	0.56609565
206	0x40193fe0	2.3945236
207	0xc0783b7b	-3.8786304
208	0x3f3fd846	0.7493938
209	0xc091a572	-4.551446
210	0xc0bd6606	-5.918704
211	0x3ece7576	0.4032399
212	0x40089167	2.1338747
213	0x3d34c77e	0.044135563
214	0xbe744d55	-0.23857625
215	0x4121d9c5	10.115666
216	0x3e5f455b	0.21803801
217	0x3f9f967e	1.2467802
218	0xbf0c236b	-0.54741544
219	0x40af79b8	5.4836082
220	0xc0c263ee	-6.0746984
221	0x4094fecc	4.656103
222	0x40110d6e	2.2664447
223	0x3e51347f	0.20430182
224	0x3f5eab89	0.8698049
225	0x40696fd3	3.6474502
226	0x4054c2a8	3.3243809
227	0x3fb8ed0f	1.4447345
228	0xbd77afe0	-0.06047046
229	0xc089c231	-4.304955
230	0xbdaeb108	-0.0852986
231	0xc0e4ca18	-7.1496696
232	0x401ab674	2.417386
233	0xc048d226	-3.1378264
234	0x3fa7050a	1.3048413
235	0x4070813e	3.7578883
236	0x4089dce0	4.3082123
237	0xc03f211b	-2.9863956
238	0xbffedf99	-1.9911987
239	0x4023e0d3	2.5605972
240	0x3ffb155b	1.9615892
241	0x3fd14be4	1.6351285
242	0x3e4ee382	0.20203975
243	0xbf57df1b	-0.84324807
244	0x3ec414a3	0.38296995
245	0xbf4cec83	-0.8004839
246	0x3ec96d0e	0.39341015
247	0x3d9558b4	0.072923094
248	0x401e3b10	2.472355
249	0x3d8fe426	0.07025938
250	0x3fa9bb46	1.3260276
251	0xbdece227	-0.11566573
252	0xbe4e6bc6	-0.201583
253	0x3f1a3d29	0.60249573
254	0xbdd9284f	-0.106033914
255	0xbf206031	-0.62646776

onnx::LSTM_613 f4 [2, 44, 11]
0	0x3fe999f1	1.8250104
1	0xc0c49536	-6.143214
2	0x3f6b6e94	0.91965604
3	0xc0bb6251	-5.8557515
4	0x4101c13a	8.109674
5	0x3c9b7c25	0.018980095
6	0x4092e7a7	4.590778
7	0x405d2d9c	3.4559088
8	0xbf41534d	-0.7551773
9	0x3f8f73da	1.120723
10	0x40b443ba	5.6332674
11	0xbe24cfac	-0.16094846
12	0x3efce955	0.49396768
13	0xc00fb017	-2.2451227
14	0xbf7f99db	-0.9984414
15	0x3f597465	0.8494323
16	0xc03d81d5	-2.9610493
17	0x3fe119a0	1.7585945
18	0x3f916e9c	1.136188
19	0xbfcb8301	-1.5899354
20	0x3ff0423b	1.8770212
21	0x3f899c09	1.0750743
22	0x3f07c104	0.53028893
23	0xc002332b	-2.034373
24	0x402a7f02	2.664002
25	0x3df258b3	0.11833324
26	0xbe94b893	-0.2904707
27	0xc0c4ba59	-6.1477475
28	0x3fc0f957	1.5076092
29	0x40173967	2.3628786
30	0x3f8bff99	1.0937377
31	0x3ff90160	1.9453545
32	0x3f90de56	1.1317852
33	0xbe2967b5	-0.16543467
34	0xbedbc464	-0.42923272
35	0x3f1045a0	0.5635624
36	0xbfe7a278	-1.8096457
37	0xc086c8dc	-4.212019
38	0xc05d86be	-3.461349
39	0xbf31570e	-0.6927346
40	0xbdbebb16	-0.093130276
41	0xbf30c8df	-0.69056505
42	0x3fde4e79	1.7367698
43	0x3f96d8ab	1.1784872
44	0x3f0a9edf	0.5414867
45	0xbfbf6ec4	-1.4955678
46	0xbfd07e8c	-1.6288619
47	0x3fb7487c	1.4318995
48	0xc007da30	-2.122692
49	0x3eb5d551	0.3551431
50	0x4083af35	4.1151376
51	0x4028e173	2.6387603
52	0x40a7835a	5.234784
53	0xbfbab4e2	-1.4586451
54	0xbf98fed8	-1.1952772
55	0xbebce2e3	-0.3689185
56	0xc0970bd7	-4.7201953
57	0xbfa5c281	-1.2949983
58	0x4071c814	3.7778368
59	0xbef8c499	-0.48587492
60	0x3fbc463e	1.4708936
61	0x408c438b	4.383245
62	0xbe50336d	-0.20332117
63	0x3fb77741	1.4333268
64	0x3fad6252	1.354563
65	0x408afb50	4.343178
66	0x401d496c	2.4576063
67	0x3ecb68d7	0.39728424
68	0xbecb2ada	-0.3968113
69	0x3ffec8de	1.990505
70	0xc0994645	-4.789828
71	0x3fe738c7	1.8064202
72	0x40a7e954	5.2472324
73	0xbfc71214	-1.5552392
74	0x3feed65b	1.8659166
75	0x3f1645dd	0.5870035
76	0xbeb9947b	-0.36246094
77	0x409d0519	4.9068723
78	0xbf5c438b	-0.8604056
79	0x3fd0a815	1.6301295
80	0xc044e17d	-3.0762627
81	0xbf3cf4e3	-0.7381117
82	0xc000f829	-2.0151465
83	0xbfd8f2d9	-1.6949111
84	0x40355048	2.833025
85	0xc01c8a88	-2.4459553
86	0x3e9a01ed	0.30079594
87	0xbf986daf	-1.1908473
88	0xc03726fd	-2.8617547
89	0x3e91b955	0.2846171
90	0xc0b4bb5f	-5.6478724
91	0x3f30ade6	0.6901535
92	0x40897db6	4.2965956
93	0x40a49dae	5.144248
94	0x3e88a09b	0.26685032
95	0xc029a32a	-2.6505837
96	0xbeffdce4	-0.49973214
97	0xbffb1cda	-1.961818
98	0x400c7565	2.1946652
99	0x3f9de6fa	1.2336113
100	0x3fb82000	1.4384766
101	0x401ad848	2.4194508
102	0xc08d86f7	-4.422725
103	0xc106cf4a	-8.425608
104	0xc0143e2d	-2.316295
105	0x4091e47f	4.5591426
106	0xbe8f7937	-0.28022167
107	0x4072bed3	3.792897
108	0xc00666c3	-2.100022
109	0xc0194d2f	-2.395336
110	0x408329d2	4.098855
111	0x405039d4	3.2535295
112	0x3f6ca1cb	0.92434376
113	0x40f3ba56	7.616496
114	0xc0f29cd1	-7.5816426
115	0x400849b1	2.1294978
116	0x3f6ec9bc	0.9327657
117	0xbfded78d	-1.7409531
118	0xbdcfbac4	-0.101430446
119	0x3e37ec7d	0.17961307
120	0xbf70200f	-0.9379892
121	0x4016edfa	2.358275
122	0xbf3badd6	-0.7331213
123	0xbe47a091	-0.19494845
124	0xbfd2891a	-1.644809
125	0x40211c48	2.5173512
126	0xc0f370fc	-7.607542
127	0xbf84c946	-1.0373924
128	0x3ea5a6a0	0.32353687
129	0xbd48aee2	-0.048994906
130	0xbedd1282	-0.43178183
131	0xbf27bf85	-0.6552661
132	0x3fba44cb	1.4552244
133	0x3fabf396	1.3433712
134	0x408f8688	4.4851723
135	0x3f89aeb6	1.0756443
136	0xbea6f5dc	-0.3260945
137	0x404d6671	3.2093775
138	0xbeca60dc	-0.39527023
139	0xbfde3f41	-1.7363054
140	0xbe9282df	-0.28615472
141	0xbf5c0f8e	-0.85961235
142	0x3f816405	1.0108649
143	0xc032a878	-2.7915325
144	0xc027358c	-2.6126432
145	0x3fa8923f	1.3169631
146	0xc06123d5	-3.517812
147	0xc020a19b	-2.5098636
148	0xc0ea4879	-7.3213468
149	0xbef34c1f	-0.47519013
150	0xc00a5df2	-2.161984
151	0xbfc037e8	-1.5017061
152	0xbf1b7203	-0.60720843
153	0xbf7ad2fa	-0.97978175
154	0xbeb0dd76	-0.3454396
155	0x3f101bf1	0.56292635
156	0xbcdbbd6c	-0.026823722
157	0xbfb49283	-1.4107212
158	0xbfdda42a	-1.7315724
159	0x3fb7add3	1.4349922
160	0xbef68cc4	-0.4815427
161	0xc0829556	-4.0807295
162	0x3f6d9807	0.928101
163	0x3ed74762	0.42046648
164	0x3f8811fe	1.0630491
165	0x3fb8ce14	1.443789
166	0xbf34f150	-0.70680714
167	0xbd975ddd	-0.0739095
168	0x3f303669	0.68833023
169	0xbf072ec7	-0.5280575
170	0x3f7f7006	0.9978031
171	0x3f2de934	0.67933965
172	0xbee3e0da	-0.44507486
173	0xbf02ce2b	-0.5109584
174	0xc05409f0	-3.3131065
175	0x3f427da8	0.75972986
176	0x40000983	2.0005805
177	0xbe6be75f	-0.2303748
178	0xc0016f18	-2.0224056
179	0x3fc148f5	1.510039
180	0x4081fe73	4.0623107
181	0xc07936e2	-3.8939748
182	0xbfb0879e	-1.3791387
183	0x3dea18d9	0.114305206
184	0xbf786b74	-0.9703896
185	0xc002c288	-2.0431232
186	0xc01970a0	-2.397499
187	0x3fa745a4	1.3068128
188	0x40f0f5f5	7.530024
189	0xbea481db	-0.32130322
190	0xbf9f3a7c	-1.2439723
191	0xc135b74b	-11.357249
192	0x40798bf4	3.899167
193	0xbf282371	-0.6567908
194	0xbe820376	-0.25393265
195	0x40874062	4.226609
196	0x3da3fd08	0.08007246
197	0xbf8bc7e9	-1.0920383
198	0x4039a195	2.9004872
199	0xbee6c6d0	-0.45073557
200	0x3fd25969	1.6433536
201	0x3e1cd319	0.15314902
202	0xc10b6b1d	-8.713651
203	0xc040c6e9	-3.0121405
204	0x3f14eff3	0.58178633
205	0x3d40cb30	0.047068775
206	0x3d235ea8	0.039885193
207	0x3ed66748	0.41875672
208	0x3d7f6316	0.062350355
209	0xc08d9e91	-4.4256063
210	0xbf7071c7	-0.9392361
211	0x3fa325ba	1.2745888
212	0x3ee557b0	0.44793463
213	0xc08d28d3	-4.4112334
214	0xc03681c4	-2.8516703
215	0xbf365f2e	-0.7123898
216	0xbfca5058	-1.5805769
217	0x3eac816a	0.33692485
218	0xbf3a0de1	-0.7267743
219	0x3f219a48	0.6312604
220	0x3fb66872	1.4250624
221	0x4113afe3	9.230441
222	0x3f6c4c59	0.92304
223	0x404261a9	3.0372107
224	0xc0c23cd1	-6.069924
225	0x40ad3783	5.4130263
226	0xc02e044f	-2.719013
227	0xc0d0d859	-6.5264096
228	0x3fd91bc8	1.6961603
229	0xc03ad184	-2.9190378
230	0x3d65caaa	0.05610148
231	0x409ee194	4.9650364
232	0x40e6d4b0	7.213463
233	0x3fef18f9	1.8679496
234	0xc025fab4	-2.5934267
235	0xc11b17ce	-9.693312
236	0x409b159d	4.8463883
237	0x4019cecc	2.4032469
238	0xbe856f69	-0.26061562
239	0x40af2868	5.4736824
240	0x3eacdf1c	0.3376397
241	0xbf7d993d	-0.9906195
242	0x3ebc94a9	0.3683217
243	0x40059cfd	2.0877068
244	0x3cb54e76	0.02213214
245	0x3f1f3d41	0.6220284
246	0x3eaf8672	0.3428226
247	0x401b4b0e	2.426456
248	0x3e0f1047	0.13971053
249	0xbe9c32f2	-0.30507618
250	0x3ca79943	0.020458823
251	0xbd9e6a02	-0.07735063
252	0x3e9926a5	0.29912296
253	0xbf5bbcd2	-0.8583499
254	0xc0292a5a	-2.64321
255	0x4027fca9	2.6247962

onnx::MatMul_614 f4 [44, 12]
0	0x3ff09dd7	1.8798169
1	0xc0958211	-4.6721272
2	0xc09892ed	-4.7679353
3	0xc013f0ed	-2.31158
4	0xbde24d0c	-0.11049852
5	0x3e853985	0.26020446
6	0x3fd5c3d7	1.670039
7	0x405d126f	3.45425
8	0x4081d789	4.0575604
9	0x4036d5a2	2.856789
10	0xc0ac6e32	-5.3884516
11	0xbf43b73f	-0.76451486
12	0x3f81b72b	1.0134023
13	0x404175c1	3.0228121
14	0x4061139a	3.5168214
15	0x400ec108	2.2305317
16	0xbf5f3861	-0.871954
17	0xc095e5c8	-4.6842995
18	0xc0a697aa	-5.2060137
19	0xc03ff755	-2.999471
20	0xbf962e5b	-1.1732897
21	0x403c36e7	2.940851
22	0x4091bf2a	4.5545855
23	0xbf6a7826	-0.9158958
24	0x41078309	8.469491
25	0xc03253a0	-2.786354
26	0xc02d8044	-2.7109537
27	0xbf5d9bc2	-0.8656579
28	0x3fb1bc55	1.3885599
29	0x3f1866b7	0.5953173
30	0x3e9ecd8b	0.31016192
31	0x40028441	2.0393221
32	0x3fb4a348	1.411233
33	0x3ec2522e	0.37953323
34	0xbfb75578	-1.4322958
35	0x3f242e7a	0.6413342
36	0x4064aec1	3.5731661
37	0x400fbd29	2.2459204
38	0x403d720b	2.9600856
39	0x402a8587	2.6643999
40	0x4028c72e	2.637157
41	0x3f6360fb	0.88819855
42	0xc03cad97	-2.948095
43	0xc0833963	-4.100755
44	0xc0613695	-3.5189564
45	0xc0580102	-3.3750615
46	0x3f2a8fbd	0.6662558
47	0xbec031e3	-0.3753806
48	0x40f1e7f3	7.559564
49	0x40134cc8	2.3015614
50	0x40520c47	3.2819993
51	0x4039c90a	2.9028955
52	0x3f4d7ece	0.80271614
53	0xbfe7e410	-1.8116474
54	0xc06bbf60	-3.6835556
55	0xc0559c70	-3.3376732
56	0xc031958c	-2.7747526
57	0xbde9fc1e	-0.11425041
58	0x3f4995bf	0.7874412
59	0x3f8ee9f7	1.116515
60	0xbfc566fd	-1.5422055
61	0x403e51ea	2.9737496
62	0x401889a9	2.383402
63	0xbd8c6c93	-0.068566464
64	0xbf0dbbc4	-0.5536463
65	0xbf0a4166	-0.5400604
66	0x3e416d00	0.18889236
67	0xbf850c16	-1.0394313
68	0xc04e640e	-3.2248569
69	0xbe2703d3	-0.16310053
70	0x3dc1a0f1	0.09454525
71	0xbf40e74f	-0.7535295
72	0x40c69cc7	6.206638
73	0xc029ad22	-2.6511922
74	0xc09cef3d	-4.904204
75	0xc0b0ac2a	-5.521016
76	0xc08ed0ae	-4.4629736
77	0xbebf447b	-0.37356934
78	0x408a55ed	4.322989
79	0x40cd89c7	6.4230685
80	0x409e8417	4.9536242
81	0x4056451d	3.3479683
82	0x3f292748	0.66075563
83	0x3eae14df	0.34000298
84	0xc08453c2	-4.1352243
85	0x3f284767	0.6573395
86	0x3fe8a14b	1.8174223
87	0x40640357	3.5627038
88	0x3ffcee78	1.9760275
89	0x3e68e3d8	0.22743165
90	0xbf8ce463	-1.1007198
91	0xc065a752	-3.5883374
92	0xc05a0d6b	-3.407069
93	0xbfbb0c47	-1.4613122
94	0xbce7bbc3	-0.028287774
95	0x3f4deb63	0.80437297
96	0xc04ebfec	-3.230464
97	0x404f9de9	3.244013
98	0x402c4fba	2.6923661
99	0x3f993728	1.1969957
100	0x3dbc9cf8	0.09209627
101	0xc0188fd1	-2.3837779
102	0xc0a2aafa	-5.083371
103	0xc034fdd6	-2.827993
104	0xbe0e0bb4	-0.13871652
105	0x40404097	3.0039423
106	0x4026a882	2.604035
107	0xbf039d96	-0.5141233
108	0x3e9c94d7	0.30582306
109	0xc03179b3	-2.773053
110	0xc0534bc1	-3.3014987
111	0xbfe5b47d	-1.7945706
112	0xbf445cac	-0.76703906
113	0x3e120a29	0.14261688
114	0x3f988d9d	1.1918217
115	0x400ee856	2.2329307
116	0x40201624	2.5013514
117	0x400e66d0	2.2250252
118	0x3ff49b72	1.9109938
119	0xbe592478	-0.21205318
120	0x3f7fe342	0.9995614
121	0xc02dfc59	-2.718527
122	0xbffec24e	-1.9903047
123	0x3fb17805	1.3864752
124	0x409dabed	4.927237
125	0x40aff1e2	5.4982767
126	0x402fa2fe	2.7443233
127	0xbf82b0e5	-1.0210234
128	0xc04b1f64	-3.173791
129	0xc07356f9	-3.8021834
130	0xbf82df5f	-1.0224417
131	0x3eab6405	0.33474746
132	0x3eaae452	0.3337732
133	0xbebc4d76	-0.36777848
134	0xbf636e61	-0.888403
135	0xbf93e2d8	-1.1553602
136	0xbf072278	-0.5278697
137	0x3f3519d2	0.70742524
138	0x3f933fac	1.1503806
139	0x3e450092	0.19238499
140	0xbe1b0766	-0.15139541
141	0xbe0ab120	-0.1354413
142	0x3ffb4152	1.9629309
143	0xbf4abb5f	-0.79192156
144	0x3f56114e	0.83620155
145	0xbf821ba0	-1.016468
146	0xbefeaa10	-0.49739122
147	0xbdc56af1	-0.09639538
148	0x3e1d2903	0.15347676
149	0xbed6acac	-0.41928613
150	0xbf36175e	-0.71129405
151	0x3e9933fe	0.2992248
152	0x3e7cd6f6	0.24691376
153	0x3ef75af2	0.48311573
154	0x3f29cba4	0.66326356
155	0x3f2ccabe	0.6749686
156	0xc024614e	-2.568439
157	0x3fc3005c	1.5234485
158	0x3f875813	1.0573753
159	0x3eeac7cf	0.45855567
160	0xbf133e1c	-0.57516646
161	0xbf995271	-1.1978284
162	0xbf066024	-0.5249045
163	0x3e78ac55	0.2428449
164	0xbdf3dae8	-0.119069874
165	0xbd1a6ce0	-0.037701488
166	0x3f830e35	1.0238711
167	0xbf4801b4	-0.781276
168	0x4023565f	2.5521467
169	0x3ffd1e80	1.9774933
170	0x3fafa70e	1.3722856
171	0x3f5b8eca	0.85764754
172	0xbf8a7e8e	-1.0819871
173	0xbfc5b90b	-1.5447096
174	0x3d6b9b0f	0.057520922
175	0x3c06adf1	0.008220182
176	0xbf3e41d7	-0.74319214
177	0x3f1cdb2d	0.61271936
178	0xbf85aab3	-1.0442718
179	0xbf2d24af	-0.676341
180	0x406594a1	3.5871966
181	0x3f940437	1.1563786
182	0x3ec69cee	0.38791603
183	0x3e3834fc	0.17988962
184	0x3e3a7918	0.18210256
185	0xbf2a986f	-0.66638845
186	0xbf9198b7	-1.137473
187	0xbfa18ca4	-1.2621045
188	0xbf6b31f3	-0.9187309
189	0xbe1925ba	-0.14955798
190	0x3fc26094	1.5185723
191	0x3f3e585d	0.7435358
192	0xc0b5909b	-5.673902
193	0x3ef8b893	0.4857832
194	0x3e91af90	0.28454256
195	0x3fbf0005	1.4921881
196	0x40240c0c	2.5632353
197	0x3fa94600	1.3224487
198	0xbf348e87	-0.7052998
199	0xbfb792a0	-1.4341621
200	0xbf49ae8f	-0.7878198
201	0xbfca9e79	-1.5829612
202	0xbfb27d26	-1.3944442
203	0x3faa8eb8	1.3324804
204	0xbf2f9468	-0.68585825
205	0x3efe5352	0.49672943
206	0x3f8308a0	1.0237007
207	0xbe1c8234	-0.15284044
208	0xbfa7a81b	-1.3098177
209	0xbfcb4118	-1.587924
210	0xbf8bab00	-1.091156
211	0x3f2dac78	0.6784129
212	0x3e85b88b	0.26117358
213	0x3f13732f	0.5759763
214	0x3fa92fd6	1.3217723
215	0xbdd9fead	-0.10644279
216	0xc02160ca	-2.5215325
217	0x3fd65705	1.6745306
218	0x3fba3a80	1.4549103
219	0x3fac59c4	1.3464894
220	0xbd1e02f8	-0.03857705
221	0xbfbbd1cd	-1.4673401
222	0xc02da9f3	-2.7134979
223	0xc0604039	-3.5039198
224	0xbfc2e5bb	-1.5226358
225	0x3faa604b	1.3310636
226	0x4069a511	3.6506999
227	0x3f1bd727	0.6087517
228	0x3f815626	1.0104415
229	0xbf61835f	-0.8809108
230	0xbd678734	-0.056525424
231	0x3e51101b	0.204163
232	0x3f0a3859	0.5399223
233	0x3ead7614	0.3387915
234	0x3de0b46c	0.10971913
235	0xbdb0b4be	-0.08628224
236	0xbc4ac8d4	-0.012376983
237	0x3d59f7e2	0.053214915
238	0xbf8666f0	-1.0500164
239	0x3de2df4f	0.11077749
240	0xc02116ff	-2.5170286
241	0xbdafc380	-0.085822105
242	0xba01f10d	-0.0004956879
243	0x3e85f5c0	0.26164055
244	0x3e7b5c73	0.24546985
245	0xbe57152a	-0.21004167
246	0xbf815c3f	-1.0106276
247	0xbf40c207	-0.7529606
248	0x3e9eb2ba	0.30995733
249	0x3f2e978e	0.68200004
250	0xbe6ddfde	-0.2322993
251	0x3f032bca	0.5123869
252	0xbfdf509f	-1.7446479
253	0xbf9adbf3	-1.2098373
254	0x3f3bfd65	0.73433524
255	0x3ff9969f	1.9499091
