16 Seq2Seq/num_decoder.pt (torch, 112626 bytes, 11 tensors)

weight f4 [12, 11]
0.0 0.0 0.0 0.0 0.0 0.0 0.0 0.0
0.0 0.0 0.0 1.0 0.0 0.0 0.0 0.0
0.0 0.0 0.0 0.0 0.0 0.0 0.0 1.0
0.0 0.0 0.0 0.0 0.0 0.0 0.0 0.0
0.0 0.0 0.0 1.0 0.0 0.0 0.0 0.0
0.0 0.0 0.0 0.0 0.0 0.0 0.0 1.0
0.0 0.0 0.0 0.0 0.0 0.0 0.0 0.0
0.0 0.0 0.0 1.0 0.0 0.0 0.0 0.0
0.0 0.0 0.0 0.0 0.0 0.0 0.0 1.0
0.0 0.0 0.0 0.0 0.0 0.0 0.0 0.0
0.0 0.0 0.0 1.0 0.0 0.0 0.0 0.0
0.0 0.0 0.0 0.0 0.0 0.0 0.0 1.0
0.0 0.0 0.0 0.0 0.0 0.0 0.0 0.0
0.0 0.0 0.0 1.0 0.0 0.0 0.0 0.0
0.0 0.0 0.0 0.0 0.0 0.0 0.0 1.0
0.0 0.0 0.0 0.0 0.0 0.0 0.0 0.0
0.0 0.0 0.0 1.0
00000000: 0000 0000 0000 0000 0000 0000 0000 0000
00000010: 0000 0000 0000 0000 0000 0000 0000 0000
00000020: 0000 0000 0000 0000 0000 0000 0000 803f
00000030: 0000 0000 0000 0000 0000 0000 0000 0000
00000040: 0000 0000 0000 0000 0000 0000 0000 0000
00000050: 0000 0000 0000 0000 0000 0000 0000 803f
00000060: 0000 0000 0000 0000 0000 0000 0000 0000
00000070: 0000 0000 0000 0000 0000 0000 0000 0000
00000080: 0000 0000 0000 0000 0000 0000 0000 803f
00000090: 0000 0000 0000 0000 0000 0000 0000 0000
000000a0: 0000 0000 0000 0000 0000 0000 0000 0000
000000b0: 0000 0000 0000 0000 0000 0000 0000 803f
000000c0: 0000 0000 0000 0000 0000 0000 0000 0000
000000d0: 0000 0000 0000 0000 0000 0000 0000 0000
000000e0: 0000 0000 0000 0000 0000 0000 0000 803f
000000f0: 0000 0000 0000 0000 0000 0000 0000 0000
00000100: 0000 0000 0000 0000 0000 0000 0000 0000
00000110: 0000 0000 0000 0000 0000 0000 0000 803f
00000120: 0000 0000 0000 0000 0000 0000 0000 0000
00000130: 0000 0000 0000 0000 0000 0000 0000 0000
00000140: 0000 0000 0000 0000 0000 0000 0000 803f
00000150: 0000 0000 0000 0000 0000 0000 0000 0000
00000160: 0000 0000 0000 0000 0000 0000 0000 0000
00000170: 0000 0000 0000 0000 0000 0000 0000 803f
00000180: 0000 0000 0000 0000 0000 0000 0000 0000
00000190: 0000 0000 0000 0000 0000 0000 0000 0000
000001a0: 0000 0000 0000 0000 0000 0000 0000 803f
000001b0: 0000 0000 0000 0000 0000 0000 0000 0000
000001c0: 0000 0000 0000 0000 0000 0000 0000 0000
000001d0: 0000 0000 0000 0000 0000 0000 0000 803f
000001e0: 0000 0000 0000 0000 0000 0000 0000 0000
000001f0: 0000 0000 0000 0000 0000 0000 0000 0000
00000200: 0000 0000 0000 0000 0000 0000 0000 803f

weight_ih_l0 f4 [44, 33]
-3.3409588 4.6459136 5.396853 0.2553336 1.2898703 2.7265089 1.112643 -0.9781606
7.3499002 0.28928992 -2.700958 -0.54147667 0.52282786 -0.44146726 0.25775763 -0.123197675
-0.039612498 -0.11800293 -0.108351044 -0.33109605 -0.13663658 -0.06550397 -3.9959452 3.4775121
1.4801773 2.5758238 4.0204096 4.1738367 4.671556 6.5924654 8.265594 -4.3206196
-0.11712259 -0.6066202 1.679878 8.394727 -0.59961635 -2.6796129 5.0105724 -0.655432
6.8813457 0.76426303 1.4963299 -1.7667319 -4.74328 -1.5329881 -8.8576765 0.18736503
-1.9713641 -9.578188 0.025823496 1.9963945 8.128247 -2.0628526 -1.0128436 0.9140846
3.4801834 3.6583908 0.8354923 8.480326 3.2043557 5.8959465 0.158519 -0.103016876
1.9354368 0.092243314 -3.0434833 5.1165323 5.0957417 -0.38188994 -1.8340322 3.2950175
-2.327922 1.439284 2.056907 2.0026367 2.0182486 0.13474756 -0.08843986 -3.1806505
-1.8800343 0.09570648 11.971314 2.996618 0.099156655 6.540095 -0.08899998 0.41651696
3.5360715 3.1253667 5.0208254 7.8792377 4.2504435 0.33441383 0.0913576 1.5156796
6.6773415 1.7149035 0.00041176248 -5.623677 0.4020632 4.534767 -3.1530826 -2.5613017
0.085086256 0.09794759 -1.6245643 1.3623295 -6.67011 1.989327 -1.0187339 1.8176872
-4.549407 3.3875208 0.6318463 1.4828813 -3.503957 0.37621987 2.6740484 -0.76743346
3.9665391 13.011192 -3.645848 0.6122661 -0.20592582 3.7761414 0.20046954 0.45653418
0.8674439 4.5596724 -6.481252 0.1571299 -2.6048918 -1.3937769 4.010388 0.06402859
0.39247826 -3.9988925 1.1116343 3.6552317 -0.5154075 -2.451321 0.89524096 8.413737
-3.0958896 -6.7913513 3.2317896 -0.7975025 -0.32633466 1.6700658 -4.662921 -2.6996174
1.66466 2.8279896 7.205779 -5.8245187 -10.132647 -1.2315888 -1.1837764 3.5520527
1.4291693 -5.148326 3.2160602 1.5234525 0.17431247 1.3576941 -4.949282 -8.034089
2.3823662 -1.4526653 -5.3575606 0.38652906 -0.13982093 -6.450583 8.405011 7.6763906
1.0113603 0.3099286 -0.9996468 0.23342076 -0.5995129 0.5153226 -0.71993643 -0.037045635
0.46879163 -1.3486029 -1.6372979 -1.0154175 -0.10387357 0.5666023 1.0346636 1.5424942
1.6262397 1.894904 2.285346 3.428219 -0.1582141 0.060299158 -0.45980066 10.074632
4.9499288 -6.3717413 0.98116696 -4.7243276 1.1682194 -2.427271 8.422802 2.2179098
-3.819626 -1.8990222 -0.47889477 -2.3770528 -0.96987325 -0.5757138 -0.8843831 -0.33571038
-0.21492317 -0.4674527 1.4216965 1.2872928 0.20830226 -2.4468434 -1.9420811 -1.5921321
0.6579092 -0.6649307 -0.07789092 -0.17460874 -1.6714811 -0.7124471 0.18309474 3.0711994
5.751549 0.3603483 -14.229338 2.2410069 3.2967439 -18.957094 -1.4655912 -12.619635
-14.172053 3.0401914 -1.6283748 0.9389657 0.19858816 0.7212614 -1.0719595 0.4769328
-0.43441585 0.03288765 -2.0861175 -0.7625789 -0.5641501 0.09302431 0.38773093 0.66706705
00000000: 45d2 55c0 53ab 9440 05b3 ac40 16bb 823e
00000010: 781a a53f 1f7f 2e40 166b 8e3f bc68 7abf
00000020: 6232 eb40 cf1d 943e 7fdc 2cc0 379e 0abf
00000030: 0cd8 053f ff07 e2be cff8 833e 104f fcbd
00000040: b740 22bd 85ab f1bd 27e7 ddbd 6c85 a9be
00000050: 76ea 0bbe f226 86bd 91bd 7fc0 8f8f 5e40
00000060: 7376 bd3f 4cda 2440 32a7 8040 1290 8540
00000070: 637d 9540 7af5 d240 df3f 0441 8442 8ac0
00000080: f8dd efbd 764b 1bbf 3e06 d73f cd50 0641
00000090: 7580 19bf c77e 2bc0 9c56 a040 64ca 27bf
000000a0: fc33 dc40 bea6 433f bd87 bf3f 4524 e2bf
000000b0: f3c8 97c0 f438 c4bf 0bb9 0dc1 9edc 3f3e
000000c0: a955 fcbf 4240 19c1 cc8b d33c db89 ff3f
000000d0: 4d0d 0241 c705 04c0 dca4 81bf 7301 6a3f
000000e0: 53bb 5e40 1323 6a40 d3e2 553f 6aaf 0741
000000f0: 2a14 4d40 98ab bc40 ce52 223e 83fa d2bd
00000100: 65bc f73f 10ea bc3d 6ec8 42c0 a2ba a340
00000110: 5110 a340 1487 c3be 91c1 eabf 91e1 5240
00000120: adfc 14c0 753a b83f 5da4 0340 332b 0040
00000130: fc2a 0140 44fb 093e f51f b5bd c78f 4bc0
00000140: f7a4 f0bf c201 c43d 818a 3f41 97c8 3f40
00000150: a512 cb3d 7548 d140 9f45 b6bd b641 d53e
00000160: ff4e 6240 0206 4840 9aaa a040 b722 fc40
00000170: a203 8840 4a38 ab3e b219 bb3d ca01 c23f
00000180: c8ac d540 f581 db3f d3e1 d739 29f5 b3c0
00000190: 3adb cd3e d01c 9140 1bcc 49c0 5eec 23c0
000001a0: b441 ae3d bf98 c83d b9f1 cfbf d060 ae3f
000001b0: 8b71 d5c0 44a2 fe3f df65 82bf f9a9 e83f
000001c0: be94 91c0 24cd 5840 aec0 213f 0ecf bd3f
000001d0: d540 60c0 e49f c03e 9c23 2b40 8576 44bf
000001e0: c7db 7d40 d82d 5041 9355 69c0 79bd 1c3f
000001f0: 38de 52be 4dac 7140 e347 4d3e d9be e93e
00000200: ce10 5e3f d6e8 9140 6b66 cfc0 a9e6 203e
00000210: 8cb6 26c0 4867 b2bf 1955 8040 6c21 833d
00000220: e9f2 c83e dbed 7fc0 084a 8e3f 51ef 6940
00000230: bff1 03bf 71e2 1cc0 832e 653f ab9e 0641
00000240: 0e23 46c0 c052 d9c0 a4d5 4e40 2029 4cbf
00000250: 5615 a7be b7c4 d53f a636 95c0 88c6 2cc0
00000260: 9413 d53f c8fd 3440 be95 e640 7562 bac0
00000270: 521f 22c1 b4a4 9dbf fc85 97bf d554 6340
00000280: 05ef b63f 16bf a4c0 eed3 4d40 7e00 c33f
00000290: f87e 323e ecc8 ad3f 8560 9ec0 a18b 00c1
000002a0: b078 1840 f0f0 b9bf 2371 abc0 23e7 c53e
000002b0: 382d 0fbe 2d6b cec0 ed7a 0641 fea4 f540
000002c0: 4174 813f f6ae 9e3e dae8 7fbf da05 6f3e
000002d0: ad79 19bf 2fec 033f c14d 38bf 2abd 17bd
000002e0: 7505 f03e 059f acbf fa92 d1bf 33f9 81bf
000002f0: abbb d4bd d90c 113f db6f 843f 7370 c53f
00000300: 9f28 d03f 378c f23f 1c43 1240 f167 5b40
00000310: e102 22be 40fc 763d fe6a ebbe b131 2141
00000320: d165 9e40 4ee5 cbc0 c22d 7b3f b12d 97c0
00000330: 3788 953f 6858 1bc0 ccc3 0641 3cf2 0d40
00000340: c174 74c0 2913 f3bf b231 f5be a221 18c0
00000350: 9d49 78bf fb61 13bf ee66 62bf 3be2 abbe
00000360: d214 5cbe f655 efbe 27fa b53f 03c6 a43f
00000370: 304d 553e 1599 1cc0 1d96 f8bf fcca cbbf
00000380: bd6c 283f e638 2abf 4685 9fbd a2cc 32be
00000390: 18f3 d5bf ef62 36bf 307d 3b3e 888e 4440
000003a0: b00c b840 937f b83e 5eab 63c1 a86c 0f40
000003b0: dafd 5240 21a8 97c1 7e98 bbbf 06ea 49c1
000003c0: bbc0 62c1 7f92 4240 966e d0bf 0e60 703f
000003d0: b25a 4b3e 96a4 383f f835 89bf 8930 f43e
000003e0: c16b debe 33b5 063d f382 05c0 5f38 43bf
000003f0: 246c 10bf 8883 be3d ab84 c63e e8c4 2a3f

weight_hh_l0 f4 [44, 11]
-0.09450325 -2.9669738 -2.3746176 0.38769624 2.2937636 0.6394651 5.179115 -0.112585485
1.2060578 -0.63772583 -2.5755565 4.363478 0.7132412 0.6792913 -0.9518585 -2.246568
-0.09770848 0.7098067 3.4141324 -1.1345575 -0.9732508 -0.57995945 0.6664911 -3.559599
-1.6347458 0.12249337 1.4775107 -0.83475983 3.0045834 1.291204 -2.5632136 -0.91777396
-2.6368546 2.881901 -4.9939713 -4.2367315 6.8159432 2.5803266 0.77300155 0.94353193
6.587368 1.6332216 6.744572 4.7118354 -2.2810326 0.37109658 1.7177882 -4.317099
-0.98642135 1.2195451 -2.3130221 -4.9211054 0.8129754 0.95388734 1.196829 1.2265849
-2.0040617 -0.44993246 -0.46099192 1.1559887 -0.34480107 1.3945634 -1.278074 3.2476723
-1.6580148 0.6130244 5.867996 -0.04970112 0.9647963 0.17785306 0.11622205 -4.7493253
-3.749956 1.1018168 -0.014100788 5.719234 3.163822 8.015165 4.367979 -0.22620343
-0.80645835 0.14700979 -2.7512867 -0.4424668 -0.7747496 -1.1305466 -3.6956336 0.5964731
6.309724 -2.594267 -4.4996443 0.23965484 2.4852002 1.0179744 2.8208892 -0.019558057
-5.1550336 0.51579833 -4.539722 -3.2560403 0.8618542 -0.24979274 0.2858589 0.13968185
2.5402555 0.34682631 -0.53541046 -0.81499225 -1.0058683 -0.05537098 13.340184 -0.4725424
-0.5659431 -0.44733515 0.023654932 -5.4755073 -0.3176015 0.6968617 0.40271044 3.7006092
-0.44474083 17.37928 -2.5561433 0.22538349 0.2548663 0.05221032 -2.0872302 -0.9898018
-0.08932542 -0.9262112 -4.7476535 -0.55740774 -2.2673347 1.4685838 1.1162596 -0.11650347
-0.12726879 -10.622999 -0.62393314 -4.0009327 -4.6850924 0.475583 0.36613372 -2.4434178
3.2091136 -0.8571347 0.35814568 1.7325054 1.0420729 -1.1436367 -1.9273973 0.54247636
0.9880042 2.2109616 -3.7177546 1.9899218 1.1044916 1.6705416 -1.2160814 -0.984135
3.2924585 -5.268 1.938197 -3.8530083 3.7723625 -0.4749546 5.4297576 -0.55023956
1.1327924 2.2872243 -0.26831567 -0.35363305 -1.437561 -0.8732166 -0.8957442 -0.12039586
-7.6404605 -0.029148335 1.4777552 1.6995721 0.51780546 -1.2018543 -0.37739637 0.23838091
-3.0704525 -4.150909 -0.13025816 -2.3450558 -1.9508804 -2.6637075 1.3201386 -1.8047526
5.3432574 2.8194351 2.5864544 -0.4188101 -0.33370367 -0.0057117823 -7.0155673 0.17641659
0.91424906 0.17914896 -0.15538016 0.91090554 -1.2133654 -0.8651541 -2.3232305 -2.0119145
-0.60932356 -3.7753956 0.7698196 0.30180356 0.042102907 -0.061393816 1.0050988 -0.28102693
0.0014682263 1.5918306 -4.344619 0.027802255 2.172216 -3.7732825 -1.9313325 0.87208974
1.659184 -2.1969118 4.397215 1.5490484 0.22904171 0.83299 -1.4098111 4.563166
4.6817107 0.94509953 1.5108796 -0.64528024 -1.0376884 -0.98020864 0.07839533 -0.90366995
-0.5017269 0.56827337 -3.2610488 -4.652288 -3.7760243 -1.2153784 0.6430015 -1.679173
3.6197584 0.9338485 -0.14099786 -2.1912282 -2.3078191 4.9623094 -1.3678888 0.061577905
00000000: ec8a c1bd e6e2 3dc0 bcf9 17c0 1f80 c63e
00000010: 06cd 1240 fcb3 233f 4fbb a540 3893 e6bd
00000020: 1a60 9a3f 0042 23bf ebd5 24c0 9da1 8b40
00000030: fa96 363f 09e6 2d3f 00ad 73bf c5c7 0fc0
00000040: 621b c8bd e4b5 353f 2581 5a40 2e39 91bf
00000050: f726 79bf 3978 14bf 299f 2a3f 78d0 63c0
00000060: 5a3f d1bf cedd fa3d 121f bd3f d2b2 55bf
00000070: 184b 4040 2c46 a53f b10b 24c0 3cf3 6abf
00000080: 3ac2 28c0 1171 3840 9dce 9fc0 4e93 87c0
00000090: 351c da40 1224 2540 6ee3 453f 4f8b 713f
000000a0: b8cb d240 680d d13f 89d3 d740 5bc7 9640
000000b0: 70fc 11c0 5f00 be3e 7ce0 db3f ad25 8ac0
000000c0: 1c86 7cbf 0e1a 9c3f 8e08 14c0 b279 9dc0
000000d0: 281f 503f f631 743f b131 993f bc00 9d3f
000000e0: 8c42 00c0 8c5d e6be 2207 ecbe 70f7 933f
000000f0: c489 b0be 0e81 b23f ee97 a3bf ddd9 4f40
00000100: d439 d4bf 2bef 1c3f a0c6 bb40 6793 4bbd
00000110: e4fc 763f 1d1f 363e d305 ee3d 79fa 97c0
00000120: 47ff 6fc0 5508 8d3f fe06 67bc f703 b740
00000130: 0f7c 4a40 1e3e 0041 7cc6 8b40 dfa1 67be
00000140: 0e74 4ebf bc89 163e 1515 30c0 028b e2be
00000150: fd55 46bf c0b5 90bf 4385 6cc0 76b2 183f
00000160: 42e9 c940 7808 26c0 16fd 8fc0 1468 753e
00000170: 850d 1f40 fc4c 823f 7389 3440 3838 a0bc
00000180: 09f6 a4c0 5c0b 043f 6745 91c0 f762 50c0
00000190: 7aa2 5c3f abc9 7fbe 195c 923e c208 0f3e
000001a0: 8c93 2240 3893 b13e a910 09bf 55a3 50bf
000001b0: 4bc0 80bf aecc 62bd 6571 5541 14f1 f1be
000001c0: a6e1 10bf 1d09 e5be fdc7 c13c 5b37 afc0
000001d0: aa9c a2be 8765 323f 1030 ce3e c8d6 6c40
000001e0: 12b5 e3be c408 8b41 da97 23c0 eeca 663e
000001f0: d67d 823e 7dda 553d 2e95 05c0 a763 7dbf
00000200: 3ff0 b6bd 2d1c 6dbf c7ec 97c0 46b2 0ebf
00000210: 031c 11c0 8efa bb3f 98e1 8e3f 5f99 eebd
00000220: c052 02be cef7 29c1 15ba 1fbf a407 80c0
00000230: 47ec 95c0 9d7f f33e e175 bb3e f560 1cc0
00000240: 1e62 4d40 2e6d 5bbf df5e b73e bdc2 dd3f
00000250: a562 853f b062 92bf f4b4 f6bf bbdf 0a3f
00000260: d8ed 7c3f 6580 0d40 b1ef 6dc0 c2b5 fe3f
00000270: fb5f 8d3f 4fd4 d53f 8ea8 9bbf 45f0 7bbf
00000280: a4b7 5240 7593 a8c0 d716 f83f b097 76c0
00000290: 636e 7140 402d f3be 93c0 ad40 80dc 0cbf
000002a0: 57ff 903f e261 1240 ac60 89be 640f b5be
000002b0: 0002 b8bf 208b 5fbf 7e4f 65bf 1b92 f6bd
000002c0: a77e f4c0 7dc8 eebc 1527 bd3f 948b d93f
000002d0: e68e 043f 5dd6 99bf 193a c1be 201a 743e
000002e0: 4b82 44c0 3fd4 84c0 6562 05be 6515 16c0
000002f0: 73b6 f9bf 2f7a 2ac0 4dfa a83f 2202 e7bf
00000300: f7fb aa40 a071 3440 7888 2540 476e d6be
00000310: 35db aabe e729 bbbb 877f e0c0 8da6 343e
00000320: 3a0c 6a3f d372 373e fa1b 1fbe 1b31 693f
00000330: 8f4f 9bbf bd7a 5dbf cfaf 14c0 35c3 00c0
00000340: a1fc 1bbf 15a0 71c0 e612 453f ff85 9a3e
00000350: 1974 2c3d 1578 7bbd 14a7 803f c3e2 8fbe
00000360: 8071 c03a 1bc1 cb3f 1e07 8bc0 8ec1 e33c
00000370: 9605 0b40 767d 71c0 e735 f7bf 4641 5f3f
00000380: 2460 d43f 349a 0cc0 fcb5 8c40 3847 c63f
00000390: e989 6a3e d53e 553f b174 b4bf 7505 9240
000003a0: 93d0 9540 0bf2 713f 8164 c13f 1631 25bf
000003b0: f9d2 84bf f4ee 7abf bb8d a03d ea56 67bf
000003c0: 2d71 00bf 5d7a 113f 06b5 50c0 8bdf 94c0
000003d0: 62aa 71c0 8591 9bbf bf9b 243f 24ef d6bf
000003e0: 1faa 6740 b210 6f3f be61 10be 153d 0cc0
000003f0: 4fb3 13c0 3dcb 9e40 fb16 afbf 1d39 7c3d

bias_ih_l0 f4 [44]
1.2241389 -0.07076003 0.026874484 0.09399248 2.5191493 -2.1617305 2.6775105 2.09029
0.1877536 2.3274405 -0.38832983 1.3966328 1.2624996 -1.8295931 -3.2983212 0.7293155
3.1628752 -1.6952702 0.6323425 1.2823372 0.5966073 0.8504947 -1.8992978 -0.65686566
-0.54249555 -0.31941625 1.9724172 -0.8598016 1.6612178 2.8594046 2.175832 -0.3736594
-0.47118035 -2.3862736 0.39956915 3.332305 1.396808 0.8776115 2.9687684 1.6902195
-0.23986802 1.2733095 -0.75830144 0.47537112
00000000: 95b0 9c3f a2ea 90bd e127 dc3c 217f c03d
00000010: be39 2140 cb59 0ac0 555c 2b40 50c7 0540
00000020: 7b42 403e c9f4 1440 2bd3 c6be ddc4 b23f
00000030: 9699 a13f 1b30 eabf b217 53c0 6cb4 3a3f
00000040: 8c6c 4a40 9dfe d8bf 33e1 213f a023 a43f
00000050: 42bb 183f 05ba 593f 311c f3bf 5928 28bf
00000060: fde0 0abf 878a a3be 2b78 fc3f f51b 5cbf
00000070: c9a2 d43f 7c00 3740 d540 0b40 4950 bfbe
00000080: 8d3e f1be b5b8 18c0 5494 cc3e 7c44 5540
00000090: 9bca b23f 26ab 603f 4d00 3e40 1d59 d83f
000000a0: f69f 75be cefb a23f 0b20 42bf d863 f33e

bias_hh_l0 f4 [44]
1.214612 0.15257798 0.10424834 0.32690057 2.388835 -1.8840505 2.7978675 2.5506625
0.17843136 2.1444445 -0.8579069 1.3858197 1.1448406 -1.2527496 -3.5449188 0.87165135
3.175627 -1.7879272 0.72299 1.510439 0.933923 0.8126768 -1.9905343 -0.9985606
-0.81025684 -0.454297 2.0306616 -0.660072 1.6366957 2.5243192 2.2538075 -0.39298406
-0.689008 -2.3999557 0.6094719 3.3510602 1.1993648 0.9368495 2.986868 1.979727
-0.049424365 0.7839545 -0.8625984 0.3110552
00000000: 6878 9b3f 673d 1c3e 2780 d53d 835f a73e
00000010: ace2 1840 9128 f1bf 4310 3340 0e3e 2340
00000020: b6b6 363e 943e 0940 c99f 5bbf 8a62 b13f
00000030: 238a 923f 195a a0bf f3df 62c0 8b24 5f3f
00000040: 793d 4b40 ccda e4bf df15 393f 1156 c13f
00000050: 9415 6f3f 960b 503f d4c9 febf aba1 7fbf
00000060: fe6c 4fbf 9e99 e8be 5cf6 0140 7bfa 28bf
00000070: 3f7f d13f 728e 2140 623e 1040 3535 c9be
00000080: d462 30bf e098 19c0 5a06 1c3f c577 5640
00000090: c984 993f 5ed5 6f3f d828 3f40 b267 fd3f
000000a0: 3471 4abd 3eb1 483f 40d3 5cbf a142 9f3e

weight_ih_l0_reverse f4 [44, 33]
-0.10327793 -1.569346 -1.4032251 -0.0805132 -0.43422613 1.4491807 -0.279825 -0.976103
1.1091958 -0.8100436 3.3493996 2.0186663 0.30523857 -1.01311 -1.1418337 0.3278775
-2.3812351 0.15662521 1.6418782 2.2869866 0.05834139 -1.0911129 8.402437 1.1491867
9.4982195 7.065235 -0.037015833 -0.16127406 4.210298 8.473512 7.1154203 17.268894
0.17494525 1.6832409 -1.0723708 2.7466633 -1.5154079 -1.7292025 0.3976037 2.0734534
3.6317368 0.27363697 -1.2771379 0.87888825 -1.6921834 -1.0769025 -1.9132167 2.4100811
-1.9773626 -0.63065195 -2.5894823 -7.4515586 -5.3729053 -3.1485968 -0.17853345 -5.083864
-1.3549503 -3.0921516 -1.4382427 -1.340069 1.3789443 0.2444305 3.8621743 2.1325514
3.6450984 0.15983792 2.6097355 2.7253745 1.3757029 1.3747901 1.5818241 -1.4058442
-0.92230165 1.7961179 -0.5482412 1.9141672 -4.546093 -2.1477554 1.6873693 0.6857252
-1.3890349 2.2012694 0.22520113 -0.3191228 0.086597405 3.0551732 0.99267554 -2.486588
-1.8342063 10.364116 1.1993436 3.073849 3.5118287 10.386684 10.161108 10.378714
9.838922 0.67287165 -0.09385593 -1.9030125 -0.4990955 2.4749959 -2.4596732 -0.76467276
-0.7174112 4.2935944 3.135546 -0.3034686 1.2840894 1.1725641 6.654913 5.0336394
-3.4829 -1.062595 -1.546151 3.8963258 0.04864155 0.1792532 0.8185247 -0.14956082
2.42 13.947192 12.255424 10.662008 13.74183 5.320775 6.777178 7.417872
5.7001452 9.580004 5.3113885 0.19423296 2.4896092 -0.3095888 0.85425335 0.7972472
3.3483543 3.5846722 -0.6389007 0.6120643 0.15586051 2.9881868 1.387808 -1.9438536
1.5184553 2.8939388 2.5494947 1.0105529 10.623306 2.1492584 1.0277231 9.029718
3.3985233 -5.100695 -1.7551762 -0.5862206 2.19578 1.8339329 0.972482 -0.5595216
-1.7459742 -2.7336774 -3.607351 -2.0170414 -0.14499876 0.88564306 1.4894282 -1.4029944
0.8028699 2.1073182 4.677775 -0.4704504 -3.5419126 -0.4007833 1.8475595 -0.21694289
4.54705 0.25565004 1.2800306 -2.7568254 1.039596 -3.2463434 -0.4162401 3.7364726
4.7254734 0.062082626 -0.62067676 0.35884777 3.31111 -2.2403345 4.099423 0.037295334
-4.0865088 -7.5085025 -9.258719 11.622059 -0.938119 0.040183757 1.2676903 1.4090091
0.2463863 1.210308 0.6277781 2.075363 -0.89591974 -1.3350445 0.8457341 1.1947916
1.6622488 2.6416383 0.8633159 3.8421361 -0.92020404 0.13203444 -2.649092 -2.4448013
-4.6694794 -2.4373722 2.8194628 -0.46031862 3.878576 2.87881 1.526914 2.5054917
0.5742453 -0.78211415 0.7264192 3.5859106 7.3515697 5.571313 0.22817396 6.226417
-1.7117684 2.077269 0.29669732 1.2243543 5.433364 1.6188328 2.8972244 0.26719308
0.68744475 2.2575645 -12.9585085 4.549906 0.056242608 -2.3354852 1.7060229 0.6113203
-3.889521 -1.4524249 1.7897564 -3.2568834 -0.19423595 2.6985962 -2.6209276 -1.5303328
00000000: 6183 d3bd 54e0 c8bf e19c b3bf 1be4 a4bd
00000010: e352 debe c17e b93f 3945 8fbe e3e1 79bf
00000020: 21fa 8d3f 045f 4fbf 905c 5640 d431 0140
00000030: 3b48 9c3e 97ad 81bf 9b27 92bf 8fdf a73e
00000040: 2866 18c0 5c62 203e 1129 d23f fd5d 1240
00000050: 62f7 6e3d 96a9 8bbf 6270 0641 8d18 933f
00000060: b5f8 1741 6816 e240 ea9d 17bd 0725 25be
00000070: c3ba 8640 8193 0741 86b1 e340 b226 8a41
00000080: d924 333e 7074 d73f 7243 89bf 55c9 2f40
00000090: e3f8 c1bf 8256 ddbf b692 cb3e 76b3 0440
000000a0: 606e 6840 251a 8c3e 4179 a3bf d2fe 603f
000000b0: 7799 d8bf f1d7 89bf 49e4 f4bf c53e 1a40
000000c0: 381a fdbf 6872 21bf 14ba 25c0 2b73 eec0
000000d0: d7ee abc0 9c82 49c0 79d1 36be 04af a2c0
000000e0: 036f adbf d0e5 45c0 5618 b8bf 6287 abbf
000000f0: 3f81 b03f fd4b 7a3e dd2d 7740 b97b 0840
00000100: 4b49 6940 8dac 233e e805 2740 896c 2e40
00000110: 0817 b03f 1ff9 af3f 3679 ca3f b4f2 b3bf
00000120: f61b 6cbf 31e7 e53f 8959 0cbf 6e03 f53f
00000130: 9879 91c0 d374 09c0 b8fb d73f b08b 2f3f
00000140: e5cb b1bf 99e1 0c40 209b 663e 1064 a3be
00000150: fb59 b13d f587 4340 fc1f 7e3f 4224 1fc0
00000160: 46c7 eabf 6bd3 2541 1784 993f f1b9 4440
00000170: cdc1 6040 dc2f 2641 e693 2241 360f 2641
00000180: 396c 1d41 5141 2c3f 8a37 c0bd ea95 f3bf
00000190: 7289 ffbe 5566 1e40 496b 1dc0 98c1 43bf
000001a0: 43a8 37bf 2065 8940 c9ac 4840 3d60 9bbe
000001b0: 0b5d a43f 9516 963f 0cf5 d440 9313 a140
000001c0: d5e7 5ec0 1d03 88bf 47e8 c5bf 675d 7940
000001d0: 5d3c 473d 278e 373e d68a 513f 7926 19be
000001e0: 48e1 1a40 b327 5f41 3716 4441 9697 2a41
000001f0: 89de 5b41 ca43 aa40 a4de d840 355f ed40
00000200: 9767 b640 b247 1941 e5f6 a940 01e5 463e
00000210: c255 1f40 6c82 9ebe 59b0 5a3f 6418 4c3f
00000220: 704b 5640 456b 6540 ff8e 23bf 3fb0 1c3f
00000230: e699 1f3e 743e 3f40 b1a3 b13f 32d0 f8bf
00000240: be5c c23f 4b36 3940 ec2a 2340 cc59 813f
00000250: 10f9 2941 738d 0940 6e8c 833f ba79 1041
00000260: 6881 5940 e538 a3c0 9da9 e0bf 8e12 16bf
00000270: a987 0c40 50be ea3f 95f4 783f cf3c 0fbf
00000280: 157c dfbf 92f4 2ec0 d7de 66c0 3517 01c0
00000290: 8e7a 14be 81b9 623f 95a5 be3f 5295 b3bf
000002a0: e288 4d3f 4dde 0640 55b0 9540 e0de f0be
000002b0: b2ae 62c0 7833 cdbe d47c ec3f 4726 5ebe
000002c0: 6f81 9140 90e4 823e 0bd8 a33f d46f 30c0
000002d0: 7b11 853f 17c4 4fc0 6c1d d5be 5e22 6f40
000002e0: 1437 9740 5a4a 7e3d ace4 1ebf e5ba b73e
000002f0: 3ae9 5340 a461 0fc0 792e 8340 fec2 183d
00000300: aec4 82c0 a745 f0c0 b723 14c1 f4f3 3941
00000310: 9128 70bf b997 243d ad43 a23f 695a b43f
00000320: b14c 7c3e 5feb 9a3f 11b6 203f bfd2 0440
00000330: ff5a 65bf bde2 aabf 0882 583f eeee 983f
00000340: 92c4 d43f 9a10 2940 4502 5d3f 8fe5 7540
00000350: 7e92 6bbf 0934 073e b98a 29c0 a077 1cc0
00000360: 606c 95c0 e8fd 1bc0 1472 3440 e2ae ebbe
00000370: 973a 7840 6c3e 3840 eb71 c33f fa59 2040
00000380: bd01 133f a238 48bf 9cf6 393f 8f7f 6540
00000390: 0f40 eb40 3248 b240 6fa6 693e cf3e c740
000003a0: 3a1b dbbf faf1 0440 b6e8 973e a4b7 9c3f
000003b0: 1ede ad40 ea35 cf3f 206c 3940 88cd 883e
000003c0: 61fc 2f3f f07b 1040 0d56 4fc1 d498 9140
000003d0: a65e 663d 9778 15c0 f55e da3f 7d7f 1c3f
000003e0: e9ed 78c0 0fe9 b9bf bd16 e53f c770 50c0
000003f0: cae5 46be cdb5 2c40 47bd 27c0 f2e1 c3bf

weight_hh_l0_reverse f4 [44, 11]
3.0348182 0.5958275 0.8312904 1.5146732 1.2850674 4.265878 -0.47095743 3.3680143
-1.4923851 -5.291808 -2.5980124 -0.46342644 1.6344227 -9.665335 -0.8534556 0.48351568
4.1706243 -0.4616184 0.7690516 1.3918427 -1.2385725 0.4989166 -0.844311 1.8534187
2.0946467 0.42797515 2.2341163 0.18470046 -0.8543544 0.27147985 3.5580375 -0.53767455
-1.7427518 1.9721713 4.944987 -2.3477151 1.3768486 2.1860936 0.1512023 -0.97884274
1.3328865 -0.56626683 -1.1682674 0.8895173 -8.334084 0.4486195 2.4206746 -7.4198575
0.32043222 -1.6155623 -1.3507533 0.600479 8.074353 0.45519185 0.579997 -0.39772147
0.39570174 13.08172 -0.07281977 0.6169277 -1.7084755 0.6082101 4.2842875 -1.4216176
4.639281 0.22005078 -2.8390734 0.7540161 5.486878 -1.0116206 0.46603855 -3.200412
-3.615481 1.0278255 2.2297904 -4.715188 0.60957354 -5.071484 0.42689162 -2.116487
-0.87244236 0.13386674 -2.69981 0.4940849 0.48802942 -0.32148713 -2.8441992 0.12769741
1.8370122 -1.1125659 2.9851327 4.5935555 -1.2785404 7.583209 -0.9844673 2.8427844
-4.2066565 -0.9298515 2.6807518 -0.29792604 0.11768919 -4.3824544 5.3198957 -1.220321
-0.8766256 -0.61816055 -2.655707 0.018116258 1.8973713 -1.0640697 2.5022876 1.8837101
8.072276 -3.6244345 2.222853 -0.65415597 2.5716398 2.5633106 0.59157777 1.4490466
-0.8055649 3.432898 1.6407241 -13.073618 -5.972653 -0.27967885 1.3739645 -1.35239
0.3871199 -0.10107824 -2.562682 -1.2687918 -0.11289869 -6.001689 -1.2112218 -0.48143482
0.9641934 1.1669835 6.436188 0.06945546 -3.0086296 4.9469104 -3.0512521 0.25144568
-0.88805705 -3.9103665 -1.7644563 -2.848474 -0.5590992 -0.97987163 1.875296 -2.0166037
-2.164331 -0.22419576 -1.3933448 2.4477484 -1.1498895 -0.5920299 0.05487185 0.57102233
1.5420936 -0.61384416 2.0068533 -0.7761067 0.11183539 -8.749817 0.8245299 4.5946765
-7.28258 2.7080421 5.1433887 1.5694916 -0.6443685 -0.6195461 0.8377664 1.8148046
-0.5108939 0.6409052 -4.305398 -6.604817 -1.8110604 3.5072308 2.7747426 2.987015
2.6075037 -5.495899 -3.1465971 -0.97169906 4.795175 2.6377661 -4.357396 -3.5902696
0.060543526 -0.16852307 -0.5592207 -4.7078857 9.674488 0.8287035 -4.009542 -1.1485077
-6.7343493 -2.1658182 -0.5930109 -0.07331679 1.7823795 -1.6478258 -0.74200827 6.2033763
-0.20113698 0.18457076 -1.8348788 -4.187009 -5.103396 -0.18205483 -0.9884908 -0.1655623
2.3068743 2.0370576 1.6273454 -2.4170601 0.22032975 0.14848018 -4.2036557 -5.9233823
-0.99852085 -0.40323004 1.9307648 1.4105778 -2.9122367 3.2150867 1.2855021 -8.558819
4.9286947 2.510375 -5.974439 -1.96907 3.267848 1.5964179 1.2939366 -1.4493824
8.605289 -0.65201664 -0.8284806 -0.82907873 0.36694792 2.5143275 -0.056635194 0.28176177
0.2859081 -1.6733258 -2.7177384 -0.89472705 0.63718367 0.6684953 -1.3291484 -5.2777057
00000000: 763a 4240 2788 183f 73cf 543f d0e0 c13f
00000010: 177d a43f 1382 8840 5521 f1be 8c8d 5740
00000020: 7a06 bfbf 7e56 a9c0 d645 26c0 3b46 edbe
00000030: c334 d13f 36a5 1ac1 117c 5abf 5e8f f73e
00000040: c175 8540 3f59 ecbe 91e0 443f e727 b23f
00000050: 8b89 9ebf ff71 ff3e c424 58bf d33c ed3f
00000060: b10e 0640 8f1f db3e c3fb 0e40 1e22 3d3e
00000070: f8b6 5abf 68ff 8a3e e3b6 6340 0aa5 09bf
00000080: 7e12 dfbf 1c70 fc3f 553d 9e40 f740 16c0
00000090: 933c b03f f5e8 0b40 c7d4 1a3e 7095 7abf
000000a0: 069c aa3f ddf6 10bf c989 95bf 68b7 633f
000000b0: 6858 05c1 75b1 e53e 55ec 1a40 796f edc0
000000c0: b10f a43e bfca cebf 7ce5 acbf feb8 193f
000000d0: 8d30 0141 e80e e93e af7a 143f 26a2 cbbe
000000e0: 6b99 ca3e ba4e 5141 8822 95bd f9ee 1d3f
000000f0: 53af dabf a8b3 1b3f e218 8940 91f7 b5bf
00000100: fd74 9440 fe54 613e 61b3 35c0 3307 413f
00000110: 8194 af40 c97c 81bf 9b9c ee3e 8dd3 4cc0
00000120: 0a64 67c0 c98f 833f e3b4 0e40 d2e2 96c0
00000130: 030d 1c3f 9949 a2c0 8a91 da3e 8674 07c0
00000140: 6258 5fbf 5d14 093e b0c9 2cc0 b2f8 fc3e
00000150: fede f93e f699 a4be 5c07 36c0 1cc3 023e
00000160: 3723 eb3f 8f68 8ebf 6a0c 3f40 68fe 9240
00000170: 36a7 a3bf a6a9 f240 0d06 7cbf 2ef0 3540
00000180: ee9c 86c0 bf0a 6ebf 7091 2b40 c389 98be
00000190: 0807 f13d 113d 8cc0 963c aa40 7b33 9cbf
000001a0: 896a 60bf c53f 1ebf 1af7 29c0 8c68 943c
000001b0: 10dd f23f 7033 88bf 7b25 2040 6a1d f13f
000001c0: 0b28 0141 bcf6 67c0 3943 0e40 c476 27bf
000001d0: bf95 2440 480d 2440 a471 173f 5c7a b93f
000001e0: 8039 4ebf 9ab4 5b40 3f03 d23f 8a2d 51c1
000001f0: f91f bfc0 1132 8fbe 12de af3f 1e1b adbf
00000200: 9434 c63e 1c02 cfbd fb02 24c0 c567 a2bf
00000210: 6e37 e7bd d60d c0c0 5109 9bbf a07e f6be
00000220: 61d5 763f b75f 953f 41f5 cd40 aa3e 8e3d
00000230: 638d 40c0 174d 9e40 b747 43c0 7dbd 803e
00000240: b557 63bf 7243 7ac0 b4d9 e1bf 664d 36c0
00000250: 2021 0fbf ded8 7abf b309 f03f 0910 01c0
00000260: 6684 0ac0 9393 65be 1f59 b2bf e9a7 1c40
00000270: 942f 93bf 468f 17bf 4ec1 603d 852e 123f
00000280: 5363 c53f e424 1dbf 4970 0040 eeae 46bf
00000290: f409 e53d 40ff 0bc1 6414 533f 9707 9340
000002a0: e50a e9c0 9050 2d40 a496 a440 1ae5 c83f
000002b0: 56f5 24bf 939a 1ebf dc77 563f 844b e83f
000002c0: f1c9 02bf 5d12 243f d2c5 89c0 a95a d3c0
000002d0: d4d0 e7bf 7876 6040 6295 3140 412b 3f40
000002e0: 57e1 2640 68de afc0 d961 49c0 45c1 78bf
000002f0: 1372 9940 29d1 2840 ca6f 8bc0 fac6 65c0
00000300: 7dfc 773d 5091 2cbe 1629 0fbf 00a7 96c0
00000310: b4ca 1a41 ea25 543f 2b4e 80c0 4d02 93bf
00000320: ca7f d7c0 c49c 0ac0 90cf 17bf 1d27 96bd
00000330: 0325 e43f f5eb d2bf 41f4 3dbf 0f82 c640
00000340: daf6 4dbe 1e00 3d3e 4fdd eabf fafb 85c0
00000350: 054f a3c0 956c 3abe bc0d 7dbf 2a89 29be
00000360: d4a3 1340 275f 0240 db4c d03f 1db1 1ac0
00000370: 1f9e 613e 300b 183e 5984 86c0 598c bdc0
00000380: 109f 7fbf 2b74 cebe 4d23 f73f d08d b43f
00000390: 1662 3ac0 fbc3 4d40 558b a43f ecf0 08c1
000003a0: deb7 9d40 fca9 2040 9b2e bfc0 7c0a fcbf
000003b0: 6c24 5140 6c57 cc3f b79f a53f 5d85 b9bf
000003c0: 44af 0941 90ea 26bf 4e17 54bf 813e 54bf
000003d0: 99e0 bb3e beea 2040 4efa 67bd 1443 903e
000003e0: 8c62 923e 8a2f d6bf 6def 2dc0 d50c 65bf
000003f0: 781e 233f 8222 2b3f 8921 aabf f7e2 a8c0

bias_ih_l0_reverse f4 [44]
0.9577372 -1.2578396 1.9472454 0.550127 -0.25633544 -0.50866157 -1.8047992 1.3124313
-1.3755679 2.9815624 1.6800176 0.1730067 1.0721476 0.36787453 -0.08736978 -1.468707
0.7367855 2.23501 0.39581418 2.7464607 1.5399768 -1.9983604 1.1878989 -0.3049996
3.4331462 3.0086544 0.7249454 -1.2203012 -1.0459064 0.5449915 -0.3564889 -0.7955776
0.64285964 4.3430414 0.73837847 1.0762638 0.85430497 0.99473685 0.6047372 1.0647023
1.855471 2.3815625 1.7931646 1.878524
00000000: 442e 753f e300 a1bf 563f f93f 20d5 0c3f
00000010: 663e 83be a537 02bf a903 e7bf c0fd a73f
00000020: 9c12 b0bf ebd1 3e40 d10a d73f ab28 313e
00000030: 223c 893f 0d5a bc3e edee b2bd 97fe bbbf
00000040: f99d 3c3f 670a 0f40 28a8 ca3e 03c6 2f40
00000050: f61d c53f 46ca ffbf 120d 983f e828 9cbe
00000060: abb8 5b40 cb8d 4040 0696 393f d432 9cbf
00000070: 43e0 85bf 9084 0b3f b785 b6be f9aa 4bbf
00000080: 7392 243f 32fa 8a40 5f06 3d3f 03c3 893f
00000090: bbb3 5a3f 13a7 7e3f 0fd0 1a3f 2a48 883f
000000a0: 1380 ed3f 856b 1840 6b86 e53f 7973 f03f

bias_hh_l0_reverse f4 [44]
0.9805213 -1.2582698 2.0001462 0.47461125 0.28917906 -0.84539956 -1.75519 1.1436535
-0.95963496 3.3354728 1.7819688 -0.3464552 0.95056087 0.28873122 -0.13867867 -1.2923986
0.58451533 1.9352963 0.5356073 2.576189 1.4643879 -1.7489274 0.78832376 -0.10333681
3.7905571 3.0833712 0.79328376 -1.1006386 -0.87090033 0.5727113 -0.30346698 -0.37152398
1.0905473 4.31252 0.8209784 0.9261835 1.1721803 1.0809311 0.28588113 1.1254766
1.7818396 2.421552 1.6116077 1.99558
00000000: 7203 7b3f fc0e a1bf 6502 0040 3f00 f33e
00000010: 470f 943e 1b6c 58bf 11aa e0bf 3d63 923f
00000020: a3aa 75bf 6378 5540 8e17 e43f 9362 b1be
00000030: f557 733f 94d4 933e c801 0ebe 516d a5bf
00000040: cca2 153f cab7 f73f 8f1d 093f 48e0 2440
00000050: 1071 bb3f dadc dfbf 96cf 493f 40a2 d3bd
00000060: 7d98 7240 f455 4540 a514 4b3f bae1 8cbf
00000070: 53f3 5ebf 359d 123f 0660 9bbe 6438 bebe
00000080: 0e97 8b3f 2a00 8a40 a42b 523f 5d1a 6d3f
00000090: 010a 963f f35b 8a3f 035f 923e 9e0f 903f
000000a0: 5213 e43f b5fa 1a40 2949 ce3f 2a6f ff3f

weight f4 [12, 44]
11.261652 4.254852 5.671106 -6.9585657 2.7883363 -1.7300181 1.3503212 -2.2569566
6.6115932 -7.7310743 -4.8830953 -3.145475 -1.261787 2.3641021 0.24525772 0.08253537
-0.51117164 -3.5150185 -2.0794842 -4.694102 1.2132329 0.5147291 9.129779 2.604281
-2.4166732 8.310346 4.9447436 -1.0135311 -4.9836707 -30.39386 13.860182 15.567092
-1.0680393 3.5386522 -7.4155536 1.8651847 4.1334085 -15.641769 -6.5828967 -4.418228
6.426478 -9.244336 5.3502274 5.5976577 -0.9766986 2.111607 4.083773 1.8066316
-5.072987 -0.31807646 3.8773978 2.0872483 0.6224488 -2.9280753 -0.121883504 3.2759845
-0.75471413 -4.0850787 -0.50045085 0.6666599 0.83868027 0.6459957 -1.7649927 3.7709394
0.7404765 -0.65227205 -0.44714996 -4.0714693 6.7968984 5.7298193 17.935963 -9.430827
-9.694334 9.323847 5.107065 0.598123 17.490656 -1.1763902 16.038193 -4.862162
-5.8709373 5.033715 -16.571371 12.739508 -8.22365 6.9305563 7.622004 -6.942376
-4.7844234 -5.298181 4.9436126 1.457819 -3.7393773 3.4011955 3.204271 3.9306712
-2.5731802 3.2163374 5.1228967 -0.9207129 0.20067172 -1.4176363 -0.79747814 0.56037617
-2.064115 -1.1419345 -2.758566 -0.6224343 1.1011869 1.1059966 1.7092733 -3.7517555
-7.863234 18.48159 10.874359 -7.9385433 -6.078637 -0.52584875 2.2887967 -12.210828
15.75672 2.1879988 8.93453 -2.1865602 -4.373091 6.177328 -8.550378 10.098581
-19.932571 3.3139617 -4.487199 -5.473603 -4.782928 -2.5048997 2.8396657 2.466382
1.8219881 0.43359056 -2.855875 -0.035324544 -0.74889237 6.6832767 6.55884 -2.6983042
0.6563287 1.8287129 1.4664876 0.77973133 -1.9211804 -2.320835 -1.864839 -1.6684455
-0.21778534 0.4798342 1.737709 -7.6507506 -2.1840217 11.624045 2.901122 -1.1450169
0.68582433 -10.417096 -0.9012618 -18.221899 9.025229 1.952828 -3.464398 0.18132141
3.9675205 2.57199 1.3963045 2.5506415 -23.609774 -0.29704997 -12.132564 -5.5023
-2.044571 -1.6246887 1.2305436 2.9200158 4.537957 -3.392622 -5.7338953 -3.2708116
-0.31592825 7.2984114 4.460979 -1.5926344 0.3445239 2.7292736 2.2924013 0.18335268
-0.8735366 -2.482598 -0.19149919 -1.7771536 -0.97095984 -0.9813635 0.7923143 -1.7370107
0.77411973 1.777648 -1.8386288 3.8673654 5.0653343 -9.991066 -2.7916481 -18.346426
2.349743 2.0833724 -15.799506 2.280939 7.3519197 -3.7841797 10.818956 -6.4888062
-15.896278 -2.532691 -14.527977 -5.1918983 1.7635442 -4.1849017 -0.35101146 0.053390022
3.2982984 -2.5729847 -2.651414 -2.3932872 0.41719574 5.23699 2.2207892 -1.1182269
0.55663407 1.6151115 0.7109072 -1.8028176 0.7676068 -2.6877124 0.55997324 -4.5479712
0.0040138923 -1.9435571 0.7925551 6.6091204 0.90917826 -0.16930021 -2.8766873 4.9471536
5.9611335 -0.40679932 -3.5608437 -16.449423 -3.2244165 0.8585592 -22.521732 3.7027192
00000000: ba2f 3441 bf27 8840 b379 b540 92ac dec0
00000010: 1a74 3240 3c71 ddbf 53d7 ac3f fa71 10c0
00000020: 2c92 d340 f664 f7c0 5142 9cc0 764f 49c0
00000030: 3d82 a1bf 734d 1740 d724 7b3e 4e08 a93d
00000040: 25dc 02bf 10f6 60c0 4516 05c0 1536 96c0
00000050: 374b 9b3f 49c5 033f 9313 1241 8aac 2640
00000060: c6aa 1ac0 2df7 0441 573b 9e40 63bb 81bf
00000070: 3b7a 9fc0 a026 f3c1 4ec3 5d41 cf12 7941
00000080: 83b5 88bf 4779 6240 374c edc0 5fbe ee3f
00000090: e244 8440 b044 7ac1 17a7 d2c0 2062 8dc0
000000a0: b5a5 cd40 cde8 13c1 1035 ab40 0320 b340
000000b0: eb08 7abf 9224 0740 45ae 8240 b43f e73f
000000c0: e955 a2c0 ebda a2be 4927 7840 7a95 0540
000000d0: ce58 1f3f 9665 3bc0 0f9e f9bd bba9 5140
000000e0: f234 41bf f7b8 82c0 8c1d 00bf 39aa 2a3f
000000f0: c0b3 563f f95f 253f 48eb e1bf 1257 7140
00000100: de8f 3d3f 4dfb 26bf d7f0 e4be 7a49 82c0
00000110: 3180 d940 ae5a b740 da7c 8f41 abe4 16c1
00000120: fe1b 1bc1 7a2e 1541 146d a340 971e 193f
00000130: ddec 8b41 f493 96bf 384e 8041 d596 9bc0
00000140: b8de bbc0 3114 a140 2b92 84c1 06d5 4b41
00000150: 1294 03c1 1ec7 dd40 75e7 f340 f227 dec0
00000160: ff19 99c0 b38a a9c0 1332 9e40 d099 ba3f
00000170: f551 6fc0 30ad 5940 c712 4d40 1e90 7b40
00000180: fcae 24c0 79d8 4d40 c5ee a340 d7b3 6bbf
00000190: e37c 4d3e 1b75 b5bf 8727 4cbf d074 0f3f
000001a0: 761a 04c0 e92a 92bf 588c 30c0 db57 1fbf
000001b0: b1f3 8c3f 4c91 8d3f 78c9 da3f c31c 70c0
000001c0: 9d9f fbc0 4cda 9341 60fd 2d41 8c08 fec0
000001d0: 3284 c2c0 069e 06bf a57b 1240 8d5f 43c1
000001e0: 861b 7c41 2c08 0c40 d6f3 0e41 9af0 0bc0
000001f0: 5df0 8bc0 acac c540 59ce 08c1 ca93 2141
00000200: e875 9fc1 f317 5440 2297 8fc0 c127 afc0
00000210: bf0d 99c0 4750 20c0 15bd 3540 34d9 1d40
00000220: e836 e93f 95ff dd3e a8c6 36c0 78b0 10bd
00000230: 69b7 3fbf 67dd d540 04e2 d140 04b1 2cc0
00000240: 2805 283f 4413 ea3f deb5 bb3f 799c 473f
00000250: 3de9 f5bf 9088 14c0 0bb3 eebf 9f8f d5bf
00000260: 1f03 5fbe d4ac f53e 406d de3f f3d2 f4c0
00000270: 03c7 0bc0 17fc 3941 fcab 3940 ea8f 92bf
00000280: 2f92 2f3f 6dac 26c1 18b9 66bf 73c6 91c1
00000290: 5767 1041 45f6 f93f b2b8 5dc0 52ac 393e
000002a0: dbeb 7d40 7c9b 2440 1bba b23f b63d 2340
000002b0: d1e0 bcc1 ef16 98be fb1e 42c1 d712 b0c0
000002c0: 40da 02c0 cdf5 cfbf 7482 9d3f 8ae1 3a40
000002d0: f236 9140 b820 59c0 127c b7c0 fa54 51c0
000002e0: 59c1 a1be 968c e940 57c0 8e40 72db cbbf
000002f0: 7065 b03e 6bac 2e40 b4b6 1240 cec0 3b3e
00000300: 18a0 5fbf e3e2 1ec0 5d18 44be c579 e3bf
00000310: d390 78bf a33a 7bbf 1cd5 4a3f 5e56 debf
00000320: b62c 463f f889 e33f 3058 ebbf ea82 7740
00000330: 3817 a240 68db 1fc1 5daa 32c0 7bc5 92c1
00000340: 3062 1640 f955 0540 c7ca 7cc1 e8fa 1140
00000350: ed42 eb40 0030 72c0 721a 2d41 4da4 cfc0
00000360: 2857 7ec1 9c17 22c0 9872 68c1 0824 a6c0
00000370: d1bb e13f b7ea 85c0 c6b7 b3be 7faf 5a3d
00000380: 5217 5340 c8ab 24c0 c4b0 29c0 9e2b 19c0
00000390: ae9a d53e 6c95 a740 6921 0e40 0f22 8fbf
000003a0: 927f 0e3f f9bb ce3f 04fe 353f bac2 e6bf
000003b0: e181 443f 7b03 2cc0 685a 0f3f fb88 91c0
000003c0: f886 833b 7bc6 f8bf e4e4 4a3f ea7d d340
000003d0: e8bf 683f 095d 2dbe a51b 38c0 154f 9e40
000003e0: 9bc1 be40 0048 d0be dde4 63c0 6b98 83c1
000003f0: d75c 4ec0 89ca 5b3f 822c b4c1 5af9 6c40

bias f4 [12]
3.49921 5.174782 -0.36205474 -0.06656889 0.5384837 -0.044804946 -0.5345194 0.7019502
-0.04916229 -3.977122 -1.9635078 -0.8714185
00000000: 0ef3 5f40 d097 a540 3d5f b9be 4555 88bd
00000010: 11da 093f 6485 37bd 43d6 08bf 02b3 333f
00000020: 665e 49bd 2b89 7ec0 3954 fbbf 4815 5fbf
