16 Seq2Seq/num_decoder.pt (torch, 24690 bytes, 12 tensors)

weight f4 [12, 11]
000000 00 00 00 00 00 00 00 00 00 00 00 00 00 00 00 00
       0.0 0.0 0.0 0.0
000010 00 00 00 00 00 00 00 00 00 00 00 00 00 00 00 00
       0.0 0.0 0.0 0.0
000020 00 00 00 00 00 00 00 00 00 00 00 00 00 00 80 3f
       0.0 0.0 0.0 1.0
000030 00 00 00 00 00 00 00 00 00 00 00 00 00 00 00 00
       0.0 0.0 0.0 0.0
000040 00 00 00 00 00 00 00 00 00 00 00 00 00 00 00 00
       0.0 0.0 0.0 0.0
000050 00 00 00 00 00 00 00 00 00 00 00 00 00 00 80 3f
       0.0 0.0 0.0 1.0
000060 00 00 00 00 00 00 00 00 00 00 00 00 00 00 00 00
       0.0 0.0 0.0 0.0
000070 00 00 00 00 00 00 00 00 00 00 00 00 00 00 00 00
       0.0 0.0 0.0 0.0
000080 00 00 00 00 00 00 00 00 00 00 00 00 00 00 80 3f
       0.0 0.0 0.0 1.0
000090 00 00 00 00 00 00 00 00 00 00 00 00 00 00 00 00
       0.0 0.0 0.0 0.0
0000a0 00 00 00 00 00 00 00 00 00 00 00 00 00 00 00 00
       0.0 0.0 0.0 0.0
0000b0 00 00 00 00 00 00 00 00 00 00 00 00 00 00 80 3f
       0.0 0.0 0.0 1.0
0000c0 00 00 00 00 00 00 00 00 00 00 00 00 00 00 00 00
       0.0 0.0 0.0 0.0
0000d0 00 00 00 00 00 00 00 00 00 00 00 00 00 00 00 00
       0.0 0.0 0.0 0.0
0000e0 00 00 00 00 00 00 00 00 00 00 00 00 00 00 80 3f
       0.0 0.0 0.0 1.0
0000f0 00 00 00 00 00 00 00 00 00 00 00 00 00 00 00 00
       0.0 0.0 0.0 0.0
000100 00 00 00 00 00 00 00 00 00 00 00 00 00 00 00 00
       0.0 0.0 0.0 0.0
000110 00 00 00 00 00 00 00 00 00 00 00 00 00 00 80 3f
       0.0 0.0 0.0 1.0
000120 00 00 00 00 00 00 00 00 00 00 00 00 00 00 00 00
       0.0 0.0 0.0 0.0
000130 00 00 00 00 00 00 00 00 00 00 00 00 00 00 00 00
       0.0 0.0 0.0 0.0
000140 00 00 00 00 00 00 00 00 00 00 00 00 00 00 80 3f
       0.0 0.0 0.0 1.0
000150 00 00 00 00 00 00 00 00 00 00 00 00 00 00 00 00
       0.0 0.0 0.0 0.0
000160 00 00 00 00 00 00 00 00 00 00 00 00 00 00 00 00
       0.0 0.0 0.0 0.0
000170 00 00 00 00 00 00 00 00 00 00 00 00 00 00 80 3f
       0.0 0.0 0.0 1.0
000180 00 00 00 00 00 00 00 00 00 00 00 00 00 00 00 00
       0.0 0.0 0.0 0.0
000190 00 00 00 00 00 00 00 00 00 00 00 00 00 00 00 00
       0.0 0.0 0.0 0.0
0001a0 00 00 00 00 00 00 00 00 00 00 00 00 00 00 80 3f
       0.0 0.0 0.0 1.0
0001b0 00 00 00 00 00 00 00 00 00 00 00 00 00 00 00 00
       0.0 0.0 0.0 0.0
0001c0 00 00 00 00 00 00 00 00 00 00 00 00 00 00 00 00
       0.0 0.0 0.0 0.0
0001d0 00 00 00 00 00 00 00 00 00 00 00 00 00 00 80 3f
       0.0 0.0 0.0 1.0
0001e0 00 00 00 00 00 00 00 00 00 00 00 00 00 00 00 00
       0.0 0.0 0.0 0.0
0001f0 00 00 00 00 00 00 00 00 00 00 00 00 00 00 00 00
       0.0 0.0 0.0 0.0
000200 00 00 00 00 00 00 00 00 00 00 00 00 00 00 80 3f
       0.0 0.0 0.0 1.0

weight_ih_l0 f4 [44, 33]
000000 1d 6f 7b c0 a5 f0 40 3c e2 71 25 c0 32 6e f0 bf
       -3.9286568 0.011776124 -2.5850759 -1.8783629
000010 11 5d 84 c0 bd 4a 7b 40 40 73 7f bf e1 a7 a6 3f
       -4.1363606 3.9264367 -0.9978523 1.3019983
000020 80 f0 27 40 f8 74 5b 40 9b b3 0b c0 f8 29 74 c0
       2.624054 3.4290142 -2.1828372 -3.8150616
000030 f5 e2 66 40 b4 b0 4e 3d 05 d9 02 40 2a 00 3c 41
       3.6076024 0.050461486 2.0444958 11.75004
000040 b8 48 81 bf 55 61 9a be 88 03 28 3e 7c 2f 38 c0
       -1.0100317 -0.30152383 0.16407597 -2.8778982
000050 f7 99 7f 40 c8 fd 37 3f 06 8a 1a c0 7d 25 34 40
       3.9937723 0.71871614 -2.4146743 2.814788
000060 39 61 cb bd eb 14 67 bf aa 7c 22 c0 1b e1 6a 3f
       -0.09930653 -0.90266293 -2.538859 0.91749734
000070 c4 55 c8 3f df 5c f8 3e 44 62 b9 3f bb 35 07 c1
       1.5651174 0.48508355 1.4483113 -8.450618
000080 59 52 80 3e 86 82 04 3f fa 57 66 40 f0 92 4e bf
       0.25062826 0.5176166 3.5991197 -0.8069296
000090 d2 e6 91 bf 58 ff 9d 40 73 92 fc bf 9f a6 d8 3f
       -1.1398566 4.93742 -1.9732193 1.6925849
0000a0 e5 81 72 40 63 e9 50 c0 f4 cf 08 3f 92 8b 4a 40
       3.7891781 -3.2642448 0.5344231 3.1647687
0000b0 2f 61 76 c0 c9 7c 0f c0 36 88 49 3f fd 69 79 40
       -3.8496816 -2.2419913 0.78723466 3.897094
0000c0 9a 89 8f c0 9d 84 ae 3e 88 fb 17 40 ab bb 8b 3f
       -4.485547 0.3408555 2.3747272 1.0916647
0000d0 0d 04 56 3d 2f 8b 0e c0 bf a1 6e 40 6b c6 24 c0
       0.052249957 -2.227245 3.7286222 -2.5746105
0000e0 80 ff f2 bf 1e 05 6f bf 85 96 ae 3f 41 28 7a 40
       -1.8984222 -0.93367183 1.3639685 3.908707
0000f0 d3 d3 60 40 8e 33 76 40 e1 e8 8b 40 2a 1f b6 40
       3.5129287 3.8468966 4.3721776 5.691304
000100 ce 57 e7 40 ee fa 0e 3e 2d 3a 72 c0 75 7b 1c bf
       7.2294683 0.1396291 -3.7848008 -0.6112588
000110 a8 81 ae 3f 2c 4d 1a 40 e2 23 58 c0 c6 f2 4f 3e
       1.3633318 2.4109602 -3.37719 0.20307454
000120 df 5a 1f be c9 12 3b 3f 8b 2e 5e 40 2b f0 0e c1
       -0.15562008 0.7307554 3.4715908 -8.933635
000130 c1 13 ce 3f b7 5c 82 40 b0 27 c4 3f 70 1b b3 bf
       1.6099778 4.0738177 1.5324612 -1.3992748
000140 46 5b 1d 3e 73 79 54 41 89 6c 05 41 5f 8a 06 41
       0.1536685 13.279651 8.338998 8.408782
000150 22 06 d6 3f f9 be da c0 06 be e0 40 e9 08 ec 40
       1.6720622 -6.835812 7.023196 7.3760877
000160 d3 7f fb 3f 58 72 26 3f 5f 27 ef be cb 62 8f bf
       1.9648384 0.65018225 -0.46709725 -1.1202024
000170 4e bd 03 c0 cc 83 c7 40 32 10 c8 40 69 68 42 40
       -2.0584292 6.2348385 6.251977 3.0376227
000180 69 86 af c0 3d 7c 91 40 96 f1 5c be 90 db 44 40
       -5.4851575 4.546416 -0.21576533 3.075901
000190 8f 96 42 3f 59 25 86 3e 59 b9 1d 40 dd b7 da bf
       0.76010984 0.2620037 2.4644377 -1.7087361
0001a0 2d 8d 2e c0 1c dc 2a bf fb 63 64 3f b8 a7 19 bf
       -2.7273667 -0.6674211 0.8921506 -0.60021544
0001b0 f5 89 38 40 36 f8 45 c0 28 9b 93 3f f0 22 fe bf
       2.8834202 -3.0932746 1.1531725 -1.9854412
0001c0 ee ef 0e c0 87 76 8d 3e c3 e7 cd bf dc 19 47 c0
       -2.2333941 0.27629492 -1.6086353 -3.1109533
0001d0 00 24 4e c0 e7 5b 56 40 69 4a c5 3f cf 4a 15 40
       -3.2209473 3.3493593 1.5413333 2.332691
0001e0 66 e5 1c 40 a8 2f c6 bf 36 aa 58 40 37 80 8e 40
       2.4515014 -1.5483294 3.3853889 4.453151
0001f0 92 06 5d 40 5a 93 53 40 39 e5 be 3f 9f ba c9 3d
       3.453526 3.3058686 1.4913703 0.09850048
000200 51 b0 c9 bf 56 5e 03 c0 36 c6 f3 c0 5d c1 85 bc
       -1.5756932 -2.0526328 -7.6179457 -0.016327554
000210 e8 45 a2 bf d7 50 49 c0 70 b9 2e 3f e6 fe 31 bf
       -1.2677584 -3.145559 0.68251705 -0.6952957
000220 7f 41 58 3f e9 80 f1 3e 11 5c f1 bf 35 1c 47 3f
       0.8447494 0.47168663 -1.8856221 0.77777416
000230 01 6c 64 bf c0 bd 40 40 1f 1e 4a c0 5a 18 cf 3f
       -0.892273 3.0115814 -3.1580884 1.6179307
000240 5e 53 f8 3e b3 4b de bf be e9 46 3f 6d b9 d3 c0
       0.48501104 -1.7366852 0.7770041 -6.616385
000250 6d be 09 c0 09 c9 67 c1 31 37 32 3f d4 de 4c 40
       -2.1522477 -14.486581 0.69615465 3.2011003
000260 1e a7 24 bf 46 45 3b c0 9d 0c 4b 40 b4 7e 02 41
       -0.643175 -2.926103 3.1726449 8.155933
000270 66 a1 8a 40 f0 a8 77 40 0d 77 8f 40 f0 33 94 40
       4.332202 3.8696861 4.4832826 4.63134
000280 f8 e3 89 40 2b da 72 40 fe 5f 60 40 2f 93 29 40
       4.309078 3.794566 3.505859 2.6496084
000290 9d c9 90 be be be a1 40 c9 45 31 40 92 64 d4 be
       -0.2827882 5.054534 2.7698843 -0.4148298
0002a0 52 1b 53 40 87 b6 8b 40 fd ed 39 c0 75 64 84 40
       3.2985425 4.366031 -2.9051507 4.137263
0002b0 74 bc 36 40 14 33 f6 bf d6 fa 15 c0 d2 00 cb 3e
       2.8552523 -1.9234338 -2.3434348 0.39649063
0002c0 42 4e 0a be e0 06 05 bf f6 e0 51 bf 0b 9e 94 c0
       -0.13506415 -0.51963615 -0.8198389 -4.6442924
0002d0 b9 97 c9 3f d5 59 0b c0 60 98 91 be 07 7e a7 3f
       1.5749427 -2.177358 -0.28436565 1.3085335
0002e0 c1 7f 1f 3f 66 54 ef bf d1 8d fe 3f da fe 8c 3f
       0.6230431 -1.8697631 1.9887029 1.1015275
0002f0 5f 9f 9d 3f 38 47 c8 3e e2 c4 82 be 24 2a a9 bf
       1.2314261 0.39116836 -0.25540835 -1.3215985
000300 e9 11 0d c0 40 12 9d bf 20 70 d6 be 73 a7 1a c0
       -2.2042181 -1.2271194 -0.4188242 -2.4164703
000310 ab 9b 70 bc ab 1a 85 3e 31 67 1f c0 04 21 e6 bf
       -0.014685552 0.2599691 -2.4906733 -1.7978826
000320 58 df f5 3f 6c 53 91 40 79 03 90 be f1 c0 37 40
       1.9208784 4.5414333 -0.2812765 2.8711512
000330 f2 19 50 3f da d4 d9 3e 0e 75 2a 3f bf 00 33 bf
       0.8128959 0.42545205 0.6658486 -0.69923013
000340 bb 32 13 be 75 66 62 3f f6 a2 17 40 e6 04 53 3f
       -0.14374821 0.8843759 2.3693213 0.8242935
000350 60 94 e4 be 16 e6 84 c0 f9 52 bf 3f f5 e3 86 bf
       -0.4464445 -4.1530867 1.4947196 -1.0538317
000360 7f de 88 c0 bf 43 a4 3f 57 a5 53 3f 5a 92 4f c0
       -4.27716 1.2833174 0.82674164 -3.2433076
000370 3d 0c 71 40 51 7c 63 40 44 10 4e 40 36 db ca 3f
       3.766372 3.5544627 3.2197428 1.5848148
000380 55 50 8b bf a1 26 19 c0 71 30 54 c0 9a d2 81 c0
       -1.088389 -2.3929827 -3.3154566 -4.056958
000390 a0 17 a5 c0 34 76 2e 40 7b dd c8 3c 52 65 07 40
       -5.159134 2.7259645 0.024519673 2.115559
0003a0 e7 0a 5e bf 42 20 82 bf 0b b7 1a c0 65 65 36 40
       -0.86735386 -1.0166094 -2.417422 2.8499386
0003b0 25 8e aa bf 2d 32 1c bf 8f 36 98 bf 5d b5 87 40
       -1.3324629 -0.6101406 -1.189165 4.240889
0003c0 bb 37 a1 3f 4b b7 ff 3f dc f7 d3 bf 4d b7 30 40
       1.2595133 1.9977812 -1.6560016 2.7611878
0003d0 66 06 8f 3f 90 ee f0 bf e5 e6 f7 bf a5 ae 7a c0
       1.1173828 -1.8822803 -1.9367338 -3.9169095
0003e0 84 5c 7a 3f 41 19 52 40 62 56 e8 3f c5 b3 53 3f
       0.9779742 3.2827914 1.8151362 0.8269618
0003f0 1a 59 a5 be 8e e9 dd 3f ac 95 50 c0 4e 0f 06 c0
       -0.32294542 1.73369 -3.2591352 -2.0946841

weight_hh_l0 f4 [44, 11]
000000 a5 c5 e6 be 2a 4a f7 bf cc 05 f8 3f bd 5a 5c 40
       -0.45072666 -1.9319508 1.9376769 3.4430382
000010 95 9f eb 3e 5c 88 87 3e d4 58 82 3f 3c 0e 33 c1
       0.4602019 0.2647122 1.0183358 -11.190975
000020 9d d1 85 3e 3c 15 94 3f 10 c2 9f c0 8b 00 a6 3e
       0.26136485 1.156898 -4.9924393 0.3242229
000030 5e 70 52 c0 73 b4 a4 c0 77 5f 98 c0 f2 74 83 bf
       -3.2881083 -5.1470275 -4.7616534 -1.0270064
000040 78 6f d1 3f d2 1f f4 be f6 15 f3 bf 9c 43 84 c0
       1.6362143 -0.47680527 -1.8991077 -4.133253
000050 5a f7 fc 3f f6 d1 a5 40 6e 2e 80 c0 07 f5 eb bf
       1.9762986 5.18188 -4.0056677 -1.8434151
000060 a4 13 36 3f 1d 27 f2 c0 80 f4 8e 3e fc ab a1 3f
       0.7112372 -7.5672746 0.27920914 1.263061
000070 8a 3c 3a bf bf 9b c6 40 f9 6c cb be d4 00 69 c0
       -0.72748625 6.206512 -0.39731577 -3.6406755
000080 45 44 98 be 8a 9b 0a 3f 4d 8e 3e bf 47 a2 e0 3e
       -0.29739586 0.54143584 -0.74435884 0.43873808
000090 f3 78 45 40 0c cd 5e c0 11 5c 90 3f 1c 42 0f 40
       3.0855072 -3.481265 1.1278096 2.23841
0000a0 36 1b 8b 40 3b 5b c2 3f 20 91 91 3f b9 cd a5 be
       4.3470716 1.5184091 1.1372414 -0.32383516
0000b0 03 bb c0 3f 46 24 ab 3f b8 5c 4d bf 44 2a dd 3f
       1.5057071 1.3370445 -0.802196 1.7278523
0000c0 ae be 8c 3e ed 2e 42 3e 4e e5 ef 3e a8 90 e1 40
       0.27489227 0.18963213 0.46854633 7.048908
0000d0 04 7e ef bf d5 1b 04 40 71 f8 98 bf 59 cb a2 c0
       -1.8710332 2.0641987 -1.1950818 -5.0873227
0000e0 88 28 80 c0 7e 20 ad 3d d6 3f bd 3f 44 43 53 40
       -4.0049477 0.08453463 1.4785106 3.3009806
0000f0 5a 6c ce bf 06 6c 68 bf 65 a2 ec bf e4 26 f2 3f
       -1.6126816 -0.9078983 -1.8487059 1.8918118
000100 7c 1f b8 bf 63 f8 86 c0 ca 4f 1e c0 e0 45 b0 3e
       -1.4384608 -4.2178206 -2.47362 0.3442831
000110 aa 0b 70 40 b5 35 79 c0 d4 83 04 c0 21 cf ac 3e
       3.750712 -3.893903 -2.0705462 0.33751777
000120 3f 99 d9 bd 60 83 8a 40 99 cd 2a c0 92 fe 68 bf
       -0.106249325 4.328537 -2.6687987 -0.91013443
000130 72 dd 5d 40 8a a2 95 c0 ec 42 47 40 e5 de 0a c0
       3.466641 -4.676091 3.1134596 -2.1698544
000140 f3 db d6 3e 26 b0 c2 40 cf 36 0d c0 e0 62 78 40
       0.41964683 6.0840025 -2.2064703 3.8810349
000150 f9 ae 92 c0 1f 74 df bf 2b 61 bc bf 5c d6 89 3e
       -4.583859 -1.7457312 -1.4717153 0.26921356
000160 48 ac 5f 40 07 70 ea bf 51 46 f6 bf 3f 9e 7c bf
       3.4948902 -1.8315438 -1.9240209 -0.98678964
000170 ec b3 51 3f e7 64 03 c0 75 7b af bf fc 13 32 40
       0.81915164 -2.0530336 -1.3709551 2.7824697
000180 30 c3 9c 40 cc 74 02 bf d5 2c a1 be 9b 3d 6a c0
       4.8988266 -0.5095947 -0.31479517 -3.66001
000190 42 7c 27 c0 81 18 08 3f 0d f9 e5 bf f8 c4 98 3f
       -2.616959 0.5316239 -1.7966629 1.193511
0001a0 48 9a a9 3e b5 f5 84 3f f8 ae 81 bf 52 59 de bf
       0.3312552 1.0387484 -1.0131521 -1.7371008
0001b0 20 30 2d bf c6 e6 97 3f 26 68 c4 3f b9 41 34 bd
       -0.6765156 1.1867301 1.5344284 -0.04400799
0001c0 8a 52 37 bf 5c 64 12 c0 02 57 9c 3e d1 b1 8a bf
       -0.7161032 -2.2873755 0.30535132 -1.0835515
0001d0 5b a1 23 c0 b5 78 1d bf df e5 49 bf 41 bb 5c 3f
       -2.5567234 -0.6151231 -0.7886638 0.86223227
0001e0 45 f6 ae 3f 3e 7d 10 c0 82 b9 5d 3f de 94 96 40
       1.3668905 -2.2576442 0.8661119 4.7056723
0001f0 6a 06 82 40 cc 09 c7 3f fd c5 1e 3f 63 28 d4 40
       4.063283 1.5549865 0.62020856 6.62993
000200 e2 a0 7c 40 d6 11 82 3e 43 d9 b2 be 24 b1 0c 40
       3.9473195 0.25404233 -0.34931383 2.1983118
000210 dd 5a a5 40 a2 52 c6 bf f9 92 ab 3f c8 ed 45 3d
       5.1673417 -1.5493968 1.3404227 0.04832247
000220 82 c9 40 40 c6 9d 10 3f 07 c4 69 3f c1 f3 4c c0
       3.012299 0.56490743 0.9131474 -3.2023776
000230 e4 bb 62 c0 8a 10 c5 bf cf 07 85 c0 f8 41 0e c1
       -3.542718 -1.5395672 -4.157203 -8.891106
000240 04 15 11 c1 28 e5 71 40 85 e7 b9 c0 c3 80 fe c0
       -9.067631 3.7796116 -5.8095117 -7.953218
000250 96 45 89 c0 22 c3 66 3f db b8 fa c0 5d 86 12 c0
       -4.2897444 0.901415 -7.8350654 -2.289451
000260 60 ef 2a 3f 29 ce 5f bf 13 d9 44 c0 e2 ab 2c 40
       0.6677151 -0.8742395 -3.0757492 2.697991
000270 41 8b cd bf bb 2a 05 c1 2a 99 a0 3f 2e 56 92 40
       -1.6058122 -8.322932 1.2546742 4.57302
000280 14 74 8a bf ad 4d cc 3e ae 11 14 c0 48 81 aa 3f
       -1.0816674 0.39903012 -2.313579 1.3320704
000290 17 5d aa 3f 52 17 aa c0 f6 f7 a4 c0 2d 2f e1 3f
       1.3309659 -5.3153467 -5.1552687 1.7592522
0002a0 62 0d bf bf 9c d1 d9 bf 26 e6 15 3f 56 ae 9f 3f
       -1.4925959 -1.7017093 0.58554304 1.2475078
0002b0 32 5a 1c 3e 4c 2a 60 3f 15 5b 15 bf 78 91 c2 3f
       0.15268782 0.8756454 -0.58342105 1.5200644
0002c0 4c 58 de bf 24 bc 1f c0 34 77 d6 40 d8 18 8b 40
       -1.7370696 -2.4958582 6.702051 4.3467827
0002d0 40 df 4d 40 42 5f c1 3e e8 11 88 40 bc 52 93 3f
       3.216751 0.37767988 4.252186 1.1509624
0002e0 15 30 25 c0 a9 fe 12 c0 a0 4a 2a 3f 28 92 53 bf
       -2.5810597 -2.2967932 0.6652012 -0.8264489
0002f0 57 3e 78 c0 66 86 46 c0 a7 f8 a3 3f 7e 1c 17 40
       -3.878805 -3.101953 1.2810258 2.361114
000300 25 5e aa bf 33 a8 83 3f 66 19 c6 c0 fe a3 5b bf
       -1.3309981 1.0285705 -6.1906004 -0.8579711
000310 4b e7 77 3f 04 ca ab 3e 54 84 aa 3f 41 8c 51 c0
       0.968373 0.33552563 1.3321633 -3.2741854
000320 37 6c 85 be 76 96 f5 c0 45 5f 35 c0 05 df e0 3f
       -0.26059124 -7.674617 -2.8339398 1.756806
000330 45 df d8 bf 9e 0e a7 3f d4 20 4f bf 1b 99 78 bf
       -1.6943136 1.3051336 -0.80909467 -0.9710862
000340 8f 49 b1 bf 8c f7 d5 bf 8f 0f 06 c0 f1 01 76 c0
       -1.3850573 -1.671617 -2.0946996 -3.8438685
000350 da a2 0d 3f 46 d5 9c 40 39 f4 19 3f 8b 4c c2 3e
       0.55326617 4.9010344 0.6013828 0.37949023
000360 5d af b7 be 17 c5 f3 bf 8b 6c 62 c0 01 57 f9 bf
       -0.3587598 -1.9044522 -3.537875 -1.9479676
000370 46 35 44 bd 6f da ce bf 42 af 00 3f d6 9f 4a c0
       -0.047902368 -1.6160411 0.5026742 -3.1660056
000380 f6 c6 28 40 12 26 a1 3f f5 0c 04 bd bb be ee be
       2.6371436 1.2589743 -0.03223892 -0.4662989
000390 20 1b c5 bd 7c 3f 01 bf 70 5d a1 3e a0 af 0f bf
       -0.09624314 -0.50487494 0.315166 -0.5612736
0003a0 bd a9 11 3f ca 3b c7 40 33 0a f8 3e 66 de 4f 40
       0.56899625 6.2260485 0.4844528 3.2479491
0003b0 99 42 40 bf d4 5c 05 bf a0 38 bf bf 0e f0 ee bf
       -0.7510162 -0.5209477 -1.4939156 -1.8667009
0003c0 3a b2 3c be 3b 1d a2 40 54 68 35 c0 20 d4 a0 bb
       -0.18427363 5.066068 -2.8344927 -0.0049081
0003d0 41 aa b4 bf 2e 6f 19 c0 d6 f2 eb 3f dc f8 47 bf
       -1.4114457 -2.3974109 1.8433483 -0.78114104
0003e0 87 32 b4 bf 29 e7 05 c0 f4 d0 0f 40 6f 8f 04 c0
       -1.407792 -2.092234 2.2471285 -2.0712545
0003f0 8a 25 b9 3f eb 08 cf be 8a 98 ef be cc a1 55 c0
       1.4464581 -0.4043649 -0.46796066 -3.3380003

bias_ih_l0 f4 [44]
000000 0b e4 71 bf a5 1e 1d 40 2d 9e 20 3e 1a e1 9d 3e
       -0.9448859 2.4549954 0.1568534 0.308358
000010 5d 15 63 3f 71 e2 0f 3f 76 9a de 3e 92 65 b3 3f
       0.8870447 0.562049 0.4347722 1.4015372
000020 0f 7d 35 3e 44 89 0c 40 03 d6 81 3f 71 b6 5c be
       0.17723487 2.195878 1.0143436 -0.21553971
000030 c9 22 ae 3f ee 8e 97 be 9e 82 46 c0 55 55 b8 bf
       1.3604366 -0.29601234 -3.1017222 -1.4401041
000040 15 38 1d 3f a4 83 53 bf 4e 23 fb be 6d dd 31 3f
       0.614137 -0.8262274 -0.49050373 0.69478494
000050 37 c6 15 3f e8 01 a7 be c8 e0 ad bd 07 a0 2b 3f
       0.58505577 -0.32618642 -0.08490139 0.6704106
000060 e6 58 84 bf fc ab 24 c0 19 6e fc bf 65 58 2a 39
       -1.033963 -2.572997 -1.9721099 0.00016245393
000070 5e 88 8c bf f7 cb c6 3f 73 f2 f1 3e d5 37 d9 3f
       -1.0979116 1.5530995 0.47255287 1.6970164
000080 4d be ed 3e 0a 86 8a 3f ef 37 47 40 0e 95 79 3f
       0.4643425 1.0822155 3.112789 0.97493064
000090 b5 95 06 40 87 06 d2 3f f5 7f aa 3f d2 8e 9c 3e
       2.1028874 1.6408242 1.3320299 0.30577713
0000a0 9d 5c 87 3d 56 e5 f7 3f 90 92 dc 3f 93 d9 b1 3f
       0.066094615 1.9366863 1.7232227 1.3894523

bias_hh_l0 f4 [44]
000000 a4 91 5e bf 4b 3d 31 40 6b bd c1 3e 31 10 1a 3f
       -0.8694098 2.769366 0.37839827 0.60180956
000010 ed 88 28 3f a9 77 32 3f a3 91 2d 3e 75 69 ae 3f
       0.6583393 0.69713837 0.16950087 1.3625933
000020 4d 11 db 3d f1 73 ee 3f a3 2f 8e 3f 73 73 7a be
       0.10696659 1.8629133 1.1108288 -0.24458103
000030 37 e3 51 3f 1f b9 1e be 59 cc 3f c0 84 61 8a bf
       0.8198733 -0.15500306 -2.9968474 -1.081101
000040 34 22 97 3f 35 40 49 bf 3a ae e8 be c3 00 91 3e
       1.1807313 -0.786136 -0.45445424 0.28320894
000050 e8 b3 60 3f 68 76 41 bc 9e 97 2b 3e be 74 ea 3e
       0.87774515 -0.011808015 0.16757056 0.45792192
000060 13 8f 99 bf 39 b9 30 c0 5c 4d d6 bf dd 1d 89 3d
       -1.1996788 -2.761305 -1.6742358 0.06695149
000070 3d f2 5f bf f4 0d dd 3f a2 88 82 3e 4b 32 cb 3f
       -0.87479 1.7269883 0.25494868 1.5874723
000080 b9 2d 28 3f a4 a7 a3 3f 6e 1a 37 40 15 a1 3e 3f
       0.6569477 1.2785535 2.8609881 0.7446454
000090 fc a1 13 40 f4 ed e5 3f 52 a5 9a 3f 46 dc fa 3e
       2.3067617 1.7963243 1.2081702 0.4899618
0000a0 43 e0 ec 3d 29 1c 16 40 d0 c3 d6 3f 03 06 c9 3f
       0.11566212 2.3454688 1.6778507 1.570496

weight_ih_l0_reverse f4 [44, 33]
000000 b3 9b 48 41 2a 43 41 c1 c6 59 09 40 80 91 16 40
       12.5380125 -12.078897 2.1461043 2.3526306
000010 04 0f 1b 40 89 66 9d c0 ae c7 52 c0 da c3 99 c0
       2.4227915 -4.9187665 -3.2934375 -4.8051577
000020 c9 df 5e be d9 24 12 41 ca 93 fe bf 48 b5 c2 3f
       -0.21765055 9.133996 -1.9888852 1.5211573
000030 dd 3d ec 3c 04 d3 bd bf 06 2f ac 40 80 74 88 c0
       0.028838092 -1.4830022 5.38074 -4.264221
000040 81 07 2c c0 1a 00 5f 40 0f 80 97 3f bf e8 59 40
       -2.687958 3.4843812 1.1835955 3.4048307
000050 66 f9 f5 bf 28 0d f8 bf 43 88 11 41 2c 42 79 40
       -1.9216735 -1.9379015 9.095767 3.8946638
000060 41 f6 c3 3f 8d 76 b0 c0 2a 3b a9 c0 34 c7 7b bf
       1.5309526 -5.5144715 -5.288472 -0.98350835
000070 f8 58 ed c0 5a 0b 81 3e 34 01 c0 c0 ba 57 17 c0
       -7.4171104 0.25203973 -6.000147 -2.3647294
000080 36 69 85 3e f7 22 0a 40 f6 d6 27 c0 30 ba 31 bf
       0.26056832 2.158384 -2.6224952 -0.69424725
000090 6b 53 17 3f e9 4f 02 c0 90 d7 fe bc 71 a8 0a 40
       0.5911166 -2.0361273 -0.031108648 2.1665308
0000a0 50 56 59 3f 6b 93 c8 bf 4e a0 5f 40 e3 0a 81 be
       0.8489733 -1.5669988 3.4941592 -0.25203618
0000b0 22 09 1d bf b4 e8 61 3f 25 f1 2a c0 00 a3 03 c0
       -0.6134206 0.882457 -2.6709683 -2.0568237
0000c0 a8 99 87 40 ed 51 b0 3f 82 f6 9c bf 1f be 05 3f
       4.237507 1.3775002 -1.2262728 0.52243227
0000d0 44 84 31 c0 6b b5 99 3f fe 66 d7 3f 66 f9 12 41
       -2.7736979 1.2008489 1.6828306 9.185888
0000e0 f7 02 7a c0 ce a5 30 c0 b4 ab 58 bf bf 3f c7 3e
       -3.906431 -2.76012 -0.84637 0.38915822
0000f0 2d b8 06 40 f9 a0 55 41 ba ae 66 41 ec 2d 70 41
       2.1049912 13.3518 14.417658 15.011211
000100 cd a2 4f 41 47 52 91 be b8 82 3d c0 ab f1 1c bf
       12.977246 -0.28383085 -2.9611034 -0.61306256
000110 8a 5b 13 c0 bb f0 1b be 81 01 d8 be 99 c0 21 40
       -2.302462 -0.1522855 -0.42188647 2.5273802
000120 8f fa f0 bf c9 01 47 40 63 c0 4c c0 d8 72 8c 3e
       -1.8826464 3.109484 -3.1992424 0.2743137
000130 f7 ed e9 3d e1 6d f7 3e 47 1c 06 40 1a ec 8e 3f
       0.11422341 0.48326018 2.095476 1.1165802
000140 ab a3 5f 40 22 36 e7 c0 d3 e1 8e c0 20 7d 80 3f
       3.4943645 -7.225358 -4.4650664 1.0038185
000150 c8 9e 1f 40 b2 1e bc 40 c7 98 ea 3f 8c ae 60 be
       2.4940662 5.878747 1.8327874 -0.21941584
000160 12 46 23 40 d7 c4 81 40 76 b7 94 40 7f c5 3e 40
       2.5511518 4.0552783 4.647395 2.9808042
000170 fc ea 15 c0 8c 79 d8 c0 23 0b e0 c0 96 0f ea c0
       -2.3424673 -6.7648373 -7.0013595 -7.3144026
000180 e6 7c 9e c0 21 f9 11 c0 9b 2a 51 bd 5d 49 55 40
       -4.9527464 -2.2808306 -0.051066022 3.3326027
000190 82 c1 2e c0 cc 12 47 bf 24 e4 c5 3d 03 07 ce 40
       -2.7305608 -0.77763057 0.09662655 6.438356
0001a0 99 c5 f3 bf 77 52 32 40 90 a8 4f 40 33 0b 73 bd
       -1.9044677 2.7862833 3.2446632 -0.059336852
0001b0 f8 14 13 c0 ec d9 cf 3f 52 84 5e c0 81 b4 99 3e
       -2.2981548 1.623838 -3.4768262 0.30020526
0001c0 f8 18 d5 3e 8e 84 63 40 26 09 78 c0 86 13 14 bf
       0.41620612 3.5549655 -3.8755584 -0.5784229
0001d0 b8 fb 97 40 7e 1b a5 3f 67 46 b9 40 e8 a5 6c c0
       4.7494774 1.2899015 5.789844 -3.697626
0001e0 0e aa 5b c0 f7 0b e6 40 9c c2 08 41 74 2b 07 41
       -3.4322543 7.1889606 8.547512 8.448109
0001f0 7d 3e 54 c0 b7 e0 42 c0 84 41 f8 bf 0e 50 d6 3f
       -3.316314 -3.0449655 -1.9394994 1.6743181
000200 d4 81 57 40 50 ac ba 40 dc 97 13 c0 6d 2a 00 bd
       3.367299 5.8335342 -2.3061438 -0.03129046
000210 bf 8c 73 be 04 26 de 3f b9 5f 07 3f 7b e9 9c 3d
       -0.23784159 1.7355351 0.52880436 0.0766172
000220 7f ee c5 be 87 28 36 bf 68 cf e9 3f b1 51 72 bf
       -0.3865852 -0.7115559 1.826642 -0.946559
000230 3c 91 12 bf 89 92 98 bf ea 2e a3 bf 16 bb 7b bf
       -0.5725286 -1.1919719 -1.2748692 -0.98332345
000240 f3 c7 67 3f 95 dc d4 bf f1 b6 ff 3d 7e 96 fc be
       0.90539473 -1.6629816 0.12486065 -0.49333566
000250 12 21 90 c0 24 4d 1f c0 f2 15 d7 3f 9f 3b 78 40
       -4.504037 -2.4890833 1.6803572 3.878639
000260 54 3b b0 bf d1 fc 44 c0 9d 96 78 bf 5a cd 73 bf
       -1.3768106 -3.0779307 -0.9710482 -0.95235217
000270 18 dd 59 bf 43 d6 5a bf aa 31 97 bf a7 28 92 bf
       -0.8510299 -0.8548319 -1.1812031 -1.1418656
000280 e8 ab bc bf 3e 31 e5 bf f6 60 06 c0 2f d0 a2 bf
       -1.4739962 -1.7905653 -2.099668 -1.2719783
000290 5c 39 76 bc de 06 03 c0 e6 89 23 c0 0a 19 24 bf
       -0.015028324 -2.0472941 -2.5552917 -0.64100707
0002a0 8f 18 82 bf 67 19 05 3f 7b 9c 2c 3f 0a 5e bd 3e
       -1.0163745 0.51991886 0.6742627 0.3698581
0002b0 55 b3 2f bf 2c 59 6d 3f 50 32 78 3f 1e e7 0c be
       -0.68633014 0.9271419 0.9695177 -0.13760039
0002c0 cc ea 9b 3c f8 63 d2 3f 45 ce f2 3e 12 61 ab 3f
       0.019032858 1.6436758 0.47422996 1.3388999
0002d0 dd 97 8e 3f 6a 46 25 40 d0 ff fe 3e d5 de e9 be
       1.1140095 2.5824227 0.49804544 -0.4567782
0002e0 9b d1 9b bf fe 59 8f 3f f4 ab 93 3e 80 23 4f c0
       -1.2173342 1.1199338 0.28842127 -3.2365417
0002f0 e4 a0 02 c0 9b 6b 85 3e e8 41 da 40 ee 52 fd 40
       -2.04107 0.2605866 6.820545 7.9163733
000300 eb 2d 6e 41 27 17 7f 41 17 f3 75 41 f4 69 dd 40
       14.88621 15.943152 15.371848 6.9191837
000310 d0 8b b7 bf ff b3 62 3e 90 81 1b 3f 3f 1c 53 be
       -1.4339542 0.22138976 0.6074457 -0.20616244
000320 ca 72 b3 bf 41 26 d4 bf e5 4d 12 40 ac 49 a0 bf
       -1.4019406 -1.6574174 2.2860043 -1.2522483
000330 c7 45 a7 c0 7a 97 62 3f 66 52 48 3f b7 45 29 40
       -5.2272677 0.88512385 0.7825073 2.64488
000340 39 8c d6 bd 47 1b ff 3e 7d e6 27 3f cb 89 76 be
       -0.10475964 0.49825498 0.6558607 -0.24076001
000350 09 51 76 bf 1f 9a f6 3f fb c1 9c bf 92 99 3e 40
       -0.962174 1.9265784 -1.2246698 2.9781232
000360 cd 39 bb 3d c0 3e f5 c0 8f 45 ea 3e 58 7b 48 3c
       0.09141884 -7.66391 0.45756194 0.012236439
000370 b7 49 61 c0 f8 c9 6d c0 35 f2 35 c0 07 ea 25 c0
       -3.5201242 -3.7154522 -2.8429081 -2.592409
000380 84 32 11 c0 30 85 0f c0 d2 0f ed bf 5f 8d a7 bf
       -2.2687082 -2.2425041 -1.8520453 -1.3090018
000390 f9 9a 0b bf 1d 52 66 c0 94 af e7 3d c4 d4 86 c0
       -0.54533345 -3.5987618 0.11312786 -4.2134724
0003a0 42 0b 79 3e be a3 8f 3f 8a 1c 34 bf 82 e7 23 40
       0.24320701 1.1221845 -0.7035605 2.561005
0003b0 27 20 08 3f e1 fd aa bd a2 91 bf bf 8d 2f 82 40
       0.5317406 -0.08349205 -1.4966319 4.0683045
0003c0 ab af 6b c0 b9 b2 1f 3f 07 5c a4 3e 1e 9b 09 c0
       -3.682597 0.62382084 0.3210146 -2.1500926
0003d0 3c 1c f9 3f cd de 9e 3d 77 3f 76 bf 12 c7 b3 be
       1.9461741 0.077573396 -0.9619059 -0.35112816
0003e0 90 43 aa 3f 4b 7a e8 bf 8e 1a 58 40 dc 1d fb 3f
       1.3301868 -1.8162321 3.3766208 1.9618487
0003f0 c2 d3 1a 3f 24 97 19 bf df 46 1d bf 05 c6 c1 be
       0.60479367 -0.5999625 -0.61436266 -0.3784639

weight_hh_l0_reverse f4 [44, 11]
000000 7a 22 29 40 89 80 02 c0 47 06 da be 59 22 4d 3f
       2.6427293 -2.0390952 -0.42582914 0.80130535
000010 1f b0 83 c0 e8 f5 39 c0 cd 31 71 bf 23 c2 4d be
       -4.115249 -2.905634 -0.94216615 -0.20093589
000020 37 e5 ed be 23 f2 64 bf e4 92 9c bf bd 63 18 40
       -0.4646394 -0.8943197 -1.2232327 2.3810875
000030 a4 d8 ca 3f 8f 3b 88 bf 45 62 51 c0 e2 aa 7c 3f
       1.5847363 -1.0643176 -3.271623 0.98698246
000040 85 17 4a bf 2f 63 b2 bf 82 e6 33 3f 5c 1a b0 c0
       -0.7894214 -1.3936518 0.702736 -5.5032177
000050 dc 74 95 bf 78 71 50 3f 12 c3 03 3e 68 ba cf 40
       -1.1676288 0.8142314 0.12867382 6.4915047
000060 a7 7f a6 bf a7 d5 2b 40 82 18 dd 40 a0 65 11 41
       -1.3007706 2.6849153 6.9092417 9.087311
000070 a7 e4 1a 40 3a ee 9e bf 8d 8c bb 3f ca d3 2e 40
       2.4202058 -1.2416451 1.4652268 2.7316766
000080 ca 82 27 bf f4 de 24 bf e8 2b 0d c0 66 7b b3 3f
       -0.65433943 -0.644027 -2.2058048 1.4022033
000090 0d 73 90 be e0 da bf bf df ff 28 3f 39 53 33 c0
       -0.28212777 -1.498867 0.6601543 -2.8019545
0000a0 a5 8f cf bf 58 a9 29 c0 5c 35 8f 3f 60 50 89 40
       -1.6215712 -2.650961 1.1188159 4.2910614
0000b0 ec d5 ba 3c 79 b4 c7 3d c1 ef 07 bf 04 37 32 be
       0.022807084 0.09751219 -0.5310021 -0.174038
0000c0 70 31 20 40 59 0a 6e 40 d7 ac 09 40 b2 58 1f 3f
       2.5030174 3.7193816 2.1511743 0.62244713
0000d0 73 0c 08 c1 31 b5 67 3f 21 5b 0e 3e d1 c7 7d 3b
       -8.503039 0.9051085 0.1390195 0.0038723836
0000e0 f1 86 61 c0 27 0a f8 3f eb 42 18 bd 8e a8 cd bf
       -3.5238612 1.9378098 -0.037173193 -1.6067064
0000f0 9f f7 6e 41 c0 86 28 3e 01 4e 44 be 6b 22 60 3f
       14.935454 0.16457653 -0.19170381 0.8755252
000100 e2 89 c7 bf 62 28 1e 3d 37 d8 55 be 0e 2d 6a bf
       -1.5588953 0.03861273 -0.2088326 -0.91475
000110 7d a8 2a bf 65 c4 41 3e f7 b8 88 40 26 ba 3b c0
       -0.6666334 0.18922575 4.2725787 -2.9332366
000120 f9 65 2b c0 4b a1 21 bf bf 50 15 41 40 c4 02 bf
       -2.678099 -0.6313674 9.332213 -0.51080704
000130 8c 47 93 bf 7f 7b 6c be 55 e5 d8 bf dd 48 5d 3f
       -1.1506209 -0.23093985 -1.6944987 0.86439306
000140 98 1e 02 3e 81 dd 23 c0 bb 66 ac 3f 66 7a 30 3f
       0.12706983 -2.5603945 1.3468851 0.68936765
000150 1d 44 c0 bf b2 cd 6f 3f 8d fb b8 c0 9c 3a 0d bf
       -1.5020787 0.9367324 -5.780707 -0.55167556
000160 bf 39 96 be d0 00 3e c0 d1 d6 b4 40 99 5a 00 40
       -0.29340932 -2.9687996 5.6512227 2.0055296
000170 f4 c1 4a c0 88 36 81 41 37 3c 8b bd ea 85 65 bf
       -3.168088 16.151627 -0.067985944 -0.8965746
000180 b7 16 52 3f 3e 48 21 c0 90 ac b7 bf 6c 62 b5 3f
       0.8206591 -2.5200343 -1.4349537 1.4170661
000190 a2 87 e6 bf 28 40 24 bf c5 ae 01 bf 37 fe db be
       -1.8010142 -0.64160395 -0.506573 -0.42967388
0001a0 7c 58 86 bf 83 17 32 bf 5a 38 b3 be fd be 58 c0
       -1.0495753 -0.69567126 -0.3500393 -3.386657
0001b0 d4 a6 06 c0 e3 0b de bc 84 2f 2d c0 aa ba 64 40
       -2.1039324 -0.027105277 -2.7060251 3.573893
0001c0 b6 9c 17 40 15 ad c7 3f 23 8e f5 bf 40 58 a2 40
       2.3689399 1.5599695 -1.9184002 5.0732727
0001d0 70 34 a8 bf 31 f8 23 40 56 86 0a 40 70 29 b3 3e
       -1.3141003 2.5620234 2.1644492 0.34992552
0001e0 2b 13 9b 3f c4 b0 54 c0 f8 6d db bf 07 20 70 3f
       1.2115225 -3.323289 -1.7142935 0.9379887
0001f0 8e 41 0d 40 4e e4 5c 40 5c d2 7f 3f b3 c6 d8 bf
       2.2071261 3.4514346 0.9993036 -1.6935638
000200 84 87 53 be e8 28 ea be 20 ad 0d bf c9 1a e2 bf
       -0.20657164 -0.45734334 -0.5534229 -1.7664424
000210 5c 8f d6 3e 19 fb af bf 44 94 d7 3f 59 cb 8f bf
       0.4190625 -1.3748504 1.6842122 -1.1233932
000220 fe d1 3d 40 d4 ce 07 41 6a 79 9c 3f f3 76 7b 3f
       2.965942 8.487995 1.2224553 0.9822838
000230 3b 2b cc bd c7 c6 69 40 cc 25 90 3f 74 7c c9 3e
       -0.09969183 3.6527574 1.1261535 0.39352763
000240 1c 94 0b 40 8f 37 04 3f ab 5e 5f 3f 65 d1 89 40
       2.1809149 0.51647276 0.87253827 4.306811
000250 fb 27 39 c0 bc 88 c8 3f c4 85 05 c0 fb 25 4d 40
       -2.8930652 1.5666728 -2.0862894 3.2054431
000260 9f ff ba bf cf bd 39 40 b1 1b d8 bc 17 02 ea be
       -1.4609259 2.90221 -0.026380392 -0.4570472
000270 4c ca ce bf 24 c6 f9 3e 64 36 1f 40 13 ec ab 3e
       -1.6155486 0.48783982 2.4876947 0.33578548
000280 b3 cd 99 3f f8 d5 3a 40 5e 56 f7 3f f8 db 0e c0
       1.20159 2.9193096 1.9323232 -2.2321758
000290 c4 eb 86 bf 26 86 2f be 98 0b 97 3d d2 77 e6 be
       -1.05407 -0.17141017 0.07375258 -0.4501329
0002a0 96 1f c6 bc df 7e 25 40 ee 0e c1 3e c3 f4 a1 3e
       -0.024184983 2.5858686 0.37706703 0.3163205
0002b0 20 ee c5 bd 49 50 2c 41 2f 72 97 bb 94 dd 22 be
       -0.09664559 10.769601 -0.004621766 -0.15904838
0002c0 c6 dd 9f 3e 5f 06 74 3e 15 ba 3a bf 6b 1e 18 bf
       0.31223887 0.23830555 -0.7294019 -0.59421414
0002d0 87 9a 81 be ae 88 3d 3f 82 25 d3 bf 3f 80 22 bf
       -0.25313208 0.7403668 -1.6495821 -0.6347694
0002e0 a2 60 a9 bf 47 7b 45 3f dd be 12 3f ef 2c ff bf
       -1.3232615 0.7714123 0.57322484 -1.9935588
0002f0 9c 5b cf 3f 51 01 cc 3e 88 58 d0 3e 85 42 5e c0
       1.6199832 0.39844754 0.40692544 -3.47281
000300 80 cd 3c 40 d2 34 b9 3f a6 37 fa 3d 23 a9 3a c1
       2.9500427 1.4469244 0.12217645 -11.666293
000310 0a 6f d5 3f 40 3a 6e 3f b4 a0 f6 be 8e f2 8c be
       1.6674511 0.9305763 -0.48169482 -0.27528805
000320 b8 59 b0 40 79 c9 c8 bf c9 46 98 3e 9f 51 38 41
       5.510952 -1.5686485 0.29741505 11.519927
000330 58 67 84 40 0c 6c 38 c0 6e 2d 89 40 3d 40 c7 40
       4.137615 -2.8815947 4.2867956 6.2265916
000340 86 58 24 40 77 1d 4f be 74 e1 a3 3e cd 2a 10 3f
       2.567903 -0.20226084 0.32007945 0.5631531
000350 d6 ef cb be 3b 27 cd 3f 5b ac f5 bf 95 c1 cc bf
       -0.39831418 1.6027597 -1.9193224 -1.5996577
000360 19 33 5b 3f 3c d0 bd be ac e4 31 40 0b 40 73 3f
       0.85624844 -0.37072933 2.779582 0.95019597
000370 d2 29 4f 3f 0f 01 bb 3d d1 d5 f8 bd b8 49 08 3f
       0.8092319 0.09131061 -0.12150157 0.53237486
000380 65 e2 1b 40 0b 7f 92 41 a6 39 a0 bf 13 14 37 3d
       2.435693 18.312033 -1.2517593 0.04469688
000390 63 28 69 3f 68 6a 33 c0 01 f9 40 be b4 f4 64 be
       0.9107725 -2.8033695 -0.18844987 -0.22358972
0003a0 69 26 87 40 96 38 9a c0 9b aa 66 3f 22 73 23 c0
       4.2234387 -4.8194075 0.90104073 -2.5539021
0003b0 d9 34 7a 3f cd d3 89 c0 5b bb 0c 40 07 8e 20 3f
       0.9773689 -4.3071046 2.1989353 0.62716717
0003c0 0c c6 eb 40 37 f0 22 3e f4 8f e3 bf 85 4a f1 3f
       7.3679256 0.15911947 -1.7778306 1.8850867
0003d0 95 1a 41 3f b9 ba c0 c0 f2 0d 5a 40 65 0d 4c be
       0.75431186 -6.0227933 3.4071012 -0.19926985
0003e0 e0 b2 b8 3f ed ae a8 3f a0 cc 7c 3f 47 39 cd 3f
       1.4429588 1.3178383 0.9874973 1.6033105
0003f0 cb 17 24 bf 57 ef 62 3e c4 2b d4 3e c4 f3 6c 3e
       -0.64098805 0.22161613 0.4143964 0.23139864

bias_ih_l0_reverse f4 [44]
000000 0e 97 95 3f f8 4f f5 3e 4d c7 e0 be 40 20 d8 be
       1.1686723 0.47912574 -0.43902054 -0.42212105
000010 31 8c 59 3f 38 e2 5f 3f ea b1 d3 3f 8c 96 73 3f
       0.8497954 0.8745456 1.653867 0.9515159
000020 53 b0 ab be 33 21 62 3f b4 48 a8 be 07 72 40 bf
       -0.33532962 0.8833191 -0.32867968 -0.7517399
000030 81 4d a4 be ac 30 52 be 21 02 dd 3f 13 52 50 40
       -0.3209038 -0.2052638 1.7266275 3.2550094
000040 44 7c af 3f 65 e9 15 40 53 97 6a 3f d6 b3 a3 3f
       1.3709798 2.3423703 0.9163715 1.2789257
000050 6f 57 6a 3f 10 d2 28 c0 81 90 2e be f7 70 f0 be
       0.91539663 -2.6378212 -0.17047311 -0.46961185
000060 60 51 7e 3e fd fa 72 bf f2 6b 2c c0 49 ec 25 c0
       0.2483573 -0.9491423 -2.6940885 -2.5925467
000070 4a 48 47 c0 64 57 8b 3f 46 2d 1f 40 75 b1 12 bd
       -3.1137872 1.0886045 2.4871383 -0.035813767
000080 5b c0 82 3f bc 70 81 bd 3b e4 12 40 29 a5 27 c0
       1.0214952 -0.063203305 2.29518 -2.6194556
000090 4f a2 cf be ca 5a da 3f b1 33 27 c0 cb 92 c5 bf
       -0.4055352 1.7058957 -2.61253 -1.5435423
0000a0 fe 9b 51 40 fd dc 2f 3f 16 e0 9f 3f 8a 94 22 3f
       3.275146 0.68696576 1.2490261 0.635079

bias_hh_l0_reverse f4 [44]
000000 ca f3 a7 3f f5 ee 13 3f 08 8b 5c bc 3c 9f b4 be
       1.3121274 0.57786494 -0.013460882 -0.35277736
000010 85 21 1d 3f 03 e4 a8 3f 95 e3 a8 3f 07 2a 6c 3f
       0.6137927 1.3194584 1.3194453 0.9225163
000020 13 c0 f0 be 9a b3 6f 3f 96 01 e0 3c e9 7a 85 bf
       -0.4702154 0.93633425 0.027344506 -1.0428134
000030 a2 5d 27 3e d1 87 99 be 3c de 0c 40 53 7c 56 40
       0.16344312 -0.29986432 2.201064 3.3513381
000040 38 53 5d 3f d1 0d 14 40 22 ab 93 3f da 3d bc 3f
       0.86455107 2.3133433 1.15366 1.4706376
000050 11 54 7c 3f bd 13 2b c0 aa 28 15 be 11 b2 14 bf
       0.98565775 -2.6730797 -0.14566293 -0.5808421
000060 5f 57 01 3f 5d 2d 9e bf 7b 3f 27 c0 bb 35 0b c0
       0.5052394 -1.2357594 -2.6132495 -2.1751544
000070 68 ef 3f c0 ca be 76 3f 75 4c 3d 40 52 30 53 3e
       -2.9989872 0.9638487 2.9577916 0.20623901
000080 28 b7 86 3f 0e 7d 8b bd f9 eb ea 3f a1 18 08 c0
       1.0524645 -0.06810962 1.8353263 -2.1265032
000090 ea 1b ce be e2 3a b4 3f 88 8d 47 c0 12 6c a4 bf
       -0.40255672 1.408047 -3.1180134 -1.284548
0000a0 10 6e 4d 40 b1 8b 2e 3f 9d 02 a3 3f ba 01 71 3f
       3.2098427 0.681819 1.2735173 0.9414326

weight f4 [12, 44]
000000 6b 5f ad c0 33 11 7b 40 ad cd 14 c0 ab 95 e9 bf
       -5.4178977 3.9229248 -2.3250535 -1.82488
000010 02 54 92 c0 51 2d 89 c0 d5 51 00 c0 61 03 e6 be
       -4.572755 -4.286782 -2.0049946 -0.44924453
000020 7c 85 2b 40 8e ad 63 40 d7 a8 50 3f 1d c1 8c c0
       2.6800222 3.557468 0.8150763 -4.3985734
000030 e9 19 5c 3f 16 3a 3f c0 41 5d 01 c0 57 fc 6e c1
       0.85977036 -2.9879203 -2.0213168 -14.936606
000040 d5 b8 90 3f 92 e2 65 c0 47 b7 bb 40 e9 d3 80 40
       1.1306406 -3.5919538 5.8661227 4.025868
000050 2f 8f 3a 3e 72 87 c0 be 3d 0e 2a c1 d7 5f 15 40
       0.18218683 -0.37603337 -10.628476 2.3339746
000060 53 78 27 40 9f de 88 be 37 be cc 3e 53 30 bc 40
       2.616719 -0.26732346 0.39988872 5.880899
000070 e1 db 01 40 da dd 85 bf b9 85 e1 bf 83 3b ba 40
       2.0290453 -1.0458329 -1.7618934 5.8197646
000080 e8 9c a5 40 bd ba d1 c0 f6 49 0d 40 91 1f 97 c1
       5.1754036 -6.554045 2.2076392 -18.890413
000090 78 c6 17 41 93 81 85 40 ca fd 9c c1 fa 85 1f 41
       9.485954 4.172067 -19.62392 9.970209
0000a0 e0 fd 03 c1 93 ea 17 41 bb f8 90 c0 a0 5d b0 41
       -8.249481 9.494769 -4.5303626 22.045715
0000b0 61 96 82 bf 92 42 76 c0 ee ea 3d be 22 ea 55 bf
       -1.0202142 -3.8478131 -0.1854665 -0.83560383
0000c0 c9 66 20 3f 9b 3c 00 bf 09 2e bf 3f 07 e2 20 bf
       0.6265684 -0.50092477 1.4935924 -0.6284489
0000d0 28 4c 41 c0 7c 50 86 bf bc 67 13 bf 62 7e 3c be
       -3.0202732 -1.0493312 -0.5758016 -0.18407586
0000e0 56 1e d6 3f 22 71 6f 3f 6c 74 b2 3e eb 84 1c 3f
       1.6728008 0.93532 0.34854448 0.61140317
0000f0 07 3e ba be b0 af 5b c0 df 64 24 40 b7 64 82 c0
       -0.36375448 -3.432598 2.5686567 -4.0747943
000100 7f 4e 47 40 17 69 27 40 47 a4 9f c0 56 0f dd 40
       3.114166 2.6157892 -4.9888034 6.908122
000110 06 4e 8e 3e e4 74 35 bf 3c b3 15 41 c6 16 b6 41
       0.27793902 -0.70881486 9.356258 22.76112
000120 0a 05 53 41 68 6e 0c 3f e0 ae 31 40 de fb 8d 40
       13.18873 0.54855967 2.7762985 4.4369955
000130 a6 05 99 40 f5 07 34 41 3d 2d 80 c0 4a 14 5b 3e
       4.7819395 11.251943 -4.0055223 0.21394458
000140 b3 40 4f c1 8f 9e 1a 41 e6 79 b6 c1 66 2e 86 c0
       -12.953296 9.663711 -22.80952 -4.193164
000150 ca a5 88 41 24 00 f0 3e a7 8e 77 3f f6 94 5f 40
       17.080952 0.46875107 0.96702045 3.4934669
000160 92 fb e3 bf 38 11 09 c0 1e 6c 78 bf 1f ac 03 c0
       -1.7811148 -2.141676 -0.97039974 -2.0573804
000170 36 e1 11 40 a5 e4 e2 3e cc 79 b4 3f 2d 66 3d 3f
       2.2793708 0.44315067 1.409967 0.7398403
000180 5b 63 91 bf a9 d0 23 c0 7e 94 93 3e 64 58 4f bf
       -1.1358446 -2.5596106 0.28824228 -0.8099425
000190 fc 81 ed 3f 68 cf 3e 3f b9 6e 02 3f cf cf a8 40
       1.8555293 0.74535227 0.509502 5.2753673
0001a0 08 f8 5c 40 60 4b 3e bf 02 02 27 c0 29 d3 9e c0
       3.4526386 -0.74333763 -2.6094975 -4.9632764
0001b0 29 9a 4d 40 63 6d 8a 40 e2 45 e1 40 5c d5 f6 40
       3.2125342 4.325853 7.0397806 7.713545
0001c0 85 03 72 c0 22 1b 0a c0 7b d5 ff 3f 4d e1 16 41
       -3.7814648 -2.157906 1.9987024 9.430005
0001d0 36 76 21 41 09 0b 3b c0 22 c1 1c 41 aa 53 91 40
       10.09136 -2.9225485 9.797152 4.541463
0001e0 19 a3 21 c0 c6 3f 44 41 dc e4 af c0 6e 2b 00 41
       -2.5255797 12.26557 -5.496687 8.010603
0001f0 42 4c 0e c1 a0 a3 80 41 7c 96 65 40 b8 5f 25 c0
       -8.893618 16.079895 3.5873098 -2.5839672
000200 64 5e 2c 41 86 23 30 3f 1b f6 2b bf 3f 02 09 bf
       10.773045 0.68804204 -0.671724 -0.5351905
000210 63 5a 8f 3e 35 56 3b c0 1c 88 f0 bf 4b aa c3 bf
       0.27998647 -2.9271367 -1.8791537 -1.5286344
000220 42 56 a8 3f 8c cc 2b 3e bd 25 3a bf 86 60 1a 40
       1.3151324 0.16777247 -0.72713834 2.4121413
000230 96 14 a2 3f ca 36 ee bf 0e 13 89 3f 5f 81 92 be
       1.2662532 -1.861047 1.070894 -0.28614327
000240 67 02 2c 3f e4 8f 68 3f ae dc 29 3f 35 ba 6f 40
       0.67191166 0.9084456 0.66352355 3.7457402
000250 17 19 8a 40 6e 13 03 c0 62 8e e9 c0 7a 3b b0 bf
       4.3155627 -2.048061 -7.2986307 -1.3768151
000260 f3 38 9d 3f ae 74 84 40 e4 53 3e 41 8a ba ba 40
       1.2283005 4.139243 11.895481 5.835271
000270 1e 33 96 c0 88 53 a1 bf 4f 4d ef be 35 db 9e c0
       -4.69374 -1.2603617 -0.4673867 -4.9642587
000280 20 02 a9 40 2a 9c 80 c0 85 bc 34 41 87 89 6c 40
       5.2815094 -4.019063 11.296025 3.695894
000290 1e 45 ea c0 15 91 2b c0 2c c7 eb c0 c2 fb 48 41
       -7.320937 -2.68073 -7.368063 12.561464
0002a0 dd 17 85 bf 59 49 3e 41 72 8f df 41 3b 6b c7 be
       -1.0397907 11.892907 27.945042 -0.38948998
0002b0 d0 9a 25 41 b8 2b 5a 3f 56 a1 e7 bf 3c 02 85 c0
       10.350296 0.8522296 -1.8096111 -4.1565228
0002c0 db 15 8d 3f 45 7a 3f 3c be e6 e8 bf eb 57 b9 bf
       1.1022295 0.011686866 -1.8195417 -1.4479955
0002d0 1d 5d 75 3f 39 b6 e8 be b0 67 d0 bf c8 d5 13 40
       0.95845205 -0.45451525 -1.6281643 2.3099232
0002e0 3d 83 b8 40 43 3f 2b 3f ca 42 12 3f 99 80 6e 3f
       5.7660203 0.66893405 0.5713316 0.93164974
0002f0 8f 3f 0b bf 63 5b aa 3e fa e5 e0 3e 54 81 ae 3f
       -0.5439386 0.33272848 0.43925458 1.3633218
000300 ce c7 7c 40 6a 3f 9e c0 7f 94 02 c1 c3 0a 1d 40
       3.949695 -4.945241 -8.161254 2.4537818
000310 3a 51 a0 bf 19 2b 7d 3f de e8 f6 40 0a 2a 7f 3f
       -1.2524788 0.98893887 7.715926 0.9967352
000320 a3 30 40 c0 b5 da 37 3f 1d 52 03 40 5a af 80 c1
       -3.0029685 0.71818095 2.0518868 -16.08562
000330 15 02 80 be bf f4 5f c0 55 24 fa 40 3c 6d 16 40
       -0.25001588 -3.499313 7.816935 2.3504171
000340 40 29 15 c1 b3 e2 55 c1 47 2a af c0 b7 c5 1e 41
       -9.322571 -13.3678465 -5.473911 9.92327
000350 ef c5 24 41 f4 2e b0 3f cb ce 2a 42 3e 61 43 40
       10.298324 1.3764329 42.701946 3.0528102
000360 94 b5 cd 40 46 64 4d 3f 6b 4d 23 c0 59 f4 b7 c0
       6.4284153 0.8023113 -2.5516002 -5.7485776
000370 8d e5 4f 3f 94 a9 a9 3f 89 44 44 bf a2 91 19 3e
       0.8120964 1.3254876 -0.76667076 0.14996961
000380 79 3c ac bd 5a 64 e5 3e df 02 db 3e 5a 17 3e 3f
       -0.08409972 0.44803125 0.42775628 0.7425438
000390 f2 be 85 40 b6 44 1c 40 25 a4 af 3d 02 90 5b 3f
       4.1795588 2.4416938 0.0857623 0.85766613
0003a0 1c 20 4b bf fa fe 4b be ea c5 84 3f 40 4d 87 3e
       -0.7934587 -0.19921485 1.0372899 0.26426125
0003b0 e0 5c 2e 40 20 d6 82 bf 26 eb f1 c0 1c 43 38 40
       2.7244186 -1.0221596 -7.5599546 2.879096
0003c0 e1 2b 34 c0 b6 c6 53 bf d4 c4 35 bd 0d 6f 83 c0
       -2.8151782 -0.82725084 -0.044377163 -4.107306
0003d0 50 df e4 be b7 5d 00 40 e4 7b 21 40 21 fb d6 c1
       -0.44701624 2.00572 2.5231867 -26.872622
0003e0 68 48 c6 c0 e9 db e0 bf bd 72 14 3e cd 18 77 be
       -6.1963387 -1.7567111 0.14496894 -0.24130554
0003f0 d5 af f8 c0 76 2e 36 c0 09 29 59 3f 2b e9 24 40
       -7.771464 -2.8465858 0.8482824 2.5767314

bias f4 [12]
000000 d8 c9 10 40 c4 09 f7 40 c9 e7 1f 40 60 be a0 bf
       2.2623196 7.719942 2.498522 -1.2558098
000010 74 f9 a3 bf 1b 12 12 bf 2f dd 9c 3f fb 3d ff 3e
       -1.2810502 -0.57058877 1.2255 0.49851975
000020 6f 19 66 c0 72 cd 72 c0 a8 e1 a1 bf 40 2f 67 bf
       -3.5953023 -3.7937894 -1.264699 -0.9030647

encoder_h_context f4 [1, 1, 22]
000000 aa 34 b4 bb 74 fd 74 3c 51 55 38 bf 13 a3 40 bf
       -0.005499442 0.014953006 -0.7200518 -0.7524883
000010 f9 2b 65 3f 3f 36 ce be 83 45 e9 bd ec 5d ba be
       0.8952022 -0.4027576 -0.113902114 -0.36399782
000020 2c 52 93 3d 69 c4 34 bd 6a 98 55 3e 4f d5 db bd
       0.071934074 -0.044132624 0.20858923 -0.10734045
000030 fe 0f dd 3e ce 72 01 3f 17 91 1e 3d f8 b0 6d bd
       0.43176264 0.50565803 0.038712587 -0.0580301
000040 a5 8e 91 3d 3d 1f 50 bd 59 17 c0 3c 1c e7 20 be
       0.071072854 -0.05081104 0.023448633 -0.15713161
000050 6f a9 a9 3d d5 ab 73 b2
       0.0828427 -1.4183532e-08
