16 Seq2Seq/num_decoder.onnx (onnx, 26966 bytes, 6 tensors)

embedding.weight f4 [12, 11]
0	0x00000000	0.0
1	0x00000000	0.0
2	0x00000000	0.0
3	0x00000000	0.0
4	0x00000000	0.0
5	0x00000000	0.0
6	0x00000000	0.0
7	0x00000000	0.0
8	0x00000000	0.0
9	0x00000000	0.0
10	0x00000000	0.0
11	0x3f800000	1.0
12	0x00000000	0.0
13	0x00000000	0.0
14	0x00000000	0.0
15	0x00000000	0.0
16	0x00000000	0.0
17	0x00000000	0.0
18	0x00000000	0.0
19	0x00000000	0.0
20	0x00000000	0.0
21	0x00000000	0.0
22	0x00000000	0.0
23	0x3f800000	1.0
24	0x00000000	0.0
25	0x00000000	0.0
26	0x00000000	0.0
27	0x00000000	0.0
28	0x00000000	0.0
29	0x00000000	0.0
30	0x00000000	0.0
31	0x00000000	0.0
32	0x00000000	0.0
33	0x00000000	0.0
34	0x00000000	0.0
35	0x3f800000	1.0
36	0x00000000	0.0
37	0x00000000	0.0
38	0x00000000	0.0
39	0x00000000	0.0
40	0x00000000	0.0
41	0x00000000	0.0
42	0x00000000	0.0
43	0x00000000	0.0
44	0x00000000	0.0
45	0x00000000	0.0
46	0x00000000	0.0
47	0x3f800000	1.0
48	0x00000000	0.0
49	0x00000000	0.0
50	0x00000000	0.0
51	0x00000000	0.0
52	0x00000000	0.0
53	0x00000000	0.0
54	0x00000000	0.0
55	0x00000000	0.0
56	0x00000000	0.0
57	0x00000000	0.0
58	0x00000000	0.0
59	0x3f800000	1.0
60	0x00000000	0.0
61	0x00000000	0.0
62	0x00000000	0.0
63	0x00000000	0.0
64	0x00000000	0.0
65	0x00000000	0.0
66	0x00000000	0.0
67	0x00000000	0.0
68	0x00000000	0.0
69	0x00000000	0.0
70	0x00000000	0.0
71	0x3f800000	1.0
72	0x00000000	0.0
73	0x00000000	0.0
74	0x00000000	0.0
75	0x00000000	0.0
76	0x00000000	0.0
77	0x00000000	0.0
78	0x00000000	0.0
79	0x00000000	0.0
80	0x00000000	0.0
81	0x00000000	0.0
82	0x00000000	0.0
83	0x3f800000	1.0
84	0x00000000	0.0
85	0x00000000	0.0
86	0x00000000	0.0
87	0x00000000	0.0
88	0x00000000	0.0
89	0x00000000	0.0
90	0x00000000	0.0
91	0x00000000	0.0
92	0x00000000	0.0
93	0x00000000	0.0
94	0x00000000	0.0
95	0x3f800000	1.0
96	0x00000000	0.0
97	0x00000000	0.0
98	0x00000000	0.0
99	0x00000000	0.0
100	0x00000000	0.0
101	0x00000000	0.0
102	0x00000000	0.0
103	0x00000000	0.0
104	0x00000000	0.0
105	0x00000000	0.0
106	0x00000000	0.0
107	0x3f800000	1.0
108	0x00000000	0.0
109	0x00000000	0.0
110	0x00000000	0.0
111	0x00000000	0.0
112	0x00000000	0.0
113	0x00000000	0.0
114	0x00000000	0.0
115	0x00000000	0.0
116	0x00000000	0.0
117	0x00000000	0.0
118	0x00000000	0.0
119	0x3f800000	1.0
120	0x00000000	0.0
121	0x00000000	0.0
122	0x00000000	0.0
123	0x00000000	0.0
124	0x00000000	0.0
125	0x00000000	0.0
126	0x00000000	0.0
127	0x00000000	0.0
128	0x00000000	0.0
129	0x00000000	0.0
130	0x00000000	0.0
131	0x3f800000	1.0

f.bias f4 [12]
0	0x405ff30e	3.49921
1	0x40a597d0	5.174782
2	0xbeb95f3d	-0.36205474
3	0xbd885545	-0.06656889
4	0x3f09da11	0.5384837
5	0xbd378564	-0.044804946
6	0xbf08d643	-0.5345194
7	0x3f33b302	0.7019502
8	0xbd495e66	-0.04916229
9	0xc07e892b	-3.977122
10	0xbffb5439	-1.9635078
11	0xbf5f1548	-0.8714185

onnx::LSTM_611 f4 [2, 88]
0	0x3f9cb095	1.2241389
1	0xbd90eaa2	-0.07076003
2	0x3cdc27e1	0.026874484
3	0x3dc07f21	0.09399248
4	0x402139be	2.5191493
5	0xc00a59cb	-2.1617305
6	0x402b5c55	2.6775105
7	0x4005c750	2.09029
8	0x3e40427b	0.1877536
9	0x4014f4c9	2.3274405
10	0xbec6d32b	-0.38832983
11	0xc018b8b5	-2.3862736
12	0x3ecc9454	0.39956915
13	0x4055447c	3.332305
14	0x3fb2ca9b	1.396808
15	0x3f60ab26	0.8776115
16	0x403e004d	2.9687684
17	0x3fd8591d	1.6902195
18	0xbe759ff6	-0.23986802
19	0x3fa2fbce	1.2733095
20	0xbf42200b	-0.75830144
21	0x3ef363d8	0.47537112
22	0x3fb2c4dd	1.3966328
23	0x3fa19996	1.2624996
24	0xbfea301b	-1.8295931
25	0xc05317b2	-3.2983212
26	0x3f3ab46c	0.7293155
27	0x404a6c8c	3.1628752
28	0xbfd8fe9d	-1.6952702
29	0x3f21e133	0.6323425
30	0x3fa423a0	1.2823372
31	0x3f18bb42	0.5966073
32	0x3f59ba05	0.8504947
33	0xbff31c31	-1.8992978
34	0xbf282859	-0.65686566
35	0xbf0ae0fd	-0.54249555
36	0xbea38a87	-0.31941625
37	0x3ffc782b	1.9724172
38	0xbf5c1bf5	-0.8598016
39	0x3fd4a2c9	1.6612178
40	0x4037007c	2.8594046
41	0x400b40d5	2.175832
42	0xbebf5049	-0.3736594
43	0xbef13e8d	-0.47118035
44	0x3f9b7868	1.214612
45	0x3e1c3d67	0.15257798
46	0x3dd58027	0.10424834
47	0x3ea75f83	0.32690057
48	0x4018e2ac	2.388835
49	0xbff12891	-1.8840505
50	0x40331043	2.7978675
51	0x40233e0e	2.5506625
52	0x3e36b6b6	0.17843136
53	0x40093e94	2.1444445
54	0xbf5b9fc9	-0.8579069
55	0xc01998e0	-2.3999557
56	0x3f1c065a	0.6094719
57	0x405677c5	3.3510602
58	0x3f9984c9	1.1993648
59	0x3f6fd55e	0.9368495
60	0x403f28d8	2.986868
61	0x3ffd67b2	1.979727
62	0xbd4a7134	-0.049424365
63	0x3f48b13e	0.7839545
64	0xbf5cd340	-0.8625984
65	0x3e9f42a1	0.3110552
66	0x3fb1628a	1.3858197
67	0x3f928a23	1.1448406
68	0xbfa05a19	-1.2527496
69	0xc062dff3	-3.5449188
70	0x3f5f248b	0.87165135
71	0x404b3d79	3.175627
72	0xbfe4dacc	-1.7879272
73	0x3f3915df	0.72299
74	0x3fc15611	1.510439
75	0x3f6f1594	0.933923
76	0x3f500b96	0.8126768
77	0xbffec9d4	-1.9905343
78	0xbf7fa1ab	-0.9985606
79	0xbf4f6cfe	-0.81025684
80	0xbee8999e	-0.454297
81	0x4001f65c	2.0306616
82	0xbf28fa7b	-0.660072
83	0x3fd17f3f	1.6366957
84	0x40218e72	2.5243192
85	0x40103e62	2.2538075
86	0xbec93535	-0.39298406
87	0xbf3062d4	-0.689008
88	0x3f752e44	0.9577372
89	0xbfa100e3	-1.2578396
90	0x3ff93f56	1.9472454
91	0x3f0cd520	0.550127
92	0xbe833e66	-0.25633544
93	0xbf0237a5	-0.50866157
94	0xbfe703a9	-1.8047992
95	0x3fa7fdc0	1.3124313
96	0xbfb0129c	-1.3755679
97	0x403ed1eb	2.9815624
98	0x3fd70ad1	1.6800176
99	0x408afa32	4.3430414
100	0x3f3d065f	0.73837847
101	0x3f89c303	1.0762638
102	0x3f5ab3bb	0.85430497
103	0x3f7ea713	0.99473685
104	0x3f1ad00f	0.6047372
105	0x3f88482a	1.0647023
106	0x3fed8013	1.855471
107	0x40186b85	2.3815625
108	0x3fe5866b	1.7931646
109	0x3ff07379	1.878524
110	0x3e3128ab	0.1730067
111	0x3f893c22	1.0721476
112	0x3ebc5a0d	0.36787453
113	0xbdb2eeed	-0.08736978
114	0xbfbbfe97	-1.468707
115	0x3f3c9df9	0.7367855
116	0x400f0a67	2.23501
117	0x3ecaa828	0.39581418
118	0x402fc603	2.7464607
119	0x3fc51df6	1.5399768
120	0xbfffca46	-1.9983604
121	0x3f980d12	1.1878989
122	0xbe9c28e8	-0.3049996
123	0x405bb8ab	3.4331462
124	0x40408dcb	3.0086544
125	0x3f399606	0.7249454
126	0xbf9c32d4	-1.2203012
127	0xbf85e043	-1.0459064
128	0x3f0b8490	0.5449915
129	0xbeb685b7	-0.3564889
130	0xbf4baaf9	-0.7955776
131	0x3f249273	0.64285964
132	0x3f7b0372	0.9805213
133	0xbfa10efc	-1.2582698
134	0x40000265	2.0001462
135	0x3ef3003f	0.47461125
136	0x3e940f47	0.28917906
137	0xbf586c1b	-0.84539956
138	0xbfe0aa11	-1.75519
139	0x3f92633d	1.1436535
140	0xbf75aaa3	-0.95963496
141	0x40557863	3.3354728
142	0x3fe4178e	1.7819688
143	0x408a002a	4.31252
144	0x3f522ba4	0.8209784
145	0x3f6d1a5d	0.9261835
146	0x3f960a01	1.1721803
147	0x3f8a5bf3	1.0809311
148	0x3e925f03	0.28588113
149	0x3f900f9e	1.1254766
150	0x3fe41352	1.7818396
151	0x401afab5	2.421552
152	0x3fce4929	1.6116077
153	0x3fff6f2a	1.99558
154	0xbeb16293	-0.3464552
155	0x3f7357f5	0.95056087
156	0x3e93d494	0.28873122
157	0xbe0e01c8	-0.13867867
158	0xbfa56d51	-1.2923986
159	0x3f15a2cc	0.58451533
160	0x3ff7b7ca	1.9352963
161	0x3f091d8f	0.5356073
162	0x4024e048	2.576189
163	0x3fbb7110	1.4643879
164	0xbfdfdcda	-1.7489274
165	0x3f49cf96	0.78832376
166	0xbdd3a240	-0.10333681
167	0x4072987d	3.7905571
168	0x404555f4	3.0833712
169	0x3f4b14a5	0.79328376
170	0xbf8ce1ba	-1.1006386
171	0xbf5ef353	-0.87090033
172	0x3f129d35	0.5727113
173	0xbe9b6006	-0.30346698
174	0xbebe3864	-0.37152398
175	0x3f8b970e	1.0905473

onnx::LSTM_612 f4 [2, 44, 33]
0	0xc055d245	-3.3409588
1	0x4094ab53	4.6459136
2	0x40acb305	5.396853
3	0x3e82bb16	0.2553336
4	0x3fa51a78	1.2898703
5	0x402e7f1f	2.7265089
6	0x3f8e6b16	1.112643
7	0xbf7a68bc	-0.9781606
8	0x40eb3262	7.3499002
9	0x3e941dcf	0.28928992
10	0xc02cdc7f	-2.700958
11	0xbf0a9e37	-0.54147667
12	0x3f05d80c	0.52282786
13	0xbee207ff	-0.44146726
14	0x3e83f8cf	0.25775763
15	0xbdfc4f10	-0.123197675
16	0xbd2240b7	-0.039612498
17	0xbdf1ab85	-0.11800293
18	0xbddde727	-0.108351044
19	0xbea9856c	-0.33109605
20	0xbe0bea76	-0.13663658
21	0xbd8626f2	-0.06550397
22	0xc07fbd91	-3.9959452
23	0x405e8f8f	3.4775121
24	0x3fbd7673	1.4801773
25	0x4024da4c	2.5758238
26	0x4080a732	4.0204096
27	0x40859012	4.1738367
28	0x40957d63	4.671556
29	0x40d2f57a	6.5924654
30	0x41043fdf	8.265594
31	0xc08a4284	-4.3206196
32	0xbdefddf8	-0.11712259
33	0xbf1b4b76	-0.6066202
34	0x3fd7063e	1.679878
35	0x410650cd	8.394727
36	0xbf198075	-0.59961635
37	0xc02b7ec7	-2.6796129
38	0x40a0569c	5.0105724
39	0xbf27ca64	-0.655432
40	0x40dc33fc	6.8813457
41	0x3f43a6be	0.76426303
42	0x3fbf87bd	1.4963299
43	0xbfe22445	-1.7667319
44	0xc097c8f3	-4.74328
45	0xbfc438f4	-1.5329881
46	0xc10db90b	-8.8576765
47	0x3e3fdc9e	0.18736503
48	0xbffc55a9	-1.9713641
49	0xc1194042	-9.578188
50	0x3cd38bcc	0.025823496
51	0x3fff89db	1.9963945
52	0x41020d4d	8.128247
53	0xc00405c7	-2.0628526
54	0xbf81a4dc	-1.0128436
55	0x3f6a0173	0.9140846
56	0x405ebb53	3.4801834
57	0x406a2313	3.6583908
58	0x3f55e2d3	0.8354923
59	0x4107af6a	8.480326
60	0x404d142a	3.2043557
61	0x40bcab98	5.8959465
62	0x3e2252ce	0.158519
63	0xbdd2fa83	-0.103016876
64	0x3ff7bc65	1.9354368
65	0x3dbcea10	0.092243314
66	0xc042c86e	-3.0434833
67	0x40a3baa2	5.1165323
68	0x40a31051	5.0957417
69	0xbec38714	-0.38188994
70	0xbfeac191	-1.8340322
71	0x4052e191	3.2950175
72	0xc014fcad	-2.327922
73	0x3fb83a75	1.439284
74	0x4003a45d	2.056907
75	0x40002b33	2.0026367
76	0x40012afc	2.0182486
77	0x3e09fb44	0.13474756
78	0xbdb51ff5	-0.08843986
79	0xc04b8fc7	-3.1806505
80	0xbff0a4f7	-1.8800343
81	0x3dc401c2	0.09570648
82	0x413f8a81	11.971314
83	0x403fc897	2.996618
84	0x3dcb12a5	0.099156655
85	0x40d14875	6.540095
86	0xbdb6459f	-0.08899998
87	0x3ed541b6	0.41651696
88	0x40624eff	3.5360715
89	0x40480602	3.1253667
90	0x40a0aa9a	5.0208254
91	0x40fc22b7	7.8792377
92	0x408803a2	4.2504435
93	0x3eab384a	0.33441383
94	0x3dbb19b2	0.0913576
95	0x3fc201ca	1.5156796
96	0x40d5acc8	6.6773415
97	0x3fdb81f5	1.7149035
98	0x39d7e1d3	0.00041176248
99	0xc0b3f529	-5.623677
100	0x3ecddb3a	0.4020632
101	0x40911cd0	4.534767
102	0xc049cc1b	-3.1530826
103	0xc023ec5e	-2.5613017
104	0x3dae41b4	0.085086256
105	0x3dc898bf	0.09794759
106	0xbfcff1b9	-1.6245643
107	0x3fae60d0	1.3623295
108	0xc0d5718b	-6.67011
109	0x3ffea244	1.989327
110	0xbf8265df	-1.0187339
111	0x3fe8a9f9	1.8176872
112	0xc09194be	-4.549407
113	0x4058cd24	3.3875208
114	0x3f21c0ae	0.6318463
115	0x3fbdcf0e	1.4828813
116	0xc06040d5	-3.503957
117	0x3ec09fe4	0.37621987
118	0x402b239c	2.6740484
119	0xbf447685	-0.76743346
120	0x407ddbc7	3.9665391
121	0x41502dd8	13.011192
122	0xc0695593	-3.645848
123	0x3f1cbd79	0.6122661
124	0xbe52de38	-0.20592582
125	0x4071ac4d	3.7761414
126	0x3e4d47e3	0.20046954
127	0x3ee9bed9	0.45653418
128	0x3f5e10ce	0.8674439
129	0x4091e8d6	4.5596724
130	0xc0cf666b	-6.481252
131	0x3e20e6a9	0.1571299
132	0xc026b68c	-2.6048918
133	0xbfb26748	-1.3937769
134	0x40805519	4.010388
135	0x3d83216c	0.06402859
136	0x3ec8f2e9	0.39247826
137	0xc07feddb	-3.9988925
138	0x3f8e4a08	1.1116343
139	0x4069ef51	3.6552317
140	0xbf03f1bf	-0.5154075
141	0xc01ce271	-2.451321
142	0x3f652e83	0.89524096
143	0x41069eab	8.413737
144	0xc046230e	-3.0958896
145	0xc0d952c0	-6.7913513
146	0x404ed5a4	3.2317896
147	0xbf4c2920	-0.7975025
148	0xbea71556	-0.32633466
149	0x3fd5c4b7	1.6700658
150	0xc09536a6	-4.662921
151	0xc02cc688	-2.6996174
152	0x3fd51394	1.66466
153	0x4034fdc8	2.8279896
154	0x40e695be	7.205779
155	0xc0ba6275	-5.8245187
156	0xc1221f52	-10.132647
157	0xbf9da4b4	-1.2315888
158	0xbf9785fc	-1.1837764
159	0x406354d5	3.5520527
160	0x3fb6ef05	1.4291693
161	0xc0a4bf16	-5.148326
162	0x404dd3ee	3.2160602
163	0x3fc3007e	1.5234525
164	0x3e327ef8	0.17431247
165	0x3fadc8ec	1.3576941
166	0xc09e6085	-4.949282
167	0xc1008ba1	-8.034089
168	0x401878b0	2.3823662
169	0xbfb9f0f0	-1.4526653
170	0xc0ab7123	-5.3575606
171	0x3ec5e723	0.38652906
172	0xbe0f2d38	-0.13982093
173	0xc0ce6b2d	-6.450583
174	0x41067aed	8.405011
175	0x40f5a4fe	7.6763906
176	0x3f817441	1.0113603
177	0x3e9eaef6	0.3099286
178	0xbf7fe8da	-0.9996468
179	0x3e6f05da	0.23342076
180	0xbf1979ad	-0.5995129
181	0x3f03ec2f	0.5153226
182	0xbf384dc1	-0.71993643
183	0xbd17bd2a	-0.037045635
184	0x3ef00575	0.46879163
185	0xbfac9f05	-1.3486029
186	0xbfd192fa	-1.6372979
187	0xbf81f933	-1.0154175
188	0xbdd4bbab	-0.10387357
189	0x3f110cd9	0.5666023
190	0x3f846fdb	1.0346636
191	0x3fc57073	1.5424942
192	0x3fd0289f	1.6262397
193	0x3ff28c37	1.894904
194	0x4012431c	2.285346
195	0x405b67f1	3.428219
196	0xbe2202e1	-0.1582141
197	0x3d76fc40	0.060299158
198	0xbeeb6afe	-0.45980066
199	0x412131b1	10.074632
200	0x409e65d1	4.9499288
201	0xc0cbe54e	-6.3717413
202	0x3f7b2dc2	0.98116696
203	0xc0972db1	-4.7243276
204	0x3f958837	1.1682194
205	0xc01b5868	-2.427271
206	0x4106c3cc	8.422802
207	0x400df23c	2.2179098
208	0xc07474c1	-3.819626
209	0xbff31329	-1.8990222
210	0xbef531b2	-0.47889477
211	0xc01821a2	-2.3770528
212	0xbf78499d	-0.96987325
213	0xbf1361fb	-0.5757138
214	0xbf6266ee	-0.8843831
215	0xbeabe23b	-0.33571038
216	0xbe5c14d2	-0.21492317
217	0xbeef55f6	-0.4674527
218	0x3fb5fa27	1.4216965
219	0x3fa4c603	1.2872928
220	0x3e554d30	0.20830226
221	0xc01c9915	-2.4468434
222	0xbff8961d	-1.9420811
223	0xbfcbcafc	-1.5921321
224	0x3f286cbd	0.6579092
225	0xbf2a38e6	-0.6649307
226	0xbd9f8546	-0.07789092
227	0xbe32cca2	-0.17460874
228	0xbfd5f318	-1.6714811
229	0xbf3662ef	-0.7124471
230	0x3e3b7d30	0.18309474
231	0x40448e88	3.0711994
232	0x40b80cb0	5.751549
233	0x3eb87f93	0.3603483
234	0xc163ab5e	-14.229338
235	0x400f6ca8	2.2410069
236	0x4052fdda	3.2967439
237	0xc197a821	-18.957094
238	0xbfbb987e	-1.4655912
239	0xc149ea06	-12.619635
240	0xc162c0bb	-14.172053
241	0x4042927f	3.0401914
242	0xbfd06e96	-1.6283748
243	0x3f70600e	0.9389657
244	0x3e4b5ab2	0.19858816
245	0x3f38a496	0.7212614
246	0xbf8935f8	-1.0719595
247	0x3ef43089	0.4769328
248	0xbede6bc1	-0.43441585
249	0x3d06b533	0.03288765
250	0xc00582f3	-2.0861175
251	0xbf43385f	-0.7625789
252	0xbf106c24	-0.5641501
253	0x3dbe8388	0.09302431
254	0x3ec684ab	0.38773093
255	0x3f2ac4e8	0.66706705

onnx::LSTM_613 f4 [2, 44, 11]
0	0xbdc18aec	-0.09450325
1	0xc03de2e6	-2.9669738
2	0xc017f9bc	-2.3746176
3	0x3ec6801f	0.38769624
4	0x4012cd06	2.2937636
5	0x3f23b3fc	0.6394651
6	0x40a5bb4f	5.179115
7	0xbde69338	-0.112585485
8	0x3f9a601a	1.2060578
9	0xbf234200	-0.63772583
10	0xc024d5eb	-2.5755565
11	0x408ba19d	4.363478
12	0x3f3696fa	0.7132412
13	0x3f2de609	0.6792913
14	0xbf73ad00	-0.9518585
15	0xc00fc7c5	-2.246568
16	0xbdc81b62	-0.09770848
17	0x3f35b5e4	0.7098067
18	0x405a8125	3.4141324
19	0xbf91392e	-1.1345575
20	0xbf7926f7	-0.9732508
21	0xbf147839	-0.57995945
22	0x3f2a9f29	0.6664911
23	0xc063d078	-3.559599
24	0xbfd13f5a	-1.6347458
25	0x3dfaddce	0.12249337
26	0x3fbd1f12	1.4775107
27	0xbf55b2d2	-0.83475983
28	0x40404b18	3.0045834
29	0x3fa5462c	1.291204
30	0xc0240bb1	-2.5632136
31	0xbf6af33c	-0.91777396
32	0xc028c23a	-2.6368546
33	0x40387111	2.881901
34	0xc09fce9d	-4.9939713
35	0xc087934e	-4.2367315
36	0x40da1c35	6.8159432
37	0x40252412	2.5803266
38	0x3f45e36e	0.77300155
39	0x3f718b4f	0.94353193
40	0x40d2cbb8	6.587368
41	0x3fd10d68	1.6332216
42	0x40d7d389	6.744572
43	0x4096c75b	4.7118354
44	0xc011fc70	-2.2810326
45	0x3ebe005f	0.37109658
46	0x3fdbe07c	1.7177882
47	0xc08a25ad	-4.317099
48	0xbf7c861c	-0.98642135
49	0x3f9c1a0e	1.2195451
50	0xc014088e	-2.3130221
51	0xc09d79b2	-4.9211054
52	0x3f501f28	0.8129754
53	0x3f7431f6	0.95388734
54	0x3f9931b1	1.196829
55	0x3f9d00bc	1.2265849
56	0xc000428c	-2.0040617
57	0xbee65d8c	-0.44993246
58	0xbeec0722	-0.46099192
59	0x3f93f770	1.1559887
60	0xbeb089c4	-0.34480107
61	0x3fb2810e	1.3945634
62	0xbfa397ee	-1.278074
63	0x404fd9dd	3.2476723
64	0xbfd439d4	-1.6580148
65	0x3f1cef2b	0.6130244
66	0x40bbc6a0	5.867996
67	0xbd4b9367	-0.04970112
68	0x3f76fce4	0.9647963
69	0x3e361f1d	0.17785306
70	0x3dee05d3	0.11622205
71	0xc097fa79	-4.7493253
72	0xc06fff47	-3.749956
73	0x3f8d0855	1.1018168
74	0xbc6706fe	-0.014100788
75	0x40b703f7	5.719234
76	0x404a7c0f	3.163822
77	0x41003e1e	8.015165
78	0x408bc67c	4.367979
79	0xbe67a1df	-0.22620343
80	0xbf4e740e	-0.80645835
81	0x3e1689bc	0.14700979
82	0xc0301515	-2.7512867
83	0xbee28b02	-0.4424668
84	0xbf4655fd	-0.7747496
85	0xbf90b5c0	-1.1305466
86	0xc06c8543	-3.6956336
87	0x3f18b276	0.5964731
88	0x40c9e942	6.309724
89	0xc0260878	-2.594267
90	0xc08ffd16	-4.4996443
91	0x3e756814	0.23965484
92	0x401f0d85	2.4852002
93	0x3f824cfc	1.0179744
94	0x40348973	2.8208892
95	0xbca03838	-0.019558057
96	0xc0a4f609	-5.1550336
97	0x3f040b5c	0.51579833
98	0xc0914567	-4.539722
99	0xc05062f7	-3.2560403
100	0x3f5ca27a	0.8618542
101	0xbe7fc9ab	-0.24979274
102	0x3e925c19	0.2858589
103	0x3e0f08c2	0.13968185
104	0x4022938c	2.5402555
105	0x3eb19338	0.34682631
106	0xbf0910a9	-0.53541046
107	0xbf50a355	-0.81499225
108	0xbf80c04b	-1.0058683
109	0xbd62ccae	-0.05537098
110	0x41557165	13.340184
111	0xbef1f114	-0.4725424
112	0xbf10e1a6	-0.5659431
113	0xbee5091d	-0.44733515
114	0x3cc1c7fd	0.023654932
115	0xc0af375b	-5.4755073
116	0xbea29caa	-0.3176015
117	0x3f326587	0.6968617
118	0x3ece3010	0.40271044
119	0x406cd6c8	3.7006092
120	0xbee3b512	-0.44474083
121	0x3fca46ef	1.5802897
122	0xc106add4	-8.4174385
123	0xc0584e54	-3.3797808
124	0xbfa2ff58	-1.2734175
125	0x3f86ae17	1.0521878
126	0x3e99d6dc	0.30046737
127	0x40096516	2.1467948
128	0x3fb7e574	1.4366899
129	0x400449d9	2.0670073
130	0xbfd4707b	-1.6596826
131	0x3fa03fe7	1.2519501
132	0x416ef7b4	14.935474
133	0xc028a51b	-2.6350772
134	0x3e6e0f94	0.2324813
135	0x40232796	2.5492911
136	0x3f4b597e	0.7943343
137	0xc0188ba0	-2.383522
138	0x40179cde	2.3689494
139	0x4016b543	2.3548133
140	0x401550bc	2.3330526
141	0xbfdf7d06	-1.7460029
142	0xbf9f512c	-1.2446647
143	0xbebb520b	-0.3658603
144	0xc0266b64	-2.6003046
145	0x4094c14d	4.6485963
146	0xc0ab203f	-5.3476863
147	0xbec411fa	-0.38294965
148	0xbfa9e61f	-1.3273352
149	0x3e3c168f	0.1836798
150	0x40d8fdbf	6.780975
151	0x3fb4cfac	1.4125876
152	0x409a2731	4.817284
153	0x3ebdacc0	0.3704586
154	0xc1187023	-9.527377
155	0xbdf5e9b7	-0.12007468
156	0x3ef69241	0.48158458
157	0xbf94886c	-1.1604133
158	0xbf0c9fb6	-0.549312
159	0x412d1f5a	10.820154
160	0x40eb2227	7.347919
161	0xbf04d9f6	-0.5189508
162	0xc0afbdb6	-5.491908
163	0xbe9d9376	-0.30776566
164	0x3f6d5476	0.92707
165	0xc081ece0	-4.0601654
166	0x40d8bc16	6.7729597
167	0x410dd071	8.863389
168	0x3f2108cc	0.6290405
169	0xbed270b4	-0.4110161
170	0xc01cf72c	-2.4525862
171	0xc0170cbe	-2.3601527
172	0x3f10de62	0.5658933
173	0xc042c9c6	-3.0435653
174	0xc0bb875e	-5.8602743
175	0x405184c5	3.2737286
176	0x406a592c	3.6616926
177	0x401aca27	2.4185884
178	0x3e85e2e2	0.2614966
179	0xbed5839c	-0.41701972
180	0xbe9f31b0	-0.31092596
181	0xc0572b1e	-3.3620067
182	0xbea70ce9	-0.32627037
183	0xbe9c3435	-0.3050858
184	0x40974d7c	4.7282085
185	0x3f9d87dc	1.2307086
186	0x3f0554ab	0.5208232
187	0xc0b4eaca	-5.653661
188	0xc0ebf4c9	-7.373631
189	0xc0276f27	-2.6161592
190	0xc01d606f	-2.4590108
191	0x3de12edb	0.10995265
192	0xc09e4684	-4.946108
193	0x4020c665	2.512109
194	0x3f895648	1.0729456
195	0xbf2948db	-0.66126794
196	0x401ff8a9	2.499552
197	0x3ffecdcc	1.9906554
198	0x41140247	9.250556
199	0xc0f0cce2	-7.52501
200	0xc0128438	-2.28932
201	0xc04a925a	-3.1651826
202	0x3fa4de0c	1.2880263
203	0xc0236b09	-2.553408
204	0x3fdabb0b	1.7088331
205	0xbfaabd8c	-1.3339095
206	0xc01971cb	-2.3975704
207	0xbfde62bc	-1.7373881
208	0xc025409d	-2.5820687
209	0x404eea32	3.2330441
210	0xc0428470	-3.0393333
211	0xbf007200	-0.5017395
212	0xbec92379	-0.39284876
213	0x405ccdef	3.4500692
214	0xbfcdf425	-1.6090132
215	0x40905501	4.5103765
216	0x3f982b0d	1.1888138
217	0x4014940d	2.3215363
218	0x40667c3f	3.6013334
219	0x3d837371	0.06418503
220	0xc0bd2a54	-5.911417
221	0xc044f2a8	-3.0773106
222	0xbe77b087	-0.24188434
223	0xbf5c10d3	-0.8596317
224	0xbe8bbc39	-0.2729204
225	0x40a7c39f	5.2426295
226	0xbf05cd53	-0.52266425
227	0x4033c035	2.8086064
228	0xc0854501	-4.1646733
229	0x414fc794	12.986225
230	0x3f0e4091	0.5556727
231	0xbfe68c2e	-1.801153
232	0xc0ac9bc4	-5.3940144
233	0xbf146fcd	-0.57983094
234	0xbf6bb5c7	-0.92074245
235	0xbf48422d	-0.78225976
236	0xbf9177d4	-1.1364694
237	0x404d0048	3.2031422
238	0x3f7d064d	0.9883774
239	0x3eb67782	0.35638052
240	0xc0513b61	-3.2692492
241	0xc07f3b7e	-3.988006
242	0x418b08c4	17.37928
243	0xc02397da	-2.5561433
244	0x3e66caee	0.22538349
245	0x3e827dd6	0.2548663
246	0x3d55da7d	0.05221032
247	0xc005952e	-2.0872302
248	0xbf7d63a7	-0.9898018
249	0xbdb6f03f	-0.08932542
250	0xbf6d1c2d	-0.9262112
251	0xc097ecc7	-4.7476535
252	0xbf0eb246	-0.55740774
253	0xc0111c03	-2.2673347
254	0x3fbbfa8e	1.4685838
255	0x3f8ee198	1.1162596

onnx::MatMul_614 f4 [44, 12]
0	0x41342fba	11.261652
1	0xbf7a08eb	-0.9766986
2	0xc09919ff	-4.7844234
3	0xc0990dbf	-4.782928
4	0xc002da40	-2.044571
5	0x3fe1bbd1	1.7635442
6	0x3fe7581c	1.8073764
7	0x403cb25e	2.9483867
8	0x401205bf	2.2816007
9	0x4098e220	4.777603
10	0xbf3075ee	-0.68929946
11	0xbe240d36	-0.16020665
12	0x408827bf	4.254852
13	0x40072492	2.111607
14	0xc0a98ab3	-5.298181
15	0xc0205047	-2.5048997
16	0xbfcff5cd	-1.6246887
17	0xc085eab7	-4.1849017
18	0xc0acd6c2	-5.4012156
19	0xc067a6ee	-3.6195636
20	0x3fcc128e	1.5943162
21	0x400a7030	2.1630974
22	0x4183fa01	16.497072
23	0xbf426051	-0.7592822
24	0x40b579b3	5.671106
25	0x4082ae45	4.083773
26	0x409e3213	4.9436126
27	0x4035bd15	2.8396657
28	0x3f9d8274	1.2305436
29	0xbeb3b7c6	-0.35101146
30	0xc045926d	-3.0870621
31	0xc086579d	-4.198195
32	0xc0054a5e	-2.082664
33	0xc0d11516	-6.533824
34	0x40279a5b	2.618796
35	0xbf679f5c	-0.9047754
36	0xc0deac92	-6.9585657
37	0x3fe73fb4	1.8066316
38	0x3fba99d0	1.457819
39	0x401dd934	2.466382
40	0x403ae18a	2.9200158
41	0x3d5aaf7f	0.053390022
42	0xc00e7798	-2.2260494
43	0xc033e1e7	-2.810663
44	0xc02c00da	-2.687552
45	0xbed6e591	-0.4197202
46	0x3fefd4a0	1.8736763
47	0x3f5c0a00	0.8595276
48	0x4032741a	2.7883363
49	0xc0a255e9	-5.072987
50	0xc06f51f5	-3.7393773
51	0x3fe936e8	1.8219881
52	0x409136f2	4.537957
53	0x40531752	3.2982984
54	0x3f4f632a	0.8101069
55	0xbf30f7f7	-0.69128364
56	0xbf975613	-1.1823143
57	0x3f73ce29	0.9523645
58	0xc05d67cb	-3.45946
59	0x3f6d7cf7	0.92768806
60	0xbfdd713c	-1.7300181
61	0xbea2daeb	-0.31807646
62	0x4059ad30	3.4011955
63	0x3eddff95	0.43359056
64	0xc05920b8	-3.392622
65	0xc024abc8	-2.5729847
66	0xbfc815c6	-1.5631645
67	0xbf532203	-0.8247377
68	0x407f1af1	3.9860194
69	0x4077ba2e	3.8707385
70	0xc0a62fe5	-5.1933465
71	0x3f6f7efc	0.9355314
72	0x3facd753	1.3503212
73	0x40782749	3.8773978
74	0x404d12c7	3.204271
75	0xc036c6a8	-2.855875
76	0xc0b77c12	-5.7338953
77	0xc029b0c4	-2.651414
78	0xbf0b4587	-0.54402965
79	0xbcaf3c7f	-0.021391151
80	0x3e18c259	0.14917888
81	0x3f9763bc	1.1827312
82	0x405e2918	3.4712582
83	0x3edb1fd0	0.4279771
84	0xc01071fa	-2.2569566
85	0x4005957a	2.0872483
86	0x407b901e	3.9306712
87	0xbd10b078	-0.035324544
88	0xc05154fa	-3.2708116
89	0xc0192b9e	-2.3932872
90	0xbfef62ca	-1.8702023
91	0xbe1f3c0f	-0.15550254
92	0x40006a07	2.0064714
93	0xbeef313a	-0.46717244
94	0x3f92ab39	1.1458503
95	0xbf4e60b3	-0.806163
96	0x40d3922c	6.6115932
97	0x3f1f58ce	0.6224488
98	0xc024aefc	-2.5731802
99	0xbf3fb769	-0.74889237
100	0xbea1c159	-0.31592825
101	0x3ed59aae	0.41719574
102	0x3fbdd88b	1.4831709
103	0x3fcd1bbe	1.6024091
104	0xbf6897bc	-0.9085653
105	0xc002d8fe	-2.0444942
106	0xbe142cdd	-0.14470239
107	0x3f184a6e	0.5948857
108	0xc0f764f6	-7.7310743
109	0xc03b6596	-2.9280753
110	0x404dd879	3.2163374
111	0x40d5dd67	6.6832767
112	0x40e98c96	7.2984114
113	0x40a7956c	5.23699
114	0x3f170e26	0.59005964
115	0xc069c77a	-3.6528
116	0xc0d4c2ba	-6.6487703
117	0xc082c575	-4.0866036
118	0xc11b6121	-9.711213
119	0xbf182da7	-0.5944466
120	0xc09c4251	-4.8830953
121	0xbdf99e0f	-0.121883504
122	0x40a3eec5	5.1228967
123	0x40d1e204	6.55884
124	0x408ec057	4.460979
125	0x400e2169	2.2207892
126	0xbecb09c9	-0.39655903
127	0xc06d2397	-3.7052972
128	0xc08e0439	-4.4380155
129	0xc061a04f	-3.5254095
130	0xc0f970b6	-7.7950087
131	0x3ed0b2de	0.40761465
132	0xc0494f76	-3.145475
133	0x4051a9bb	3.2759845
134	0xbf6bb3d7	-0.9207129
135	0xc02cb104	-2.6983042
136	0xbfcbdb72	-1.5926344
137	0xbf8f220f	-1.1182269
138	0x3f6f35db	0.9344155
139	0xbe13c3d5	-0.14430173
140	0xbdd7d339	-0.105383344
141	0x3ede123e	0.43373293
142	0x40d06a27	6.512958
143	0xbcdad0a5	-0.026710818
144	0xbfa1823d	-1.261787
145	0xbf4134f2	-0.75471413
146	0x3e4d7ce3	0.20067172
147	0x3f280528	0.6563287
148	0x3eb06570	0.3445239
149	0x3f0e7f92	0.55663407
150	0x3f26f132	0.65211785
151	0x3f9edafc	1.2410579
152	0xbebe4589	-0.37162426
153	0xc03b5583	-2.9270942
154	0x3d935192	0.07193293
155	0xbf0bf0b8	-0.5466418
156	0x40174d73	2.3641021
157	0xc082b8f7	-4.0850787
158	0xbfb5751b	-1.4176363
159	0x3fea1344	1.8287129
160	0x402eac6b	2.7292736
161	0x3fcebbf9	1.6151115
162	0xbeb51e22	-0.35374552
163	0xbf84608f	-1.0341967
164	0xbe5f6cf1	-0.21818902
165	0x405cfd93	3.452977
166	0xc055c381	-3.3400576
167	0xbeeac6ef	-0.458549
168	0x3e7b24d7	0.24525772
169	0xbf001d8c	-0.50045085
170	0xbf4c2787	-0.79747814
171	0x3fbbb5de	1.4664876
172	0x4012b6b4	2.2924013
173	0x3f35fe04	0.7109072
174	0xbf21dccb	-0.6322753
175	0xbfa90442	-1.3204424
176	0xbf616235	-0.8804048
177	0x3ebed010	0.37268114
178	0xbed68d88	-0.41904855
179	0x3d91115f	0.070833914
180	0x3da9084e	0.08253537
181	0x3f2aaa39	0.6666599
182	0x3f0f74d0	0.56037617
183	0x3f479c79	0.77973133
184	0x3e3bc0ce	0.18335268
185	0xbfe6c2ba	-1.8028176
186	0xbfe79a73	-1.8094009
187	0xbf9ad76a	-1.2096989
188	0x3e492357	0.19642387
189	0x3f9b3362	1.2125056
190	0x3f8801a7	1.0625504
191	0x3f209536	0.6272768
192	0xbf02dc25	-0.51117164
193	0x3f56b3c0	0.83868027
194	0xc0041a76	-2.064115
195	0xbff5e93d	-1.9211804
196	0xbf5fa018	-0.8735366
197	0x3f4481e1	0.7676068
198	0x3fee1a32	1.8601744
199	0x3f66805e	0.9003962
200	0x3db77b0a	0.08959015
201	0x3f44e5be	0.7691306
202	0x3f7143ec	0.94244266
203	0x3edb94da	0.42887002
204	0xc060f610	-3.5150185
205	0x3f255ff9	0.6459957
206	0xbf922ae9	-1.1419345
207	0xc0148890	-2.320835
208	0xc01ee2e3	-2.482598
209	0xc02c037b	-2.6877124
210	0xbfea7d61	-1.8319513
211	0x3f001bcc	0.50042415
212	0x404a20da	3.158255
213	0x407e02de	3.968925
214	0x4039f356	2.905477
215	0xbeb5df9e	-0.3552217
216	0xc0051645	-2.0794842
217	0xbfe1eb48	-1.7649927
218	0xc0308c58	-2.758566
219	0xbfeeb30b	-1.864839
220	0xbe44185d	-0.19149919
221	0x3f0f5a68	0.55997324
222	0x3fcbe2a4	1.592854
223	0x3feb02d8	1.8360243
224	0x3fc29a06	1.5203254
225	0x3f9376de	1.152065
226	0xbe9e2f97	-0.30895683
227	0x3edb0c2c	0.42782724
228	0xc0963615	-4.694102
229	0x40715712	3.7709394
230	0xbf1f57db	-0.6224343
231	0xbfd58f9f	-1.6684455
232	0xbfe379c5	-1.7771536
233	0xc09188fb	-4.5479712
234	0xc0ad304b	-5.412145
235	0xc03872c5	-2.882005
236	0x402c516f	2.6924703
237	0x40bd14ef	5.9088054
238	0x409782d5	4.7347207
239	0xbf5cf459	-0.86310345
240	0x3f9b4b37	1.2132329
241	0x3f3d8fde	0.7404765
242	0x3f8cf3b1	1.1011869
243	0xbe5f031f	-0.21778534
244	0xbf7890d3	-0.97095984
245	0x3b8386f8	0.0040138923
246	0x3f1d6d5d	0.61495
247	0x3f134f09	0.57542473
248	0x3c5faf18	0.013652585
249	0xbf7d03cf	-0.98833936
250	0xbf790d43	-0.9728586
251	0xbeea094d	-0.4571022
252	0x3f03c549	0.5147291
253	0xbf26fb4d	-0.65227205
254	0x3f8d914c	1.1059966
255	0x3ef5acd4	0.4798342
