07 titanic/titanic.pt (torch, 4424 bytes, 6 tensors)

weight f4 [8, 9]
1.0690442 0.34092614 0.36863717 -0.72421604 -1.5028214 0.8141323 -2.7111928 -0.126091
1.8656838 0.06850097 0.2115906 -0.9448151 -0.07239812 -0.5989005 0.67623675 -0.19356024
-0.2392494 0.6756368 1.2044752 0.22713655 0.22086945 -0.7157281 -1.1958039 0.5557823
-2.1323423 -0.25190514 1.9747008 -0.2635687 -0.44356647 -0.036509532 -0.030106643 -0.38101578
0.2797682 -0.035326537 -0.09546909 0.24083455 -2.045909 -0.9818778 -0.9475963 0.36956444
3.8597553 -3.1826618 0.78841627 1.0299232 -0.99550116 -1.0251163 -0.43955 0.90552795
0.095962554 0.65987873 -1.3122308 0.933576 0.42685094 -1.8091148 1.6154238 -1.4058601
-0.13211146 -0.26673225 -2.0115163 1.105572 -1.5916771 0.0841177 1.1880174 -0.7056325
-0.48710087 0.32084695 0.09656742 0.6474173 -0.5327308 1.1637875 0.12190525 -1.3010191
00000000: 71d6 883f df8d ae3e 03be bc3e 3966 39bf
00000010: 745c c0bf f96a 503f 2f84 2dc0 001e 01be
00000020: bace ee3f 3d4a 8c3d 35ab 583e 67df 71bf
00000030: 7745 94bd 8b51 19bf da1d 2d3f a834 46be
00000040: cbfd 74be 89f6 2c3f 3e2c 9a3f 7c96 683e
00000050: 9a2b 623e f539 37bf 1a10 99bf c047 0e3f
00000060: 4c78 08c0 b6f9 80be ffc2 fc3f 7af2 86be
00000070: 251b e3be 058b 15bd 35a2 f6bc 8014 c3be
00000080: c73d 8f3e 8fb2 10bd 4c85 c3bd 559d 763e
00000090: 2cf0 02c0 585c 7bbf ac95 72bf 8d37 bd3e
000000a0: 3b06 7740 bbb0 4bc0 a6d5 493f 86d4 833f
000000b0: 2ad9 7ebf 0337 83bf b30c e1be aed0 673f
000000c0: 0488 c43d d0ed 283f 2ef7 a7bf d6fe 6e3f
000000d0: 358c da3e 1391 e7bf 35c6 ce3f 39f3 b3bf
000000e0: 3a48 07be 2191 88be afbc 00c0 6283 8d3f
000000f0: 13bc cbbf e745 ac3d f410 983f 55a4 34bf
00000100: 4965 f9be 0d46 a43e 24c5 c53d 24bd 253f
00000110: 0c61 08bf fdf6 943f 76a9 f93d cb87 a6bf

bias f4 [8]
-0.75825256 0.23326547 -0.6616255 -0.544877 0.46938252 -0.26734307 -0.6774555 -0.05818983
00000000: d71c 42bf 25dd 6e3e 4a60 29bf 0f7d 0bbf
00000010: e852 f03e 31e1 88be b96d 2dbf 7658 6ebd

weight f4 [4, 8]
1.3026706 0.26383805 1.2867336 -0.011258974 -2.4715302 -0.899096 1.45527 -0.6576189
1.1953988 1.1032043 1.1438768 0.08099124 -2.107148 -1.3232079 1.6428981 -0.81222385
2.1389766 -0.3594957 1.5567368 0.07908823 -3.4847445 -1.0732806 1.2106506 -1.0196811
1.5450774 0.86678773 1.4166583 0.18100604 -2.3053715 -1.2966053 1.511843 -0.78780043
00000000: e9bd a63f c815 873e b0b3 a43f 8f77 38bc
00000010: 8d2d 1ec0 282b 66bf 4a46 ba3f b659 28bf
00000020: d402 993f cc35 8d3f 8e6a 923f bcde a53d
00000030: 83db 06c0 e05e a9bf 7c4a d23f e7ed 4fbf
00000040: fee4 0840 d20f b8be 2743 c73f 03f9 a13d
00000050: 0e06 5fc0 4261 89bf 99f6 9a3f e984 82bf
00000060: 19c5 c53f cde5 5d3f 0f55 b53f a659 393e
00000070: 358b 13c0 2af7 a5bf 1284 c13f 4aad 49bf

bias f4 [4]
-0.674089 0.24826989 -1.1137954 0.035587545
00000000: 1991 2cbf 763a 7e3e d990 8ebf 3fc4 113d

weight f4 [2, 4]
2.6327949 2.7376382 4.326075 2.9861958 -2.7669392 -2.5922954 -4.0216374 -3.3938925
00000000: b67f 2840 7735 2f40 356f 8a40 d51d 3f40
00000010: 8815 31c0 2be8 25c0 41b1 80c0 8935 59c0

bias f4 [2]
-5.2580905 5.1768403
00000000: 4742 a8c0 ada8 a540
