04 titanic/titanic.pt (torch, 4424 bytes, 6 tensors)

weight f4 [8, 9]
-0.45310086 -0.25111574 -0.30853865 0.65973127 1.3984632 -1.2175225 0.91433966 0.21113801
-0.84996307 -0.37674582 -0.24703194 -0.15700562 0.3861973 0.8369698 -1.1721175 0.9093959
0.4074433 -0.7067946 -0.46864322 -0.22216971 -0.3447692 0.16167635 1.6390584 -1.3581383
1.1923939 0.17687796 -1.0249957 0.12738173 0.2953055 -0.041213766 -0.5179166 -0.26444817
0.7078981 -0.56516916 -0.2785103 0.618281 0.18128978 0.27186534 -0.16508093 -0.30556214
-0.77263784 0.9754046 -0.76093686 0.1257089 0.5738761 0.04347589 -0.11007907 0.03260446
-0.06776271 -0.67876595 0.9716121 -0.50262684 0.054711934 0.98343194 0.16331378 0.051841572
-0.14958227 -0.3961652 -0.76739013 0.7484236 -0.7844197 0.024538597 0.7698558 0.056341387
-0.19745573 0.11814436 -0.017182298 0.47766933 -0.67336464 0.6755367 0.14407097 -0.83830357
00000000: d6fc e7be 3e92 80be c7f8 9dbe 26e4 283f
00000010: d800 b33f c7d7 9bbf 2a12 6a3f 9034 583e
00000020: 2e97 59bf d4e4 c0be f1f5 7cbe 15c6 20be
00000030: a7bb c53e a743 563f f207 96bf 2bce 683f
00000040: 699c d03e 7ef0 34bf 01f2 efbe 7580 63be
00000050: 9785 b0be 7c8e 253e aacc d13f 7ad7 adbf
00000060: 5da0 983f 7f1f 353e 0f33 83bf 5b70 023e
00000070: 4832 973e c4cf 28bd 2f96 04bf c065 87be
00000080: cf38 353f edae 10bf e798 8ebe aa47 1e3f
00000090: 07a4 393e ef31 8b3e fa0a 29be a472 9cbe
000000a0: 98cb 45bf 1eb4 793f c2cc 42bf d5b9 003e
000000b0: 8be9 123f c613 323d 2371 e1bd 418c 053d
000000c0: 2dc7 8abd 9bc3 2dbf 92bb 783f 27ac 00bf
000000d0: 9f19 603d 32c2 7b3f ba3b 273e d457 543d
000000e0: 182c 19be 2ad6 cabe ae73 44bf b098 3f3f
000000f0: bbcf 48bf 2b05 c93c 4515 453f 3ac6 663d
00000100: d631 4abe acf5 f13d e4c1 8cbc 1391 f43e
00000110: a061 2cbf f9ef 2c3f 5787 133e 109b 56bf

bias f4 [8]
0.03469925 0.064528316 0.10939646 0.026743297 -0.16964048 -0.031454176 0.2153458 0.08111018
00000000: cd20 0e3d 6c27 843d 400b e03d c214 db3c
00000010: 3cb6 2dbe 18d6 00bd 9c83 5c3e 181d a63d

weight f4 [4, 8]
-2.2001693 -1.6333174 -2.584694 1.1680981 1.5329471 1.2030474 1.2968196 -0.8358934
0.25011495 -0.27452332 0.037433032 0.23423435 0.2830861 -0.28663775 0.25766125 -0.24954247
0.5440252 0.22859047 0.864017 -0.22933953 0.0766333 -0.43841314 -0.1262003 0.5573379
-1.3961675 -1.2155825 -1.5010122 0.5113178 0.9013097 1.1637287 1.1594315 -0.8388882
00000000: 93cf 0cc0 8b10 d1bf a06b 25c0 3d84 953f
00000010: 9c37 c43f 75fd 993f 2ffe a53f 1cfd 55bf
00000020: 110f 803e 528e 8cbe 6153 193d 21db 6f3e
00000030: a9f0 903e 2fc2 92be 2dec 833e 1088 7fbe
00000040: 3c45 0b3f 9f13 6a3e 3830 5d3f fbd7 6abe
00000050: ebf1 9c3d b077 e0be a73a 01be b2ad 0e3f
00000060: 9eb5 b2bf 3598 9bbf 2b21 c0bf b9e5 023f
00000070: 3cbc 663f 10f5 943f 4068 943f 61c1 56bf

bias f4 [4]
0.42497742 0.16551477 0.026541235 0.075252414
00000000: a496 d93e b47c 293e 016d d93c f01d 9a3d

weight f4 [2, 4]
4.5547166 -0.37632895 -1.3038573 2.3561034 -4.2838717 0.116918445 1.208531 -2.4961436
00000000: 3dc0 9140 30ae c0be cce4 a6bf 66ca 1640
00000010: 7a15 89c0 f072 ef3d 25b1 9a3f d1c0 1fc0

bias f4 [2]
-1.7618288 1.900845
00000000: 9b83 e1bf e44e f33f
