16 seq2seq_new/add_ai.pt (torch, 11145 bytes, 12 tensors)

weight f4 [12, 11]
00000000: 0000 0000 0000 0000 0000 0000 0000 0000
00000010: 0000 0000 0000 0000 0000 0000 0000 0000
00000020: 0000 0000 0000 0000 0000 0000 0000 803f
00000030: 0000 0000 0000 0000 0000 0000 0000 0000
00000040: 0000 0000 0000 0000 0000 0000 0000 0000
00000050: 0000 0000 0000 0000 0000 0000 0000 803f
00000060: 0000 0000 0000 0000 0000 0000 0000 0000
00000070: 0000 0000 0000 0000 0000 0000 0000 0000
00000080: 0000 0000 0000 0000 0000 0000 0000 803f
00000090: 0000 0000 0000 0000 0000 0000 0000 0000
000000a0: 0000 0000 0000 0000 0000 0000 0000 0000
000000b0: 0000 0000 0000 0000 0000 0000 0000 803f
000000c0: 0000 0000 0000 0000 0000 0000 0000 0000
000000d0: 0000 0000 0000 0000 0000 0000 0000 0000
000000e0: 0000 0000 0000 0000 0000 0000 0000 803f
000000f0: 0000 0000 0000 0000 0000 0000 0000 0000
00000100: 0000 0000 0000 0000 0000 0000 0000 0000
00000110: 0000 0000 0000 0000 0000 0000 0000 803f
00000120: 0000 0000 0000 0000 0000 0000 0000 0000
00000130: 0000 0000 0000 0000 0000 0000 0000 0000
00000140: 0000 0000 0000 0000 0000 0000 0000 803f
00000150: 0000 0000 0000 0000 0000 0000 0000 0000
00000160: 0000 0000 0000 0000 0000 0000 0000 0000
00000170: 0000 0000 0000 0000 0000 0000 0000 803f
00000180: 0000 0000 0000 0000 0000 0000 0000 0000
00000190: 0000 0000 0000 0000 0000 0000 0000 0000
000001a0: 0000 0000 0000 0000 0000 0000 0000 803f
000001b0: 0000 0000 0000 0000 0000 0000 0000 0000
000001c0: 0000 0000 0000 0000 0000 0000 0000 0000
000001d0: 0000 0000 0000 0000 0000 0000 0000 803f
000001e0: 0000 0000 0000 0000 0000 0000 0000 0000
000001f0: 0000 0000 0000 0000 0000 0000 0000 0000
00000200: 0000 0000 0000 0000 0000 0000 0000 803f
0.0 0.0 0.0 0.0 0.0 0.0 0.0 0.0
0.0 0.0 0.0 1.0 0.0 0.0 0.0 0.0
0.0 0.0 0.0 0.0 0.0 0.0 0.0 1.0
0.0 0.0 0.0 0.0 0.0 0.0 0.0 0.0
0.0 0.0 0.0 1.0 0.0 0.0 0.0 0.0
0.0 0.0 0.0 0.0 0.0 0.0 0.0 1.0
0.0 0.0 0.0 0.0 0.0 0.0 0.0 0.0
0.0 0.0 0.0 1.0 0.0 0.0 0.0 0.0
0.0 0.0 0.0 0.0 0.0 0.0 0.0 1.0
0.0 0.0 0.0 0.0 0.0 0.0 0.0 0.0
0.0 0.0 0.0 1.0 0.0 0.0 0.0 0.0
0.0 0.0 0.0 0.0 0.0 0.0 0.0 1.0
0.0 0.0 0.0 0.0 0.0 0.0 0.0 0.0
0.0 0.0 0.0 1.0 0.0 0.0 0.0 0.0
0.0 0.0 0.0 0.0 0.0 0.0 0.0 1.0
0.0 0.0 0.0 0.0 0.0 0.0 0.0 0.0
0.0 0.0 0.0 1.0

weight_ih_l0 f4 [11, 11]
00000000: ed8e 663f 7d55 7f3f b98c 813f ad62 7a3f
00000010: b272 733f 4531 7b3f e242 683f 0aaf 673f
00000020: 89b3 683f 19ff 7b3f 4504 24bf 770d 2b3f
00000030: 894d e93e 7e91 353e 499e e6bc 3aa2 57be
00000040: 7833 53be 7e7c dcbe 4e29 f6be 5787 00bf
00000050: 8b18 863f ad24 febf e50e 6dbf bd56 76bf
00000060: 0723 79bf 0f9e 80bf 65f5 84bf 407f 86bf
00000070: 26e6 89bf f566 8ebf d254 8dbf 2e55 6bbf
00000080: 1e90 34c0 e214 203f 8523 293f 31fa 183f
00000090: f4ef 353f 4bbc 303f 8d9d 333f b29f 2a3f
000000a0: 7337 2d3f dcdb 413f eb7f 043f f10e c5bf
000000b0: e1b7 c8bf d698 87bf 49f4 3dbf 4db5 cbbe
000000c0: 5732 e9bd 5bba 633e de9a c93e 5160 d53e
000000d0: 2cae 133e f09b 33bf b8a6 5c3f 6291 0840
000000e0: ee8d 3d3f 6978 a83e 9043 c33d 5e77 5abd
000000f0: e7ac 96be 4c8f 89bf 0ec6 e6bf 8462 3dc0
00000100: ffce 863f c187 edbd 4e02 33bf 6472 32bf
00000110: 2db5 1abf a5cb 03bf d97f 27bf ea0e dbbe
00000120: 068b be3d bdf5 033f 37ff c53f 6e54 0fbf
00000130: 81da 39bf 8f6f 04bf 6bfa 04bf fd07 06bf
00000140: d0c2 06bf 2913 0bbf af49 09bf 898d 01bf
00000150: ccbf 04bf abc3 0bbf b23e efbe fb44 d0bf
00000160: dd58 1140 96aa 1040 8c0f 1940 2049 1440
00000170: a75e 1140 dc7c 1340 e2c2 1740 cc2e 1840
00000180: 41a8 1540 40f9 1040 6eda fabe fde6 20c0
00000190: 4f4e cdbf aa73 80bf c5ce 28bf d883 a8be
000001a0: 6379 be3c f594 9e3e 1176 a83f e1f2 4d3f
000001b0: 9975 8fbf be01 7e3f a92c 413d 8f9e 13be
000001c0: 53f8 76be 2bc4 05bf aafc 4cbf 80be 95bf
000001d0: 3ff2 a9bf 5c80 e5bf 684d 40c0 9f99 9cbe
000001e0: 29e4 44bf
0.9006184 0.9973982 1.012107 0.9780682 0.95096886 0.98122054 0.90727055 0.90501463
0.9089895 0.98436123 -0.64069015 0.6681742 0.45566967 0.17731282 -0.028151648 -0.21057978
-0.20625103 -0.4306373 -0.48078388 -0.5020651 1.047624 -1.9854943 -0.9260085 -0.962261
-0.9731907 -1.0048236 -1.0387388 -1.0507584 -1.0773361 -1.112517 -1.104151 -0.9192685
-2.8212962 0.62531865 0.66069824 0.5975676 0.71069264 0.6903731 0.7016228 0.66649926
0.67662734 0.75726104 0.5175769 -1.5395185 -1.5681115 -1.0593517 -0.74200875 -0.3978676
-0.11386555 0.22239058 0.39375967 0.41675046 0.1442191 -0.70159817 0.8619189 2.1338735
0.7404469 0.32904366 0.09534371 -0.053336494 -0.2942879 -1.0746856 -1.8029191 -2.959138
1.053192 -0.11598159 -0.6992539 -0.69705796 -0.604327 -0.5148261 -0.65429455 -0.42784816
0.0930386 0.5154684 1.546851 -0.55988204 -0.72599036 -0.51732725 -0.5194461 -0.5235594
-0.5264101 -0.5432611 -0.5362806 -0.5060659 -0.5185516 -0.5459544 -0.4672752 -1.6271051
2.2710488 2.2604117 2.391574 2.3169632 2.2714021 2.3044958 2.3712697 2.3778563
2.3383944 2.265213 -0.48994774 -2.5140984 -1.6039523 -1.0035298 -0.65940505 -0.3291309
0.023251241 0.3097302 1.3161031 0.8044873 -1.1207763 0.9922141 0.047161732 -0.14415954
-0.24118166 -0.52252454 -0.80073035 -1.1698761 -1.3277053 -1.7929797 -3.0047245 -0.30585954
-0.76910645

weight_hh_l0 f4 [11, 11]
00000000: 55ed 01bf f7e4 3dbf cdef f2bf 0cd6 86be
00000010: c5cc 95be d739 153f ffc4 4c3f c04a 20bf
00000020: d026 583f 7315 c23e 0e51 8a3f 783e 863e
00000030: 1a0f 96be 8d04 aebf 508f 15bd 11f0 b9bb
00000040: 7ea3 673e 9ba2 81bf 8bbc f5be a52b 28bf
00000050: b2f5 7f3f 0cd8 b33e 4c27 3d3e 12c6 a63e
00000060: 4083 3f3f f0a4 a8be e9f7 f9be c4f2 69be
00000070: 4a6f 45be b5be 533f bc95 56bd a36c 0dbf
00000080: 2deb f93e 0e16 4dbf 147b b5be 351d 90be
00000090: 5d3d d6be 8cd0 993e 2bdb e53e dc6c d0be
000000a0: 6f2d bbbf e889 4b3f ba29 7f3e e32b dc3e
000000b0: 88be 903d 437d f2bd e71b e73c e48b a3bf
000000c0: 0de6 aabe 101b e93e 55cc 573f b1b9 47bf
000000d0: 1ee5 27bf 4dce 1ebe eaad d4bd d487 ab3f
000000e0: 9368 19c0 2c35 593e e33f a7bf 5163 0c40
000000f0: c344 3740 1b50 2040 ca9f 773e e27f dabf
00000100: 40c7 37bf 304c 8f3e 4f3a 6abe 8cc9 30bf
00000110: b0c6 9d3f c657 0f3d 1f4d 403f 8e2e 413f
00000120: bc1a 34be 7abd 493e 530a 5dc0 1be0 2a3e
00000130: 5328 4b3f eb49 153f a1fc 3ebf 8925 1bbf
00000140: 9f9d 823e 956c 62bd c022 483f 79b5 16bf
00000150: 01cf 85bf 3415 79bf 6641 43be f987 ef3d
00000160: 2e9a af3e 6ab8 31be 8049 c2bf 9a30 153e
00000170: 1585 9d3e a73a a43d 53a6 df3e 3cf3 993f
00000180: f906 123f 17a5 13be 9a7c 053f dc06 ff3d
00000190: 3aaf 82be bdf3 88bf 1469 9c3f 4548 68bf
000001a0: 9f1e 1abf d0a1 20bf 905f 7c3e 053c ed3f
000001b0: b2b0 c93d 1e0a 73be add9 413d b676 c5be
000001c0: dd49 f3bc c4c9 56bf e105 cb3e c25d dfbe
000001d0: a13d f83e 4654 2ebf 392d b4bf 5d74 1c3e
000001e0: de6f 04bf
-0.50752765 -0.741775 -1.8979431 -0.2633518 -0.2925779 0.5829138 0.7998809 -0.6261406
0.84434223 0.3790699 1.0805986 0.26219535 -0.29308397 -1.3595139 -0.036513627 -0.00567437
0.22620961 -1.0127748 -0.4799541 -0.65691596 0.99984276 0.35125768 0.18472022 0.3257299
0.74809647 -0.32938337 -0.48821953 -0.22846514 -0.19280735 0.8271287 -0.05238889 -0.5524389
0.48812237 -0.8011178 -0.35445464 -0.28147283 -0.4184369 0.3004192 0.44893774 -0.40708053
-1.462324 0.79507303 0.24918261 0.43002233 0.07067591 -0.11840298 0.028211547 -1.2777066
-0.3337864 0.4552846 0.8429616 -0.7801772 -0.6558398 -0.15508385 -0.10384734 1.3400826
-2.3970077 0.2121169 -1.3066372 2.1935618 2.863572 2.5048892 0.24182048 -1.7070277
-0.71788406 0.27987814 -0.22873805 -0.69057536 1.232626 0.034995817 0.7511768 0.7546166
-0.17588323 0.19701186 -3.4537551 0.16687052 0.79358405 0.58315915 -0.7460423 -0.6060415
0.2551088 -0.055279333 0.78178024 -0.58870655 -1.0453798 -0.9729798 -0.19067916 0.116958566
0.34297317 -0.17355505 -1.517868 0.14569321 0.30765596 0.080189995 0.43681583 1.2027354
0.5704189 -0.14418446 0.5214325 0.1245248 -0.25524312 -1.0699383 1.2219567 -0.90735275
-0.60202974 -0.62746906 0.24645829 1.8533942 0.09848155 -0.23734328 0.047326732 -0.38567132
-0.029698307 -0.8390162 0.39652923 -0.4362622 0.4848452 -0.6809734 -1.4076301 0.15278764
-0.51733196

bias_ih_l0 f4 [11]
00000000: 3c82 52bb 37a9 233f 62d9 c03e 63da f23e
00000010: ce7d a13e f2b7 99bd 77bd efbc 1477 213f
00000020: 693a 3a3c 345b 073d e691 2f3d
-0.0032121083 0.63930076 0.3766585 0.4743224 0.31541294 -0.07505788 -0.029265149 0.63072324
0.011366465 0.033045962 0.04286375

bias_hh_l0 f4 [11]
00000000: f02e 1abe c476 e93e 1aa9 ba3e 1ff9 403e
00000010: 0d85 3d3e 8402 75be e4b0 d5be d4c2 ca3d
00000020: 9aeb 21bd b1ea a23e a923 7e3e
-0.15056968 0.45598423 0.3645714 0.18845032 0.18507786 -0.23926741 -0.4173652 0.09900442
-0.039531328 0.3181968 0.24818291

weight f4 [12, 11]
00000000: 0000 0000 0000 0000 0000 0000 0000 0000
00000010: 0000 0000 0000 0000 0000 0000 0000 0000
00000020: 0000 0000 0000 0000 0000 0000 0000 803f
00000030: 0000 0000 0000 0000 0000 0000 0000 0000
00000040: 0000 0000 0000 0000 0000 0000 0000 0000
00000050: 0000 0000 0000 0000 0000 0000 0000 803f
00000060: 0000 0000 0000 0000 0000 0000 0000 0000
00000070: 0000 0000 0000 0000 0000 0000 0000 0000
00000080: 0000 0000 0000 0000 0000 0000 0000 803f
00000090: 0000 0000 0000 0000 0000 0000 0000 0000
000000a0: 0000 0000 0000 0000 0000 0000 0000 0000
000000b0: 0000 0000 0000 0000 0000 0000 0000 803f
000000c0: 0000 0000 0000 0000 0000 0000 0000 0000
000000d0: 0000 0000 0000 0000 0000 0000 0000 0000
000000e0: 0000 0000 0000 0000 0000 0000 0000 803f
000000f0: 0000 0000 0000 0000 0000 0000 0000 0000
00000100: 0000 0000 0000 0000 0000 0000 0000 0000
00000110: 0000 0000 0000 0000 0000 0000 0000 803f
00000120: 0000 0000 0000 0000 0000 0000 0000 0000
00000130: 0000 0000 0000 0000 0000 0000 0000 0000
00000140: 0000 0000 0000 0000 0000 0000 0000 803f
00000150: 0000 0000 0000 0000 0000 0000 0000 0000
00000160: 0000 0000 0000 0000 0000 0000 0000 0000
00000170: 0000 0000 0000 0000 0000 0000 0000 803f
00000180: 0000 0000 0000 0000 0000 0000 0000 0000
00000190: 0000 0000 0000 0000 0000 0000 0000 0000
000001a0: 0000 0000 0000 0000 0000 0000 0000 803f
000001b0: 0000 0000 0000 0000 0000 0000 0000 0000
000001c0: 0000 0000 0000 0000 0000 0000 0000 0000
000001d0: 0000 0000 0000 0000 0000 0000 0000 803f
000001e0: 0000 0000 0000 0000 0000 0000 0000 0000
000001f0: 0000 0000 0000 0000 0000 0000 0000 0000
00000200: 0000 0000 0000 0000 0000 0000 0000 803f
0.0 0.0 0.0 0.0 0.0 0.0 0.0 0.0
0.0 0.0 0.0 1.0 0.0 0.0 0.0 0.0
0.0 0.0 0.0 0.0 0.0 0.0 0.0 1.0
0.0 0.0 0.0 0.0 0.0 0.0 0.0 0.0
0.0 0.0 0.0 1.0 0.0 0.0 0.0 0.0
0.0 0.0 0.0 0.0 0.0 0.0 0.0 1.0
0.0 0.0 0.0 0.0 0.0 0.0 0.0 0.0
0.0 0.0 0.0 1.0 0.0 0.0 0.0 0.0
0.0 0.0 0.0 0.0 0.0 0.0 0.0 1.0
0.0 0.0 0.0 0.0 0.0 0.0 0.0 0.0
0.0 0.0 0.0 1.0 0.0 0.0 0.0 0.0
0.0 0.0 0.0 0.0 0.0 0.0 0.0 1.0
0.0 0.0 0.0 0.0 0.0 0.0 0.0 0.0
0.0 0.0 0.0 1.0 0.0 0.0 0.0 0.0
0.0 0.0 0.0 0.0 0.0 0.0 0.0 1.0
0.0 0.0 0.0 0.0 0.0 0.0 0.0 0.0
0.0 0.0 0.0 1.0

weight_ih_l0 f4 [11, 11]
00000000: 39b5 963e aa3c a0bc 5a31 b03e 79a0 ac3e
00000010: f500 073f a856 453e 8c1c dc3e 9070 1d3f
00000020: c82e 5fbf 8b4f dc3e 5801 463e b602 2ebf
00000030: 9ac2 153e dc37 023e 9485 4f3e e2dc 4c3e
00000040: bc0b 0ebe 555e 8ebe 05b2 3cbf 8c26 70bf
00000050: f0d5 24bd c0e2 c73c c957 adbb 973f b93e
00000060: bf80 5e3c 54b1 f43d cae3 083e b94a bfbd
00000070: 3e72 293e b145 ae3e 91c9 06be 81e8 863e
00000080: 6b67 0ebe 5f9f 48bd 7ec2 88bd 426d 8ebe
00000090: 31b8 7abe 127d 8ebe e7f0 77be 366f d3bd
000000a0: 22ff a73c 5b4b d63e 2d10 bc3e 8a7d 2a3e
000000b0: a66a 4abf d10c 42bf e352 1cbf 8f74 c9bb
000000c0: a343 c7be 1907 ccbe b8cc 1fbe c25c 483e
000000d0: d76a 143f cb9c 21bf 534e 2fbe 3cc9 b23f
000000e0: 95c3 d43f ff41 a43f 991d f03e abdd c73e
000000f0: 92bc fa3c 0c45 da3d 054c 36be 8cb1 be3f
00000100: 9203 c23f 7cbb a13d 1c0b 053e 75a3 813e
00000110: c910 2fbe 2ea4 89be fa75 86be 5ca8 36bd
00000120: f493 81be 1cfa 9b3e 48c0 443e 2200 433e
00000130: b097 763d a477 dd3d 7104 e43e fd5c e13d
00000140: aea1 91bc 0eca 9c3d 4b82 dbba 0213 303d
00000150: 4149 f8bd 0541 da3d aba7 c5be 8269 d8bd
00000160: 364d b9bf ef24 013e d28c b7be c01e 0bbe
00000170: 9e01 68be 290b 95be ee58 b13e 9884 0ebf
00000180: e2bd 1cc0 7cb0 18be 04d8 8fbe 8258 00c0
00000190: 2713 8ebf 8323 74bf 25f7 0fc0 f419 a8bf
000001a0: de31 f8bd d5c1 94be 949d 4dbe 8933 8640
000001b0: 02c2 61bf 40e5 0fbc 457a bb3e c536 863e
000001c0: 3b7c cd3d adb4 8ebe c0d8 98be 7de8 9ebe
000001d0: ba80 03bf 8b5c 2fbf 987f 833d 11c6 833d
000001e0: 4846 41bd
0.29435137 -0.019560177 0.34412652 0.3371618 0.52735835 0.19271338 0.4299053 0.6149988
-0.8718076 0.43029436 0.1933645 -0.67972887 0.14625016 0.12716621 0.202658 0.20006135
-0.13871664 -0.27806345 -0.73709136 -0.9380882 -0.04024309 0.024400115 -0.005290006 0.36181328
0.0135805 0.11947885 0.13368145 -0.09340424 0.16547486 0.34037545 -0.13162829 0.2634926
-0.13906638 -0.048980113 -0.066777214 -0.27817732 -0.24484326 -0.27829796 -0.2421299 -0.10323946
0.020507399 0.41854367 0.3673109 0.16649452 -0.7906898 -0.75800806 -0.61063975 -0.006147928
-0.3891879 -0.39849165 -0.15605438 0.19566634 0.57975525 -0.6312987 -0.17119722 1.3967662
1.6622187 1.283264 0.4689758 0.39036307 0.030607495 0.10657701 -0.17802437 1.4897933
1.515734 0.07897088 0.12992519 0.2532002 -0.17096247 -0.26883072 -0.26261884 -0.044594154
-0.25308192 0.30464256 0.19213974 0.1904302 0.060203254 0.10813835 0.4453464 0.11004064
-0.01777729 0.076557264 -0.0016747204 0.042986877 -0.12123347 0.10656933 -0.38604483 -0.10566999
-1.4476688 0.12611745 -0.35849625 -0.13585949 -0.22656867 -0.29110077 0.3463816 -0.5567107
-2.4490895 -0.14911073 -0.28094494 -2.005402 -1.1099595 -0.95366687 -2.2494595 -1.313292
-0.121188864 -0.29054132 -0.20079643 4.193791 -0.8818666 -0.008782685 0.36616722 0.2621366
0.10033461 -0.2787222 -0.29852867 -0.3103675 -0.51368296 -0.68500584 0.06420821 0.064342625
-0.047186166

weight_hh_l0 f4 [11, 11]
00000000: 19e4 07c0 c434 8ebe 36a7 243f 2517 703f
00000010: d0f1 d53f 50f9 ca3e 9d4b 5d40 7fc3 bd3f
00000020: 7dae 0cc0 c95e 27bf 6d00 7e3f 8194 5abe
00000030: 1d71 873f a0b1 45bf 49f4 b1be d25c fbbe
00000040: f8cf 84be 6584 f3bf e069 b5bc 6957 af3f
00000050: 512b 0040 77f2 c13e 63df 103f cb78 8e3f
00000060: 3f8b 463f 4bff 8b3f ed22 3bbf a0cd b9be
00000070: 1edc 3ebe 080a 873f f5f8 9b3e 5508 8b3f
00000080: 5b8e f8bd 5843 69be f6c5 1b40 877f 5d3f
00000090: a303 013f 6da7 383e 7392 4abf e143 dd3e
000000a0: 76e0 353f 6ab7 22be 7b51 373f c2c5 f63e
000000b0: 750a 07bf f0e0 66bf d9b5 0cc0 76f0 e2be
000000c0: ddef ebbe 7c7e 343f f71a 0bc0 cd50 d5be
000000d0: 10ac 57c0 fa0e 7bbe 3957 d2bf e48e 52bf
000000e0: 8b35 9dbd 31b8 c33f 6379 0340 cdd3 a93e
000000f0: 7068 823e acf1 febf ccae d53f 86d4 e6bf
00000100: 3be5 9abf 764b 013f 0da4 91bf 71d1 8b3f
00000110: 450a 8e3f 7b0e 5b3c 6a8e d93e 006d 0abf
00000120: 3a64 41bd 9d4a 6e3f 68c7 c4bf 157b 313f
00000130: 0e8a c43e 0db4 54bf e9e7 0d40 65e7 753f
00000140: e3bd 5d3e 1e94 ea3e 6fe0 8abf 00c0 743e
00000150: 0b38 0cbe f7f2 ba3e b4de ba3e 5343 10bf
00000160: 56a2 a23f 9ac6 563e 6e1e 91bf aa2f dfbe
00000170: 13f9 b6bd 8d87 103e 940f 443f ac8d c5be
00000180: 6416 4e40 7144 853e 1605 8dbd 34c8 893f
00000190: b6ea 213f ed89 7abf 89fa e3bf ffc2 8abf
000001a0: 4175 113d 1ffe 1cc0 fc09 bbbf 864d 3840
000001b0: e9c4 3e3f c406 adbf aec2 c5be 524d 913f
000001c0: 9140 c23e c4d8 f9be 49c8 95bc e755 22be
000001d0: b4fe 5640 5f88 2bbe efde a9be 0af7 a6bd
000001e0: bf18 02bf
-2.123297 -0.27774632 0.64317644 0.93785316 1.671442 0.39643335 3.45774 1.4825286
-2.19815 -0.65379006 0.992194 -0.21345712 1.0581394 -0.7722416 -0.34756687 -0.49094254
-0.25939918 -1.9024779 -0.022145212 1.369855 2.0026438 0.37880298 0.5659086 1.1130613
0.7755622 1.0937284 -0.7310017 -0.36289692 -0.18638656 1.0549936 0.30463377 1.0861918
-0.12136527 -0.22779596 2.4339576 0.86522716 0.50396174 0.18032618 -0.79129714 0.4321585
0.71045625 -0.1589028 0.71608704 0.48197752 -0.5275033 -0.9018698 -2.198599 -0.44324082
-0.4608144 0.705055 -2.1735208 -0.4166321 -3.3698769 -0.24517432 -1.6432868 -0.82249284
-0.07676228 1.5290586 2.0542839 0.33169404 0.25470304 -1.9917502 1.6693969 -1.8033607
-1.2101206 0.5050577 -1.1378189 1.0923291 1.1096884 0.013370152 0.42491466 -0.5407257
-0.047214724 0.930826 -1.5373354 0.69328433 0.38386577 -0.83087236 2.2172797 0.96056205
0.21654467 0.4581613 -1.0849742 0.23901367 -0.13693254 0.36513492 0.36498034 -0.5635273
1.2705791 0.20974198 -1.1337411 -0.43591052 -0.08934226 0.14114209 0.7658627 -0.3858465
3.2201166 0.2602878 -0.06885736 1.0764222 0.63248765 -0.9786671 -1.7810832 -1.0840758
0.035512213 -2.4530103 -1.4612422 2.8797317 0.7451921 -1.351769 -0.3862509 1.1351721
0.37939885 -0.48798192 -0.01828398 -0.15853082 3.3592958 -0.1675124 -0.33177897 -0.08152588
-0.5081901

bias_ih_l0 f4 [11]
00000000: 7ebf cd3e 8eab 93bd 821e 0b3f dc71 993e
00000010: b2c8 a9bf 75a3 39bf 1c76 913e 957f 833e
00000020: 982f 3fbf 39a2 2ebf 23a3 e7bf
0.4018516 -0.07210456 0.54343426 0.2996968 -1.3264372 -0.7251504 0.28410423 0.25683275
-0.74682 -0.6821628 -1.809666

bias_hh_l0 f4 [11]
00000000: 594c ca3e 00f5 3cbe ab2b bd3e 91d2 b93d
00000010: 8ede c5bf 0963 ffbe 4990 2f3f db1b 9d3e
00000020: 3d76 16bf e378 3abf e649 ecbf
0.39511374 -0.18452835 0.3694738 0.090733655 -1.5458543 -0.49880245 0.68579537 0.30685315
-0.5877417 -0.7284071 -1.8460052

weight f4 [12, 11]
00000000: 7b4c 06c0 7828 88bf 3771 00c0 a19d f3bf
00000010: 6760 0640 0ee5 6cbf def9 0fc0 0914 78bf
00000020: cb94 3bbf 68a6 ce3e a350 0abf 6328 9040
00000030: 9761 ba3f 175f ec3f c629 633f e270 2fc0
00000040: efef 5ec0 076b 42bf 37fe 9b3f 44db 7140
00000050: 909f b93e cfcd cbbf d7be 7840 8568 933f
00000060: a714 2bbf 6717 213f b56d 40bf 2d6a 433e
00000070: a16a 0c3e 165b e53f 6080 a73f 5430 3ebf
00000080: 0196 01c0 cb9b cf3f b913 1f3f 8297 36bf
00000090: 250b d73e de28 3f3f d9ab c43f 0999 ad3e
000000a0: a428 dd3f 70ec 633f 526d f5bf 835a dbbf
000000b0: 379a 8abf 9fd9 553d 12bf aebe c6e5 903e
000000c0: d3bf b13f 8594 be3f fe01 c13e e869 823f
000000d0: e5ce 163f 0991 87c0 10ea 39bf dc44 5cc0
000000e0: 30f5 bcbf 2c92 a1bc 3c1a 1d3e d36d d03f
000000f0: cf55 0040 92e9 0f3f 99b5 383e 93d0 d4be
00000100: 8349 20c0 6892 703e eb77 31c0 66de d0bf
00000110: bc2e c8bd c9a6 323e 0d7b a93f 1034 3040
00000120: 7a67 173f 76fa 25bc 4f8c 9bbf e599 323f
00000130: 633b 063f d64a 86bf a21b 89bf a544 ab3e
00000140: 35d9 b8bd c9ff 29bd ddb2 893f 951c dc3e
00000150: a4a6 b4bd e202 0ec0 43e2 5240 443b 3d3f
00000160: 9de6 d5be 384c e7be dd72 623f 2d02 22bb
00000170: cff7 a9bf 6f59 bfbf 0d1e 8c3e 92a4 46bd
00000180: 66eb 3ec0 cfee 4340 4209 423f c26c 5cbe
00000190: b4a0 13bf 1993 d03f 4ce1 c0bd 540e 4bc0
000001a0: c556 35c0 b460 ad3d 4972 56bc 855e 27bf
000001b0: b628 1f40 f3f9 573f 0e98 0f40 b5fe 2d40
000001c0: eea2 f13e a2ac 3b3f ebcf eebe e52e 113e
000001d0: fe90 c33e 41b4 0dc0 f390 01be 0c94 2bbf
000001e0: 8147 2640 6db7 97be 9473 5d3f f2bd 83bf
000001f0: 299d b5be 8ea5 e53f 6418 613d a38a 9bbe
00000200: 15f1 d0be d10f 1b40 5e39 773f b545 c63f
-2.098418 -1.063735 -2.00691 -1.903248 2.099634 -0.9253701 -2.2496257 -0.9690557
-0.73273915 0.40361333 -0.5402929 4.50493 1.4561032 1.8466519 0.88735616 -2.7412648
-3.4833944 -0.7594456 1.2186955 3.779008 0.3625455 -1.5922183 3.886648 1.1516272
-0.6682839 0.62926334 -0.751674 0.19083472 0.1371255 1.7918422 1.3086052 -0.7429249
-2.0247805 1.6219419 0.6213947 -0.7132493 0.4200069 0.74671733 1.5364944 0.3390582
1.7278028 0.8903265 -1.9173987 -1.7136997 -1.0828313 0.052209493 -0.3413015 0.28300303
1.3886665 1.4889075 0.37696832 1.018857 0.58909446 -4.2364545 -0.72622776 -3.4417028
-1.4762325 -0.01972302 0.15342039 1.6283516 2.0052373 0.56215775 0.18038024 -0.4156538
-2.5044868 0.2349335 -2.7729442 -1.6317871 -0.09774539 0.17446436 1.3240677 2.7531776
0.5914227 -0.010130515 -1.2152194 0.69766074 0.52434367 -1.0491588 -1.0711558 0.3345081
-0.09025804 -0.0415037 1.075771 0.42990556 -0.08820847 -2.218926 3.29506 0.7391856
-0.41777506 -0.45175338 0.8845652 -0.0024720535 -1.327875 -1.4949168 0.27366677 -0.04849679
-2.9831176 3.0614507 0.75795376 -0.21525863 -0.5766709 1.6294891 -0.09417972 -3.1727495
-2.833421 0.0846571 -0.013088771 -0.653786 2.4868598 0.8436577 2.2436557 2.718671
0.47194618 0.7331029 -0.46643004 0.14178045 0.38196558 -2.2141268 -0.1265295 -0.67022777
2.5981143 -0.2963213 0.86504483 -1.0292342 -0.35471466 1.7941148 0.0549549 -0.3037921
-0.4080893 2.4228404 0.9657191 1.5490023

bias f4 [12]
00000000: eff0 413f b5c3 d33f 4da5 c5bf e7e6 8bbf
00000010: 4efa 9abf 9131 e4bd 85ea a73e 8d6b 4c3f
00000020: fa73 f53e b468 833f 751b 78be 030f a4bf
0.7575826 1.65441 -1.5441071 -1.0929841 -1.2107637 -0.111422665 0.32796112 0.7985161
0.47940046 1.0266328 -0.24229224 -1.2817081
