16 seq2seq_new/encoder1.pt (torch, 5165 bytes, 5 tensors)

weight f4 [12, 11]
0	0x00000000	0.0
1	0x00000000	0.0
2	0x00000000	0.0
3	0x00000000	0.0
4	0x00000000	0.0
5	0x00000000	0.0
6	0x00000000	0.0
7	0x00000000	0.0
8	0x00000000	0.0
9	0x00000000	0.0
10	0x00000000	0.0
11	0x3f800000	1.0
12	0x00000000	0.0
13	0x00000000	0.0
14	0x00000000	0.0
15	0x00000000	0.0
16	0x00000000	0.0
17	0x00000000	0.0
18	0x00000000	0.0
19	0x00000000	0.0
20	0x00000000	0.0
21	0x00000000	0.0
22	0x00000000	0.0
23	0x3f800000	1.0
24	0x00000000	0.0
25	0x00000000	0.0
26	0x00000000	0.0
27	0x00000000	0.0
28	0x00000000	0.0
29	0x00000000	0.0
30	0x00000000	0.0
31	0x00000000	0.0
32	0x00000000	0.0
33	0x00000000	0.0
34	0x00000000	0.0
35	0x3f800000	1.0
36	0x00000000	0.0
37	0x00000000	0.0
38	0x00000000	0.0
39	0x00000000	0.0
40	0x00000000	0.0
41	0x00000000	0.0
42	0x00000000	0.0
43	0x00000000	0.0
44	0x00000000	0.0
45	0x00000000	0.0
46	0x00000000	0.0
47	0x3f800000	1.0
48	0x00000000	0.0
49	0x00000000	0.0
50	0x00000000	0.0
51	0x00000000	0.0
52	0x00000000	0.0
53	0x00000000	0.0
54	0x00000000	0.0
55	0x00000000	0.0
56	0x00000000	0.0
57	0x00000000	0.0
58	0x00000000	0.0
59	0x3f800000	1.0
60	0x00000000	0.0
61	0x00000000	0.0
62	0x00000000	0.0
63	0x00000000	0.0
64	0x00000000	0.0
65	0x00000000	0.0
66	0x00000000	0.0
67	0x00000000	0.0
68	0x00000000	0.0
69	0x00000000	0.0
70	0x00000000	0.0
71	0x3f800000	1.0
72	0x00000000	0.0
73	0x00000000	0.0
74	0x00000000	0.0
75	0x00000000	0.0
76	0x00000000	0.0
77	0x00000000	0.0
78	0x00000000	0.0
79	0x00000000	0.0
80	0x00000000	0.0
81	0x00000000	0.0
82	0x00000000	0.0
83	0x3f800000	1.0
84	0x00000000	0.0
85	0x00000000	0.0
86	0x00000000	0.0
87	0x00000000	0.0
88	0x00000000	0.0
89	0x00000000	0.0
90	0x00000000	0.0
91	0x00000000	0.0
92	0x00000000	0.0
93	0x00000000	0.0
94	0x00000000	0.0
95	0x3f800000	1.0
96	0x00000000	0.0
97	0x00000000	0.0
98	0x00000000	0.0
99	0x00000000	0.0
100	0x00000000	0.0
101	0x00000000	0.0
102	0x00000000	0.0
103	0x00000000	0.0
104	0x00000000	0.0
105	0x00000000	0.0
106	0x00000000	0.0
107	0x3f800000	1.0
108	0x00000000	0.0
109	0x00000000	0.0
110	0x00000000	0.0
111	0x00000000	0.0
112	0x00000000	0.0
113	0x00000000	0.0
114	0x00000000	0.0
115	0x00000000	0.0
116	0x00000000	0.0
117	0x00000000	0.0
118	0x00000000	0.0
119	0x3f800000	1.0
120	0x00000000	0.0
121	0x00000000	0.0
122	0x00000000	0.0
123	0x00000000	0.0
124	0x00000000	0.0
125	0x00000000	0.0
126	0x00000000	0.0
127	0x00000000	0.0
128	0x00000000	0.0
129	0x00000000	0.0
130	0x00000000	0.0
131	0x3f800000	1.0

weight_ih_l0 f4 [11, 11]
0	0x3f668eed	0.9006184
1	0x3f7f557d	0.9973982
2	0x3f818cb9	1.012107
3	0x3f7a62ad	0.9780682
4	0x3f7372b2	0.95096886
5	0x3f7b3145	0.98122054
6	0x3f6842e2	0.90727055
7	0x3f67af0a	0.90501463
8	0x3f68b389	0.9089895
9	0x3f7bff19	0.98436123
10	0xbf240445	-0.64069015
11	0x3f2b0d77	0.6681742
12	0x3ee94d89	0.45566967
13	0x3e35917e	0.17731282
14	0xbce69e49	-0.028151648
15	0xbe57a23a	-0.21057978
16	0xbe533378	-0.20625103
17	0xbedc7c7e	-0.4306373
18	0xbef6294e	-0.48078388
19	0xbf008757	-0.5020651
20	0x3f86188b	1.047624
21	0xbffe24ad	-1.9854943
22	0xbf6d0ee5	-0.9260085
23	0xbf7656bd	-0.962261
24	0xbf792307	-0.9731907
25	0xbf809e0f	-1.0048236
26	0xbf84f565	-1.0387388
27	0xbf867f40	-1.0507584
28	0xbf89e626	-1.0773361
29	0xbf8e66f5	-1.112517
30	0xbf8d54d2	-1.104151
31	0xbf6b552e	-0.9192685
32	0xc034901e	-2.8212962
33	0x3f2014e2	0.62531865
34	0x3f292385	0.66069824
35	0x3f18fa31	0.5975676
36	0x3f35eff4	0.71069264
37	0x3f30bc4b	0.6903731
38	0x3f339d8d	0.7016228
39	0x3f2a9fb2	0.66649926
40	0x3f2d3773	0.67662734
41	0x3f41dbdc	0.75726104
42	0x3f047feb	0.5175769
43	0xbfc50ef1	-1.5395185
44	0xbfc8b7e1	-1.5681115
45	0xbf8798d6	-1.0593517
46	0xbf3df449	-0.74200875
47	0xbecbb54d	-0.3978676
48	0xbde93257	-0.11386555
49	0x3e63ba5b	0.22239058
50	0x3ec99ade	0.39375967
51	0x3ed56051	0.41675046
52	0x3e13ae2c	0.1442191
53	0xbf339bf0	-0.70159817
54	0x3f5ca6b8	0.8619189
55	0x40089162	2.1338735
56	0x3f3d8dee	0.7404469
57	0x3ea87869	0.32904366
58	0x3dc34390	0.09534371
59	0xbd5a775e	-0.053336494
60	0xbe96ace7	-0.2942879
61	0xbf898f4c	-1.0746856
62	0xbfe6c60e	-1.8029191
63	0xc03d6284	-2.959138
64	0x3f86ceff	1.053192
65	0xbded87c1	-0.11598159
66	0xbf33024e	-0.6992539
67	0xbf327264	-0.69705796
68	0xbf1ab52d	-0.604327
69	0xbf03cba5	-0.5148261
70	0xbf277fd9	-0.65429455
71	0xbedb0eea	-0.42784816
72	0x3dbe8b06	0.0930386
73	0x3f03f5bd	0.5154684
74	0x3fc5ff37	1.546851
75	0xbf0f546e	-0.55988204
76	0xbf39da81	-0.72599036
77	0xbf046f8f	-0.51732725
78	0xbf04fa6b	-0.5194461
79	0xbf0607fd	-0.5235594
80	0xbf06c2d0	-0.5264101
81	0xbf0b1329	-0.5432611
82	0xbf0949af	-0.5362806
83	0xbf018d89	-0.5060659
84	0xbf04bfcc	-0.5185516
85	0xbf0bc3ab	-0.5459544
86	0xbeef3eb2	-0.4672752
87	0xbfd044fb	-1.6271051
88	0x401158dd	2.2710488
89	0x4010aa96	2.2604117
90	0x40190f8c	2.391574
91	0x40144920	2.3169632
92	0x40115ea7	2.2714021
93	0x40137cdc	2.3044958
94	0x4017c2e2	2.3712697
95	0x40182ecc	2.3778563
96	0x4015a841	2.3383944
97	0x4010f940	2.265213
98	0xbefada6e	-0.48994774
99	0xc020e6fd	-2.5140984
100	0xbfcd4e4f	-1.6039523
101	0xbf8073aa	-1.0035298
102	0xbf28cec5	-0.65940505
103	0xbea883d8	-0.3291309
104	0x3cbe7963	0.023251241
105	0x3e9e94f5	0.3097302
106	0x3fa87611	1.3161031
107	0x3f4df2e1	0.8044873
108	0xbf8f7599	-1.1207763
109	0x3f7e01be	0.9922141
110	0x3d412ca9	0.047161732
111	0xbe139e8f	-0.14415954
112	0xbe76f853	-0.24118166
113	0xbf05c42b	-0.52252454
114	0xbf4cfcaa	-0.80073035
115	0xbf95be80	-1.1698761
116	0xbfa9f23f	-1.3277053
117	0xbfe5805c	-1.7929797
118	0xc0404d68	-3.0047245
119	0xbe9c999f	-0.30585954
120	0xbf44e429	-0.76910645

weight_hh_l0 f4 [11, 11]
0	0xbf01ed55	-0.50752765
1	0xbf3de4f7	-0.741775
2	0xbff2efcd	-1.8979431
3	0xbe86d60c	-0.2633518
4	0xbe95ccc5	-0.2925779
5	0x3f1539d7	0.5829138
6	0x3f4cc4ff	0.7998809
7	0xbf204ac0	-0.6261406
8	0x3f5826d0	0.84434223
9	0x3ec21573	0.3790699
10	0x3f8a510e	1.0805986
11	0x3e863e78	0.26219535
12	0xbe960f1a	-0.29308397
13	0xbfae048d	-1.3595139
14	0xbd158f50	-0.036513627
15	0xbbb9f011	-0.00567437
16	0x3e67a37e	0.22620961
17	0xbf81a29b	-1.0127748
18	0xbef5bc8b	-0.4799541
19	0xbf282ba5	-0.65691596
20	0x3f7ff5b2	0.99984276
21	0x3eb3d80c	0.35125768
22	0x3e3d274c	0.18472022
23	0x3ea6c612	0.3257299
24	0x3f3f8340	0.74809647
25	0xbea8a4f0	-0.32938337
26	0xbef9f7e9	-0.48821953
27	0xbe69f2c4	-0.22846514
28	0xbe456f4a	-0.19280735
29	0x3f53beb5	0.8271287
30	0xbd5695bc	-0.05238889
31	0xbf0d6ca3	-0.5524389
32	0x3ef9eb2d	0.48812237
33	0xbf4d160e	-0.8011178
34	0xbeb57b14	-0.35445464
35	0xbe901d35	-0.28147283
36	0xbed63d5d	-0.4184369
37	0x3e99d08c	0.3004192
38	0x3ee5db2b	0.44893774
39	0xbed06cdc	-0.40708053
40	0xbfbb2d6f	-1.462324
41	0x3f4b89e8	0.79507303
42	0x3e7f29ba	0.24918261
43	0x3edc2be3	0.43002233
44	0x3d90be88	0.07067591
45	0xbdf27d43	-0.11840298
46	0x3ce71be7	0.028211547
47	0xbfa38be4	-1.2777066
48	0xbeaae60d	-0.3337864
49	0x3ee91b10	0.4552846
50	0x3f57cc55	0.8429616
51	0xbf47b9b1	-0.7801772
52	0xbf27e51e	-0.6558398
53	0xbe1ece4d	-0.15508385
54	0xbdd4adea	-0.10384734
55	0x3fab87d4	1.3400826
56	0xc0196893	-2.3970077
57	0x3e59352c	0.2121169
58	0xbfa73fe3	-1.3066372
59	0x400c6351	2.1935618
60	0x403744c3	2.863572
61	0x4020501b	2.5048892
62	0x3e779fca	0.24182048
63	0xbfda7fe2	-1.7070277
64	0xbf37c740	-0.71788406
65	0x3e8f4c30	0.27987814
66	0xbe6a3a4f	-0.22873805
67	0xbf30c98c	-0.69057536
68	0x3f9dc6b0	1.232626
69	0x3d0f57c6	0.034995817
70	0x3f404d1f	0.7511768
71	0x3f412e8e	0.7546166
72	0xbe341abc	-0.17588323
73	0x3e49bd7a	0.19701186
74	0xc05d0a53	-3.4537551
75	0x3e2ae01b	0.16687052
76	0x3f4b2853	0.79358405
77	0x3f1549eb	0.58315915
78	0xbf3efca1	-0.7460423
79	0xbf1b2589	-0.6060415
80	0x3e829d9f	0.2551088
81	0xbd626c95	-0.055279333
82	0x3f4822c0	0.78178024
83	0xbf16b579	-0.58870655
84	0xbf85cf01	-1.0453798
85	0xbf791534	-0.9729798
86	0xbe434166	-0.19067916
87	0x3def87f9	0.116958566
88	0x3eaf9a2e	0.34297317
89	0xbe31b86a	-0.17355505
90	0xbfc24980	-1.517868
91	0x3e15309a	0.14569321
92	0x3e9d8515	0.30765596
93	0x3da43aa7	0.080189995
94	0x3edfa653	0.43681583
95	0x3f99f33c	1.2027354
96	0x3f1206f9	0.5704189
97	0xbe13a517	-0.14418446
98	0x3f057c9a	0.5214325
99	0x3dff06dc	0.1245248
100	0xbe82af3a	-0.25524312
101	0xbf88f3bd	-1.0699383
102	0x3f9c6914	1.2219567
103	0xbf684845	-0.90735275
104	0xbf1a1e9f	-0.60202974
105	0xbf20a1d0	-0.62746906
106	0x3e7c5f90	0.24645829
107	0x3fed3c05	1.8533942
108	0x3dc9b0b2	0.09848155
109	0xbe730a1e	-0.23734328
110	0x3d41d9ad	0.047326732
111	0xbec576b6	-0.38567132
112	0xbcf349dd	-0.029698307
113	0xbf56c9c4	-0.8390162
114	0x3ecb05e1	0.39652923
115	0xbedf5dc2	-0.4362622
116	0x3ef83da1	0.4848452
117	0xbf2e5446	-0.6809734
118	0xbfb42d39	-1.4076301
119	0x3e1c745d	0.15278764
120	0xbf046fde	-0.51733196

bias_ih_l0 f4 [11]
0	0xbb52823c	-0.0032121083
1	0x3f23a937	0.63930076
2	0x3ec0d962	0.3766585
3	0x3ef2da63	0.4743224
4	0x3ea17dce	0.31541294
5	0xbd99b7f2	-0.07505788
6	0xbcefbd77	-0.029265149
7	0x3f217714	0.63072324
8	0x3c3a3a69	0.011366465
9	0x3d075b34	0.033045962
10	0x3d2f91e6	0.04286375

bias_hh_l0 f4 [11]
0	0xbe1a2ef0	-0.15056968
1	0x3ee976c4	0.45598423
2	0x3ebaa91a	0.3645714
3	0x3e40f91f	0.18845032
4	0x3e3d850d	0.18507786
5	0xbe750284	-0.23926741
6	0xbed5b0e4	-0.4173652
7	0x3dcac2d4	0.09900442
8	0xbd21eb9a	-0.039531328
9	0x3ea2eab1	0.3181968
10	0x3e7e23a9	0.24818291
