09 MNIST/MNIST.pt (torch, 441140 bytes, 6 tensors)

weight f4 [128, 784]
000000 c6 4c 3b bc 0e f5 d2 3c 5c 53 11 bc d5 db a9 bc
       -0.011431878 0.025751617 -0.008869972 -0.020734707
000010 0c a0 ca 3c ec e0 fc bc d2 34 d3 3c 14 56 8e 3c
       0.02473452 -0.03086897 0.025782023 0.01737503
000020 b5 88 0f 3d c0 75 ab 3a 60 79 e6 3a 2a cc b8 bc
       0.035042483 0.0013081357 0.001758378 -0.02255829
000030 13 6f 0f 3c 26 3b ee 3b a8 13 4e bc 06 b4 ea bb
       0.0087545095 0.0072702346 -0.012577929 -0.0071625737
000040 03 a2 cf bc ac 30 d4 bc ca 3a 05 bd 1a 78 ed bc
       -0.025345808 -0.025902115 -0.03252677 -0.028987933
000050 b2 13 f0 3c df 97 11 3d 25 47 af bc 5e ff 84 3c
       0.029306266 0.035545226 -0.021396229 0.01623505
000060 90 1b 6f 3c ae a6 e3 3c 50 94 5b 3c 2a 7f a3 3c
       0.014593974 0.02778944 0.01340206 0.019958097
000070 a0 60 a9 ba 2a b9 b7 3c ea 2b 0a bd e0 38 45 3c
       -0.0012922473 0.02242716 -0.033733286 0.012037486
000080 f8 a5 a6 3c 3b 19 0e 3d ad b3 66 39 45 ef 98 3c
       0.020342812 0.03469203 0.00022001444 0.01866878
000090 d0 f1 96 b9 6e 61 0c bd 9f 8d 68 bc d1 0f 6b bb
       -0.00028790394 -0.034272604 -0.014193921 -0.0035867582
0000a0 21 35 44 3b 9c e4 01 3d ba e1 0b bd b7 52 84 bc
       0.0029938894 0.03171216 -0.034150817 -0.016152723
0000b0 74 e8 90 3b a9 ae 83 bc fc d9 04 bc 05 a4 d9 3c
       0.004422242 -0.016074495 -0.008108612 0.026567468
0000c0 b5 42 02 3d ce e6 4c 3c ef 1b 17 3b 55 72 bd 3c
       0.031801898 0.0125062 0.0023057421 0.023125807
0000d0 20 c7 53 3c 08 bc 4d 3c 30 06 35 3b e4 74 9d bb
       0.012925893 0.012557037 0.0027622096 -0.004805194
0000e0 af c6 0b bd c9 d5 04 3d 0f a2 36 bb b6 6a 05 bd
       -0.034125026 0.032430444 -0.002786759 -0.03257247
0000f0 0b 4c 6e bc 90 8a 9e 3c b4 5f d2 3c 10 39 d0 3c
       -0.014544497 0.019353181 0.0256804 0.025417835
000100 2f 95 c0 bc 63 09 28 3c 0b 4a 14 bd e5 4d 62 3c
       -0.023508636 0.010256144 -0.036203425 0.013812517
000110 5a 7f b4 3c 0d e5 d3 bc d6 da 63 bd 8a fe 58 bb
       0.022033382 -0.025866056 -0.05562862 -0.0033110701
000120 ee 58 64 bb fa 0b 68 bc 54 4c 91 3c 70 74 df bc
       -0.0034843045 -0.014163012 0.017736591 -0.027277201
000130 77 02 13 bd d4 4a d1 bb 31 da 48 3c 3c 81 9c 3c
       -0.035891023 -0.006387094 0.012259052 0.019104593
000140 eb a8 52 bc 0b 8e a2 bb aa 58 53 bc a0 76 67 3c
       -0.012857656 -0.0049607805 -0.012899557 0.0141274035
000150 40 f0 a8 3a 3e 7b a6 3c 31 8e eb bc ea d1 bf 3c
       0.0012888983 0.020322438 -0.028754326 0.023415525
000160 f1 cb ce bc 2f a6 ea 3c 37 8e 86 3c 00 4c 80 bc
       -0.025243731 0.028643696 0.016425235 -0.01566124
000170 fc 5e c1 bc cf e0 02 bd 6a f3 1a bd 12 09 9e bc
       -0.023604862 -0.031952675 -0.037829794 -0.019291434
000180 26 84 c8 3c f6 f3 81 bc df 9e be bc fd b9 56 bc
       0.024477076 -0.0158634 -0.023269115 -0.0131058665
000190 f1 96 e9 bc 3d 61 b4 3c 8d ee 22 bd af c6 09 bc
       -0.028514357 0.022019023 -0.03977828 -0.008409186
0001a0 a2 0e a5 3a 08 c2 18 bc fb d5 0d bd e0 5d fa 3b
       0.0012592862 -0.009323604 -0.034627896 0.0076405853
0001b0 c9 6c 49 ba 34 d5 ee 3c a5 da 00 3d 7c 4b 5a bc
       -0.0007683752 0.029154398 0.031458516 -0.013323661
0001c0 d7 73 90 bc bd d1 97 bc 83 ab 9f 3c c8 83 a4 bb
       -0.017633362 -0.018532628 0.019490963 -0.0050205924
0001d0 71 e6 b0 3c 0b 35 15 bc 2e 48 8f 3a 65 de bd 39
       0.021594258 -0.009106885 0.0010931545 0.00036214586
0001e0 32 e0 a3 3b 14 60 1c bb 09 51 0d bc 45 22 1c 3d
       0.0050010914 -0.0023860978 -0.008625277 0.03811862
0001f0 5c 35 6a bc 2c ac 86 bc 06 50 f2 bc 64 74 7b 3d
       -0.014294948 -0.01643952 -0.029579174 0.061390296
000200 9f b6 e9 3c 85 84 60 3d db bc 58 3c 4a 34 64 bc
       0.028529463 0.05481388 0.01322862 -0.013928482
000210 45 c4 ec 3c 51 b1 51 3c 4f 90 ca bb 58 eb 16 3d
       0.028902182 0.012798623 -0.0061817537 0.036845535
000220 4a 97 f4 bb 2e 84 1e 3d 52 73 69 bc 48 c3 03 3c
       -0.007464324 0.038700275 -0.014248686 0.008042164
000230 fa 01 9e 3c df 81 07 bd eb 88 fb 3c bd f6 01 bd
       0.019288052 -0.03308284 0.030704936 -0.03172945
000240 ab c9 c7 3c aa e5 07 bc 90 1b 08 bd 97 51 c7 3c
       0.024388155 -0.008294502 -0.03322941 0.024330897
000250 d7 a8 d0 bc 9b 03 31 3a aa 91 74 bc 80 63 64 3d
       -0.025471134 0.00067525514 -0.014927307 0.055758953
000260 4a 3d 17 3d d2 5d a1 3c a8 33 5a 3d 7a a1 87 ba
       0.036923684 0.019698057 0.05327192 -0.0010347806
000270 36 4f af 3c 83 3f a9 3c d5 80 23 3c d9 c9 80 3c
       0.021400075 0.020660168 0.009979446 0.015721248
000280 8d b9 47 3c cc ed 84 bc 7f 8a 4a 3c ef 5b c8 3b
       0.012190235 -0.016226672 0.012362122 0.006114475
000290 23 44 6d 3c c0 45 29 3d 56 2d 84 3c c5 4a 07 bd
       0.014481577 0.041326284 0.0161349 -0.03303029
0002a0 04 e6 0c 3c 2d 68 e8 3c 14 23 da bb 87 ab a5 3c
       0.008599762 0.028369987 -0.0066570137 0.020223392
0002b0 4e ee b7 bb db 4c e8 bc 29 28 6a bc 80 6e 34 bd
       -0.005613125 -0.02835696 -0.0142918015 -0.044050694
0002c0 24 64 dd bc 41 fa c1 bc 7b 9f 2e 3b 7a 21 24 bd
       -0.02702529 -0.0236789 0.002664535 -0.04007099
0002d0 4b f8 57 bc 88 a6 fa bb dd 1f 6b 3d 92 26 ac bc
       -0.013181756 -0.0076492466 0.057403434 -0.021014486
0002e0 a0 fd b7 bc c2 c4 8a 3c 4a 11 31 bc 9c 95 3d bc
       -0.022459805 0.016939525 -0.010807345 -0.011571314
0002f0 9b dc fa 3c f1 48 23 bc 0a 8e 8c 3c b0 5b d3 39
       0.030622771 -0.009966121 0.017157573 0.0004031337
000300 49 5e 9e bc af 66 d0 bc e8 8a 0c 3c 15 f1 fb bc
       -0.019332068 -0.025439588 0.00857804 -0.030754605
000310 df e7 0f 3d 47 d3 ca 3b 7b d4 54 3b e2 7e b9 bc
       0.03513324 0.006189737 0.003247528 -0.02264351
000320 14 78 d8 bb 4e 07 f9 bc 33 1d 8d bc c1 1f 0b bd
       -0.0066061113 -0.030398991 -0.017225837 -0.03396583
000330 2c c0 e8 3b db 02 02 bd 29 08 b6 bb b5 f3 01 bd
       0.007102987 -0.031741004 -0.005555172 -0.031726558
000340 03 4b 33 bd b0 e0 2f bc 10 ff 40 bc 67 6f 0c 3d
       -0.04377271 -0.010734722 -0.011779562 0.03428593
000350 58 0c 23 3d 6b f9 3e 3d 98 b7 cf 3c f3 18 4c 3d
       0.039806694 0.046624582 0.025356099 0.04982848
000360 92 ac 53 bc 4d 71 a4 bc 32 c9 69 3c f6 94 82 3d
       -0.012919562 -0.020073557 0.01426916 0.06376068
000370 61 c5 81 3c e5 a8 8d 3c bd 4d da 3c 0c 45 09 3d
       0.015841188 0.01729245 0.026648397 0.033513114
000380 f8 a6 15 3d 1a 35 ec bb d7 c3 04 bd b3 86 a8 ba
       0.036536187 -0.0072084786 -0.03241333 -0.0012857526
000390 61 f2 a3 3c 39 56 c1 bc a9 6a d3 bc 6e f9 37 bd
       0.020013036 -0.023600684 -0.025807695 -0.04491561
0003a0 e5 60 46 bd 04 50 91 bb 75 ca 6f bc 35 70 ed 3c
       -0.04843225 -0.0044345874 -0.014635672 0.028984169
0003b0 80 d3 4e 3b 6b 3d 0c 3d fd 91 df bc cb 33 25 3d
       0.003155917 0.03423826 -0.027291292 0.040332597
0003c0 ff 17 20 3d 97 61 dc 3c 68 67 91 3d 31 87 dd 3c
       0.039085384 0.026902003 0.07099801 0.027042003
0003d0 04 d8 28 3d 82 70 9c 37 29 4f 0c 3d cc a0 8b 3d
       0.041221634 1.864904e-05 0.03425518 0.06817779
0003e0 ac f1 a1 3d 56 65 84 3d 6a 82 ca bc 19 d6 f9 3b
       0.079074234 0.06464641 -0.02472039 0.0076243994
0003f0 3a 54 56 3c 93 26 f1 bb 5f 3d f9 bc ef 38 4f bc
       0.013081605 -0.0073593347 -0.030424772 -0.012647851

bias f4 [128]
000000 9f 59 2c 3d ff 43 a7 3d 0e c8 10 3d db a5 b1 bc
       0.042077657 0.08167266 0.035347037 -0.021685531
000010 b8 b3 e7 3d 98 d4 22 3d db 41 68 3d 5a 37 4e bd
       0.113135755 0.039753526 0.05670343 -0.050345756
000020 20 dd 43 3e 64 94 5b 3c ec ea 62 bd 7e 0e 2f bd
       0.19127321 0.013402078 -0.05539982 -0.04273843
000030 b1 41 0b 3e d1 50 0c 3c fa f6 89 3d b0 11 97 bc
       0.13599278 0.00856419 0.0673656 -0.018441051
000040 79 a4 ab 3d 0a 88 89 3d 66 9d 3e 3d f0 db 44 bd
       0.0838098 0.067154005 0.046536826 -0.04806131
000050 ce cb 0a bd 8b eb 27 3c 73 49 9c 3c 11 a4 aa 3b
       -0.03388577 0.010249029 0.019077992 0.0052075465
000060 30 59 3a 3d c2 62 18 3d 84 a3 b8 bd 88 a8 6a bd
       0.045495212 0.037203558 -0.09015563 -0.05728963
000070 40 5a 16 3d b2 0f 8f bd e2 cb f0 3d 19 26 19 3d
       0.036707163 -0.069854155 0.117576376 0.03738985
000080 04 c2 a3 3d e9 85 d7 3d 15 c7 d6 bd 91 69 e8 3d
       0.0799599 0.10523588 -0.10487191 0.1134826
000090 37 22 c5 3d c8 06 fa 3d 2d 67 d8 bd 7f 96 be ba
       0.096256666 0.12208325 -0.10566554 -0.0014540701
0000a0 0f 40 97 bc 08 70 c3 bd 74 70 0a 3d e2 6f ac 3d
       -0.018463163 -0.09542853 0.03379865 0.084197775
0000b0 fc 8e 6d 3d cf a7 aa 3d d6 90 0a 3e d5 d2 53 bc
       0.05799769 0.08332788 0.13531813 -0.012928684
0000c0 58 04 73 3c 72 02 ec 3d 30 e1 c8 3b ae 2f b2 3d
       0.014832579 0.11523904 0.00613036 0.087005004
0000d0 29 4a 8e 3d 99 ce 9c 3d d7 66 31 3d 39 6b 1d bb
       0.06947739 0.07656593 0.043310966 -0.0024020209
0000e0 b7 ba 81 3c b8 88 8a 3c a5 9b 4a bd ea c7 70 3d
       0.015836103 0.016910896 -0.04946484 0.058784403
0000f0 d9 da 99 3c 4b 50 97 39 3a 06 41 bc c7 30 49 bd
       0.018781113 0.00028860787 -0.01178127 -0.049118783
000100 3d 29 12 3c d9 25 8c bd 71 01 4c 3d 98 ab e7 3d
       0.008920965 -0.06843156 0.049806062 0.11312026
000110 3b 5c 6f 3d 67 b3 32 3e 7b a5 75 3c 6e 7c 9f 3d
       0.058437567 0.17451249 0.014993067 0.07787405
000120 7e cd b6 bc 1e 08 6c 3d e4 ff 78 3c 9d 48 3e 3d
       -0.022314783 0.05762493 0.015197728 0.04645597
000130 c5 fb e5 bc 64 60 69 bc ff d9 92 3d f9 7a 44 3c
       -0.028074155 -0.014244173 0.07170486 0.01199221
000140 d1 27 b2 3d 40 11 0d 3e f2 6d c8 3d 18 1a c3 3d
       0.086990006 0.13776112 0.097865954 0.09526461
000150 e4 43 43 3b 28 b8 2a 3d 08 59 71 3c 9c 1a 1e bd
       0.0029795105 0.04167953 0.014730699 -0.038599595
000160 55 5a 18 bd f2 50 9a 3d dc a2 fd ba f5 31 2f 3e
       -0.037195522 0.0753497 -0.0019350904 0.17108901
000170 b2 b5 90 3d ca 61 58 3d e0 a8 eb 3c 70 02 09 3e
       0.07065906 0.052827634 0.02876705 0.13379836
000180 1a e4 ad 3d ce 03 a7 3a b4 49 a6 3d c2 48 9b 3d
       0.084907725 0.0012742223 0.081195265 0.07582237
000190 9e c4 f3 bb 17 dc d1 3d e2 65 2e 3e 4d 1f ae 3d
       -0.00743921 0.10247057 0.17031053 0.08502064
0001a0 65 15 53 bd 30 e4 a2 3c ed 39 9c bd 59 98 97 3c
       -0.051534075 0.019884199 -0.07628236 0.018505262
0001b0 66 51 1d bd 08 68 ce bc 15 fe 13 bb e9 f6 6e 3d
       -0.038407706 -0.02519609 -0.0022581865 0.05834094
0001c0 c6 0f bc bd fb 49 1d bb f5 5f e2 3d d2 29 a3 3c
       -0.09182696 -0.0024000395 0.110534586 0.019917402
0001d0 a4 71 ad 3c 92 18 d2 3d 0d 9d 37 3d 76 3f 9a 3d
       0.021172352 0.10258593 0.04482751 0.075316355
0001e0 ec 85 eb 3b 1c f4 cc bc 1a 93 65 3d 5a 8f 98 3c
       0.0071875956 -0.025018744 0.05604849 0.018623043
0001f0 f6 48 cd 3b d3 9a 2a bd cc d4 14 bd bc b7 9c 3c
       0.006264801 -0.041651558 -0.03633575 0.01913058

weight f4 [64, 128]
000000 08 16 8f bd 8b 43 ea 3c 09 2d 94 bd 57 e9 d9 ba
       -0.06986624 0.02859666 -0.07235152 -0.0016625327
000010 2f 4b ec bd 33 83 52 be 1d d6 1f 3d 79 8f 08 bd
       -0.11537778 -0.20557861 0.039022554 -0.03333995
000020 95 6f fd 3c 7c cb 4e be 33 33 58 3d 73 1c 78 3e
       0.030936996 -0.2019481 0.052783202 0.24229603
000030 0c 92 b2 bd 94 f9 25 bd ec be a5 bd d5 f9 74 3c
       -0.087192625 -0.04052122 -0.08093056 0.014952143
000040 a0 b2 d7 3d fa 9c 87 bd cf 08 30 be ad dd 72 3e
       0.10532117 -0.06621738 -0.1719086 0.23717375
000050 48 7c 49 3c d4 33 ff 3d f0 67 02 3d b7 22 d0 3d
       0.012297697 0.12461057 0.031837404 0.10162871
000060 1a 80 8b 3d 7d fa 27 bd de 12 eb 3c 74 92 04 3d
       0.06811543 -0.04101037 0.02869552 0.03236623
000070 dc 18 45 bc 6e 7f 25 bd 9f 09 b1 3d d3 2b ed 3c
       -0.012029853 -0.04040473 0.08644413 0.028951561
000080 5d 24 d1 bd 71 5d 42 bd 23 f2 95 bc 6d 2a d7 3b
       -0.10212014 -0.047452394 -0.018303936 0.006566337
000090 31 cb 80 bd a5 b9 5a 3c 72 0a fd bc 53 4c 60 3d
       -0.06288756 0.013349925 -0.03088877 0.05476029
0000a0 2e 61 0f 3d af 6b 02 3b 95 34 9d 3e f2 14 af bd
       0.035004787 0.001990061 0.3070418 -0.08548917
0000b0 f4 e1 35 bd 3f df a8 3d 6a 5e b2 38 f0 a5 dc 3d
       -0.04440494 0.08245706 8.5052874e-05 0.107738376
0000c0 36 bc dd 3b ab 8d 5b be 88 1a c1 3d 3a 54 e6 3c
       0.0067668213 -0.21440761 0.094288886 0.028116334
0000d0 12 56 b2 3d b6 44 8f 3d 60 8e 30 be 10 24 36 bd
       0.08707823 0.069955274 -0.17241812 -0.044467986
0000e0 d0 48 ca bb 8c f7 b3 3d d6 75 45 3e 94 c2 15 3d
       -0.0061732307 0.0878745 0.19283232 0.036562517
0000f0 c6 3c 7a 3c bc 7b 4e 3d c0 70 a7 bd a8 47 03 3e
       0.015273279 0.05041097 -0.08175802 0.12820303
000100 6f cc 30 be a5 ac c7 3d 63 57 02 ba 96 30 9f 3d
       -0.17265485 0.09749726 -0.0004972128 0.07772939
000110 7d 44 b6 3d c9 68 bc 3d 5f 6a 03 3e 74 28 32 be
       0.08899782 0.09199674 0.12833546 -0.17398244
000120 b0 9e 24 bc 71 dc ad bd cb 07 32 bc 9a 6b 39 bc
       -0.0100476 -0.084893115 -0.010866116 -0.011317158
000130 71 86 8b 3c 5b e5 a2 3e 79 9f 56 bd 96 0d f4 bd
       0.01703188 0.3181561 -0.05239818 -0.11916654
000140 d7 dd f0 bc 87 5f 64 be bc 47 7d 3d e4 bf 03 be
       -0.029402656 -0.22302066 0.06183599 -0.12866169
000150 ce b2 a7 bd 57 d6 50 3c 30 be 13 3d cc 35 55 3e
       -0.08188401 0.012746415 0.03607005 0.20821303
000160 43 89 22 3e 6b 61 cd 3d e4 e6 bf bc c6 94 01 3d
       0.15872674 0.10028347 -0.023425527 0.031636022
000170 68 de 3b 3d 2b c9 a8 bd 45 f0 84 3c 1f 49 6f bc
       0.0458664 -0.08241495 0.01622785 -0.014604836
000180 8e fd d3 bd 45 d5 07 3e 5f 6d 1e be d7 38 b0 bd
       -0.10351096 0.1326495 -0.1547141 -0.08604591
000190 42 66 82 bd d7 b7 b4 3d 0b 29 c6 3c a3 0d e4 bd
       -0.063671604 0.08824127 0.024189493 -0.111354135
0001a0 18 73 5d 3e 13 9e 48 3e d0 8d 9c 3c f0 3e 1b bd
       0.21625936 0.1959155 0.01911059 -0.03790182
0001b0 f5 e4 73 bd 1e 30 00 be 13 cd d5 3d 5e 48 55 3d
       -0.059544522 -0.12518355 0.104395054 0.052070968
0001c0 db a3 e8 3d e9 6e 12 3e d9 8b 86 bd a7 d9 a4 3d
       0.11359378 0.14300121 -0.065696426 0.080493264
0001d0 0a 85 8d 3c c2 34 72 3e e5 32 fa bd 80 f3 5a 3d
       0.017275352 0.23652938 -0.122167386 0.053454876
0001e0 f6 8f 01 3e d7 dc 7a bd f6 5d 6b 3e 88 1a 10 be
       0.12652573 -0.061245766 0.22985062 -0.14072621
0001f0 7f 4a 2b bd 79 eb 23 3d 77 39 96 bc 61 91 88 3c
       -0.041819092 0.040019486 -0.018337948 0.016670885
000200 92 96 f8 3d 98 0f ac bc cd 19 fc 3d 15 bc 08 bd
       0.12138094 -0.02100353 0.123096086 -0.033382494
000210 e1 73 4f bd 52 79 ff bd de b0 54 bd 08 76 90 bd
       -0.05064762 -0.12474312 -0.051926486 -0.07053763
000220 50 ba c3 bd 2f 53 4e be 06 94 4d 3d 9b 9c 42 3e
       -0.09557021 -0.2014892 0.050189994 0.19005053
000230 9d fb 11 bc a6 b9 b5 3d a3 ae 61 be 23 30 14 be
       -0.008910087 0.088733 -0.22039275 -0.14471488
000240 98 83 fa bc 4f 2b a2 3c 98 07 47 be fc 4f 0a bd
       -0.030580327 0.019796042 -0.1943649 -0.033767685
000250 7a e3 01 bd 5b b9 d3 3d 81 aa 20 3e ee 49 01 3e
       -0.03171108 0.10338088 0.15690042 0.12625858
000260 64 68 49 3d a6 e8 22 bd ad a1 8f 3c fc 77 a6 3e
       0.04917182 -0.039772652 0.017533148 0.32513416
000270 ea 52 e0 bc ad dd ae 3d bb 3c fc bd 88 33 a7 3d
       -0.027383287 0.08538375 -0.12316271 0.08164126
000280 72 4d e2 ba 30 52 bb bd 8f 85 7f 3d 88 82 4a 3e
       -0.0017265512 -0.091465354 0.06238323 0.19776356
000290 43 6a 58 3c 49 52 c6 3d ea 18 50 3e 7c 98 5b 3e
       0.0132089285 0.096836634 0.20322004 0.21444887
0002a0 8f 24 b1 bd 91 b2 4e be 04 1f f7 3d e6 b1 1e 3d
       -0.08649551 -0.20185305 0.12066463 0.038743876
0002b0 95 54 3d bd 33 8a 3f bd c5 5a a9 bd 81 57 e4 3d
       -0.04622324 -0.046762656 -0.08269266 0.111495025
0002c0 c4 1e 81 bb f9 17 c9 bd e5 27 76 3b 4e a9 ef bd
       -0.003940435 -0.098190255 0.00375604 -0.11702214
0002d0 08 10 8b 3d 28 1c 35 bb b7 42 b5 bd bb 84 8d bd
       0.06790167 -0.002763519 -0.088506155 -0.06910082
0002e0 e0 ad 5a bd 4e a7 3c 3e eb 6c 15 3e 73 6c 2e 3e
       -0.053388476 0.18423197 0.1459233 0.17033558
0002f0 cc 38 02 3e 9c b0 8e 3b a5 52 ee bd 63 b7 d6 3d
       0.12716979 0.0043545496 -0.11636857 0.10484197
000300 7e 00 41 be 23 66 82 3b 4d 29 c2 3d d8 05 53 3e
       -0.18847844 0.003979461 0.09480534 0.20607698
000310 55 9a 17 be ed f3 ae bd 6c ee 6e 3d 23 65 19 bd
       -0.14804967 -0.08542619 0.058332846 -0.037449967
000320 45 c2 c2 bd c9 1c d9 3c e7 f6 08 3e 12 95 3f 3d
       -0.0950971 0.026502984 0.13375436 0.046773024
000330 c1 1c e5 3d 98 5e bf 3e b7 d9 28 3e c0 09 27 be
       0.11187125 0.37376857 0.16489302 -0.16312313
000340 1e de 75 3e 3f f3 7c 3e d5 b6 4c 3e e0 88 2a 3d
       0.24010512 0.24702166 0.1999162 0.04163444
000350 d9 c7 89 bd ae 0a e2 bd 4f b5 6e 3c c1 39 95 3d
       -0.06727571 -0.11037193 0.0145695945 0.07286406
000360 be 84 3f 3e e3 92 18 3e 4d 42 4b be cf bd 9c 3d
       0.18702981 0.14899783 -0.1984951 0.076533906
000370 89 49 38 bd 53 b0 4f 3d f1 6e 74 3c 23 2e aa 3e
       -0.044992004 0.050705265 0.014919029 0.33238325
000380 8b 8c ec bd bc 56 8a bc b3 0b 1a be 47 a1 ad 3e
       -0.11550244 -0.016887061 -0.15043525 0.33912107
000390 05 01 9d bd 03 a0 50 3d 2e 4b 3b 3e 18 a9 94 3c
       -0.0766621 0.05093385 0.18290398 0.018147036
0003a0 b9 15 6c 3e 5d b3 0a 3e 47 d2 18 3d 89 4c e8 bd
       0.23055162 0.13544984 0.03730991 -0.11342723
0003b0 cb 2f 4e bb f9 30 35 3e 60 fe 96 3d 53 08 06 bd
       -0.0031461592 0.17694463 0.07372737 -0.032722782
0003c0 92 67 11 3e d8 33 33 be b3 51 c7 bd 19 59 17 3e
       0.14199665 -0.17500246 -0.0973238 0.14780082
0003d0 10 c4 b1 3a ae 2b 4d be 9b eb 45 3e 96 b6 08 bd
       0.001356246 -0.20036194 0.19328158 -0.033377253
0003e0 0d 57 7f 3d 34 d9 67 bd 5e 21 7b 3d 99 97 c4 bd
       0.062338877 -0.056603625 0.06131112 -0.095992275
0003f0 0b 5e 6a bd 03 b7 d6 bd 70 98 9b 3e 1a 66 5f ba
       -0.057218593 -0.104841255 0.30389738 -0.0008521989

bias f4 [64]
000000 d5 b9 85 3c 5c 8e e1 bc 99 0d b5 3d 65 05 06 3e
       0.016323963 -0.027533703 0.08840484 0.13087995
000010 09 e4 1c 3e c7 58 b0 3d 2e d7 58 3e 5e f4 fc bb
       0.15321364 0.08610683 0.21175835 -0.0077195605
000020 75 ce 3d bd 16 48 d3 3d 3c dc 63 3d 80 47 6d 3e
       -0.04633947 0.10316484 0.055629954 0.23171806
000030 eb c7 08 3e ad 3f 9b bd d9 b4 9f 3c 11 87 a8 3d
       0.13357513 -0.075805046 0.019495415 0.08228887
000040 d6 50 c3 3d ac 11 28 bd 2a cd 22 bd ce f2 83 3d
       0.095369026 -0.04103248 -0.03974644 0.06442796
000050 e7 bc cf 3d 03 02 27 3c 2e ca 1d 3e ca 2d 84 bd
       0.10143452 0.010193351 0.15409157 -0.06454046
000060 ae da c6 3c 4f 24 93 3d a1 d9 de bc 62 45 3e bc
       0.024274196 0.0718466 -0.027203383 -0.011613222
000070 ed dc 04 3e 49 2b 1a 3e 07 8e 18 3d 75 55 25 3e
       0.12974901 0.15055574 0.037244823 0.1614588
000080 f2 52 bc bc a8 e3 e4 3c aa ba 3a bc e4 a5 38 3d
       -0.02298877 0.027940586 -0.011397043 0.04508008
000090 43 23 a8 bd 96 44 80 bd 7e 92 e2 3d e1 7b 82 3e
       -0.08209851 -0.06263082 0.110630974 0.25485137
0000a0 94 81 7e 3d 77 91 23 3e 68 ae ca bb 79 e1 a5 3d
       0.062135294 0.15973459 -0.0061853416 0.08099646
0000b0 f8 eb 11 3e 25 78 44 3d 82 7e 29 3e d5 87 29 3d
       0.14250171 0.04796614 0.16552165 0.041389305
0000c0 98 d5 1a 3d be 5b c7 bc d5 74 c5 3c 2d 3c 4b 3c
       0.037801355 -0.024335738 0.024103561 0.012404484
0000d0 53 6c 25 3d 09 ef a2 3c a4 7a 11 bd 33 db b5 3c
       0.04038651 0.019889371 -0.03551735 0.022199249
0000e0 04 e7 d4 3d 2a 49 a7 bd d7 67 84 3d 16 21 5d bd
       0.10395625 -0.08168252 0.064651184 -0.05398663
0000f0 94 49 93 bd 45 54 9b 3d 26 9a 07 3e 7c 79 08 bc
       -0.07191768 0.075844325 0.13242397 -0.008329745

weight f4 [10, 64]
000000 56 69 b1 be a7 32 b9 3e b1 76 fb 3d f7 2e 3e 3f
       -0.34650677 0.36171457 0.12278498 0.7429041
000010 f7 8a 0d bf 94 35 e5 bd 47 1a 20 bf d6 cb 48 be
       -0.5529017 -0.1119186 -0.62540096 -0.19609007
000020 67 b4 a2 3d 18 d6 19 be 93 03 df 3e ca 9e b9 bd
       0.07944565 -0.15023077 0.43557414 -0.0906349
000030 4b f0 30 be 52 04 36 3e 22 2e 83 bd 58 24 82 be
       -0.17279164 0.17775086 -0.064052835 -0.25418353
000040 8f 79 cc be 08 95 41 3d b8 2d ff bc b6 65 1e be
       -0.39936492 0.047261268 -0.03114973 -0.15468487
000050 4f 10 2b be 8c 79 5e 3e 01 7c d4 bd 35 b7 d5 3d
       -0.1670544 0.21726054 -0.10375214 0.104353346
000060 99 37 20 3e 1e 42 28 be 31 78 8e 3e b0 3f 4f 3d
       0.15646209 -0.16431472 0.27826074 0.050597847
000070 99 f8 96 3e 91 33 de be 8c 8e bf 3e 31 2e 56 be
       0.2948654 -0.43398717 0.37413442 -0.20916058
000080 c6 1b fe 3e 17 a0 0b 3e b8 9e ac ba 49 0d 7d 3e
       0.49630564 0.13635288 -0.001316986 0.24712099
000090 f0 61 f6 3d 92 fc 88 be 25 3c 8b be 7f e3 29 bf
       0.12030399 -0.26755196 -0.27194324 -0.66362756
0000a0 75 cc 34 bd 97 9e 91 be 70 c5 99 3e d8 25 ae be
       -0.044140298 -0.28441307 0.30033445 -0.34013247
0000b0 d1 50 b1 3e 9c 57 02 bc 57 9c aa bd 26 34 9d ba
       0.3463197 -0.007955458 -0.08330601 -0.0011993691
0000c0 a6 59 80 bd a8 9d 7e 3d b5 21 0a 3e 97 fa 7a 3e
       -0.06267099 0.06216207 0.1348942 0.24509655
0000d0 32 2e 60 3e 7d 87 99 bd 00 08 32 3f a8 9b 46 3e
       0.21892622 -0.074965455 0.6954346 0.19395316
0000e0 17 a6 10 bf 8c b0 90 3d 42 e5 00 3e 8d 6e 7d be
       -0.56503433 0.07064924 0.12587455 -0.24749203
0000f0 8e c1 ab bd 09 a6 b1 be d5 19 b3 bd 72 3d 0d 3f
       -0.08386527 -0.34696987 -0.087451614 0.55171883
000100 e0 f2 c5 3d b1 a7 fe be ba 32 bb be 71 2f 88 be
       0.09665465 -0.49737313 -0.3656214 -0.26598695
000110 14 84 2c 3e 8c 6e 3b 3d ca 5c 99 bd b2 d2 14 be
       0.16847259 0.045759723 -0.07488401 -0.14533499
000120 f6 b0 ca bc f2 5c 78 3f 1c f2 dd bd 5b 25 15 3f
       -0.024742585 0.97016823 -0.10837194 0.58260125
000130 b9 a9 e1 3e 48 45 88 bd 26 d4 2c 3f 9e a1 e0 3e
       0.440748 -0.06653839 0.6751121 0.43873304
000140 f5 28 14 3f 37 2b 82 3e 8d 87 97 bd 55 25 c1 be
       0.57874995 0.25423595 -0.07398901 -0.37723795
000150 16 93 4f 3e 14 e4 de bd c0 c1 d1 3d 8c 9b bd 3d
       0.20270953 -0.10883346 0.10242033 0.09258184
000160 b2 fd 88 be c8 37 a4 bd 8d 33 3c bd 96 4e 1b bd
       -0.26756054 -0.08018452 -0.0459476 -0.037916742
000170 dc 42 cf be 39 f9 ea 3b 63 59 83 bd 67 0d dd be
       -0.40480697 0.007170823 -0.064135335 -0.43174288
000180 7b f9 e9 be 41 19 4e bf 0f 6e 21 bd a2 9e 63 3e
       -0.4569815 -0.80507284 -0.0394116 0.22228482
000190 67 94 a1 3e 85 a0 af be 69 52 08 bf cd 53 c6 3e
       0.31558535 -0.34302154 -0.5325075 0.3873581
0001a0 ac b0 86 3e a5 dc 48 3e 62 fe f6 bd cb 60 28 bd
       0.26306665 0.19615419 -0.120602384 -0.041107934
0001b0 13 94 85 3e b2 d6 4d be 3c 25 7f bd 9e e8 6d bd
       0.26089534 -0.20101431 -0.06229137 -0.05808317
0001c0 0b 87 5d be 8a 32 cf bb 5d 54 1f bd 7d 7f f3 bd
       -0.21633546 -0.0063231634 -0.038898814 -0.11889551
0001d0 99 99 0a 3d 94 5a 8a bd 7b 3f 95 be a0 54 1c be
       0.03383789 -0.06755558 -0.29149994 -0.15266657
0001e0 5e 8a cd 3e 30 b7 7d bc e4 23 7e be 27 15 aa 3e
       0.40144628 -0.01548557 -0.24818379 0.33219263
0001f0 d6 7d df bc 74 9f c9 be 99 99 b4 be 49 4d 27 be
       -0.027281683 -0.39379466 -0.35273436 -0.16338076
000200 5b 5d ed 3e f8 7c 0f bc 07 c1 48 3e ec 3a b1 be
       0.46360287 -0.008757822 0.19604884 -0.34615266
000210 c1 95 c7 be 4e 8b d0 3c 4b 36 d6 3d 87 e0 fe 3e
       -0.3898144 0.02545705 0.10459574 0.49780676
000220 9d ff 93 bd ae 2c 0c bf 73 19 c6 be 3d 9c 0d 3e
       -0.07226489 -0.54755676 -0.3869129 0.13829131
000230 bc 65 d5 3e ff c9 19 3f cf 1c 0f 3f 13 a0 00 3e
       0.4167918 0.60073847 0.55903333 0.12561063
000240 45 be 2b 3e ce 8d 36 3e c6 d8 b7 bd 97 df 9d be
       0.16771801 0.17827532 -0.08976893 -0.30834648
000250 8d 29 6e be 70 13 04 3e f9 91 67 be ee cc c3 3d
       -0.23258038 0.1289804 -0.22614278 0.095605716
000260 cd 23 21 3f 01 0a cc 3d 21 4d c2 3c bf 60 aa 3d
       0.6294525 0.099628456 0.023718419 0.08319234
000270 2c 14 04 bf 46 4f ba be cc 14 04 3f a4 c0 33 3d
       -0.5159328 -0.36388606 0.51594234 0.04388489
000280 b8 c6 07 bf 22 4d 36 3f 93 63 3a 3e 4e 29 cf be
       -0.53037596 0.71211445 0.18202047 -0.404612
000290 c5 c2 1d be cb 61 21 bf e4 f4 58 3e 75 ee d1 3e
       -0.1540633 -0.63039845 0.21187168 0.4100224
0002a0 34 73 ec be d8 ee f4 be 33 a8 05 bd 67 27 82 3e
       -0.46181643 -0.47838473 -0.03263111 0.25420687
0002b0 a3 c4 ca 3e 73 5d 8f 3d 1c c0 12 be a4 8f e7 3d
       0.39603147 0.07000246 -0.14331096 0.11306694
0002c0 14 6b 90 be c3 e6 68 bd d9 8e 43 3d c1 45 0b bf
       -0.28206694 -0.056860697 0.047743652 -0.5440331
0002d0 d4 f6 2e 3f e9 2e 71 bb d6 8c 07 3f 8e 21 9a 3d
       0.6834538 -0.0036801642 0.52949274 0.07525931
0002e0 d7 46 89 3d 10 14 b7 bc 67 05 6e 3e c6 1a 83 be
       0.06702965 -0.022348434 0.23244248 -0.25606364
0002f0 24 f0 d0 3d 7d df be bd 9a 0b f1 be 32 1c 9f bd
       0.10202053 -0.09319971 -0.47079164 -0.0776905
000300 80 5c e4 3e 7d ab 3b 3f 2e 38 02 bf cb b9 29 bf
       0.44601822 0.73308545 -0.50866973 -0.6629912
000310 4f f4 6d 3f 83 ff f3 3a 62 cb 4f be f2 64 12 3e
       0.9295091 0.0018615577 -0.20292428 0.1429632
000320 77 48 8a 3d 77 d3 56 bc 97 10 9f be d8 91 87 be
       0.06752103 -0.013111941 -0.31067345 -0.26478457
000330 52 ee 29 bf 55 67 14 bd 5d 33 5b be 0b 34 37 3e
       -0.6637927 -0.036231358 -0.21406312 0.17890947
000340 2e 23 b9 3e 75 ad f6 3e 91 2a 09 be 83 bf a9 be
       0.36159652 0.48179212 -0.13395144 -0.33153924
000350 87 56 09 bf 39 79 e2 be 6e 4b d6 be d2 5c 13 be
       -0.53647655 -0.4423311 -0.41854423 -0.14390877
000360 b1 b1 5e be 4b 47 22 bd 29 79 f9 bd a1 12 c5 3d
       -0.21747471 -0.03961877 -0.121813126 0.09622694
000370 12 ef 00 bf e2 11 c3 be 91 60 48 be 03 c6 2c be
       -0.5036479 -0.3809958 -0.19568087 -0.1687241
000380 d3 d2 de 3e bc e2 5c 3f 8b 29 8b 3e 99 7f 18 3e
       0.4352022 0.8628347 0.27180132 0.14892425
000390 59 9f 93 3c 56 28 3f 3f ba ed 55 3e 1c e9 ab 3e
       0.018020319 0.7467092 0.20891467 0.33576286
0003a0 43 e2 01 be b2 c2 9b be 06 79 ed be ef 19 76 3e
       -0.12683968 -0.30421978 -0.46381396 0.2403333
0003b0 c8 65 41 be e0 e6 b0 be 6b 2d d5 be e3 a8 f6 3b
       -0.18886483 -0.34551144 -0.41636214 0.007527457
0003c0 cb d6 f4 3d 59 bb 18 bd 79 80 0f be 5e 12 f3 3d
       0.11955031 -0.037288044 -0.14013852 0.11868738
0003d0 f6 f6 d1 be 75 95 72 3e ab 9d 20 bd a6 04 14 3e
       -0.4100873 0.23689826 -0.039212864 0.14454898
0003e0 7f 0f 1f 3e 68 33 91 3c 19 6e bd be f2 75 d8 3e
       0.15533255 0.017724708 -0.3699806 0.42277485
0003f0 da 8f fc 3d 0f 23 6d be 20 ea 97 bd 9b 8c 90 bd
       0.12332125 -0.23157905 -0.07417703 -0.07058068

bias f4 [10]
000000 d1 91 11 be 1d ff 87 3e 3d 39 10 be cc b8 f8 bd
       -0.14215781 0.26561823 -0.14084335 -0.12144622
000010 01 c3 27 3d 0b b4 88 3e 36 8b 65 bc 4e ad 0c 3c
       0.040957455 0.26699862 -0.014010241 0.008586241
000020 d8 0d 15 be 2b b1 ca bd
       -0.14556062 -0.09897073
