09 MNIST/MNIST.pt (torch, 441140 bytes, 6 tensors)

weight f4 [128, 784]
000000 9c 74 3f bc c8 6b e2 bc 6b 01 0c bd 57 bf 0b 3d
       -0.011685517 -0.027639285 -0.03418104 0.034118023
000010 c3 6f cc bc 7c c2 9e bc 0a 98 ae bc a0 bb d1 3a
       -0.024955636 -0.019379847 -0.021312732 0.0016001351
000020 94 e7 99 bb ea 9e 95 3c 5c 8e b3 bb 8c a0 f3 bc
       -0.0046967957 0.018264253 -0.005479617 -0.02973964
000030 53 e3 c0 3c d4 4d c6 bc 71 97 94 3c 0e 0c 74 3c
       0.023545897 -0.024207033 0.01813862 0.014895452
000040 d0 d0 21 3b 6a be a7 3c c0 0f e8 3b 60 57 9a 3c
       0.0024691112 0.020476539 0.0070819557 0.018840492
000050 b2 60 09 bc 20 6f f1 3a 2e 1c 2b bc 3c d1 c3 bc
       -0.00838487 0.0018419959 -0.01044373 -0.023903482
000060 15 f2 03 bd ea 0d c4 bc 5e d7 a2 bc 88 ad c7 3c
       -0.03221329 -0.023932416 -0.019878086 0.024374738
000070 43 ab 0c 3d ca 2d f8 bc 20 e1 7f bb 41 d7 09 3d
       0.034343015 -0.030295271 -0.0039044097 0.033652548
000080 2f 83 d1 3c eb d6 ef 3c e5 f4 39 3b 0c fa af 3c
       0.025575249 0.029277286 0.0028374728 0.021481536
000090 6c 6c ff bc ab 31 d3 3c 8e 18 af 3c d4 f7 d8 bb
       -0.03117963 0.02578052 0.021374013 -0.0066213403
0000a0 1e cf 8a 3c e3 70 f2 bc 05 04 df 3c 74 09 88 3c
       0.016944464 -0.029594844 0.027223596 0.01660607
0000b0 6d db 02 bd 1f 08 9f bb 97 14 6a 3c f0 00 cc ba
       -0.031947542 -0.004853263 0.014287136 -0.0015564244
0000c0 ad b7 eb 3c fa 02 fa 3c b1 f6 d4 3b ed 6b 89 3c
       0.028774107 0.030518997 0.0064991345 0.016775096
0000d0 f0 26 6d 3c 46 ed 7d bc 8e 6c d1 3c d0 51 69 3c
       0.014474615 -0.015498465 0.025564458 0.014240697
0000e0 01 f8 fc bc ce fb 6a bc 05 b0 7a bc 58 26 ee bc
       -0.030879976 -0.0143422615 -0.015300755 -0.029071018
0000f0 66 4e 2b 3c 4c 3a d4 3c 1d 5e ef 3c 77 21 07 bd
       0.010455703 0.025906704 0.029219681 -0.0329909
000100 e5 89 10 bd b7 f6 21 3b aa 4c b6 3c a1 1b 16 3d
       -0.035287756 0.0024713704 0.022253353 0.036647443
000110 bb 04 fc 3c 06 e4 fb 3c 39 18 88 bc e0 6c e7 3c
       0.030763974 0.030748378 -0.016613113 0.028250158
000120 96 d0 ca 3c b3 74 78 3d 07 4f 16 3c 0a 88 54 3c
       0.024757665 0.060658168 0.009174115 0.012971887
000130 4f 99 1b 3d 4a cc 50 3d 02 a6 ab 3c 1b a0 c1 bc
       0.037988003 0.050976075 0.020953182 -0.023635915
000140 13 db 10 3d 79 46 b3 3c 03 e4 01 3d 80 1e 20 3b
       0.035365175 0.02188419 0.03171159 0.0024432242
000150 8e 9c 80 bc 30 c1 28 bb ea f8 d6 3c 21 ea 2e bc
       -0.015699651 -0.0025749914 0.026241738 -0.010675938
000160 f4 ad e3 bc 43 54 a0 3c 17 57 fc 3c a5 07 c1 3c
       -0.027792908 0.01957143 0.030803246 0.023563216
000170 5c 6e df bb b9 00 19 bd 59 59 10 bd b0 09 18 bd
       -0.006818576 -0.037354205 -0.03524146 -0.037118614
000180 45 7e 38 bd c5 a1 8f bb 1e 85 ec 3b af 44 e3 3c
       -0.045042295 -0.004383298 0.0072180172 0.027742712
000190 64 c6 e4 3c 6f 8c 17 3b 2f 40 40 3d 52 7e cd 3c
       0.027926631 0.0023124476 0.04693621 0.025084648
0001a0 15 d4 41 3c e0 39 30 3d d7 8d 01 3d 65 25 1c 3d
       0.011830349 0.043023944 0.03162941 0.0381216
0001b0 d7 8c 4f 3c 86 56 be 3c 7b 75 ee 3c 4e 80 34 bc
       0.012667856 0.023234617 0.029108753 -0.011016918
0001c0 03 2f f2 bc 60 94 d9 3c 3f 0c b4 bc a5 6b e7 bc
       -0.029563433 0.026560009 -0.021978496 -0.028249571
0001d0 b2 91 9d 3b 90 15 ae 3b 85 13 c3 3c 69 85 9b bc
       0.004808628 0.005312629 0.023813019 -0.018984513
0001e0 0f 20 8e bc eb 4a 1f bd c2 4b 8e bd 89 2a bb bd
       -0.017349271 -0.038889807 -0.069480434 -0.09138972
0001f0 a4 90 3f bd 06 6e 9c 3c 75 59 f8 3b ea 47 b9 3b
       -0.0467688 0.019095432 0.0075790235 0.005654325
000200 2b 66 92 bc e8 06 0b 3d 70 92 80 3b ae 8b 7d 3d
       -0.017870983 0.033942133 0.0039237067 0.061900787
000210 45 b7 a6 3d 74 21 0a 3d 34 46 83 bc 2c 36 85 bc
       0.08140425 0.03372331 -0.016024686 -0.016261183
000220 1e 79 89 bc 50 df 44 bd cd f4 4a bc e9 83 04 bd
       -0.016781386 -0.04806453 -0.012387467 -0.03235236
000230 ad 00 05 bd aa b2 59 bc 82 de ea bc 81 d8 fa 3b
       -0.032471348 -0.013287226 -0.028670553 0.007655204
000240 03 45 f7 3c da b4 b0 bc cd f7 a9 bc 11 8b 72 3c
       0.030184275 -0.021570612 -0.020748043 0.014803664
000250 9a b9 c9 3a b1 ee 4f bd 30 7e cf bd 41 5d 57 bd
       0.0015390397 -0.050764743 -0.1013149 -0.05257917
000260 03 b0 62 bd a7 8e cf 3c 32 9a a6 3b 7c d5 aa 3d
       -0.05534364 0.025336577 0.0050842995 0.083415
000270 80 13 95 3d 73 1a 2a 3d a2 59 41 3d 67 7f c0 3c
       0.0727911 0.04152913 0.04720462 0.02349825
000280 30 61 c1 3c c0 65 9a 3c 6e a5 46 bb 4a 5d b3 bb
       0.023605913 0.018847346 -0.0030311006 -0.0054737674
000290 7c 7b ad 3c e3 4b fc 3b a7 e3 0f bd 55 1b 42 bb
       0.021177046 0.007699476 -0.035129216 -0.0029618342
0002a0 60 bb 12 3b d8 b4 ea bb 63 44 32 3c 42 96 98 ba
       0.0022389516 -0.0071626715 0.0108805625 -0.001164146
0002b0 92 14 2b bb 0c ef ee bc de 59 af bc 5d d2 e6 bc
       -0.002610479 -0.02916672 -0.021405157 -0.02817648
0002c0 e5 79 a8 bd e4 24 99 bd 58 d4 5f bd 01 86 80 bd
       -0.082263745 -0.074777395 -0.054645866 -0.06275559
0002d0 a6 7f 16 3d 86 c2 09 3d 0d 51 9c 3d 58 21 83 3d
       0.03674283 0.033632778 0.07632647 0.06402844
0002e0 fe 94 b8 3c 65 37 b9 3b 0c e4 e0 3c 12 cc f7 bb
       0.022531983 0.0056523555 0.027452491 -0.007562169
0002f0 02 66 17 bd 89 9f 02 bc 58 23 f1 bc 3e c9 06 bd
       -0.036962517 -0.007972606 -0.029435799 -0.032906763
000300 2f df dc bc 6e 6a bb bc ad 6e 05 bb 2e 27 21 3c
       -0.026961891 -0.022877898 -0.0020360157 0.009836001
000310 00 32 52 39 49 99 c7 bb ca de ac 3c 9e 25 11 3c
       0.00020045787 -0.006091271 0.021102328 0.008859066
000320 b5 39 6b bb c7 4b 07 bd 9e 41 3d bd d8 99 ad bc
       -0.003589255 -0.03303125 -0.046205156 -0.021191522
000330 fd e3 93 bd 78 92 a4 bd aa 15 34 bd 52 76 30 bd
       -0.0722122 -0.08035749 -0.043965973 -0.04308159
000340 9c b1 a8 3d c2 af 9f 3d a9 2b 8a 3d 47 2c d4 3c
       0.08237001 0.07797195 0.06746609 0.02590002
000350 e5 ed 86 bb 7d 64 d3 bc 66 7b 21 bd 48 d3 39 bd
       -0.0041177147 -0.025804752 -0.039424323 -0.04536751
000360 9c a8 2d bd fc 2a 80 bd 80 9e 71 3b 17 90 a6 3b
       -0.042397127 -0.062581986 0.0036868155 0.005083095
000370 a4 44 e0 3c 51 ca 62 bc 6c f9 93 bc a1 0e 98 3c
       0.02737648 -0.013842181 -0.01806327 0.018561663
000380 fd cf d0 bc f6 34 fa 3c 96 86 e1 3c d3 31 14 bd
       -0.025489802 0.030542832 0.027529996 -0.03618033
000390 0e 58 49 3b ca a1 67 bc d0 5a 90 bd a1 31 82 bd
       0.003072265 -0.014137695 -0.07048571 -0.06357122
0003a0 ec 13 57 bd cd bc e6 bd 70 45 f8 bd 5f 15 68 bd
       -0.052509233 -0.1126648 -0.12122619 -0.056661006
0003b0 1d 1c c6 3d 28 3c 17 3e f2 88 cf 3d e8 97 d9 39
       0.09673331 0.14769042 0.10133542 0.00041502644
0003c0 30 3f 25 bd 13 7a 6e bd cc f5 e9 bd 83 86 a0 bd
       -0.040343463 -0.058221888 -0.11423835 -0.07838156
0003d0 b4 ae be bd 41 9f 23 bd 15 70 43 3c 69 5e 7a 3a
       -0.09310666 -0.0399468 0.011928578 0.00095508114
0003e0 50 18 98 bc 5f 41 ba 3c 17 aa 12 bb 8f e4 dd bc
       -0.01856628 0.02273625 -0.0022379213 -0.027086524
0003f0 00 66 19 ba 0c a8 10 bc 95 60 dd bc ed a6 9f bb
       -0.0005851686 -0.008829128 -0.027023593 -0.004872194

bias f4 [128]
000000 ae 21 2c bd fa 95 76 3c 51 05 aa bd e0 d7 7e bc
       -0.042024307 0.015050406 -0.08301795 -0.015554398
000010 53 8c b0 3d 51 b6 4f 3d 02 7b 38 bd 06 1c 91 3d
       0.08620515 0.05071098 -0.045039184 0.07085423
000020 c8 b2 87 bc 36 67 47 3c c8 80 36 3c 2d 95 81 bd
       -0.016564742 0.0121706035 0.011139102 -0.06327281
000030 48 87 00 3a 01 ee f6 3b 6e 14 ba 3c e5 22 46 3d
       0.0004902971 0.0075356965 0.02271482 0.04837312
000040 66 cb 77 3d 80 c5 cd 3d 7c 52 55 bd dd a3 00 be
       0.06049671 0.10047436 -0.052080616 -0.12562509
000050 47 11 50 3d 18 23 94 3d 54 32 20 3d 61 11 f8 3b
       0.050797727 0.07233256 0.039110497 0.007570431
000060 05 3d d6 bd e7 4b dc 3b 41 91 8f 3c 0f f7 90 3d
       -0.10460857 0.0067229155 0.017525317 0.07078373
000070 a3 de 22 3d 09 89 bd 3b ec d3 36 3e fe ca 24 bd
       0.039763104 0.005784158 0.1785428 -0.04023265
000080 d6 bb 09 3d ed 91 69 3d 6f ec 93 3c 05 b5 70 bd
       0.0336264 0.05702393 0.018057076 -0.058766384
000090 5e 8d b1 3d 21 2c f3 3c 09 1c 5f 3d 3b b9 6b 3d
       0.08669542 0.029684128 0.054470096 0.057549696
0000a0 29 38 63 3d ee d6 d0 3c 6f 28 15 3e 54 8b 45 bc
       0.05547348 0.025493111 0.14566205 -0.012057144
0000b0 dd 0b 02 3d 05 ba 04 3e 44 b7 54 bc 52 4d fc 3b
       0.031749595 0.12961586 -0.012983147 0.007699647
0000c0 c8 9d 02 3c 3f 21 5e 3c c4 24 c0 3d 67 a4 3a 3d
       0.007972188 0.013557731 0.093820125 0.045566943
0000d0 30 75 fb bc 18 b1 c6 bb 8d 81 32 3d a2 d3 d8 3c
       -0.030695528 -0.0060635917 0.04358058 0.026468102
0000e0 7e 4c 13 bd f8 e3 99 3d d9 95 78 3d 5a 6b 35 bd
       -0.03596162 0.07514185 0.06068978 -0.04429183
0000f0 90 b6 9f 3d ca 38 0b 3d 1f 90 d5 3c 6d df 20 3d
       0.07798493 0.033989705 0.026069699 0.039275575
000100 4a 95 14 3d 81 6e 1c bd fe 14 a3 3a 39 b7 f0 bd
       0.036275186 -0.038191322 0.0012442169 -0.11753697
000110 f3 73 72 bd 03 94 61 bd 34 2f b3 3d 0c 14 df bb
       -0.05919261 -0.055072796 0.08749238 -0.0068078097
000120 16 68 fa 3d 83 c5 6f bd 17 91 91 3d 05 73 76 3e
       0.12226884 -0.05853797 0.07107752 0.24067314
000130 d7 32 c3 3c 70 28 00 bd 63 ec f0 3d 33 e6 ba 3d
       0.023827953 -0.031288564 0.11763837 0.09125938
000140 05 ad 92 bd af 73 24 bd 47 d9 e4 3c b7 3e 28 3c
       -0.07161907 -0.040149387 0.027935637 0.010268859
000150 bc cd ea 3c e9 87 7f 3d cb de d4 3d 7d a7 ad 3d
       0.028662555 0.062385473 0.10394057 0.084792115
000160 35 ce 1e bd 74 6f e5 3c 42 29 61 3d c5 30 73 3d
       -0.038770873 0.028007247 0.054970987 0.059372682
000170 15 c1 a7 b9 63 8f 0d be 61 d8 08 3c 30 92 76 3c
       -0.0003199658 -0.13824229 0.00835237 0.015049502
000180 8d 3d c7 3d 2e 61 87 3c da 2f a6 3b 2c 95 4c 3d
       0.09728537 0.016525831 0.0050716223 0.04994695
000190 d7 7f 47 bc 52 ea 14 3e a1 a9 af 3d c8 31 a2 3d
       -0.0121764755 0.14542511 0.08577276 0.07919651
0001a0 76 b5 b5 3d 1b 59 21 bd 26 08 65 3d 2e 96 d3 bd
       0.088725016 -0.03939162 0.055915974 -0.10331379
0001b0 f2 1b 74 3d 71 c1 08 be 6d 04 63 bd b4 2a 8d 3d
       0.059596963 -0.13355042 -0.055424143 0.068929106
0001c0 65 55 0c 3c 33 e3 88 3d c3 81 0d bd 5e 94 2e bd
       0.0085652815 0.0668396 -0.03454758 -0.042621963
0001d0 5d 5e a7 3d ed 53 ac 3d 99 48 a3 3d 37 e0 a0 bd
       0.08172295 0.08414445 0.07972831 -0.078552656
0001e0 32 36 27 3d b8 17 c2 3d 57 65 cc 3d ea e1 8b 3d
       0.04082317 0.0947718 0.099802665 0.06830199
0001f0 88 6c d9 3c 96 59 a9 3d 57 df 81 3b 63 24 8b bd
       0.02654101 0.0826904 0.0039633918 -0.067940496

weight f4 [64, 128]
000000 bd 79 a1 3d a0 d1 dd 3c 85 06 eb 3c 86 d2 9e 3b
       0.07884548 0.027077496 0.028689632 0.0048468737
000010 f9 8e 8a 3d 9c 5d 46 bd ab 72 6e be 7a 4a 7c 3d
       0.06765551 -0.048429117 -0.2328593 0.061594464
000020 7e df 4a bd 06 60 d4 bd 60 58 76 3c c6 ff e4 3d
       -0.049529545 -0.103698775 0.015035719 0.111815974
000030 45 59 14 3d 68 3e 09 3e ac 4a 63 3c a7 9f 0c 3e
       0.036217947 0.13402712 0.013872784 0.13732778
000040 6f b2 c1 3d ca 5e 43 3d 95 28 2f bd d1 25 1f 3d
       0.09457862 0.04769782 -0.04276331 0.038854424
000050 5e 46 bc 3d a1 c9 d5 3d f6 50 da bd 2b 8a 5d bd
       0.09193109 0.10438848 -0.10659973 -0.054086845
000060 2c 75 22 be ea b6 dd 3c 64 de a8 b9 87 24 e5 3c
       -0.1586501 0.02706476 -0.0003220915 0.02797152
000070 3c 59 0b be ab 05 f2 ba 02 01 e1 b8 d2 32 0c be
       -0.13608259 -0.0018464824 -0.00010729024 -0.13691261
000080 03 27 bd bc ae 23 7b 3c 65 65 6d 3d 0c 20 59 bd
       -0.023089891 0.015328331 0.057958025 -0.053009078
000090 2f 17 85 bd 43 2c 98 3d 4b a0 52 bd 61 86 96 bd
       -0.064985625 0.07430317 -0.0514224 -0.073498495
0000a0 c7 1d ae 3d 53 ce 4e 3b c0 2b 8e 3d 2a c7 44 bd
       0.08501773 0.0031556084 0.069419384 -0.0480415
0000b0 4f 04 c7 bd 52 1b 33 3b b1 13 37 3d 3a 7e 3a 3d
       -0.09717619 0.0027329517 0.044696514 0.045530535
0000c0 6e ea 75 3d 9f 69 17 be eb 1f 88 3d 1d eb b2 ba
       0.060038023 -0.14786385 0.06646713 -0.0013650391
0000d0 81 7d 37 bd 26 b7 22 3d 33 7e 10 bd b5 f2 63 bc
       -0.044797424 0.039725445 -0.035276603 -0.013912846
0000e0 34 3f 78 3b ab f5 ab bd 70 0f 90 3d c9 2a 71 bd
       0.003787947 -0.08396467 0.070341945 -0.058878694
0000f0 af 9c 77 3d df 13 8a 3b 4c dc 95 3d 0f b2 aa 3d
       0.06045216 0.0042137946 0.07317409 0.08334743
000100 18 00 2c 3c dd 04 b3 3c 91 e6 51 bd 3a 7b 73 be
       0.010498069 0.021852905 -0.051245276 -0.23777476
000110 c7 5c 05 be 06 c7 be 3d 14 f5 f6 3c fc cc 94 3c
       -0.13023673 0.093153045 0.03014616 0.01816415
000120 ab 40 41 3d 2d b1 18 3d 02 a2 1d 3d c2 29 29 3e
       0.047180813 0.037278343 0.03848458 0.16519836
000130 09 42 e5 3d 75 2c 01 bd b1 ff 90 bd 6a 95 f3 3d
       0.11194236 -0.03153654 -0.07080019 0.11893733
000140 b4 e3 02 be 46 8b 6f 3d e6 1b 2d 3c 3f 06 25 3e
       -0.12782174 0.05848243 0.010565734 0.16115664
000150 52 20 be 3d 0d 7e 4e 3d 59 34 2f bd 73 a7 1e 3e
       0.09283508 0.05041318 -0.042774532 0.15493564
000160 09 e8 8c 3d 4e cd 32 3d d7 c2 cc bc d8 76 8f bd
       0.06880195 0.043652825 -0.02499525 -0.070050895
000170 5e c1 30 be 4c 53 d6 bd 97 07 86 bd d5 37 0d 3c
       -0.17261264 -0.10465106 -0.065444164 0.008619268
000180 a0 7d 5b 3d 4b 77 06 3c 8c 72 8a 3c 94 f0 86 3d
       0.053586602 0.008207153 0.016900323 0.065888554
000190 20 77 d5 3c ef 0f 17 bd a1 ff 45 bd 16 1e 2d bd
       0.02605778 -0.03688043 -0.04833949 -0.04226502
0001a0 03 2e b1 3c 96 2a ca bd be 64 ef bd 36 b9 94 bd
       0.021628385 -0.09871404 -0.11689137 -0.07261889
0001b0 6a aa 6e bc 64 e6 8f bb c8 f2 a3 bd 41 0f b3 bd
       -0.014566997 -0.0043914784 -0.08005291 -0.08743144
0001c0 ca 0b 56 3e 55 b8 ed bd 4e de a8 bd 04 b8 83 3d
       0.20902935 -0.11607424 -0.08245526 0.064315826
0001d0 37 5b 19 3e 2b 04 b3 3b e3 d6 9d 3d 76 c0 f6 bc
       0.14976202 0.0054631433 0.07707002 -0.03012107
0001e0 df d7 8e bd 74 be 35 bd 1c ab 7b 3d 56 b1 70 3d
       -0.06974768 -0.044371083 0.06144248 0.05876287
0001f0 0c f7 56 3d 0b 98 c2 bd 55 48 30 3c 19 da 72 bd
       0.052481696 -0.09501656 0.010759433 -0.059290025
000200 3f db 28 3c 08 ed 04 3d 70 46 81 bd 9e 8c 1b bd
       0.010306179 0.032452613 -0.06312263 -0.0379759
000210 4e 1d ae bd b8 9f 4b 3d a7 ca 25 3d a5 e1 51 3d
       -0.08501683 0.049712867 0.040476467 0.051240582
000220 df 06 8c bd 3b 0f 7c 3b 93 5c 5e 3b 98 ed b4 bb
       -0.06837248 0.0038461227 0.003392969 -0.0055214874
000230 b1 aa aa bd 99 f4 9b bc d8 4e 22 bd c0 d0 97 bc
       -0.08333338 -0.019037532 -0.039625973 -0.018532157
000240 bc fe 33 3d f4 ec b3 bd 4f e8 18 3d 9d e8 a6 3c
       0.043944106 -0.087854296 0.03733092 0.02037459
000250 1f 80 36 3c 3f 62 8f bd 6a 0f 9b bd 9a d5 79 bd
       0.011138945 -0.07001161 -0.075712994 -0.060994722
000260 04 e1 b2 bd 79 5b 91 bd 54 f4 0c 3c 8e 00 a9 3d
       -0.087343246 -0.07097525 0.008603174 0.08252059
000270 87 a7 2d bd 46 95 32 bd f9 f3 1e bd dc 8b 5a 3c
       -0.042396095 -0.04359939 -0.03880689 0.013339009
000280 1e 5d 02 3d e5 83 19 3c 01 43 25 3c b7 49 7f 3d
       0.031827085 0.009369825 0.010086776 0.06232616
000290 e7 6b 80 bd 14 02 05 bd e9 e2 e5 3c 10 b3 70 bd
       -0.06270581 -0.032472685 0.0280623 -0.058764517
0002a0 70 3f 8c bc 71 b1 91 3d 65 7b a3 bd 26 fe 80 3d
       -0.017120093 0.071139224 -0.0798252 0.06298475
0002b0 53 11 95 3d 5a ab a5 3c 14 64 6a bb e7 3a a6 bd
       0.07278695 0.020223308 -0.0035765218 -0.081167035
0002c0 4a d3 a4 bd 02 be 7b 3d c3 30 4e bd cc ee 6e bc
       -0.08048113 0.061460502 -0.05033947 -0.014583301
0002d0 d8 b4 52 bd 03 fa 44 3c bb 56 05 bc e7 22 40 bd
       -0.051441997 0.012022498 -0.008138354 -0.046908285
0002e0 d5 16 74 3d f7 86 61 bd 48 86 58 bd 0e ef 9a bc
       0.059592087 -0.055060353 -0.052862436 -0.018912818
0002f0 12 ee 7b bc d9 98 1a bd 27 74 44 3d f0 2e f4 bb
       -0.015376585 -0.037743423 0.047962334 -0.0074518844
000300 c6 df 2a bd c8 ec 35 bd 0e 78 84 bc 00 c4 59 bc
       -0.041717313 -0.044415265 -0.016170528 -0.013291359
000310 22 c3 0d 3d 5d a1 79 bd 4d d7 7c bd 2a 82 91 3d
       0.03460992 -0.060944904 -0.061728764 0.07104905
000320 97 8f 8c 3c 65 3e 1e 3d 90 45 c3 3c 0d 25 80 bd
       0.017158313 0.038633723 0.02383688 -0.06257067
000330 85 42 09 3d 54 c4 82 bd 8a cd 36 3d f1 e9 ad bc
       0.033510704 -0.06385103 0.04462961 -0.021229716
000340 69 c2 83 bd b5 a1 28 3c 59 b2 ab 3b c5 78 9d 3d
       -0.06433565 0.01029246 0.0052397666 0.076890506
000350 79 4a 90 bd f3 86 82 bd 66 09 ae 3c fe 90 a1 3b
       -0.070454545 -0.06373396 0.021244716 0.0049306145
000360 ce bf 9d bc d6 07 9e 3d bc 19 8d 3c c7 3d 8e bc
       -0.019256499 0.07716338 0.017224185 -0.017363442
000370 16 ac 53 bc d3 03 f7 bb e9 76 48 bd 1d 11 93 bd
       -0.012919446 -0.0075382977 -0.048941527 -0.071809985
000380 86 00 3f 3d ae 38 72 bc d0 1b 91 bb f9 d6 c7 3b
       0.04663136 -0.014784021 -0.0044283643 0.006098625
000390 eb 80 8d bd f7 03 d0 3c 26 54 76 3d d3 86 5b bc
       -0.06909355 0.025392516 0.060138844 -0.013398844
0003a0 da 6b 96 3d ed 65 0a bd 82 b1 15 3b f7 71 a8 bd
       0.0734479 -0.03378861 0.0022841399 -0.08224862
0003b0 39 84 35 3d 87 fa f3 bc 5b 02 aa bd 30 97 85 3d
       0.04431555 -0.029782547 -0.083012305 0.06522977
0003c0 ed 83 59 3d b1 d4 ac 3c 4b b4 b4 3c 44 1c 8a 3c
       0.05310433 0.021097513 0.022058627 0.016859181
0003d0 8c 7a ed 3c 5d 26 cf bc 4d 1c 6f bd 80 01 ae bb
       0.028989099 -0.025286848 -0.0583766 -0.0053102374
0003e0 81 99 26 bd e6 76 c2 3c 8f f8 e3 bb 2f 1d 65 bd
       -0.040673736 0.023738336 -0.0069571207 -0.055936035
0003f0 61 e3 9d bd 13 d4 02 3d 82 25 53 bd fb 0c 4a bd
       -0.07709385 0.03194053 -0.051549442 -0.049328785

bias f4 [64]
000000 45 69 1f 3b 1f 09 ca bd 49 95 e2 3d 76 8b 02 bd
       0.002432422 -0.09865021 0.1106363 -0.03187128
000010 6b 5f e7 bc dd 8d 85 3d bc e3 a2 3d b2 22 67 3e
       -0.028243741 0.06521199 0.07953593 0.22571829
000020 fe 9c a5 3c 89 92 87 3d fa 98 f3 3c 87 d8 db 3d
       0.020216461 0.06619746 0.02973603 0.10734659
000030 b3 4f 83 3d be 01 03 3e b3 3d b3 bd a6 a3 09 bd
       0.06411686 0.12793633 -0.087520026 -0.033603333
000040 cf c7 22 bd 05 45 fd 3d c4 7a 3a 3d 84 b8 c2 ba
       -0.039741334 0.1236668 0.045527235 -0.0014856015
000050 93 e9 fb bd 7c c1 71 3c e8 d9 d8 3d 50 d0 04 3e
       -0.1230041 0.014755603 0.10588437 0.1297009
000060 06 5d 5e 3e a2 e8 24 bd 33 95 0b 3e 2f 4e 93 bb
       0.21715173 -0.04026092 0.13631134 -0.004495404
000070 eb 25 ca 3d 22 d4 d5 3d 3e 0e 4e bb 8f 26 00 3d
       0.098705135 0.10440852 -0.0031441594 0.031286772
000080 3a 57 97 3d 8f 9a 1e 3e 00 57 3a 3c 4e a7 49 3d
       0.07389684 0.15488647 0.0113732815 0.04923182
000090 98 df 46 3d 54 2c 57 3d c7 45 55 3e 33 58 82 3d
       0.04855308 0.05253251 0.20827399 0.06364479
0000a0 b4 4e 8e 3d 17 d2 25 bd ed b3 1c bd aa 5f ab bc
       0.06948605 -0.04048356 -0.038257528 -0.02091964
0000b0 69 42 b9 3c 50 17 7b bc de 1b 89 3d 7c b6 9b bb
       0.022614675 -0.015325382 0.06694768 -0.0047519784
0000c0 59 74 6c 3e 4e 21 cd 3d a6 c7 aa 3d c9 b4 af bd
       0.23091258 0.10016118 0.08338861 -0.08579404
0000d0 41 38 29 bd 38 ce 3a 3e e7 1b f8 bc 40 b4 74 3d
       -0.041313414 0.18242729 -0.030286742 0.059742212
0000e0 a1 8a e4 3d 89 53 10 3e 20 96 17 3e 62 1a 88 bd
       0.11159254 0.14094366 0.14803362 -0.06645657
0000f0 ad fa 6a 3d 59 52 dc 3d 73 3f be bd 1b e5 26 3e
       0.05736797 0.10757894 -0.09289446 0.16298334

weight f4 [10, 64]
000000 99 12 4a be 3f 4b 35 bd 6e 06 3e be 70 90 1d be
       -0.19733657 -0.044261213 -0.1855714 -0.1538713
000010 ce 1d c0 bc 96 58 a4 bd fb ed 28 bf 03 ac 08 be
       -0.023451712 -0.08024709 -0.6598813 -0.13346867
000020 81 c8 a0 be 56 c6 f3 bd df e8 b6 bd bf 50 ec be
       -0.31402972 -0.11903064 -0.089311354 -0.46155354
000030 6d 03 03 be 81 0b f9 3e 96 a8 fa bd b5 ab 90 3e
       -0.12794276 0.4864159 -0.122391865 0.28256002
000040 f4 17 09 be 2a 9c 82 be d1 7b 84 3e 61 97 3c bd
       -0.13388044 -0.2550977 0.25875714 -0.046042804
000050 a8 bb b3 bd 3e 2a 9f 3c 8a 41 19 3f f8 49 cf bc
       -0.08776027 0.019429322 0.5986563 -0.025303826
000060 63 42 da be d2 59 42 3e 7d de 1f 3c 9b 8a 81 3d
       -0.42628774 0.18979576 0.009757635 0.06325265
000070 b5 1b 22 3e 73 d3 77 bd 52 77 fd be 08 5b 4b 3f
       0.15830882 -0.060504388 -0.49505097 0.7943578
000080 a0 18 32 bf 5b d9 06 be 75 d8 1d 3f 62 51 6e 3d
       -0.69568825 -0.13168852 0.6165841 0.05818308
000090 8a 78 8a 3e bb 2e 45 be 92 c3 5d bd 4e 02 9b 3e
       0.2704509 -0.19256108 -0.05414159 0.30275196
0000a0 03 09 b2 3e 6b 55 6b bc dc f1 95 3b 28 80 62 3f
       0.347725 -0.014363627 0.004575951 0.884768
0000b0 0b 32 79 3d 63 dc c8 3d 30 2b 6f 3d 46 03 39 be
       0.06083874 0.098076604 0.058390796 -0.18067655
0000c0 4e 26 80 bd ed 15 7a 3e d6 3d 83 3d 4d 84 83 3d
       -0.06257306 0.24422427 0.06408279 0.06421719
0000d0 08 b2 67 3e 08 ad d7 bd 5e 2f 06 3f fb 53 21 3b
       0.22626507 -0.1053105 0.52416027 0.0024616707
0000e0 74 18 fa 3d a7 56 db bd d0 11 1c be 69 50 c4 3c
       0.12211695 -0.10709887 -0.1524117 0.023964124
0000f0 3b 5a d7 be 23 0c d3 be a0 b1 c2 3d 5e 66 9c be
       -0.42061028 -0.41220197 0.095065355 -0.3054685
000100 9d 17 85 bd 1d 4c 9d 3d 98 c5 0f 3f 56 a3 87 3d
       -0.064986445 0.07680533 0.5616088 0.06622951
000110 83 b8 a3 be 62 2a a8 be 0b e9 79 3e 51 69 ce be
       -0.3197671 -0.32844836 0.24405305 -0.40314725
000120 7b 18 b8 3e 0e 79 a2 bd 81 00 aa 3e 37 74 d2 3d
       0.35956177 -0.079332456 0.3320351 0.102760725
000130 f7 7b 4a be 46 f1 e0 bd 8e 1e b7 3d ae 23 d1 bd
       -0.19773851 -0.10983519 0.08941375 -0.102118835
000140 a3 b9 2c 3e ec 7f 66 be 66 5f c3 be e6 24 15 3e
       0.1686769 -0.22509736 -0.3815872 0.14564857
000150 2d 92 0b 3d 82 29 19 3f 24 02 41 bc 0f 48 79 3e
       0.03407495 0.5982896 -0.0117802955 0.24343894
000160 14 73 84 3e b0 c9 95 bd da 35 c1 3e 5b a7 00 3d
       0.25869048 -0.073138595 0.37736398 0.031409603
000170 1c 9f d6 be df d7 a2 be 49 68 52 3f 0a df 0c bf
       -0.41918266 -0.31805322 0.82190377 -0.5502783
000180 aa 44 ad bc 87 e8 87 3d 02 03 0e bf c0 56 f1 3d
       -0.021150906 0.06636148 -0.5547334 0.117841244
000190 04 ef 91 be 5d 5a 12 be 8e 74 ce 3e 7c 37 38 bf
       -0.28502667 -0.14292283 0.403233 -0.7195966
0001a0 5a 93 4f be a7 1c 60 be 60 6b d3 3d 7e 3d 04 be
       -0.20271054 -0.2188593 0.103232145 -0.12914082
0001b0 40 a6 fc bc 03 e5 8b 3e af f4 04 3d f3 c2 e6 3e
       -0.030840993 0.2732316 0.03245991 0.4507061
0001c0 7a 61 7d be 23 6b e8 be 67 6e a0 3e f8 f3 a0 bc
       -0.24744216 -0.4539424 0.3133423 -0.019647583
0001d0 bb 5e cd bc e7 06 6c 3e d1 f9 e2 bd 51 b4 42 3e
       -0.025069585 0.23049508 -0.11082805 0.19014098
0001e0 fd 9f e1 be 44 56 b8 be 2b 26 41 3f 0a 3f 14 bd
       -0.44067374 -0.36003315 0.75448865 -0.03619293
0001f0 87 7e b0 bd 33 26 0b 3f b5 de e7 bd 8b 5a 88 be
       -0.08617883 0.5435516 -0.11321775 -0.2663158
000200 8e a2 79 3d 91 2d 9d bd b9 7a 33 3f e9 c1 a7 3d
       0.06094604 -0.07674707 0.70109135 0.08191282
000210 cb 3c 29 3e a8 08 d1 3e 8c 43 69 bd db 46 02 3f
       0.16527097 0.40826917 -0.056949183 0.50889367
000220 de 3d da 3b c9 88 cd 3d 06 c3 83 3d b3 8c 77 be
       0.006660207 0.10035855 0.06433682 -0.24174766
000230 bd b5 e0 be 97 8b 39 be 0b 5e a2 be 46 f0 58 3f
       -0.43888655 -0.18119656 -0.31712374 0.8474163
000240 3f 01 00 be 5b 85 cc be 09 f4 a0 3c a9 8b e9 bd
       -0.12500475 -0.39945492 0.019647615 -0.11403591
000250 43 8b 8e be 98 07 e9 be dc 33 f3 3d ea 7f 29 be
       -0.27840623 -0.45513606 0.11875126 -0.16552702
000260 d9 a6 2f bf 9d 75 60 bd 00 b5 d3 be 1d bc b7 3d
       -0.68613964 -0.054799665 -0.4134903 0.08971427
000270 20 0f 8e bd 4e 2a ff 3e 89 b5 8a 3e 51 cc 22 3d
       -0.069364786 0.49836963 0.27091625 0.039745633
000280 37 34 22 be fe 1d 12 bd bb 96 a3 be ef a1 c4 3d
       -0.15840231 -0.035673134 -0.31950936 0.09601199
000290 d6 dc d5 bd 73 91 45 bf 64 a5 0d 3f 99 f9 02 3f
       -0.10442512 -0.7717506 0.5533049 0.51162106
0002a0 1c b9 b7 be 18 a4 30 3e 34 a4 52 bc 7c 4b 54 3e
       -0.35883415 0.17250097 -0.012856532 0.2073192
0002b0 30 80 db bd 65 70 a5 3d 34 1b 8f bd 56 bd 97 3e
       -0.10717809 0.08078078 -0.069876105 0.2963664
0002c0 ef 7f 15 bf 06 41 55 be 77 72 df be 45 dc 18 3b
       -0.58398336 -0.20825586 -0.43642017 0.002332465
0002d0 3b b0 bd 3d c8 35 05 3f c6 2a 8e be 57 10 d4 3e
       0.09262129 0.5203519 -0.2776701 0.41418716
0002e0 14 76 2c 3e 89 4d 22 3f 8a 3c 00 bf 1a e0 65 3d
       0.16841918 0.6339956 -0.50092375 0.056121923
0002f0 44 dc cc 3d 1d 4b 1b 3e 4a fe 8f bd 51 21 ba be
       0.1000295 0.15165372 -0.07030924 -0.36353543
000300 e6 c3 ba be 46 c4 c1 bd 30 1a 50 bf d5 70 74 bd
       -0.36477584 -0.09461264 -0.8128996 -0.059677918
000310 39 e1 74 3e 58 0a 1a 3f 31 7b 53 3f 65 bc 59 be
       0.2391404 0.60172033 0.8260985 -0.21263273
000320 ad 6d f1 be a8 c5 36 bd 6f 22 01 be 8c 30 fe 3e
       -0.47153988 -0.044622093 -0.12610792 0.49646413
000330 04 c0 9c 3e c7 a1 aa be b1 7f ce 3c f6 28 38 3e
       0.30615246 -0.3332655 0.025207372 0.17984375
000340 dd f1 2e 3f bb f2 0c 3f 5c 12 31 bb 5c 67 45 be
       0.68337804 0.5505788 -0.0027019 -0.1927771
000350 6c 2e 82 3e 4b 74 7c be d8 32 c0 be b0 27 1e 3e
       0.25426042 -0.24653737 -0.3753879 0.15444827
000360 9c 7d 65 be 74 d5 df bd 7f 92 ab be 29 9c 3e bd
       -0.22411197 -0.10929385 -0.33510205 -0.046535645
000370 5d a0 7e 3e f7 af f4 3e 5f 13 bd 3e 48 04 93 be
       0.24865861 0.477905 0.3692884 -0.28714204
000380 5b a8 88 3c 28 e6 c9 3c 5d 44 b9 3e 33 2f 2d 3d
       0.01668184 0.02464588 0.3618497 0.04228134
000390 1f 9a 00 3d 56 49 16 3f 01 06 da be 58 f6 cf 3e
       0.03139698 0.5870565 -0.42582706 0.40617633
0003a0 70 fe 99 be 8c ed 2a 3e c5 af 7e 3d 0e 32 85 be
       -0.30076933 0.1669218 0.062179346 -0.2601475
0003b0 c6 03 54 3d 6d 27 6d be 27 a5 bf 3d 2f b4 93 bd
       0.05176141 -0.23159571 0.09357672 -0.07212102
0003c0 4f 78 18 bf 78 77 9b be 2f 41 9b be 3f c3 a2 3d
       -0.59558576 -0.30364585 -0.3032317 0.079473965
0003d0 48 ca 46 bd b3 02 88 3e c9 3d da 3e ec 98 6c 3d
       -0.048532754 0.2656456 0.42625263 0.057763025
0003e0 f2 36 84 be 8b 2d ad 3c 7c d8 08 3f df 9b 7a 3d
       -0.2582317 0.02113988 0.5345533 0.061183807
0003f0 2b 5f 46 be 50 1a 33 bf df 61 f8 bd 4c 27 cd be
       -0.19372241 -0.69962025 -0.121280424 -0.40069044

bias f4 [10]
000000 4d b3 21 be 6d ab a7 3e 1d 63 a4 3d 10 e8 5c be
       -0.15791054 0.32747975 0.08026717 -0.215729
000010 84 15 21 3e 54 e9 89 3e 66 f2 8a 3d 30 ef e8 3d
       0.15730864 0.26935828 0.06784515 0.113737464
000020 1b 82 4c be d8 11 57 3d
       -0.19971506 0.05250725
