18 simple_sound_AI/decoder.pt (torch, 3045 bytes, 2 tensors)

weight f4 [7, 13]
00000000: 92f1 293f 7f82 c03e e1c3 fe3e bf4e 3bbe
00000010: 4526 68be 7bf0 373e 359f 22bf 9e60 1c3f
00000020: 7fed 443e dc91 86be 4916 b63e 4348 f6be
00000030: c4e2 703f 3099 aebe f13a fb3d 76ed 783e
00000040: 9349 b2be 96aa dabe f53a 2c3e 8818 183f
00000050: 39f4 393e 473d 80be a527 e03e dff4 a1bf
00000060: f995 653f 58c3 3d3f 8de8 a6be d389 c2be
00000070: 3034 2fbf a79f 1e3f 48ea 1f3f 697d cc3e
00000080: a3d7 16bf 6a1a 3b3f cfc2 c93e 23b5 f23e
00000090: 0c9f 81bc c244 283f d6a9 13be 7548 343f
000000a0: 6bc0 f5be 5dcf 413e 9054 b1be 517d b83e
000000b0: 5a02 8fbf 5dda fc3c 75c2 243f 34bd 41be
000000c0: 2d18 43bf 7a7e 7dbf 04a6 c33e 405d f4be
000000d0: 2992 1bbe c9fc 863e bb7c 29bf a219 35be
000000e0: f3c9 1fbf e851 44bf a026 40bf 88a2 08bf
000000f0: ee4e 133f f65e 7fbe 9cab c83d ffee 31be
00000100: 56f4 66be 1b6e 97be d11c 6b3f 436f 23bf
00000110: 230e 89be 7dd8 4d3f ac61 57bf fe0f 913f
00000120: 41c6 e1bd af57 813e 5036 263e de51 833e
00000130: e0cd febe a040 f13d 06c8 aebd 0b73 5dbd
00000140: db07 fc3e 189f 893d 8e5b bc3e 7c94 bf3e
00000150: 0df4 56bd 0dfb 6ebf 9009 febe 8d08 60bf
00000160: 98f9 963e 6cc2 513f f56c 2d3e
0.6638423 0.3759956 0.4975882 -0.18291758 -0.22670849 0.1796283 -0.6352418 0.61084926
0.19231223 -0.26283157 0.35563877 -0.48102006 0.94096017 -0.34101248 0.122671016 0.24309334
-0.34821758 -0.42708272 0.16819365 0.5941243 0.1815957 -0.2504675 0.43780246 -1.2652854
0.89681965 0.74126196 -0.32599297 -0.37995777 -0.68439007 0.6196236 0.6246686 0.3993943
-0.58922786 0.7308718 0.3940644 0.4740382 -0.01582291 0.65729916 -0.14420256 0.7042306
-0.47998366 0.18926759 -0.3463483 0.3603311 -1.1172593 0.030865842 0.6435922 -0.18919832
-0.76208764 -0.9902111 0.38212597 -0.47727394 -0.15192474 0.26364735 -0.6620595 -0.1768556
-0.62417525 -0.7668748 -0.7505894 -0.53373003 0.5754231 -0.24938568 0.09798357 -0.17376326
-0.22554144 -0.2957619 0.91840845 -0.63841647 -0.26768598 0.8040846 -0.8413341 1.1333005
-0.11024142 0.2526221 0.16231656 0.25648397 -0.49766445 0.11779904 -0.08534245 -0.05406479
0.49224743 0.06719798 0.367886 0.37417972 -0.05247884 -0.93351823 -0.4961667 -0.8751305
0.294873 0.8193729 0.16936095

bias f4 [7]
00000000: 4db1 a33d ddca 953d eb19 e53b 9afb 5e3d
00000010: 79c8 2b3e 886e c63b 04d7 883e
0.07992802 0.07314084 0.006991615 0.054439165 0.16775693 0.006055657 0.26726544
