14 Movies/simple_movie_LSTM.pt (torch, 54316 bytes, 6 tensors)

weight_ih_l0 f4 [40, 300]
0.034894705 0.058939043 0.1046865 -0.01572071 0.14745913 -0.4750755 -0.38030028 -0.48950353
-0.038484603 -0.072654895 -0.35240397 0.10744365 -0.07023625 -0.41855907 -0.033784553 -0.29406658
-0.022285536 0.12619314 0.16822125 -0.101061225 0.16951793 0.0053624325 0.65451014 -0.1895209
-0.037205525 -0.6802551 -0.30419022 0.41165408 -0.07603224 0.20103821 0.13260947 0.2512148
-0.4577043 0.008494239 -0.026984055 -0.7315777 0.75222766 -0.4157915 0.30514106 0.2586434
0.03873242 -0.14134488 0.36628577 -0.3362327 -0.22287583 -0.37344497 -0.01715703 -0.45827207
-0.040423173 -0.4994419 0.37967187 -0.35021874 0.25579947 0.36282572 0.24147601 -0.3731811
0.41160777 -0.43998492 -0.094806395 -0.35269892 -0.028014893 0.23478341 0.21605758 0.054259807
0.20924093 0.113428585 -0.5321609 0.092972375 -0.5594861 0.01186744 0.047649052 0.027803771
-0.04586198 -0.24497803 0.4854842 -0.40371147 0.31170633 -0.23462014 0.15862547 0.30968922
0.26615447 0.30780554 -0.26640362 -0.3444419 0.32012573 0.24060844 -0.18523358 -0.3051879
-0.09573865 0.13845648 0.52349913 0.1019641 -0.38800275 0.032954276 -0.19969465 -0.06650801
0.1858656 0.4684908 0.28463107 -0.14079426 -0.23250115 -0.20633294 0.40366003 -0.41853988
-0.31410167 -0.17996775 -0.44491386 -0.12896045 0.0778739 0.052659087 0.33933288 0.098005176
-0.5569259 0.23460595 0.093855835 -0.11344016 0.17021254 0.40236893 -0.46289515 0.25974223
0.42154372 -0.009081407 0.0017567656 -0.08094513 0.59783953 -0.2416158 -0.4569822 0.19308071
0.05932077 0.39173272 -0.4580366 -0.20625491 0.19750899 -0.07401907 0.28141916 0.15077063
0.012934038 0.21070422 0.12796219 0.01596426 -0.059368804 -0.065071926 0.19028649 -0.06537411
-0.10179076 0.0058894884 -0.24542938 -0.53576267 -0.09473649 -0.39442122 0.35697126 0.1153445
-0.040132176 0.035785854 0.22794795 -0.15413098 0.16537073 0.641417 0.12644108 -0.5322757
-0.017917251 0.1785825 0.48253548 -0.038028087 -0.1811434 -0.22958292 -0.2699038 -0.33714306
0.17994496 0.05355546 0.08844358 0.07255423 -0.072106935 -0.5195837 -0.06998709 0.08007115
-0.19958682 0.3474683 -0.08759872 0.115375444 -0.5304607 0.12822829 0.62063223 0.21971144
-0.56363994 -0.19299577 -0.1867566 0.2479985 0.22838119 0.5175519 -0.048256744 -0.35133812
-0.56782496 -0.4124433 0.18293403 -0.748538 -0.3721119 -0.87951213 0.13904953 -0.103028946
-0.38707006 0.17415307 -0.22777154 0.21170212 0.1371901 0.06704575 0.10516151 -0.05405792
-0.050368536 -0.016772643 -0.63372636 0.005798584 -0.15700577 0.18153754 -0.5892544 0.2681446
0.31964183 0.13503383 0.2987193 -0.394269 -0.14823748 -0.050903916 0.16638668 -0.1591625
-0.19105129 0.3618891 -0.46945322 -0.32200265 -0.32985225 0.046075903 -0.31003287 -0.21634269
0.23720695 -0.010609198 -0.40308765 -0.5328419 -0.22342484 -0.73122436 -0.31773686 0.40125966
-0.2838739 0.3197754 0.34905645 -0.16749807 -0.32600784 0.14944433 -0.010897096 0.09890753
0.63812894 -0.3201336 0.088341564 0.43013182 0.3335879 -0.19646184 0.33675578 -0.24036592
00000000: c0ed 0e3d 116a 713d e065 d63d b8c8 80bc
00000010: 87ff 163e 193d f3be b8b6 c2be 35a0 fabe
00000020: 08a2 1dbd 17cc 94bd 4b6e b4be 6b0b dc3d
00000030: 06d8 8fbd 604d d6be ac61 0abd e58f 96be
00000040: 2890 b6bc c638 013e 3142 2c3e 30f9 cebd
00000050: 1c96 2d3e 58b7 af3b fa8d 273f c411 42be
00000060: d264 18bd 3325 2ebf d2be 9bbe 53c4 d23e
00000070: cbb6 9bbd f6dc 4d3e c7ca 073e 3a9f 803e
00000080: 3858 eabe 6c2b 0b3c aa0d ddbc ad48 3bbf
00000090: fe91 403f a0e2 d4be 733b 9c3e e86c 843e
000000a0: e3a5 1e3d b6bc 10be cf89 bb3e b126 acbe
000000b0: 9039 64be 2e34 bfbe e68c 8cbc a3a2 eabe
000000c0: c592 25bd d9b6 ffbe 5a64 c23e df4f b3be
000000d0: 26f8 823e 4bc4 b93e 7d45 773e 9811 bfbe
000000e0: 41be d23e b445 e1be db29 c2bd f494 b4be
000000f0: 7d7f e5bc 106b 703e 333e 5d3e 883f 5e3d
00000100: 4143 563e 3f4d e83d b23b 08bf 4d68 be3d
00000110: 7b3a 0fbf a76f 423c a72b 433d bcc4 e33c
00000120: c6d9 3bbd 85db 7abe 6391 f83e 45b3 cebe
00000130: f997 9f3e 4340 70be b76e 223e 968f 9e3e
00000140: 6645 883e b098 9d3e 0e66 88be b05a b0be
00000150: 85e7 a33e 0f62 763e dfad 3dbe 9741 9cbe
00000160: a012 c4bd 89c7 0d3e 0a04 063f 8ed2 d03d
00000170: 4ca8 c6be 10fb 063d c17c 4cbe 5a35 88bd
00000180: 8d53 3e3e 07de ef3e 2abb 913e 5f2c 10be
00000190: c814 6ebe f148 53be 87ac ce3e dc4a d6be
000001a0: efd1 a0be 7749 38be c0cb e3be 350e 04be
000001b0: 5a7c 9f3d 0eb1 573d 0abd ad3e f0b6 c83d
000001c0: b292 0ebf 8b3c 703e 7d37 c03d 5153 e8bd
000001d0: 324c 2e3e 4d03 ce3e 9800 edbe effc 843e
000001e0: 94d4 d73e 2fca 14bc 4643 e63a 8fc6 a5bd
000001f0: 030c 193f 226a 77be 92f9 e9be f3b6 453e
00000200: 56fa 723d 3191 c83e c683 eabe 7d34 53be
00000210: cc3f 4a3e 4f97 97bd 2c16 903e 9e63 1a3e
00000220: 4ae9 533c d9c2 573e 8508 033e 7bc7 823c
00000230: b42c 73bd 6e44 85bd 76da 423e dde2 85bd
00000240: ad77 d0bd 9cfc c03b d751 7bbe be27 09bf
00000250: 3405 c2bd 94f1 c9be f0c4 b63e bd39 ec3d
00000260: a361 24bd 3094 123d 306b 693e 83d4 1dbe
00000270: f256 293e e833 243f c579 013e 3843 08bf
00000280: 33c7 92bc 55de 363e e40e f73e 57c3 1bbd
00000290: a87d 39be c917 6bbe d530 8abe 049e acbe
000002a0: 7e43 383e f85c 5b3d e821 b53d 5097 943d
000002b0: cdac 93bd 7003 05bf 6455 8fbd 58fc a33d
000002c0: 7d60 4cbe 5de7 b13e f566 b3bd f649 ec3d
000002d0: 46cc 07bf 474e 033e c1e1 1e3f 09fc 603e
000002e0: b54a 10bf afa0 45be 1f3d 3fbe 52f3 7d3e
000002f0: c2dc 693e 487e 043f dda8 45bd 97e2 b3be
00000300: fa5c 11bf c52b d3be 0f53 3b3e 30a0 3fbf
00000310: 7385 bebe b527 61bf 0063 0e3e d700 d3bd
00000320: 0c2e c6be 2f55 323e f13c 69be 71c8 583e
00000330: 907b 0c3e 484f 893d eb5e d73d d66b 5dbd
00000340: 3d4f 4ebd c866 89bc e43b 22bf 0c02 be3b
00000350: 1fc6 20be fae4 393e 60d9 16bf 404a 893e
00000360: 18a8 a33e 4f46 0a3e bcf1 983e a0dd c9be
00000370: 91cb 17be a080 50bd 4561 2a3e 7ffb 22be
00000380: f3a2 43be 8749 b93e 2c5c f0be 88dd a4be
00000390: 65e2 a8be 16ba 3c3d a1bc 9ebe f088 5dbe
000003a0: 61e6 723e 34d2 2dbc 8161 cebe 5468 08bf
000003b0: 7bc9 64be 8531 3bbf 68ae a2be e871 cd3e
000003c0: eb57 91be 9ab9 a33e 87b7 b23e 9d84 2bbe
000003d0: 80ea a6be ef07 193e bc89 32bc 0890 ca3d
000003e0: 6b5c 233f 8de8 a3be 6cec b43d 3d3a dc3e
000003f0: 09cc aa3e 4b2d 49be 416b ac3e 7c22 76be

weight_hh_l0 f4 [40, 10]
-0.29185048 -0.31364697 0.014525625 -0.08833731 0.04379003 0.035959862 -0.0058408543 -0.06256878
0.23796704 0.18517227 0.41659054 0.060266707 0.11116093 -0.40731746 0.10958021 -0.0986732
0.4480977 -0.3167405 0.0192395 0.1888182 1.4011014 -0.9438076 0.61995804 -1.739185
1.3081756 1.4680701 1.053799 1.3092126 0.6116755 0.49181435 0.30876845 0.43382457
0.12743154 0.6183602 0.36975786 0.36971453 1.339541 0.59035903 0.32526556 0.361678
-1.1525894 -0.29853162 -0.5331437 -1.9772694 1.1476048 3.1403174 2.2532916 0.9291144
0.22830997 -0.12573588 0.06959262 -0.7553671 0.06960243 -0.4947627 0.10685389 0.56242573
0.030308142 0.32358074 0.39351723 1.1961944 0.8046668 0.025365714 -0.23899917 -0.7818737
0.10298218 1.1088536 0.27906585 0.52975726 0.2016175 -0.12611245 -1.5643581 -0.73568714
1.2362512 -1.0601095 1.8879075 2.5359268 0.20207804 0.80371505 0.11279929 1.4621217
0.1361555 -0.9996543 0.84925056 -1.7239158 0.99046797 2.1157522 2.2878609 0.6309426
-0.35680452 0.8523383 -0.560301 1.0334066 0.57505006 -0.07345747 1.03235 0.997922
0.71307427 0.010116687 0.8828787 0.4055293 -0.36482626 0.3420192 -0.3875878 -0.67312235
0.38178304 0.20578338 -0.2501712 0.18947706 0.18537517 -0.36638594 0.15682647 -0.0027579472
-0.1952136 -0.02177416 0.1737471 -0.56611586 -0.5750355 -0.54095584 -0.3618202 -0.113176584
1.1392332 -0.64654595 0.27245462 -0.040086165 -0.52501136 -2.2345538 -0.2989252 -0.14084189
-0.39495927 -0.23581089 0.25258493 0.104990534 -0.5929867 0.38263956 0.54790974 -1.5039841
-0.27705586 -0.5200178 0.47950745 -0.5404878 -0.19614671 0.20445623 1.1105651 0.72527844
0.39966935 -0.6863881 -0.736552 0.49305508 -0.47056624 -0.895017 0.3077529 0.31583664
0.460377 0.07425499 0.06804447 -1.143086 -0.14824653 0.31455627 -0.35709798 0.07692867
-0.49816424 0.34500322 -0.64948493 0.3352603 -0.34048375 -0.32003373 -0.69748765 -0.18051128
-0.5869303 -0.7760946 0.9875887 -1.5208393 1.0622782 -1.2701185 0.1413991 -1.9319283
0.6098234 -0.39522138 -1.1551288 0.041254465 -0.7417088 -0.2950249 0.7227023 1.6340519
-0.74264044 -1.8074034 0.28759277 -1.046349 0.6262587 -0.35007045 1.1376073 0.7411701
0.19608636 0.86579555 0.45239714 -0.8954623 1.005391 0.48659775 0.93260694 -0.35857913
-0.07430359 -0.9929882 0.31478146 -0.35828862 0.29821694 0.056898903 -0.09090657 0.20908904
-1.1244682 -0.12071323 0.34705192 -0.9097386 0.57932246 -0.14830706 -1.401365 1.2179534
0.9711265 0.029698119 -0.98927736 -0.36873147 0.5146834 -0.5019853 0.3402429 -0.2441175
-1.6095523 -0.20285513 -1.0590446 -0.77213395 -0.63298905 0.5291042 0.71461236 -0.67081434
-1.1644502 -0.34534147 1.4947847 -0.40443513 1.0867052 0.7681759 0.8994888 -2.434065
0.4218053 -0.25608647 -0.73298913 0.18635073 -0.51544374 -0.22295398 0.2263381 0.31542668
1.0894542 -0.18245074 0.39956722 -0.19967727 -0.8077288 0.7751922 0.6240749 0.558764
00000000: 6d6d 95be 5696 a0be e3fc 6d3c 31ea b4bd
00000010: 2d5d 333d a64a 133d a364 bfbb 0f24 80bd
00000020: a2ad 733e cd9d 3d3e 5b4b d53e 39da 763d
00000030: 57a8 e33d ea8b d0be 976b e03d 2d15 cabd
00000040: 106d e53e d02b a2be 289c 9d3c 8f59 413e
00000050: 4a57 b33f 609d 71bf 92b5 1e3f 9d9d debf
00000060: 4c72 a73f b9e9 bb3f e3e2 863f 4794 a73f
00000070: c496 1c3f 17cf fb3e e616 9e3e 411e de3e
00000080: 6a7d 023e db4c 1e3f e750 bd3e 394b bd3e
00000090: 1476 ab3f c521 173f 3589 a63e dc2d b93e
000000a0: 0d88 93bf 23d9 98be 1b7c 08bf 2a17 fdbf
000000b0: b7e4 923f f6fa 4840 ee35 1040 71da 6d3f
000000c0: 17ca 693e e8c0 00be 9386 8e3d bd5f 41bf
000000d0: b88b 8e3d 8951 fdbe 36d6 da3d 22fb 0f3f
000000e0: c848 f83c 60ac a53e 177b c93e e61c 993f
000000f0: a5fe 4d3f c2cb cf3c 33bc 74be e028 48bf
00000100: 52e8 d23d eaee 8d3f b8e1 8e3e 2c9e 073f
00000110: d174 4e3e 9f23 01be e33c c8bf fe55 3cbf
00000120: 7b3d 9e3f abb1 87bf f4a6 f13f a04c 2240
00000130: 8ced 4e3e 45c0 4d3f 5003 e73d ce26 bb3f
00000140: 596c 0b3e 58e9 7fbf 7c68 593f 46a9 dcbf
00000150: 4f8f 7d3f 7c68 0740 506c 1240 7485 213f
00000160: 15af b6be d832 5a3f e36f 0fbf ab46 843f
00000170: 7b36 133f df70 96bd 0b24 843f d177 7f3f
00000180: 098c 363f 76c0 253c 5704 623f 89a1 cf3e
00000190: 82ca babe 241d af3e e871 c6be bf51 2cbf
000001a0: 1179 c33e e1b8 523e 7116 80be 4606 423e
000001b0: fdd2 3d3e f096 bbbe 1e97 203e adbe 34bb
000001c0: 13e6 47be b95f b2bc c3ea 313e f8ec 10bf
000001d0: 8735 13bf 157c 0abf 7f40 b9be 20c9 e7bd
000001e0: 65d2 913f 0984 25bf 2c7f 8b3e 6431 24bd
000001f0: 2567 06bf ee02 0fc0 b90c 99be db38 10be
00000200: 1a38 cabe 6978 71be d052 813e 4705 d73d
00000210: facd 17bf 55e9 c33e d043 0c3f 8d82 c0bf
00000220: 44da 8dbe e31f 05bf 0082 f53e 695d 0abf
00000230: afda 48be f95c 513e ff26 8e3f d9ab 393f
00000240: 76a1 cc3e 21b7 2fbf ac8e 3cbf b771 fc3e
00000250: 0fee f0be d61f 65bf ca91 9d3e 57b5 a13e
00000260: 89b6 eb3e 0013 983d e65a 8b3d a450 92bf
00000270: f0cd 17be 850d a13e 8cd5 b6be c78c 9d3d
00000280: 620f ffbe 43a4 b03e a544 26bf 3da7 ab3e
00000290: e353 aebe 76db a3be 8d8e 32bf f3d7 38be
000002a0: 1041 16bf 23ae 46bf 9dd2 7c3f ddaa c2bf
000002b0: bbf8 873f 3e93 a2bf edca 103e 6d49 f7bf
000002c0: 631d 1c3f 755a cabe 43db 93bf 71fa 283d
000002d0: a1e0 3dbf 810d 97be 0503 393f 9d28 d13f
000002e0: af1d 3ebf ff58 e7bf 5c3f 933e c4ee 85bf
000002f0: 7d52 203f 6f3c b3be 1e9d 913f 53bd 3d3f
00000300: ddca 483e c7a4 5d3f 99a0 e73e 043d 65bf
00000310: a7b0 803f 5723 f93e 54bf 6e3f af97 b7be
00000320: 7b2c 98bd 7a34 7ebf 092b a13e 9b71 b7be
00000330: e4af 983e d30e 693d 392d babd 701b 563e
00000340: 93ee 8fbf 7f38 f7bd cab0 b13e a1e4 68bf
00000350: 7a4e 143f cedd 17be ee5f b3bf e6e5 9b3f
00000360: bf9b 783f 7849 f33c 4841 7dbf 5fca bcbe
00000370: 4bc2 033f 1c82 00bf 5134 ae3e f0f9 79be
00000380: cf05 cebf 41b9 4fbe c68e 87bf 92aa 45bf
00000390: 920b 22bf 5f73 073f d6f0 363f 7dba 2bbf
000003a0: b40c 95bf 99d0 b0be 1b55 bf3f 1f12 cfbe
000003b0: 2819 8b3f 2da7 443f e644 663f b9c7 1bc0
000003c0: ddf6 d73e c41d 83be 2da5 3bbf bad2 3e3e
000003d0: 1ff4 03bf 0c4e 64be 2dc5 673e 9b7f a13e
000003e0: 3c73 8b3f 5ed4 3abe 1394 cc3e 3378 4cbe
000003f0: 51c7 4ebf ff72 463f 5fc3 1f3f 280b 0f3f

bias_ih_l0 f4 [40]
-0.17628773 -0.35622078 -1.3745772 -0.6601484 -1.4168063 -0.78423643 -0.8100912 -1.6036448
-1.5153526 -0.8784745 0.36967638 0.029974893 0.9116406 0.03642515 1.1807473 0.7527229
0.013355009 1.1466364 0.96749973 0.10336849 0.23227356 -0.042457163 -0.9798123 -0.14487107
-1.051046 0.3437097 0.9090296 1.1005468 -1.0205181 0.6200395 0.14379203 -0.34460378
0.056467455 0.18265678 0.12656805 0.2854589 -0.18259215 -0.054149743 0.020136315 0.34333968
00000000: c584 34be 9262 b6be 25f2 afbf 7cff 28bf
00000010: e959 b5bf b8c3 48bf 2362 4fbf 3c44 cdbf
00000020: 13f7 c1bf b4e3 60bf 3946 bd3e e88d f53c
00000030: 4761 693f 8a32 153d ba22 973f 73b2 403f
00000040: f8ce 5a3c fbc4 923f 10ae 773f dcb2 d33d
00000050: 1fd9 6d3e 90e7 2dbd fbd4 7abf 1559 14be
00000060: ad88 86bf b8fa af3e 2ab6 683f b8de 8c3f
00000070: 56a0 82bf e9ba 1e3f 383e 133e e86f b0be
00000080: 6b4a 673d 610a 3b3e 0e9b 013e ab27 923e
00000090: 70f9 3abe 1fcc 5dbd eaf4 a43c 38ca af3e

bias_hh_l0 f4 [40]
-0.21366234 -0.16404659 -1.5386301 -0.65570223 -1.4947838 -0.8031732 -0.60622555 -1.484478
-1.6764826 -0.840701 0.20715457 -0.14871821 0.69062704 0.24128896 1.2046065 0.6015051
-0.37121072 1.1563565 0.75865185 0.1637612 0.21957205 -0.1656325 -1.1850897 0.14374614
-1.3219582 0.3200423 0.7438414 0.77119344 -0.88052326 0.73485535 -0.14208779 -0.36692882
0.12762016 0.19264753 -0.012004306 0.01945243 0.11223266 0.12762699 0.20200299 -0.09975736
00000000: 4dca 5abe d4fb 27be d5f1 c4bf 1adc 27bf
00000010: 1355 bfbf c29c 4dbf 9931 1bbf 6003 bebf
00000020: fb96 d6bf 2e38 57bf 5420 543e 9649 18be
00000030: efcc 303f 7414 773e 8c30 9a3f 3dfc 193f
00000040: 550f bebe 7d03 943f 0237 423f 04b1 273e
00000050: 7fd7 603e 919b 29be 05b1 97bf 3032 133e
00000060: ed35 a9bf 96dc a33e 646c 3e3f ef6c 453f
00000070: f969 61bf 7b1f 3c3f 767f 11be 18de bbbe
00000080: dcae 023e 6545 453e b5ad 44bc b45a 9f3c
00000090: 3dda e53d a6b0 023e dfd9 4e3e 964d ccbd

weight f4 [2, 10]
1.802559 -0.5169072 2.0773652 -2.0612643 -1.7914137 -0.31932482 -1.5238893 -2.6653948
-3.2663496 0.9566422 -2.2154837 2.4873729 -2.5143867 1.5549158 3.027684 1.1399294
2.4271836 4.826717 2.7755601 -1.9340328
00000000: 41ba e63f 0854 04bf 8df3 0440 c1eb 03c0
00000010: 0b4d e5bf 8b7e a3be ce0e c3bf d495 2ac0
00000020: df0b 51c0 81e6 743f 7cca 0dc0 1e31 1f40
00000030: b6eb 20c0 7b07 c73f 93c5 4140 35e9 913f
00000040: fa56 1b40 7774 9a40 c7a2 3140 638e f7bf

bias f4 [2]
1.5411903 1.5922469
00000000: b945 c53f bfce cb3f
