14 Movies/simple_movie_LSTM.pt (torch, 54252 bytes, 6 tensors)

weight_ih_l0 f4 [40, 300]
-0.1821709 -0.039399773 -0.08999894 -0.14840151 0.39528877 -0.8444035 -0.013883249 -0.061356228
0.7035253 -0.65795565 0.73788905 -0.20297627 0.1919817 0.14328043 -0.32703912 -0.9317687
-0.59630257 0.16745357 0.12900925 0.6171408 0.5992257 -0.4583221 0.0997334 -0.017392725
0.14216357 0.42102498 0.082678825 -0.21055114 -0.770559 0.19779983 -0.22057697 -0.2132698
-0.460197 0.17557946 -0.31373158 0.2550659 -0.79132766 1.0921408 -0.3137018 -0.21460167
0.004485324 0.7697384 0.7300733 -0.62148255 -0.20944196 0.081015274 0.23691401 -0.7611716
-0.11020546 0.46587047 -0.8247533 0.6220572 -0.49427286 0.55666465 -0.2227557 -0.019265987
0.8175446 -0.85753965 0.79100907 -1.0527194 0.048442252 -0.6135602 0.10800708 -0.33548856
0.42451897 0.31247547 0.059247896 0.059111454 0.6175496 -0.22415258 -0.16457668 -0.08813363
0.60766613 -0.6203201 -0.5547814 1.0065297 -0.21274295 -0.5432552 -0.23675764 0.043770757
0.5194127 -0.113099016 -0.3197594 0.581247 -0.8437397 0.83406484 -0.35675615 0.030642191
-0.37664932 0.35281208 -0.3293839 -0.3043179 -0.3902477 0.36726543 -0.19735433 -0.3174133
-0.31401935 0.586326 -0.4627953 -0.5341346 -0.045360632 -0.34949392 -0.5381706 0.49032655
0.56865036 -0.07185181 0.01196431 -0.56867623 -0.17763299 0.4507266 -0.29837272 0.6247673
0.24545397 1.3604983 0.5219653 0.2868481 -0.15290752 0.39097106 -0.11904379 0.5827075
-0.20632538 0.5876156 -0.0060858144 0.4124687 0.8492058 0.6656273 -0.293903 -0.48684224
0.07571353 0.082433015 0.40496105 0.9425965 -0.03765199 -0.1994818 -0.33667147 0.22980668
-0.6197012 0.45702 0.51922464 -0.44958827 -0.1598901 -0.37309897 -0.22228643 0.013526512
-0.0012567164 -0.08632341 0.25485188 0.34319 0.53042394 -0.10971217 -0.87171996 -0.08800876
-0.0064241346 0.12871245 -0.08099719 0.25870413 0.07619933 0.8050121 0.13149148 0.1500262
0.6670108 -0.24449937 -0.40283954 0.62448 -0.6610424 0.1354203 0.24911426 0.17469339
-0.6921208 -0.5314188 -0.021800572 -0.124550186 0.177443 0.8663656 -0.73206776 -0.17781009
0.18328944 -0.46199042 -0.1082759 -0.4159977 0.13904984 -0.2310082 -0.20073254 1.0479553
0.78732574 -0.30994833 0.23123534 -0.18481418 0.54514456 0.08139656 0.29980603 0.40446234
0.70945066 0.07902234 0.55744535 0.009498752 0.8050908 -0.32543465 -0.560152 0.36312693
0.053624127 -0.8492897 0.05297906 0.4781811 0.22573757 0.17781675 0.7525826 0.10897392
0.37186903 -0.14579658 0.33939576 -0.11413884 0.36887312 0.18832384 -0.45521286 -0.07810072
0.60410416 0.73982334 -0.30139503 0.70416427 0.19971228 0.21393895 0.51661754 0.13357161
-0.18311438 0.2507201 -0.14044984 -0.6849402 -1.0103359 -0.11413676 0.42703 0.5510953
-0.49820787 0.0024741725 -0.28901634 0.294068 -0.46477714 -1.1406584 -0.025808057 -0.07615033
-0.13863316 1.0175873 0.31634757 0.09199335 0.9332787 0.38098022 -0.28200012 0.6746377
0.12540478 -0.29685423 -0.46170685 0.0047117686 -0.49343795 -0.99494374 -0.013780369 0.010284888
00000000: 028b 3abe a861 21bd 5d51 b8bd 91f6 17be
00000010: 4a63 ca3e d42a 58bf 9176 63bc ab50 7bbd
00000020: 3c1a 343f c86f 28bf 4ce6 3c3f 03d9 4fbe
00000030: da96 443e 1bb8 123e ac71 a7be 6588 6ebf
00000040: 49a7 18bf f378 2b3e 001b 043e f1fc 1d3f
00000050: db66 193f 32a9 eabe 0641 cc3d 307b 8ebc
00000060: 5493 113e 9690 d73e 8453 a93d b89a 57be
00000070: 5b43 45bf 0a8c 4a3e eede 61be 6663 5abe
00000080: f19e ebbe 1acb 333e 6da1 a0be ff97 823e
00000090: 7394 4abf 45cb 8b3f 869d a0be 8ac0 5bbe
000000a0: a0f9 923b 930d 453f 15e6 3a3f 7b19 1fbf
000000b0: f477 56be 56eb a53d 9699 723e 24dc 42bf
000000c0: 66b3 e1bd 9386 ee3e 0823 53bf 243f 1f3f
000000d0: 5511 fdbe 9381 0e3f 121a 64be b4d3 9dbc
000000e0: 9a4a 513f b887 5bbf 927f 4a3f 82bf 86bf
000000f0: 626b 463d 4812 1dbf d132 dd3d 28c5 abbe
00000100: 8d5a d93e c9fc 9f3e ecad 723d da1e 723d
00000110: bb17 1e3f 4188 65be ca86 28be 687f b4bd
00000120: 0290 1b3f 4ccd 1ebf 2706 0ebf f7d5 803f
00000130: 4ad9 59be c612 0bbf 9870 72be f748 333d
00000140: 3bf8 043f 75a0 e7bd 81b7 a3be 9acc 143f
00000150: 53ff 57bf 4685 553f bea8 b6be 5505 fb3c
00000160: 2ed8 c0be c9a3 b43e 02a5 a8be 8ecf 9bbe
00000170: 8cce c7be 370a bc3e 4117 4abe ff83 a2be
00000180: 25c7 a0be 7619 163f 81f3 ecbe 0cbd 08bf
00000190: 12cc 39bd def0 b2be 8cc5 09bf 150c fb3e
000001a0: 1293 113f 0b27 93bd f405 443c c494 11bf
000001b0: 6ce5 35be a3c5 e63e 4fc4 98be c0f0 1f3f
000001c0: 4958 7b3e cf24 ae3f 859f 053f c1dd 923e
000001d0: ca93 1cbe 5c2d c83e 3bcd f3bd 522c 153f
000001e0: f646 53be fa6d 163f 836b c7bb 192f d33e
000001f0: 8d65 593f 8d66 2a3f 747a 96be 6343 f9be
00000200: b20f 9b3d a4d2 a83d 0e57 cf3e 014e 713f
00000210: f938 1abd f544 4cbe 3460 acbe 7152 6b3e
00000220: bda4 1ebf 87fe e93e e8eb 043f 6f30 e6be
00000230: 3bba 23be d406 bfbe 0e9f 63be 4e9e 5d3c
00000240: 68b8 a4ba 54ca b0bd f27b 823e 9ab6 af3e
00000250: ddc9 073f c6b0 e0bd 0a29 5fbf f03d b4bd
00000260: 8c81 d2bb 32cd 033e dbe1 a5bd de74 843e
00000270: 650e 9c3d 4615 4e3f b4a5 063e 78a0 193e
00000280: 38c1 2a3f 0b5e 7abe fc40 cebe ecdd 1f3f
00000290: 133a 29bf 9eab 0a3e cf17 7f3e d3e2 323e
000002a0: d42e 31bf 100b 08bf 1d97 b2bc 2b14 ffbd
000002b0: 9eb3 353e 23ca 5d3f cb68 3bbf d913 36be
000002c0: 3ab0 3b3e 028a ecbe c1bf ddbd a7fd d4be
000002d0: 1563 0e3e 6a8d 6cbe d58c 4dbe 6623 863f
000002e0: 2e8e 493f 8cb1 9ebe f5c8 6c3e ee3f 3dbe
000002f0: 988e 0b3f 3db3 a63d 2d80 993e b015 cf3e
00000300: 8f9e 353f 77d6 a13d bdb4 0e3f a7a0 1b3c
00000310: 6e1a 4e3f 5f9f a6be 1f66 0fbf c6eb b93e
00000320: f9a4 5b3d 0d6b 59bf 9200 593d 27d4 f43e
00000330: c027 673e 9815 363e 41a9 403f b82d df3d
00000340: 9e65 be3e b34b 15be 48c5 ad3e a0c1 e9bd
00000350: f0dc bc3e f7d7 403e a911 e9be 45f3 9fbd
00000360: 92a6 1a3f 1065 3d3f 7350 9abe 1c44 343f
00000370: 6081 4c3e d012 5b3e 0c41 043f ffc6 083e
00000380: 5682 3bbe 635e 803e 15d2 0fbe 3e58 2fbf
00000390: b052 81bf 89c0 e9bd ada3 da3e 9514 0d3f
000003a0: 1a15 ffbe ba25 223b f3f9 93be 1590 963e
000003b0: 45f7 edbe 1801 92bf 6b6b d3bc b4f4 9bbd
000003c0: daf5 0dbe 4d40 823f 4ff8 a13e 0267 bc3d
000003d0: 5aeb 6e3f d70f c33e 5262 90be 0eb5 2c3f
000003e0: 1c6a 003e 47fd 97be d764 ecbe 2e65 9a3b
000003f0: e6a3 fcbe a2b4 7ebf 0fc7 61bc f281 283c

weight_hh_l0 f4 [40, 10]
-0.7430397 -0.48719752 0.76224744 -0.83973783 0.1670948 0.56623536 -0.47819796 -0.74818295
-0.009629359 0.75647944 0.49465185 0.23945238 0.35059276 -0.11463628 -0.17654732 -0.30702147
-0.26333728 0.41767216 0.44202003 0.041237384 0.22999765 -1.096595 0.17315347 -2.4787517
-1.9308333 -0.4895861 -0.9457766 0.55933803 0.52901775 1.4919684 0.08252067 0.33639133
0.39690644 -0.7965806 -0.39425164 0.8766013 0.071269296 0.28179574 0.115462385 0.40002635
-0.03446266 0.009664803 -0.14736018 -0.5506352 -0.45581833 0.95889443 0.5208893 -0.8649445
0.12932919 -0.0043369895 -2.0067859 -1.3433622 1.2631438 -4.783339 -2.8097184 1.0807178
-1.9117664 0.4841188 -1.1087584 2.1799104 0.6773815 0.6786369 0.52642435 0.13740405
0.007668152 1.0586535 0.5263268 -0.26318926 -0.20284423 1.041957 -0.23737425 0.18682949
0.4109595 -3.03194 -1.4717987 1.3010706 -0.48905185 0.41707206 -0.7601209 1.8873634
-0.27080762 -0.35975844 0.6437109 -1.7549254 -0.83222985 0.76333654 -0.16343206 -0.7038127
-0.23815307 0.09646619 0.12155537 0.5816081 0.41995513 -0.42779398 0.5102148 -0.075466126
-0.53918344 0.38589954 0.15103635 -0.012088112 0.5196925 0.74411976 -0.12483645 0.1301714
-0.09739138 0.7315781 0.23142204 -0.20222883 -0.37146786 -1.4285042 0.52492535 -0.2946679
-0.2980967 -0.9629058 0.5180127 -1.3905399 -0.60020447 -0.115841344 0.2542998 -0.2977224
0.16311724 -0.05195107 0.6222055 0.7258957 -0.613473 0.636308 0.06640948 0.47089863
-0.47503966 -1.8349777 0.25332442 0.100171134 -0.9574386 0.71093583 0.8571591 -0.4890842
0.037883326 -0.69192314 -0.4431736 -0.7049747 0.16725956 0.266289 0.43585476 0.47012928
0.44097057 0.59261453 0.21503215 0.14209692 -0.53402007 -0.25804344 -0.30122402 0.019679364
0.7552239 0.8273549 -0.045854516 0.09245963 0.97997534 1.5536621 -0.7405462 -3.21313
-0.033884298 0.25227785 0.3406693 0.9703529 0.7510423 0.07455704 0.5101303 0.032083046
-1.0760373 -1.1818266 0.78104454 0.5713639 -0.740407 0.7134976 0.8662569 -1.526696
0.72631735 -0.7860359 0.30591086 -1.9469281 -0.39106598 -1.3641511 -0.05329856 0.080347516
1.0290085 -0.3763634 1.1341287 -0.14588578 0.2171159 -0.0064655636 0.27939278 0.22285572
-0.5772448 0.63773644 0.20558389 -0.52840805 -0.61942816 0.00422314 -0.14580843 -0.90191
-0.22742972 -0.45486298 -0.40551797 -0.012850058 -1.1411401 0.3252823 -0.7341482 0.17680919
1.2323804 -0.36477095 1.1378114 -0.42932153 0.11292298 2.5348716 0.7665554 0.25218198
-0.9050135 -0.21310912 -0.53561395 0.21244723 0.5281395 1.4743451 -0.3279851 -0.60992754
1.6742977 1.1997848 -0.90825593 -2.296843 -0.9557342 0.21407591 0.8748564 -0.9757523
0.043400276 -0.3123365 0.14592569 -1.4129008 0.69884104 -0.3717976 -0.6558329 -1.4652313
0.9189395 0.4558747 0.8635242 -0.85425115 0.055992067 1.6417037 -0.74759114 -0.38196096
-1.1600788 -0.82213867 0.3255463 0.79992557 0.8511077 -0.7332022 -0.8921721 -0.9523485
00000000: da37 3ebf f471 f9be a622 433f 0ff9 56bf
00000010: e61a 2b3e cdf4 103f 5dd6 f4be eb88 3fbf
00000020: 75c4 1dbc a3a8 413f 0243 fd3e 0133 753e
00000030: e580 b33e 6dc6 eabd d2c8 34be eb31 9dbe
00000040: 25d4 86be 20d9 d53e 7350 e23e 88e8 283d
00000050: 8184 6b3e 3a5d 8cbf 254f 313e dea3 1ec0
00000060: 8c25 f7bf 08ab fabe 6a1e 72bf c730 0f3f
00000070: b56d 073f d2f8 be3f 9900 a93d 7c3b ac3e
00000080: 5237 cb3e b5ec 4bbf 5adb c9be f168 603f
00000090: a3f5 913d 8847 903e 8b77 ec3d 41d0 cc3e
000000a0: b828 0dbd 1f59 1e3c 96e5 16be 6ef6 0cbf
000000b0: 0561 e9be 1b7a 753f 0059 053f 016d 5dbf
000000c0: df6e 043e 4e1d 8ebb 2e6f 00c0 4bf3 abbf
000000d0: b2ae a13f 1d11 99c0 6dd2 33c0 f654 8a3f
000000e0: c3b4 f4bf 6bde f73e cceb 8dbf a783 0b40
000000f0: e068 2d3f 26bb 2d3f bfc3 063f a6b3 0c3e
00000100: 1f45 fb3b f581 873f 5abd 063f bec0 86be
00000110: 66b6 4fbe d95e 853f 3c12 73be 3b50 3f3e
00000120: 4969 d23e 4e0b 42c0 e663 bcbf 7b89 a63f
00000130: 0165 fabe 788a d53e 4997 42bf 2095 f13f
00000140: 4ca7 8abe 4232 b8be 3dca 243f 65a1 e0bf
00000150: 040d 55bf 066a 433f bc5a 27be 122d 34bf
00000160: 66de 73be 1190 c53d 06f2 f83d 45e4 143f
00000170: 5c04 d73e d007 dbbe 709d 023f fc8d 9abd
00000180: ed07 0abf a094 c53e 46a9 1a3e 370d 46bc
00000190: 910a 053f a27e 3e3f 41aa ffbd a74b 053e
000001a0: 2275 c7bd b448 3b3f e6f9 6c3e 1315 4fbe
000001b0: 0931 bebe 3ad9 b6bf 8261 063f b6de 96be
000001c0: 21a0 98be ff80 76bf 7b9c 043f 36fd b1bf
000001d0: 00a7 19bf 3a3e edbd 9533 823e 126f 98be
000001e0: 3508 273e a5ca 54bd dc48 1f3f 4dd4 393f
000001f0: 910c 1dbf 15e5 223f b201 883d a019 f13e
00000200: 6638 f3be 8de0 eabf bdb3 813e 8626 cd3d
00000210: b21a 75bf e4ff 353f c76e 5b3f 3f69 fabe
00000220: 8c2b 1b3d e021 31bf a6e7 e2be 3979 34bf
00000230: 1746 2b3e 0857 883e 5b28 df3e c9b4 f03e
00000240: e5c6 e13e 96b5 173f 6331 5c3e db81 113e
00000250: 8ab5 08bf 451e 84be 093a 9abe 9e36 a13c
00000260: 5a56 413f 88cd 533f f2d1 3bbd 795b bd3d
00000270: aadf 7a3f 66de c63f 7094 3dbf eca3 4dc0
00000280: 43ca 0abd 902a 813e 356c ae3e 0c69 783f
00000290: 4f44 403f 5db1 983d e697 023f 8369 033d
000002a0: 97bb 89bf 1846 97bf 89f2 473f e844 123f
000002b0: 508b 3dbf c7a7 363f 03c3 5d3f c66a c3bf
000002c0: efef 393f a639 49bf 59a0 9c3e f134 f9bf
000002d0: cd39 c8be 819c aebf 974f 5abd 3d8d a43d
000002e0: 8db6 833f b4b2 c0be 212b 913f 1563 15be
000002f0: a153 5e3e 14dd d3bb 920c 8f3e 4a34 643e
00000300: 51c6 13bf b242 233f 9584 523e c045 07bf
00000310: d892 1ebf 4462 8a3b ce4e 15be 93e3 66bf
00000320: 56e3 68be cde3 e8be 0da0 cfbe 0d89 52bc
00000330: e110 92bf 678b a63e 23f1 3bbf 780d 353e
00000340: a4be 9d3f 42c3 babe cea3 913f 08d0 dbbe
00000350: 2a44 e73d 563b 2240 fa3c 443f ff1d 813e
00000360: f7ae 67bf 4739 5abe ff1d 09bf c48b 593e
00000370: 2634 073f 57b7 bc3f aaed a7be 3624 1cbf
00000380: 634f d63f 8c92 993f 7683 68bf 7aff 12c0
00000390: ffaa 74bf b736 5b3e 97f6 5f3f e7ca 79bf
000003a0: 7dc4 313d 92ea 9fbe 8b6d 153e efd9 b4bf
000003b0: 3fe7 323f 415c bebe aae4 27bf b38c bbbf
000003c0: 9e3f 6b3f 6968 e93e ec0f 5d3f 34b0 5abf
000003d0: f057 653d 5923 d23f 2262 3fbf 6390 c3be
000003e0: 767d 94bf ae77 52bf 01ae a63e ecc7 4c3f
000003f0: 32e2 593f 24b3 3bbf 6465 64bf 1ccd 73bf

bias_ih_l0 f4 [40]
-0.96916676 -0.4265829 -1.8403001 -0.14057818 -0.75412846 -2.0955756 -0.70470524 -1.7012676
-0.92203236 -0.8630682 0.38680884 0.046755366 0.5137334 -0.105593786 0.50704396 0.571919
0.5149868 0.67441905 0.2756434 0.48380595 0.012677245 -0.5529616 -0.50680053 -0.47977307
1.1741923 -0.8010939 -0.23684512 -1.0932281 0.5991819 0.43860373 0.1719276 -0.15180236
-0.0658853 -0.026519476 0.0007999828 0.40522498 -0.26611188 0.08773825 -0.22428322 0.15822436
00000000: 501b 78bf 1369 dabe f48e ebbf baf3 0fbe
00000010: 900e 41bf e91d 06c0 9067 34bf 23c3 d9bf
00000020: 500a 6cbf 0af2 5cbf cf0b c63e 8e82 3f3d
00000030: 0884 033f 8e41 d8bd a2cd 013f 4969 123f
00000040: 2dd6 033f baa6 2c3f 2221 8d3e 6ab5 f73e
00000050: 38b4 4f3c e48e 0dbf aebd 01bf d1a4 f5be
00000060: ef4b 963f 7d14 4dbf 8787 72be e6ee 8bbf
00000070: fc63 193f ab90 e03e ca0d 303e 1472 1bbe
00000080: dfee 86bd 5f3f d9bc f0b5 513a a679 cf3e
00000090: d13f 88be 1db0 b33d 80aa 65be 9105 223e

bias_hh_l0 f4 [40]
-1.3527014 -0.68271583 -2.138978 -0.25724402 -0.73757637 -2.3290098 -0.75141275 -1.5900978
-0.9961916 -0.6782726 0.40531465 0.15781063 0.9095156 -0.15057193 0.045164518 0.690872
0.5404322 0.6884291 0.58781815 0.44418478 0.25471717 -0.07285822 -0.7174481 -0.0029997453
1.1255478 -0.8737295 -0.18047148 -1.100364 1.2168906 0.2665946 0.29953393 -0.25166947
-0.34513947 0.18086259 -0.020983089 0.059548814 -0.18819264 -0.18394965 -0.04536789 0.19953446
00000000: 5225 adbf 77c6 2ebf 04e5 08c0 7db5 83be
00000010: ced1 3cbf 7f0e 15c0 965c 40bf 5388 cbbf
00000020: 6a06 7fbf 46a3 2dbf 6785 cf3e 1c99 213e
00000030: 04d6 683f 872f 1abe 6efe 383d fddc 303f
00000040: c459 0a3f e43c 303f 407b 163f 306c e33e
00000050: 4a6a 823e b136 95bd aeaa 37bf 6097 44bb
00000060: f311 903f bdac 5fbf 84cd 38be bad8 8cbf
00000070: 12c3 9b3f 167f 883e 835c 993e d2da 80be
00000080: 1fb6 b0be 0b34 393e bae4 abbc 75e9 733d
00000090: 92b5 40be 4c5d 3cbe aed3 39bd c352 4c3e

weight f4 [2, 10]
1.6167526 0.49649805 -1.8927966 -1.4350007 0.19658928 -2.8802242 -2.2376735 1.5783744
1.5367808 -1.26362 -2.6801136 -3.1829352 2.0930836 0.19741315 0.43629727 3.6926594
0.7106985 -2.825568 -1.39786 0.24038777
00000000: c0f1 ce3f fe34 fe3e 2947 f2bf 1aae b7bf
00000010: b34e 493e 9855 38c0 0b36 0fc0 2c08 ca3f
00000020: 3cb5 c43f 4dbe a1bf fb86 2bc0 36b5 4bc0
00000030: 15f5 0540 ac26 4a3e 5b62 df3e 8854 6c40
00000040: 56f0 353f 1bd6 34c0 14ed b2bf 3628 763e

bias f4 [2]
1.0856663 1.6303983
00000000: 1df7 8a3f e4b0 d03f
